cache/2d_gm/smcusum/model_2/iter_7.pth (torch, 42952 bytes, 4 tensors)

fc.0.linear.weight f4 [2048, 2]
0.42357576 0.3968978 0.62599003 0.14035724 -0.093619905 0.007048093 -0.0037622296 0.036289826
0.01847284 -0.09223546 0.086289205 0.007932351 -0.3774673 0.07598187 -0.29393432 0.0006883238
0.37062567 -0.78644615 0.4608954 -0.32628688 -0.057602115 -0.05068169 0.5201173 -0.42614216
-0.8011858 -0.542514 0.30101025 -0.23969032 0.018755289 0.100140385 0.03957608 0.58903146
0.401289 -0.67095274 -0.6891773 -0.47614026 -0.48672605 -0.051017806 -0.24247435 -0.57004666
0.08702617 0.004402884 -0.19008036 0.27622724 -0.088853925 0.03385046 -0.25212535 0.33286744
0.5026916 0.06331026 0.54748636 0.15510347 -0.16755958 0.47266147 0.053688664 0.037218202
-0.043751743 0.4312653 -0.25469854 -0.039508116 -0.52681226 -0.45755008 0.37924188 -0.24513578
-0.07720141 0.56209177 0.27511463 0.018737439 0.5903794 -0.10946668 0.6209699 0.5466634
-0.70935875 0.12403565 0.26253423 0.27931458 0.6692481 0.6434014 -0.07118745 0.00753911
-0.23774822 -0.36747798 -0.014452796 0.08059242 -0.036750115 0.1181495 -0.44881147 -0.38972598
-0.60161966 -0.045469664 0.41859883 0.41485384 0.61417514 0.6540656 -0.37142378 0.00540176
-0.3293119 -0.44329718 0.56681657 -0.58264714 -0.66624457 -0.4339706 0.508939 -0.56313056
0.23331715 -0.4641655 0.16890739 0.3083494 -0.33316466 -0.0115433205 -0.45137465 0.72953415
-0.2829372 -0.48244703 -0.02212113 0.093242556 -0.45854685 0.44507104 -0.00011354451 -0.66553503
0.35219857 0.23344623 0.24620251 -0.07015551 -0.24794637 -0.2523454 0.30902138 0.5328317
0.1681469 -0.2646943 0.5844601 0.06649006 -0.32936433 0.19581313 0.17898938 -0.050043818
-0.20310602 -0.29323575 0.4500897 0.7160475 -0.21616803 0.28608277 0.13053545 0.03595691
-0.5916123 0.35592705 0.0047638565 -0.67737144 -0.092631266 -0.11444033 0.32378703 -0.68849015
0.25610888 -0.52892655 0.53209096 -0.33642775 -0.41965482 -0.3159904 -0.05774777 -0.05273743
-0.45711276 -0.40208682 -0.14832413 0.39603505 0.09764138 0.4721417 -0.10671279 -0.0035344036
0.23711665 -0.029295033 -0.6721451 -0.4790567 -0.2924192 0.12730016 -0.45779338 -0.07170348
-0.74196243 -0.16498148 -0.3217704 -0.51752 0.47933272 0.11218956 -0.23766316 0.6495744
0.5745632 0.15030377 0.006710304 0.5369033 0.01826239 0.011415069 -0.009871503 0.07773342
0.57195705 0.6164306 -0.4783179 0.15803161 0.077911034 0.09591226 0.4521086 0.40676123
-0.78479546 0.15805326 -0.0021121905 0.0031971089 -0.6601157 0.5162278 0.17842291 -0.5345494
0.62580985 0.53435963 -0.6597182 -0.08905836 -0.6170871 -0.15285614 0.038978912 -0.5025736
-0.46451956 -0.06579921 0.55728805 0.5584709 0.6492682 0.13674012 -0.58537716 0.38919115
-0.14360142 0.13624485 0.66892415 -0.4800121 0.004286909 -0.6555036 -0.14558119 -0.12628356
0.016090726 0.61391485 0.7095803 0.54597366 -0.005224105 0.42715627 -0.0719008 -0.056424767
-0.21881427 -0.40626717 -0.088214226 -0.025400406 -0.40545452 0.19377205 0.1385653 -0.21917334
-0.62344736 -0.17482683 -0.0003139553 0.022343861 0.3019001 -0.1704703 -0.16971056 -0.34385076
00000000: ecde d83e 3036 cb3e e240 203f cfb9 0f3e
00000010: cbbb bfbd b0f3 e63b bd8f 76bb a4a4 143d
00000020: 5a54 973c f2e5 bcbd 65b8 b03d b1f6 013c
00000030: 6543 c1be 629c 9b3d 8f7e 96be a170 343a
00000040: a6c2 bd3e 8954 49bf 7bfa eb3e 130f a7be
00000050: 32f0 6bbd 9b97 4fbd 6826 053f 4e2f dabe
00000060: 831a 4dbf 33e2 0abf 041e 9a3e 6171 75be
00000070: b1a4 993c 6716 cd3d 871a 223d c4ca 163f
00000080: c075 cd3e 8fc3 2bbf ec6d 30bf a8c8 f3be
00000090: 2834 f9be 0cf8 50bd 324b 78be 94ee 11bf
000000a0: c73a b23d 1146 903b 6da4 42be a86d 8d3e
000000b0: 0cf9 b5bd c8a6 0a3d 9316 81be 9a6d aa3e
000000c0: 66b0 003f cfa8 813d 1128 0c3f 72d3 1e3e
000000d0: bd94 2bbe af00 f23e a5e8 5b3d 1d72 183d
000000e0: 0735 33bd cece dc3e d967 82be 43d3 21bd
000000f0: 2bdd 06bf 0144 eabe fe2b c23e e004 7bbe
00000100: c61b 9ebd 3fe5 0f3f d3db 8c3e 427f 993c
00000110: 1b23 173f 1130 e0bd e2f7 1e3f 22f2 0b3f
00000120: 8998 35bf 6706 fe3d e36a 863e 5202 8f3e
00000130: d853 2b3f f4b5 243f baca 91bd a30a f73b
00000140: 4574 73be 1326 bcbe 6ccb 6cbc a40d a53d
00000150: 4a87 16bd 5df8 f13d 9eca e5be 2a8a c7be
00000160: bf03 1abf 663e 3abd 9652 d63e b967 d43e
00000170: 953a 1d3f d870 273f 422b bebe 3f01 b13b
00000180: 929b a8be d9f7 e2be e41a 113f 5d28 15bf
00000190: 018f 2abf 6531 debe d449 023f 5329 10bf
000001a0: b1ea 6e3e 1aa7 edbe 0ff6 2c3e f9df 9d3e
000001b0: 8f94 aabe 3220 3dbc 941a e7be c0c2 3a3f
000001c0: 25dd 90be 4c03 f7be 5f37 b5bc f4f5 be3d
000001d0: a7c6 eabe 5ae0 e33e bf1e eeb8 8160 2abf
000001e0: 5f53 b43e 870c 6f3e 831c 7c3e b1ad 8fbd
000001f0: a7e5 7dbe 6b33 81be 0d38 9e3e a967 083f
00000200: b32e 2c3e 0386 87be 2d9f 153f f12b 883d
00000210: 71a2 a8be 3d83 483e fe48 373e bffa 4cbd
00000220: 06fb 4fbe ff22 96be 2872 e63e e44e 373f
00000230: 275b 5dbe 7179 923e 16ab 053e 8e47 133d
00000240: e773 17bf 123c b63e 201a 9c3b 3768 2dbf
00000250: 76b5 bdbd b15f eabd 6ac7 a53e e440 30bf
00000260: b420 833e bb67 07bf 1d37 083f 4240 acbe
00000270: ffdc d6be 7ec9 a1be ed88 6cbd 3403 58bd
00000280: af0a eabe 53de cdbe 48e2 17be 1bc5 ca3e
00000290: 34f8 c73d 8fbc f13e 3c8c dabd 74a1 67bb
000002a0: b5ce 723e 23fc efbc b411 2cbf eb46 f5be
000002b0: f8b7 95be f95a 023e e563 eabe 46d9 92bd
000002c0: 40f1 3dbf e8f0 28be 17bf a4be 317c 04bf
000002d0: 196b f53e a4c3 e53d f95d 73be 824a 263f
000002e0: 9316 133f 3be9 193e 1ce2 db3b 7f72 093f
000002f0: 029b 953c 4506 3b3c 16bc 21bc b332 9f3d
00000300: c76b 123f 65ce 1d3f 15e6 f4be 0ad3 213e
00000310: d28f 9f3d a66d c43d c77a e73e 0243 d03e
00000320: 5be8 48bf b7d8 213e ad6c 0abb 9686 513b
00000330: 58fd 28bf 8127 043f 7fb4 363e 3bd8 08bf
00000340: 1335 203f cbcb 083f 4be3 28bf 3b64 b6bd
00000350: 6cf9 1dbf 5286 1cbe 5aa8 1f3d aaa8 00bf
00000360: 82d5 edbe bcc1 86bd 6eaa 0e3f f3f7 0e3f
00000370: 7136 263f 9a05 0c3e 47db 15bf 1044 c73e
00000380: 400c 13be c583 0b3e 9d3e 2b3f 25c4 f5be
00000390: 3379 8c3b 15cf 27bf 3c13 15be 7a50 01be
000003a0: b3d0 833c 8629 1d3f 0ea7 353f eec4 0b3f
000003b0: f82e abbb 3ab4 da3e ba40 93bd a81d 67bd
000003c0: d910 60be 4002 d0be a9a9 b4bd 8314 d0bc
000003d0: bc97 cfbe 2e6c 463e 10e4 0d3e fa6e 60be
000003e0: 3f9a 1fbf ce05 33be 5e9a a4b9 790a b73c
000003f0: a692 9a3e c48f 2ebe 9bc8 2dbe 350d b0be

fc.0.linear.bias f4 [2048]
-0.7937425 0.48181298 0.7592014 0.32573947 -0.72335285 -0.6014302 -0.5719675 -0.9083292
-0.028933711 0.63388026 0.68036836 -0.6914664 0.09553172 -0.23598368 -0.8863305 0.7104725
0.22288412 -0.3112479 0.25991058 -0.6955853 0.6802596 -0.020762315 0.22118607 0.69255614
-0.5492188 0.7807617 0.58607066 -0.5394828 -0.72147816 -0.903381 0.21378733 0.14003155
-0.36254826 0.6658205 -0.38642642 0.4298083 0.35442114 -0.1337509 -0.25247306 -0.5974516
-0.9409436 0.66210824 0.89377594 0.98255795 0.07806156 -0.23793417 -0.36497393 -0.9993534
-0.5421214 -0.70500153 -0.36409852 -0.38713238 -0.7512874 -0.18607979 -0.7813027 -0.19537626
0.26301014 0.71770424 0.6120479 0.088219084 -0.6638494 0.34208193 -0.6649907 0.26797324
0.7878112 -0.8000248 0.8763992 -0.663507 -0.515294 -0.34940198 0.28647572 -0.91102743
-0.593798 0.30510944 -0.58237416 0.8028915 -0.32301337 0.4932633 0.59486747 -0.64105517
0.84518796 0.4316393 0.4596164 -0.8527793 0.93349665 -0.72076786 0.7878246 0.9105217
0.09589342 0.5480943 -0.79209197 0.7270529 0.1484339 0.2407796 -0.18142648 0.64171845
-0.31884047 -0.1381433 0.46720842 0.41158718 -0.13205746 0.09304804 0.13973334 -0.599559
-0.24633689 0.28037354 -0.6018059 0.9328936 0.13910432 -0.5159319 0.3600244 -0.26499528
-0.05589728 0.02120412 0.22111923 0.3178842 -0.24501143 -0.28706545 -0.8532276 0.7665162
-0.34803373 -0.77510315 0.46762496 0.8007102 -0.3962185 0.2005116 -0.755407 0.56722474
-0.8769072 0.62359154 0.26347163 0.80407816 -0.64660794 0.18898155 -0.0051212967 0.47226414
0.13759008 0.39686403 0.79739803 -0.009081414 -0.66479 -0.3596636 0.19995502 0.88486606
-0.9147028 -0.5667463 -0.7465952 0.67708844 -0.27189136 0.62729794 -0.52439 0.6107751
-0.23926291 -0.3835166 0.6916981 0.947382 -0.05750356 0.43147925 -0.830832 -0.80911434
-0.13894947 0.83749646 0.22050828 0.38292417 0.121575765 0.67192805 0.48439756 -0.898731
-0.6546733 -0.86080104 0.35042748 0.21880044 -0.15578471 -0.8456944 0.44441107 -0.70723236
-0.9812656 0.25122485 -0.26015076 -0.77087384 -0.14116518 0.5763935 -0.9550881 0.13104331
0.7923626 0.71335 -0.54834026 -0.2069826 -0.6388884 -0.8328289 -0.611236 0.72263706
0.64973915 -0.5016964 0.1078674 -0.47456563 -0.34751987 0.6578067 0.27240404 -0.35587877
-0.7768681 0.2655304 -0.59388316 0.17838389 0.7635542 -0.03609071 -0.39209977 0.1608132
-0.032695096 0.24277104 0.265691 -0.8111343 0.83147794 -0.31993216 0.95754087 -0.25682625
-0.2267208 0.42846936 -0.2285251 0.2086705 -0.52684087 -0.7729291 0.49353313 0.76532084
0.5676659 0.8984153 0.5749229 0.8047097 -0.34894744 0.83217555 0.27346268 -0.15658507
0.68491846 -0.5203391 -0.14772809 -0.5157004 0.9519682 -0.15579219 0.15333691 0.20719306
0.32145274 0.014268791 0.23997265 0.70503664 -0.48776796 0.24486336 -0.78498703 -0.06216723
0.37192723 0.2111784 0.35374647 0.8833871 0.191855 -0.47701526 0.36971438 -0.5331193
00000000: b532 4bbf 31b0 f63e 065b 423f 53c7 a63e
00000010: a72d 39bf 54f7 19bf 766c 12bf 4388 68bf
00000020: 6406 edbc fa45 223f 9f2c 2e3f f103 31bf
00000030: 22a6 c33d b5a5 71be 8ee6 62bf 87e1 353f
00000040: bc3b 643e e25b 9fbe 0013 853e e111 32bf
00000050: 7e25 2e3f bb15 aabc 9a7e 623e 5c4b 313f
00000060: 9a99 0cbf 00e0 473f ba08 163f 8b1b 0abf
00000070: cbb2 38bf fa43 67bf 11eb 5a3e 6e64 0f3e
00000080: ed9f b9be 3673 2a3f afd9 c5be d50f dc3e
00000090: b076 b53e fff5 08be 2644 81be 97f2 18bf
000000a0: aee1 70bf ed7f 293f 80ce 643f eb88 7b3f
000000b0: bdde 9f3d 04a5 73be dddd babe a0d5 7fbf
000000c0: 78c8 0abf fb7a 34bf 1f6b babe 3736 c6be
000000d0: 5f54 40bf b38b 3ebe 7403 48bf b710 48be
000000e0: 44a9 863e 77bb 373f 2caf 1c3f 35ac b43d
000000f0: 09f2 29bf 5d25 af3e d53c 2abf ca33 893e
00000100: ffad 493f 6dce 4cbf b35b 603f 98db 29bf
00000110: 4fea 03bf d1e4 b2be f2ac 923e 1839 69bf
00000120: 2503 18bf 4e37 9c3e 7916 15bf 4c8a 4d3f
00000130: 0262 a5be 028d fc3e 3c49 183f 311c 24bf
00000140: 3d5e 583f d4ff dc3e d752 eb3e bf4f 5abf
00000150: a3f9 6e3f 3e84 38bf dfae 493f f317 693f
00000160: c563 c43d e84f 0c3f 8ac6 4abf 2420 3a3f
00000170: 0eff 173e ed8e 763e ddc7 39be a947 243f
00000180: 0f3f a3be 7075 0dbe f135 ef3e 8ebb d23e
00000190: 123a 07be f98f be3d 4216 0f3e b37c 19bf
000001a0: bd3f 7cbe 1f8d 8f3e f40f 1abf 1dd2 6e3f
000001b0: 5d71 0e3e 1d14 04bf 1e55 b83e 76ad 87be
000001c0: 8cf4 64bd 43b4 ad3c 146d 623e b8c1 a23e
000001d0: 47e4 7abe 3efa 92be 206d 5abf 683a 443f
000001e0: 7a31 b2be 296d 46bf 8a6c ef3e 58fb 4c3f
000001f0: 27dd cabe ea52 4d3e 5a62 41bf a435 113f
00000200: fe7c 60bf b2a3 1f3f c1e5 863e 11d8 4d3f
00000210: 1988 25bf 6184 413e 8dd0 a7bb 9bcc f13e
00000220: 6ae4 0c3e c331 cb3e 4722 4c3f 36ca 14bc
00000230: ad2f 2abf d425 b8be 02c1 4c3e 9586 623f
00000240: f629 6abf 4916 11bf dd20 3fbf ab55 2d3f
00000250: 5835 8bbe 9996 203f 6c3e 06bf c25b 1c3f
00000260: 5601 75be 4a5c c4be 2013 313f a087 723f
00000270: da88 6bbd d9ea dc3e 68b1 54bf 1e22 4fbf
00000280: c548 0ebe 2b66 563f eccc 613e a30e c43e
00000290: b7fc f83d 7a03 2c3f f502 f83e 3c13 66bf
000002a0: ab98 27bf 755d 5cbf 3b6b b33e 390d 603e
000002b0: 0786 1fbe 6e7f 58bf d989 e33e 2e0d 35bf
000002c0: 3934 7bbf 8ba0 803e 7b32 85be fd57 45bf
000002d0: 9b8d 10be 868e 133f a780 74bf 3830 063e
000002e0: 46d8 4a3f 1b9e 363f 0760 0cbf 3ff3 53be
000002f0: 318e 23bf 4634 55bf f679 1cbf befe 383f
00000300: 4e55 263f 2d6f 00bf 95e9 dc3d 44fa f2be
00000310: 20ee b1be 0566 283f 8b78 8b3e be35 b6be
00000320: d4e0 46bf 9af3 873e ba08 18bf 44aa 363e
00000330: 4a78 433f dad3 13bd 4dc1 c8be 37ac 243e
00000340: 4beb 05bd f998 783e a708 883e 7fa6 4fbf
00000350: bddb 543f 26ce a3be 6621 753f bb7e 83be
00000360: 7f29 68be 5660 db3e 7c02 6abe b8ad 553e
00000370: 0bdf 06bf aede 45bf 60b0 fc3e 11ec 433f
00000380: 8d52 113f 8cfe 653f 262e 133f 7401 4e3f
00000390: 3da9 b2be 7509 553f 4d03 8c3e d657 20be
000003a0: d156 2f3f f134 05bf 0846 17be f104 04bf
000003b0: 30b4 733f fd87 1fbe 5a04 1d3e 6b2a 543e
000003c0: 7495 a43e a6c7 693c 64bb 753e 487d 343f
000003d0: b9bc f9be 76bd 7a3e e9f4 48bf 11a3 7ebd
000003e0: 3f6d be3e 273f 583e 421e b53e a825 623f
000003f0: a375 443e 583b f4be 344b bd3e 827a 08bf

fc.1.weight f4 [2, 2048]
-0.05460096 0.023333248 -0.022112194 0.00912985 -0.031660262 -0.037710696 0.05929685 0.025887672
-0.019483982 -0.011591598 -0.03280292 -0.022228157 -0.008767043 0.0041541466 -0.035738084 0.0044896295
0.006477669 0.009146431 -0.0053174715 0.023021536 0.031869497 -0.00052912685 -0.020892391 -0.020982878
-0.007870008 0.012633725 0.032645255 -0.04384071 -0.028639767 0.10256179 0.0024364681 -0.0028363725
-0.0016334348 0.00841475 -0.019905725 0.024028221 -0.0034957335 -0.00045345403 -0.0073215775 0.05741696
0.0100421235 0.004493957 -0.01898031 -0.041535832 0.07923002 0.008309763 0.013128711 0.035693564
0.055104416 -0.019163378 -0.0031262662 0.003572283 -0.045747116 0.02557797 0.046273824 0.050385717
-0.026282746 -0.0071448083 -0.017847039 0.011053971 -0.05748383 0.009916225 -0.002098483 0.0047913063
0.03392124 -0.027639573 -0.029477427 -0.045714527 0.012836192 0.017447721 -0.012752015 -0.04402324
-0.0095111625 -0.016694965 0.0071925414 0.048402995 -3.7803186e-06 0.023645695 -0.09202964 0.020335454
-0.06016697 0.029953463 -0.016802697 0.08068482 0.029062342 0.022561857 -0.0018308905 -0.056885872
-0.0077841715 -0.0077828807 -0.04870785 0.026344787 0.01116734 -0.015189777 -0.024364844 0.031077048
0.018861273 0.021838557 0.010550791 -0.00013134895 -0.011067084 0.030638622 -0.00014172739 0.018317854
0.0008720068 0.0014758676 0.058729727 0.0028212736 0.016814144 -0.02694103 0.03751478 -0.019893073
0.0050344067 -0.01685166 0.009011607 -0.03445912 -0.015671477 -0.023403669 -0.05157591 -0.043854307
0.0346588 0.040061794 0.0020657375 0.032310683 0.027865063 -0.00020291611 -0.05418503 0.007095673
0.0110907415 0.014717565 0.011492041 0.029877646 -0.05761405 -0.021111995 -0.0076709185 -0.03382675
-0.0030458204 -0.028544236 -0.008816953 -0.0056378865 -0.0143586835 0.03316288 0.0070698983 0.05157905
-0.032982253 -0.008947831 -0.03482345 0.020628912 -0.017251596 -0.034164928 -0.02267488 0.033058666
-0.009872966 -0.018823083 0.004427048 0.030064862 -0.017464183 0.0005155993 -0.037638664 -0.037020147
0.004344224 -0.019737607 0.0030569313 -0.0115198055 0.033100374 -0.037618395 0.016133238 0.006710699
-0.016423319 0.025737094 0.007925595 -0.0012131522 0.03646351 -0.019989982 0.042825893 -0.021890696
-0.05651817 -0.020961052 -0.01399563 -0.011015637 -0.0042278618 -0.03742369 -0.055868562 0.0077036475
0.0117057385 -0.022093488 -0.04465234 0.033309314 0.0067548645 0.03597202 0.027598986 -0.016187014
0.022535002 -0.020345086 -0.011482172 0.023802776 -0.004381766 -0.020676892 -0.03310233 -0.050435867
0.014935497 -0.018870598 0.06940914 -0.021007579 -0.01003257 0.010965156 -0.03658333 0.0013678469
-0.002591268 0.0108975675 0.037752576 -0.01579182 -0.05879332 0.011636706 -0.01992741 -0.009335889
-0.042810787 0.029393129 -0.011569036 -0.02057135 0.03181281 0.08732279 0.030511377 -0.016578127
-0.021311821 0.020565793 0.025142316 0.0030587455 0.03475945 -0.025610803 0.009855561 0.007659164
-0.018140437 -0.015700545 -0.019040188 0.016697038 0.019866686 -0.000967627 0.0133383 0.046299633
0.024761539 -0.046271034 0.011509661 0.031745188 -0.011517325 -0.02107474 -0.04233988 0.0061649373
0.021976795 0.006236992 -0.021925872 -0.058649883 -0.0342505 0.0020355205 -0.026261669 -0.01620557
00000000: 42a5 5fbd 5e25 bf3c a224 b5bc 5e95 153c
00000010: 31ae 01bd 8876 1abd 41e1 723d 6212 d43c
00000020: df9c 9fbc b0ea 3dbc 5b5c 06bd d317 b6bc
00000030: a5a3 0fbc 821f 883b 1962 12bd be1d 933b
00000040: a042 d43b eada 153c 2f3e aebb a997 bc3c
00000050: 9789 023d 1ab5 0aba 8526 abbc 49e4 abbc
00000060: 35f1 00bc affd 4e3c 08b7 053d 5192 33bd
00000070: f29d eabc ea0b d23d 27ad 1f3b 6fe2 39bb
00000080: fa18 d6ba 05de 093c 5511 a3bc d5d6 c43c
00000090: ad18 65bb 92bd edb9 d8e9 efbb 0c2e 6b3d
000000a0: b887 243c 0b42 933b 987c 9bbc 7a21 2abd
000000b0: 5943 a23d ac25 083c ce19 573c 6a33 123d
000000c0: 2bb5 613d 84fc 9cbc 0be2 4cbb f71c 6a3b
000000d0: 5461 3bbd e488 d13c 9f89 3d3d 4161 4e3d
000000e0: ea4e d7bc ff1e eabb f433 92bc b71b 353c
000000f0: 2a74 6bbd aa77 223c b486 09bb 6400 9d3b
00000100: 00f1 0a3d 636c e2bc a57a f1bc 283f 3bbd
00000110: e44e 523c 86ee 8e3c d4ed 50bc b751 34bd
00000120: b5d4 1bbc e1c3 88bc 69af eb3b 3842 463d
00000130: 61b1 7db6 9eb4 c13c 097a bcbd 8a96 a63c
00000140: a471 76bd f760 f53c cfa5 89bc 153e a53d
00000150: 2614 ee3c a5d3 b83c 7efa efba 2901 69bd
00000160: 5d12 ffbb 8907 ffbb e281 47bd 06d1 d73c
00000170: 38f7 363c 8bde 78bc c898 c7bc 4b95 fe3c
00000180: f582 9a3c c6e6 b23c 3add 2c3c b7ba 09b9
00000190: b752 35bc d9fd fa3c a89c 14b9 530f 963c
000001a0: 6397 643a e671 c13a 958e 703d 1ee5 383b
000001b0: d1bd 893c 6fb3 dcbc 19a9 193d ccf6 a2bc
000001c0: aaf7 a43b 7e0c 8abc 6ba5 133c 0225 0dbd
000001d0: 7861 80bc 0db9 bfbc 4341 53bd 93a0 33bd
000001e0: 63f6 0d3d d617 243d 5361 073b 3558 043d
000001f0: 4645 e43c e1c5 54b9 1ff1 5dbd d282 e83b
00000200: f1b5 353c f121 713c 1d49 3c3c f7c1 f43c
00000210: b6fc 6bbd 10f3 acbc 545c fbbb eb8d 0abd
00000220: 639c 47bb 9ad5 e9bc fb74 10bc 05be b8bb
00000230: af40 6bbc cdd5 073d 9baa e73b 8e44 533d
00000240: 6618 07bd ec99 12bc 09a3 0ebd f7fd a83c
00000250: 3853 8dbc 86f0 0bbd acc0 b9bc 8668 073d
00000260: 39c2 21bc de32 9abc c510 913b 964a f63c
00000270: 0c11 8fbc 4929 073a 002b 1abd 70a2 17bd
00000280: fe59 8e3b c3b0 a1bc cc56 483b 91bd 3cbc
00000290: 4294 073d bf15 1abd da29 843c 6ce5 db3b
000002a0: 328a 86bc 99d6 d23c 5bda 013c a202 9fba
000002b0: c35a 153d 08c2 a3bc 346a 2f3d 1e54 b3bc
000002c0: 997f 67bd 83b6 abbc ed4d 65bc ee7a 34bc
000002d0: e089 8abb 9549 19bd 6fd6 64bd e16e fc3b
000002e0: 6dc9 3f3c 67fd b4bc 5fe5 36bd 596f 083d
000002f0: e957 dd3b 6657 133d 4517 e23c a19a 84bc
00000300: 539b b83c bdaa a6bc b81f 3cbc 0afe c23c
00000310: eb94 8fbb 9662 a9bc 4f96 07bd d795 4ebd
00000320: 04b4 743c 8396 9abc 6126 8e3d 1618 acbc
00000330: a65f 24bc 33a7 333c 67d8 15bd 5349 b33a
00000340: 43d2 29bb b68b 323c 72a2 1a3d d95d 81bc
00000350: 44d1 70bd e2a7 3e3c cf3e a3bc 8ef5 18bc
00000360: 5d5a 2fbd dcc9 f03c 0e8c 3dbc 3f85 a8bc
00000370: 264e 023d 4ad6 b23d fff2 f93c dace 87bc
00000380: 2196 aebc 9879 a83c 42f7 cd3c 3c75 483b
00000390: ed5f 0e3d bfcd d1bc 3879 213c b9f9 fa3b
000003a0: 419b 94bc 6e9e 80bc 2bfa 9bbc 3ac8 883c
000003b0: 76bf a23c 59a8 7dba e388 5a3c afa4 3d3d
000003c0: b6d8 ca3c b286 3dbd 0493 3c3c 3e07 023d
000003d0: 2ab3 3cbc efa4 acbc 956c 2dbd 3e03 ca3b
000003e0: ae08 b43c ae5f cc3b e39d b3bc dc3a 70bd
000003f0: 414a 0cbd 5e66 053b b622 d7bc 8bc1 84bc

fc.1.bias f4 [2]
0.037823338 0.014024209
00000000: a5ec 1a3d ccc5 653c
