cache/2d_gm/smcusum/model_2/iter_5.pth (torch, 42952 bytes, 4 tensors)

fc.0.linear.weight f4 [2048, 2]
0.46971664 0.42955872 0.67027736 0.09987694 -0.095475905 0.0047051697 -0.0016670233 0.038979363
0.010473514 -0.11353204 0.20821743 0.07344362 -0.4292451 0.098259516 -0.35489792 0.003654833
0.29878843 -0.7988203 0.47464728 -0.32167733 -0.060005426 -0.05218475 0.5517924 -0.45035908
-0.7842083 -0.56796956 0.3110965 -0.24601021 0.03634466 0.17345677 0.03659862 0.6293469
0.38795212 -0.6772925 -0.6626739 -0.5335054 -0.5032174 -0.067224085 -0.24131763 -0.6133597
0.18295695 0.005977791 -0.18159358 0.2892901 -0.15243024 0.026387516 -0.29380202 0.3658114
0.53501534 0.060440473 0.56764746 0.19449522 -0.17978121 0.49417868 0.053688664 0.037218202
-0.048378408 0.4779627 -0.35233188 -0.12957391 -0.47911924 -0.46924168 0.38341543 -0.24373364
-0.02525569 0.6021652 0.3197217 0.018575393 0.6065698 -0.14309996 0.59221375 0.6169719
-0.71951145 0.14716536 0.24451436 0.26376802 0.64089495 0.6484372 -0.07118745 0.00753911
-0.22385019 -0.46378875 -0.0135933 0.08310813 -0.099277295 0.2274582 -0.4927881 -0.43872535
-0.5555122 -0.0040416354 0.39500117 0.42056486 0.5523694 0.6379195 -0.45619538 0.05440315
-0.36668655 -0.48500144 0.6028523 -0.58931506 -0.66628796 -0.4561894 0.48185503 -0.5597154
0.28513896 -0.49564505 0.17247392 0.3074509 -0.42182714 -0.079926275 -0.48267928 0.69420666
-0.21752015 -0.53604394 -0.06107683 0.18105695 -0.47884676 0.46907833 0.0829524 -0.6320852
0.42988002 0.24964431 0.2722226 -0.07996029 -0.33190024 -0.28201428 0.27272806 0.52974564
0.20301452 -0.32552615 0.63331705 0.07209346 -0.38457888 0.28544435 0.2569426 -0.096119344
-0.2123966 -0.34364966 0.4455156 0.65967435 -0.20914133 0.30621696 0.24977654 0.117028676
-0.61001676 0.36228374 -0.08658409 -0.6828468 -0.19422637 -0.16749322 0.3647164 -0.71232396
0.2214725 -0.5559724 0.5311533 -0.40080592 -0.47926858 -0.28822026 -0.06418258 -0.060709972
-0.5006917 -0.4213545 -0.14524059 0.39270696 0.107498236 0.4922015 -0.12405626 -0.020220831
0.34027418 -0.11790205 -0.6814876 -0.5352068 -0.34024456 0.13187967 -0.52538586 -0.061527405
-0.7293885 -0.1911113 -0.32826492 -0.55515546 0.5456711 0.10309282 -0.2689667 0.67290497
0.5884045 0.10182823 -0.06173341 0.5427485 0.01826239 0.011415069 -0.0052719302 0.08483181
0.49388343 0.599526 -0.4957278 0.14281744 0.11917022 0.14675634 0.43736044 0.45200562
-0.7674475 0.18717612 0.0008826137 0.004973537 -0.6258218 0.5266309 0.21143964 -0.5730714
0.6114366 0.54010046 -0.6621755 -0.111151345 -0.65101546 -0.14025302 0.041072402 -0.5599779
-0.44938 -0.06558244 0.6102955 0.5376059 0.6761992 0.06602957 -0.573511 0.3850714
-0.14222634 0.12986124 0.6964167 -0.42898917 0.04368802 -0.63027394 -0.16321938 -0.16807352
0.104908764 0.60159045 0.72332674 0.5297972 0.016573682 0.48667815 -0.15926437 -0.12708779
-0.21717046 -0.4280015 -0.088214226 -0.025400406 -0.40384 0.21019225 0.1407431 -0.31297204
-0.6399223 -0.17424534 -0.011838055 0.0736293 0.3492218 -0.2756987 -0.19878022 -0.37321606
00000000: b37e f03e 1fef db3e 4c97 2b3f 488c cc3d
00000010: df88 c3bd d32d 9a3b 0580 daba d3a8 1f3d
00000020: 1a99 2b3c 7c83 e8bd f336 553e 9c69 963d
00000030: 04c6 dbbe 493c c93d 2eb5 b5be ec85 6f3b
00000040: ccfa 983e 7d7f 4cbf f804 f33e e4b2 a4be
00000050: 40c8 75bd adbf 55bd 4442 0d3f 7795 e6be
00000060: e0c1 48bf 7466 11bf 0a48 9f3e 1aea 7bbe
00000070: 23de 143d a79e 313e 6fe8 153d e11c 213f
00000080: a9a1 c63e 0b63 2dbf ffa4 29bf cf93 08bf
00000090: dbd2 00bf c8ac 89bd f81b 77be 2405 1dbf
000000a0: 1159 3b3e 58e1 c33b abf3 39be d51d 943e
000000b0: ac16 1cbe a22a d83c 386d 96be a24b bb3e
000000c0: c4f6 083f 6e90 773d 5851 113f c129 473e
000000d0: 9118 38be fd04 fd3e a5e8 5b3d 1d72 183d
000000e0: 7028 46bd 87b7 f43e d864 b4be 06af 04be
000000f0: 1e4f f5be 7240 f0be 074f c43e 5095 79be
00000100: 05e5 cebc 8027 1a3f 90b2 a33e 6c2b 983c
00000110: 2948 1b3f cc88 12be 529b 173f dff1 1d3f
00000120: e731 38bf 84b2 163e f961 7a3e 9a0c 873e
00000130: b111 243f fbff 253f baca 91bd a30a f73b
00000140: fc38 65be b875 edbe 6fb6 5ebc 9834 aa3d
00000150: e551 cbbd cdea 683e b94e fcbe 9ca0 e0be
00000160: 0c36 0ebf b26f 84bb 983d ca3e 4754 d73e
00000170: 1568 0d3f b14e 233f 7192 e9be d6d5 5e3d
00000180: 57be bbbe 1c52 f8be 8754 1a3f 5add 16bf
00000190: d991 2abf a891 e9be b4b5 f63e 8249 0fbf
000001a0: bcfd 913e 30c5 fdbe 019d 303e 346a 9d3e
000001b0: baf9 d7be 63b0 a3bd bd21 f7be 87b7 313f
000001c0: 9abd 5ebe 2d3a 09bf b32b 7abd fe66 393e
000001d0: 672b f5be 092b f03e f3e2 a93d 56d0 21bf
000001e0: 3c19 dc3e c2a2 7f3e c360 8b3e 38c2 a3bd
000001f0: d4ee a9be 2d64 90be 03a3 8b3e 699d 073f
00000200: 0ae3 4f3e 5dab a6be 1121 223f bca5 933d
00000210: 86e7 c4be c325 923e fb8d 833e 38da c4bd
00000220: 7f7e 59be d9f2 afbe 9f1a e43e 6be0 283f
00000230: 2529 56be 78c8 9c3e 6cc5 7f3e bbac ef3d
00000240: 0f2a 1cbf 417d b93e 0053 b1bd 0ccf 2ebf
00000250: 47e3 46be 5883 2bbe 1cbc ba3e dd5a 36bf
00000260: b0c9 623e 3554 0ebf aaf9 073f 6f36 cdbe
00000270: b162 f5be 9b91 93be 2872 83bd 05ab 78bd
00000280: 552d 00bf c7bb d7be f3b9 14be e310 c93e
00000290: 0928 dc3d d601 fc3e 3511 febd 28a6 a5bc
000002a0: 6b38 ae3e a176 f1bd f975 2ebf 5003 09bf
000002b0: 8934 aebe 770b 073e b07f 06bf 2904 7cbd
000002c0: 34b9 3abf aeb2 43be 5712 a8be ab1e 0ebf
000002d0: 1ab1 0b3f 5422 d33d 01b6 89be 8043 2c3f
000002e0: ada1 163f 528b d03d 2cdc 7cbd 91f1 0a3f
000002f0: 029b 953c 4506 3b3c 28c0 acbb 4dbc ad3d
00000300: 4ade fc3e 897a 193f 09d0 fdbe bc3e 123e
00000310: 840f f43d 4b47 163e b5ed df3e 486d e73e
00000320: 7077 44bf 19ab 3f3e 345f 673a 0df9 a23b
00000330: dc35 20bf 48d1 063f a283 583e cfb4 12bf
00000340: 1c87 1c3f 0644 0a3f 5584 29bf 51a3 e3bd
00000350: f3a8 26bf 7d9e 0fbe 893b 283d b65a 0fbf
00000360: 2315 e6be 1650 86bd 533c 1c3f 8aa0 093f
00000370: 641b 2d3f 833a 873d 9ed1 12bf 1428 c53e
00000380: c8a3 11be 58fa 043e 5d48 323f 78a4 dbbe
00000390: 36f2 323d a259 21bf fb22 27be 771b 2cbe
000003a0: 68da d63d d501 1a3f f12b 393f caa0 073f
000003b0: 88c5 873c e12d f93e 3316 23be 4d23 02be
000003c0: ef61 5ebe 0323 dbbe a9a9 b4bd 8314 d0bc
000003d0: 1ec4 cebe a33c 573e f61e 103e df3d a0be
000003e0: f3d1 23bf 5f6d 32be 67f4 41bc f5ca 963d
000003f0: 33cd b23e 6128 8dbe 0b8d 4bbe 2d16 bfbe

fc.0.linear.bias f4 [2048]
-0.7138367 0.37863404 0.76004225 0.3248787 -0.71106577 -0.5074302 -0.48590302 -0.856002
0.06951256 0.6056867 0.6812052 -0.61669433 0.121348746 -0.18835759 -0.83591366 0.6205312
0.24556796 -0.2379662 0.21232782 -0.6069645 0.61239034 -0.049906213 0.15451016 0.597449
-0.48556176 0.7029156 0.5204605 -0.5394828 -0.6525205 -0.79681647 0.30876988 0.13681826
-0.2888362 0.6175029 -0.31627077 0.32536966 0.30015495 -0.20180714 -0.33685458 -0.5974516
-0.8439924 0.6612615 0.8154319 0.8975898 0.18264762 -0.27297843 -0.47268993 -0.9177005
-0.45668185 -0.62632614 -0.32944292 -0.4203532 -0.6533534 -0.14557321 -0.6817661 -0.09841808
0.16421457 0.65787363 0.53928477 0.20206225 -0.5527774 0.28904504 -0.574036 0.34507257
0.70525616 -0.71242553 0.78645635 -0.5952946 -0.46239737 -0.45629507 0.23597571 -0.8238384
-0.56659836 0.1957028 -0.48936957 0.73137456 -0.2383842 0.41862315 0.5040708 -0.6371771
0.7645159 0.41952994 0.38948673 -0.8415212 0.8287423 -0.64167017 0.7466997 0.82027805
0.014205177 0.49590114 -0.69816154 0.6443105 0.07071613 0.15704717 -0.18142648 0.63830036
-0.44696572 -0.075924605 0.42773324 0.36314595 -0.20528919 0.09206507 0.23118451 -0.5115024
-0.27576423 0.2347748 -0.51903236 0.86380094 0.19537388 -0.43670171 0.24984236 -0.31781682
-0.038041156 0.11389541 0.327096 0.25286904 -0.12852164 -0.21979125 -0.76402974 0.7089996
-0.2727667 -0.77510315 0.4595806 0.719052 -0.33767658 0.16656479 -0.65546983 0.49595624
-0.76629025 0.5270718 0.23459353 0.76370066 -0.53732854 0.13544357 -0.098446354 0.4108439
0.0652557 0.33540735 0.7969765 0.04138389 -0.58040124 -0.3596636 0.259284 0.8178839
-0.82575387 -0.54912114 -0.64624584 0.6739915 -0.28916225 0.5340566 -0.46645597 0.5640843
-0.19466707 -0.34042567 0.6106907 0.86137897 -0.14735945 0.4591701 -0.7455709 -0.7182174
-0.07369198 0.7531255 0.18604583 0.43426082 0.23967534 0.5976429 0.412949 -0.8763909
-0.5629576 -0.76752543 0.3172248 0.16898593 -0.09021733 -0.79195464 0.34901577 -0.62203777
-0.87382406 0.26438934 -0.22101927 -0.72097653 -0.11380067 0.47835237 -0.87316555 0.1256481
0.71775097 0.6179152 -0.45981616 -0.24375702 -0.5525978 -0.7229525 -0.5393638 0.64728343
0.5691594 -0.40605834 0.029705966 -0.47456563 -0.28209522 0.5974702 0.36011413 -0.2853735
-0.72292113 0.18087941 -0.5297062 0.24800101 0.6950642 0.05258822 -0.29434872 0.074351385
-0.1181698 0.22997579 0.17390884 -0.72288567 0.8261731 -0.35546625 0.8740162 -0.18984742
-0.19931652 0.4284326 -0.26121786 0.1398846 -0.44810042 -0.6848 0.49315646 0.6889122
0.4846545 0.8282305 0.50699246 0.79278064 -0.31997326 0.7454735 0.27392018 -0.1390995
0.63428384 -0.6401221 -0.045742646 -0.49882403 0.88147813 -0.09077389 0.14691913 0.30189663
0.37782136 -0.09971201 0.13151899 0.60199755 -0.44883758 0.15654443 -0.6842736 -0.008065409
0.3867924 0.18705381 0.2898734 0.78023905 0.10641297 -0.39705142 0.4377515 -0.50106084
00000000: 01be 36bf 52dc c13e 2192 423f 8056 a63e
00000010: 6808 36bf f2e6 01bf 48c8 f8be f222 5bbf
00000020: 9a5c 8e3d 490e 1b3f 7763 2e3f aedf 1dbf
00000030: b185 f83d d0e0 40be 70fe 55bf 22db 1e3f
00000040: 2b76 7b3e 69ad 73be 776c 593e 0762 1bbf
00000050: 9dc5 1c3f 756a 4cbd e937 1e3e 6bf2 183f
00000060: 8d9b f8be 47f2 333f e63c 053f 8b1b 0abf
00000070: 950b 27bf 2afc 4bbf 1617 9e3e 161a 0c3e
00000080: 57e2 93be ac14 1e3f 3eee a1be da96 a63e
00000090: e9ad 993e 88a6 4ebe 3478 acbe 97f2 18bf
000000a0: e30f 58bf 6f48 293f 25c0 503f 72c8 653f
000000b0: fa07 3b3e d4c3 8bbe 6a04 f2be 6cee 6abf
000000c0: 34d2 e9be e956 20bf beac a8be 8938 d7be
000000d0: 2b42 27bf 2511 15be 3988 2ebf 6b8f c9bd
000000e0: dd27 283e 686a 283f 910e 0a3f 68e9 4e3e
000000f0: d282 0dbf b6fd 933e 06f4 12bf 5aad b03e
00000100: ab8b 343f 8561 36bf 3455 493f 3a65 18bf
00000110: 59bf ecbe 829f e9be 9ea3 713e 13e7 52bf
00000120: 970c 11bf 5166 483e a68e fabe 5d3b 3b3f
00000130: fd1a 74be c655 d63e c90a 013f 0a1e 23bf
00000140: 50b7 433f a1cc d63e ce6a c73e ef6d 57bf
00000150: 7528 543f 7f44 24bf b627 3f3f befd 513f
00000160: d5bc 683c c1e6 fd3e b7ba 32bf 88f1 243f
00000170: 9ed3 903d f9d0 203e ddc7 39be a767 233f
00000180: b1d8 e4be 5c7e 9bbd daff da3e 44ee b93e
00000190: 5437 52be 9d8c bc3d a2bb 6c3e d2f1 02bf
000001a0: f830 8dbe ce68 703e 4edf 04bf 0f22 5d3f
000001b0: 1710 483e 5e97 dfbe add6 7f3e e3b8 a2be
000001c0: 0bd1 1bbd ff41 e93d 2079 a73e 0d78 813e
000001d0: 2d9b 03be f510 61be 7497 43bf ff80 353f
000001e0: 14a8 8bbe 296d 46bf 264e eb3e cb13 383f
000001f0: f2e3 acbe f68f 2a3e dfcc 27bf faed fd3e
00000200: 992b 44bf 2dee 063f 4939 703e e381 433f
00000210: 5d8e 09bf b8b1 0a3e 3e9e c9bd 225a d23e
00000220: c8a4 853d 83ba ab3e a706 4c3f 2782 293d
00000230: 2d95 14bf d425 b8be dfc0 843e d760 513f
00000240: 9b64 53bf 3493 0cbf 5e70 25bf b58a 2c3f
00000250: 130d 94be efb7 083f 51d3 eebe d467 103f
00000260: ce56 47be 464c aebe 3a56 1c3f 5583 5c3f
00000270: 65e5 16be 5818 eb3e bcdd 3ebf 18dd 37bf
00000280: d2eb 96bd d5cc 403f cc82 3e3e 6f57 de3e
00000290: 746d 753e 20ff 183f 0d6e d33e 275b 60bf
000002a0: fd1d 10bf 8c7c 44bf 4a6b a23e a60a 2d3e
000002b0: ddc3 b8bd 8abd 4abf 32b2 b23e de3d 1fbf
000002c0: efb2 5fbf 0a5e 873e e052 62be eb91 38bf
000002d0: 5310 e9bd 9aea f43e c787 5fbf e5a9 003e
000002e0: 87be 373f b12f 1e3f 066d ebbe 719b 79be
000002f0: 0d77 0dbf 6a13 39bf bf13 0abf 5eb4 253f
00000300: 6eb4 113f e1e6 cfbe ed59 f33c 44fa f2be
00000310: c96e 90be cff3 183f e160 b83e 7a1c 92be
00000320: 5c11 39bf 7438 393e d39a 07bf faf3 7d3e
00000330: baef 313f bf66 573d e0b4 96be 8a45 983d
00000340: 0203 f2bd c67e 6b3e 2915 323e 090f 39bf
00000350: 1580 533f acff b5be 87bf 5f3f 5d67 42be
00000360: a119 4cbe 855b db3e 59be 85be e93d 0f3e
00000370: 6b6d e5be 0e4f 2fbf 017f fc3e 8d5c 303f
00000380: a224 f83e ea06 543f 42ca 013f acf3 4a3f
00000390: 89d3 a3be 5ad7 3e3f 443f 8c3e 1970 0ebe
000003a0: 6d60 223f 0bdf 23bf a45c 3bbd dd65 ffbe
000003b0: 8da8 613f a9e7 b9bd f871 163e 3292 9a3e
000003c0: cd71 c13e cf35 ccbd eaac 063e 831c 1a3f
000003d0: 0ace e5be 2f4d 203e 8e2c 2fbf c724 04bc
000003e0: a709 c63e 098b 3f3e 496a 943e bfbd 473f
000003f0: 0bef d93d 534a cbbe f720 e03e 8645 00bf

fc.1.weight f4 [2, 2048]
-0.04501693 0.017622724 -0.024004977 0.008710162 -0.030714486 -0.029752078 0.049496625 0.036456235
-0.01677981 -0.006082304 -0.03462306 -0.0120747285 0.0061136736 0.0050485856 -0.03406766 0.0053865598
-0.0025391574 0.018215174 -0.020712204 0.015735354 0.031306155 -0.013300961 -0.024117852 -0.012115668
-0.010555578 0.007588972 0.027388021 -0.04384071 -0.019818764 0.080695264 -0.004091272 0.0107701635
0.0028687483 0.015393343 -0.024817927 0.018893987 -0.014494237 -0.0109892795 -0.013263919 0.05741696
0.015169241 0.003857126 -0.019179938 -0.032034937 0.051606778 -0.00082870177 0.0008240329 0.044759586
0.052077964 -0.013412769 0.008926279 0.002883359 -0.041039072 0.019603636 0.042376753 0.037661187
-0.029916221 -0.007355221 -0.014674207 0.013880285 -0.036336932 0.0074192993 0.0013544201 0.001953713
0.026485786 -0.02002258 -0.031480666 -0.043391585 0.0190619 0.0024942644 -0.013543996 -0.029341178
0.005175334 -0.0114271315 0.009275409 0.04459865 0.0005476422 0.03063918 -0.07897621 0.020194603
-0.053878576 0.025031986 -0.015485318 0.079816155 0.024798773 0.025019856 -0.009317246 -0.046774052
-0.0043350044 -0.019830089 -0.0373363 0.02161345 0.012901995 -0.013538824 -0.024364844 0.030602083
0.00421 0.032896567 0.014040148 -0.003932844 -0.018510077 0.030014023 -0.0024251207 0.013144328
-0.0024625505 -0.0078882305 0.052467585 0.007191074 0.007906622 -0.028363442 0.02718869 -0.013627703
-0.010319924 -0.008988229 0.012257791 -0.03014198 -0.0073348824 -0.013213602 -0.042129844 -0.041391533
0.030265687 0.040061794 0.0008582695 0.025244657 0.032891665 -0.0018473066 -0.051575355 0.0028240813
0.00090347097 0.008067556 0.010043894 0.028521169 -0.04023041 -0.014336278 0.00012617628 -0.033581108
0.00032195917 -0.02988876 -0.010125189 -0.017442765 -0.00868266 0.03316288 0.019066673 0.05163526
-0.02295063 0.0011264827 -0.025229076 0.02092011 -0.021633692 -0.022596532 -0.022515113 0.032981697
-0.0037250256 -0.016922757 0.008108233 0.026696919 -0.011867026 0.0011529917 -0.027633395 -0.027373265
0.012850914 -0.016657822 -0.009956291 -0.007594331 0.014197598 -0.030486455 0.01780644 0.009342081
-0.015202286 0.007962708 0.01551104 -0.012776401 0.050947167 -0.020191157 0.030113108 -0.021331435
-0.04960167 -0.008659233 -0.015762838 -0.009804894 -0.008198011 -0.03742177 -0.047505185 0.013577387
0.010145832 -0.01667588 -0.0385113 0.030998506 0.01678451 0.027939502 0.03912647 -0.0118740145
0.014863312 -0.019672727 -0.014025223 0.023802776 -0.017566068 -0.01887945 -0.026001848 -0.05268047
0.029869964 -0.019557282 0.066775985 -0.004969769 -0.006898161 0.016868798 -0.03631478 0.0022205515
0.0015953891 -0.0010963905 0.038464792 -0.0125183975 -0.0601675 0.004308125 -0.025580779 -0.01134895
-0.0405825 0.029820021 -0.014771998 -0.022406356 0.033970494 0.071169026 0.030088864 -0.017702758
-0.020699505 0.021656465 0.02642827 0.0030165084 0.033310898 -0.027378803 0.00930963 0.019450668
-0.01748906 -0.0038445347 -0.01537383 0.016903874 0.017117368 0.006313176 0.0025695395 0.04043511
0.021465985 -0.033942338 0.00053987285 0.016413042 -0.002993855 -0.026860243 -0.02406862 0.008015103
0.018079985 -0.0032808504 -0.017114583 -0.045864034 -0.029405043 -0.0027824705 -0.021101708 -0.014347738
00000000: ac63 38bd 885d 903c 16a6 c4bc 11b5 0e3c
00000010: f29c fbbc a1ba f3bc f9bc 4a3d 2253 153d
00000020: d075 89bc 104e c7bb e9d0 0dbd 15d5 45bc
00000030: 3655 c83b 9b6e a53b 888a 0bbd bd81 b03b
00000040: fe67 26bb fd37 953c a4ac a9bc 6ee7 803c
00000050: e23a 003d 46ec 59bc cd92 c5bc cb80 46bc
00000060: 4ef1 2cbc e9ac f83b d85c e03c 5192 33bd
00000070: f65a a2bc 8f43 a53d 1410 86bb 5775 303c
00000080: 9c01 3c3b 5c34 7c3c f74e cbbc 90c7 9a3c
00000090: 3c79 6dbc 610c 34bc e950 59bc 0c2e 6b3d
000000a0: 6988 783c d6c7 7c3b 3f1f 9dbc 1137 03bd
000000b0: a161 533d 3c3d 59ba e903 583a d455 373d
000000c0: b44f 553d 3bc1 5bbc 873f 123c bdf6 3c3b
000000d0: 9618 28bd ce97 a03c 3f93 2d3d 9e42 1a3d
000000e0: dd12 f5bc 1104 f1bb 166c 70bc 236a 633c
000000f0: 09d6 14bd 981d f33b cc86 b13a dd09 003b
00000100: b8f8 d83c 6506 a4bc dff1 00bd 60bb 31bd
00000110: b427 9c3c d076 233b a3e7 5dbc e95c f0bc
00000120: d995 a93b dd38 3bbc e3f7 173c 13ad 363d
00000130: a58f 0f3a 05ff fa3c 47be a1bd 276f a53c
00000140: c8af 5cbd e10f cd3c 22b6 7dbc a776 a33d
00000150: cc26 cb3c 71f6 cc3c 5da7 18bc 2696 3fbd
00000160: a70c 8ebb b672 a2bc f3ed 18bd b10e b13c
00000170: e462 533c f2d1 5dbc c898 c7bc 38b1 fa3c
00000180: 0af4 893b 8dbe 063d a608 663c 16df 80bb
00000190: 72a2 97bc f8df f53c c6ee 1ebb 4f5b 573c
000001a0: be62 21bb a33d 01bc 40e8 563d 1aa3 eb3b
000001b0: c78a 013c 735a e8bc d1ba de3c bb46 5fbc
000001c0: e614 29bc 5d43 13bc e7d4 483c 50ec f6bc
000001d0: 7459 f0bb dd7d 58bc 5890 2cbd 2b8a 29bd
000001e0: bfef f73c d617 243d 7efd 603a e2cd ce3c
000001f0: 69b9 063d 5321 f2ba ae40 53bd 3914 393b
00000200: e9d6 6c3a c82d 043c 258f 243c 3aa5 e93c
00000210: a4c8 24bd b5e2 6abc 304e 0439 588c 09bd
00000220: a1cc a839 46d9 f4bc 1fe4 25bc 21e4 8ebc
00000230: b741 0ebc cdd5 073d b631 9c3c 7f7f 533d
00000240: f602 bcbc 7da6 933a 35ad cebc a760 ab3c
00000250: 2439 b1bc 5d1c b9bc 9d71 b8bc d117 073d
00000260: 8f1f 74bb 98a1 8abc 65d8 043c 7fb3 da3c
00000270: ea6d 42bc fb1f 973a 6e5f e2bc e63d e0bc
00000280: a48c 523c fc75 88bc b61f 23bc ded9 f8bb
00000290: 0b9d 683c bbbe f9bc d0de 913c 870f 193c
000002a0: 0213 79bc 0576 023c 0422 7e3c 1c54 51bc
000002b0: faad 503d ed67 a5bc c4af f63c 43bf aebc
000002c0: 1f2b 4bbd 75df 0dbc 1121 81bc b5a4 20bc
000002d0: f350 06bc 9247 19bd cc94 42bd b073 5e3c
000002e0: b43a 263c db9b 88bc 06be 1dbd 94f0 fd3c
000002f0: ab7f 893c 62e1 e43c 1443 203d 3a8b 42bc
00000300: 4085 733c b328 a1bc 0dca 65bc 0afe c23c
00000310: b7e6 8fbc 14a9 9abc d401 d5bc 7ac7 57bd
00000320: dbb1 f43c 9836 a0bc d9c1 883d 72d9 a2bb
00000330: f809 e2bb 6f30 8a3c cfbe 14bd ac86 113b
00000340: 601c d13a c3b4 8fba 428d 1d3d f719 4dbc
00000350: 3272 76bd 2c2b 8d3b c88e d1bc f2f0 39bc
00000360: d639 26bd 1e49 f43c 4006 72bc 898d b7bc
00000370: a524 0b3d 11c1 913d ec7c f63c 6005 91bc
00000380: 0292 a9bc e668 b13c 1980 d83c 9db0 453b
00000390: 0271 083d 8349 e0bc 6b87 183c 0257 9f3c
000003a0: 3845 8fbc 97f4 7bbb 84e2 7bbc fe79 8a3c
000003b0: b939 8c3c c2de ce3b b865 283b 499f 253d
000003c0: 6fd9 af3c 1f07 0bbd 4186 0d3a a574 863c
000003d0: 8d34 44bb 030a dcbc 8e2b c5bc c751 033c
000003e0: 7a1c 943c 8903 57bb e233 8cbc eddb 3bbd
000003f0: d8e2 f0bc 1c5a 36bb 7ddd acbc c612 6bbc

fc.1.bias f4 [2]
0.037096396 0.013011954
00000000: 64f2 173d 1730 553c
