cache/2d_gm/smcusum/model_2/iter_1.pth (torch, 42952 bytes, 4 tensors)

fc.0.linear.weight f4 [2048, 2]
000000 14 f8 13 3f 5f b0 c3 3e e4 e6 2f 3f 47 77 b7 3d
       0.5780041 0.38220498 0.68711686 0.08958297
000010 40 d3 6d be d0 e2 19 3d 00 43 80 bc 36 14 58 3e
       -0.23225117 0.03756982 -0.015656948 0.2110146
000020 f6 e8 08 3e 67 cc a2 be 5f a7 9c 3e d5 a7 9b 3d
       0.13370118 -0.31796572 0.30596444 0.07600371
000030 02 6a 00 bf 95 00 a8 3c 32 24 00 bf 50 e9 6f bc
       -0.50161755 0.02050809 -0.5005523 -0.014643028
000040 31 6b 46 3e ef dd 34 bf 3c 5c fd 3e 74 44 a4 be
       0.19376828 -0.70651144 0.49484432 -0.32083476
000050 a9 46 03 be 7e 88 25 be 34 84 0c 3f b0 1e e0 be
       -0.12819923 -0.16165349 0.54889226 -0.43773413
000060 17 f0 32 bf 2f 70 26 bf 47 a3 a4 3e 49 84 7f be
       -0.698976 -0.6501493 0.3215582 -0.24952807
000070 7f a1 d7 3d cd 88 af 3e f3 87 58 3c 4e 2e 34 3f
       0.1052885 0.34284058 0.013216007 0.70383155
000080 76 6c 91 3e c3 35 2d bf 04 e3 0e bf 81 be 22 bf
       0.28403062 -0.6766016 -0.5581515 -0.63571936
000090 5a 6e f6 be d4 ab 31 be c4 da 87 be c7 0f 2b bf
       -0.48131067 -0.17350703 -0.26534092 -0.6682095
0000a0 2a c0 97 3e d5 5f 09 3e 73 0f c0 bd 3d e9 8b 3e
       0.29638797 0.13415463 -0.09377947 0.27326384
0000b0 89 a0 43 be 64 58 6f 3d b8 03 9a be 68 d1 c0 3e
       -0.19104208 0.058433905 -0.30080962 0.37659764
0000c0 c1 f1 0e 3f e9 0a 07 3e fe 5c 12 3f 6d e1 70 3e
       0.5583764 0.13187756 0.57173145 0.23523493
0000d0 01 10 4c be f9 1f 06 3f 0e 6d 10 3e 05 c0 13 3e
       -0.1992798 0.52392536 0.14104101 0.14428718
0000e0 46 cd 99 3d 28 0e 13 3f ce d2 e6 be 1b d7 85 be
       0.07509856 0.57443476 -0.45082706 -0.26140675
0000f0 0d be dd be d1 1f ee be e5 51 ba 3e 1b b2 a0 be
       -0.4330906 -0.4650865 0.36390606 -0.31385884
000100 b4 fd dc 3d b0 e3 17 3f fe 48 bc 3e ef dc 78 3d
       0.107905775 0.593318 0.3677444 0.060757574
000110 1d 55 13 3f ac 7f 7e be cc 97 12 3f be a6 26 3f
       0.5755175 -0.2485339 0.57262874 0.6509818
000120 03 13 30 bf 70 d2 8b 3e 69 dc 97 3e 11 bd 60 3e
       -0.6877901 0.2730899 0.29660347 0.21947123
000130 9c 1f 1b 3f 32 da 26 3f 6a 59 38 be af 3c f0 3d
       0.6059511 0.6517669 -0.18002859 0.117303245
000140 1d 3f 69 be 39 1f 17 bf e4 ef 15 bd 25 0a 57 3e
       -0.22777982 -0.59032017 -0.03660573 0.20999964
000150 19 ac 7e be 1e e5 a3 3e 8a 75 1f bf 31 e0 ec be
       -0.24870338 0.3201074 -0.62288725 -0.46264794
000160 f4 96 f1 be 3c c3 f5 bb e8 4a e8 3e ab 19 c4 3e
       -0.4718548 -0.0075000804 0.4536965 0.38300833
000170 92 f5 0f 3f 04 fa 25 3f d6 d8 11 bf b4 57 60 3e
       0.56234086 0.6483462 -0.5697149 0.21908456
000180 f8 de cc be c5 7a 06 bf ec 8e 28 3f 8f 60 16 bf
       -0.40013862 -0.5253108 0.6584308 -0.58741087
000190 df 1a 1f bf 98 c3 0e bf 6a 09 e4 3e 42 d4 08 bf
       -0.6215038 -0.557672 0.44538432 -0.5344888
0001a0 85 d2 91 3e b3 bc 0b bf f4 3a 3b 3e e4 1a 9a 3e
       0.28480926 -0.5458481 0.18284208 0.3009864
0001b0 19 eb 05 bf 41 21 a8 bd 06 cd f8 be 83 9d 20 3f
       -0.52311856 -0.08209468 -0.4859392 0.62740344
0001c0 f8 c8 22 be d0 f6 04 bf b0 d8 0e be 38 11 87 3e
       -0.15896976 -0.51939106 -0.13949847 0.26380324
0001d0 8f ab 06 bf bf a3 06 3f 84 ac e8 3d 78 3d 15 bf
       -0.5260553 0.52593607 0.1136103 -0.5829692
0001e0 10 5d f1 3e c3 60 65 3e f9 f9 bf 3e c3 d0 9d bd
       0.47141314 0.22400193 0.37495402 -0.07705834
0001f0 9d 77 bb be 01 85 be be f0 dc 83 3e e5 79 02 3f
       -0.36614695 -0.3721085 0.257545 0.50967246
000200 43 37 6c 3e 39 55 b5 be 79 18 33 3f 97 64 d4 3d
       0.23067956 -0.35416582 0.6995922 0.103707485
000210 32 35 e3 be 9b 0c c8 3e 06 d7 c4 3e c7 83 0d be
       -0.44376522 0.39072117 0.384453 -0.138198
000220 b6 cf 71 be f9 72 dc be d6 35 de 3e 45 e9 31 3f
       -0.23614392 -0.43056467 0.4340045 0.69496566
000230 1e 7a 3f be c6 6e a9 3e a8 de d6 3e 88 4f 7a 3e
       -0.18698928 0.33092326 0.41966748 0.24444401
000240 00 db 1e bf 72 ca ec 3e d6 92 0e be 0c 57 2a bf
       -0.6205292 0.46248204 -0.13923201 -0.66539073
000250 30 75 98 be 5d 69 0c be 4e 5e ef 3e 14 ea 2f bf
       -0.29776907 -0.13712068 0.46751636 -0.6871655
000260 a9 8b 3b 3e cc 9b 0f bf 50 f4 fe 3e 5e b6 f9 be
       0.18314995 -0.560971 0.4979577 -0.48771948
000270 78 28 05 bf d1 ed 76 be f7 76 7a be 02 85 3e be
       -0.52014875 -0.24114157 -0.24459444 -0.18605426
000280 24 d7 16 bf 70 09 c1 be ad 42 16 be a7 93 b4 3e
       -0.5892203 -0.37702513 -0.14673872 0.352689
000290 14 d8 1b 3e 76 48 07 3f 62 41 9c be 56 da 14 be
       0.15219146 0.5284494 -0.30518633 -0.14536414
0002a0 2a af c6 3e 04 26 7b be f5 e6 29 bf 99 cd 26 bf
       0.38805515 -0.2452622 -0.6636804 -0.6515747
0002b0 82 51 ec be 3b 45 0a 3e 70 40 22 bf d1 16 14 be
       -0.46155936 0.13502972 -0.63379574 -0.14461829
0002c0 87 76 34 bf c7 34 67 be 2e 60 83 be 23 f5 27 bf
       -0.7049336 -0.22578727 -0.25659317 -0.65608424
0002d0 ee 63 1c 3f 9b eb 3c 3e 4c 38 ab be 96 f8 2d 3f
       0.6108998 0.18449251 -0.3344139 0.6795744
0002e0 8f 04 17 3f 37 a0 72 3d 7a d9 a2 bd 19 4d 0b 3f
       0.5899133 0.059234824 -0.079516366 0.54414517
0002f0 b4 8d 87 3d db 6e 97 3d 21 a2 97 bd f1 10 61 3e
       0.066188246 0.07394191 -0.074039705 0.21979119
000300 b1 a4 c3 3e d8 77 1e 3f e1 25 ef be 8c 7b a8 3c
       0.38211587 0.6190162 -0.46708587 0.020566724
000310 12 af 26 3e c4 81 8a 3e 9a 7c dc 3e 41 90 de 3e
       0.16277722 0.27052128 0.43063813 0.43469432
000320 e0 07 2f bf 9f 05 78 3e 95 9c e2 3b 8f 37 a2 3c
       -0.6837139 0.24220894 0.0069156387 0.019801883
000330 11 0a 1d bf 87 10 08 3f 2a ff 76 3e 19 4f 1b bf
       -0.61343485 0.5315022 0.24120775 -0.6066757
000340 40 08 17 3f 91 bd 0d 3f 14 a0 22 bf ba 92 57 be
       0.58996964 0.5536738 -0.6352551 -0.21052065
000350 9c 03 30 bf 07 3d 08 bd 23 82 77 bd 63 35 2f bf
       -0.6875551 -0.033261325 -0.060426842 -0.68440837
000360 ab 8b df be b1 60 56 bd b6 b1 33 3f 91 95 d9 3e
       -0.43661246 -0.052338306 0.7019304 0.42496923
000370 e2 4a 2b 3f d8 8f 3e 3d a6 76 14 bf 5a 3a b8 3e
       0.6691114 0.0465239 -0.57993543 0.3598202
000380 42 29 20 be 4a bc df 3d 2a 00 32 3f 45 17 d4 be
       -0.15640739 0.10924585 0.695315 -0.41424003
000390 54 60 6b 3c d6 6a 25 bf 8d 25 72 be ee 5c ff bd
       0.014366228 -0.64616144 -0.23647137 -0.12468897
0003a0 5b a2 fa 3d 6b 3e 11 3f d7 e7 2e 3f a1 3e 15 3f
       0.12237998 0.5673587 0.6832251 0.5829869
0003b0 5c 1b 8a 3d 59 50 0c 3f fa ef 84 be a9 83 88 be
       0.067435 0.548101 -0.25964338 -0.2666295
0003c0 72 89 7d be c8 e9 d7 be d4 42 44 be b1 0b f5 bd
       -0.24759462 -0.42170548 -0.19166118 -0.119651206
0003d0 fb b6 bf be f9 8a 29 3e d3 00 6b 3e ae 96 d8 be
       -0.3744429 0.1655692 0.22949533 -0.4230246
0003e0 54 b5 2b bf 91 39 91 bd 74 b0 18 bc 28 ec 10 3e
       -0.6707356 -0.07091058 -0.009319413 0.14152586
0003f0 de de c9 3e 89 96 c8 be 47 36 39 be 08 62 d2 be
       0.39427847 -0.3917735 -0.18087111 -0.41090417

fc.0.linear.bias f4 [2048]
000000 6c 93 0b bf 47 79 a9 3e 8c 94 24 3f f2 02 1c 3e
       -0.5452182 0.3310034 0.64289165 0.15235499
000010 d5 28 06 bf b0 db c6 be 1d ee 96 be d2 15 2e bf
       -0.52406055 -0.38839483 -0.2947854 -0.68002045
000020 7c b4 8f 3e c9 42 07 3f 3c 09 16 3f 45 ff 24 bf
       0.28067386 0.5283628 0.5860784 -0.6445201
000030 24 f1 86 3e 45 64 0a be 23 8c 2b bf e2 23 e1 3e
       0.2635585 -0.13514812 -0.67010707 0.4397269
000040 9b 8a c3 3e dc 5c 2a bd 67 93 2b 3d 02 ac e8 be
       0.38191685 -0.041592464 0.04188862 -0.45443732
000050 0a 94 d9 3e 95 47 62 be ef e2 0b bb 8a 5d 16 3f
       0.42495757 -0.22097619 -0.002134498 0.5873648
000060 ff 08 d7 be 7b 5e 2c 3f 89 31 b6 3e 0b 5a de be
       -0.4199905 0.67331666 0.35584667 -0.43428072
000070 8c 72 f2 be 74 df 19 bf 0d 05 de 3e 9d b3 c7 3c
       -0.47353017 -0.6010659 0.43363228 0.024377638
000080 28 20 d3 bd 54 c3 09 3f 91 0b 0f be d3 da 8a 3e
       -0.10308868 0.5381367 -0.13969256 0.27120075
000090 7e 67 01 3e 54 4f 72 bd 4c 3e c4 be c0 a9 f1 be
       0.12637135 -0.059157684 -0.3832878 -0.4719982
0000a0 86 30 25 bf 69 74 0d 3f c0 4b 24 3f c1 47 32 3f
       -0.64527166 0.5525575 0.64178085 0.6964074
0000b0 44 2b af 3e bb 03 24 be 07 83 d9 be 1b 35 33 bf
       0.34212697 -0.16017048 -0.42482778 -0.7000291
0000c0 03 9f 8b be ef 2c f9 be 6e ad 47 be 1e 01 ff be
       -0.27269754 -0.48667094 -0.19499752 -0.4980554
0000d0 96 b7 01 bf da 08 90 bc 45 5f fd be 4c 3f 9f 3d
       -0.50670755 -0.017582346 -0.49486747 0.07775745
0000e0 22 07 bc bc b5 3a 16 3f 00 92 c7 3e b6 9a 9b 3e
       -0.02295262 0.5868333 0.38978577 0.30391473
0000f0 6b 12 f2 be f3 e5 15 3e 7b dc cc be ca 31 d7 3e
       -0.47279677 0.146385 -0.40011963 0.42030174
000100 30 b5 26 3f 77 5f 0e bf 16 00 1c 3f 30 33 df be
       0.6512022 -0.5561442 0.6093763 -0.4359374
000110 03 a8 96 be 12 16 cd be aa 5f 6a 3e 30 88 1e bf
       -0.29425058 -0.400559 0.22888055 -0.61926556
000120 a6 55 de be 2b 68 e6 3d 6f 62 b1 be 44 ef 10 3f
       -0.4342472 0.11250337 -0.3464541 0.5661509
000130 35 27 82 bd 8b 22 8c 3e be 8a 99 3e 42 d9 e8 be
       -0.063551344 0.27370104 0.29988664 -0.45478255
000140 2c e2 16 3f d1 c6 eb 3e 05 b8 82 3e 4e 77 25 bf
       0.5893886 0.46050122 0.2553102 -0.6463517
000150 84 52 2f 3f 23 f5 ef be 56 65 16 3f db 41 27 3f
       0.68485284 -0.46866712 0.58748376 0.6533486
000160 c5 76 31 bc 9e 2b 9e 3e db f1 06 bf d5 b0 f5 3e
       -0.0108315395 0.30892652 -0.5271279 0.47986475
000170 d6 32 5a 3d 24 48 18 3e ed 61 cd bd 54 e8 fc 3e
       0.053271137 0.1487127 -0.100284435 0.49396002
000180 35 0f 10 bf 95 f8 f2 3d 93 29 96 3e 75 3c da 3e
       -0.56273204 0.118638195 0.29328594 0.4262425
000190 02 24 c4 be f8 42 83 3d 7f 8f 57 3e 81 fe b4 be
       -0.38308722 0.06409258 0.21050833 -0.3535042
0001a0 6a 28 af be b5 2c af 3d 4d 06 ad be 3c d5 34 3f
       -0.3421052 0.08553449 -0.3379387 0.7063787
0001b0 e9 34 31 3e c0 19 72 be d8 81 2b 3e a0 7f 9b be
       0.1730534 -0.23642635 0.1674875 -0.30370808
0001c0 f8 1a 5d bd 8f b4 43 3e b1 e4 8f 3e e3 54 ef 3d
       -0.053980798 0.19111846 0.28104165 0.11686113
0001d0 6e d9 bb b9 a2 0e 98 be 1d bc 20 bf 76 25 08 3f
       -0.00035829417 -0.29698664 -0.6278704 0.5318216
0001e0 01 98 2b be f3 ae 2e bf 3d 46 05 3f 7e c8 11 3f
       -0.16757204 -0.682357 0.520603 0.5694655
0001f0 51 33 2c be 3d 13 2f 3c 35 5b f6 be 52 4f e6 3e
       -0.1681645 0.010685739 -0.4811646 0.44982392
000200 c6 e7 15 bf 66 62 07 3f 3b 6a 76 3e fc e9 19 3f
       -0.58556783 0.5288452 0.24063961 0.60122657
000210 65 70 bc be 6d 51 48 bd 53 9b 9e bb 32 69 86 3e
       -0.368045 -0.04890578 -0.0048402934 0.26252133
000220 c2 e6 3d 3e c5 11 24 3e c3 32 34 3f 2e 7c 35 3e
       0.18545058 0.16022404 0.70389956 0.17723152
000230 2c 08 d5 be b2 0b ad be 82 1e ce 3e 5c d3 28 3f
       -0.41607797 -0.33797985 0.4025765 0.6594751
000240 e9 76 25 bf b7 61 13 bf 8a a1 10 bf 7e 3a 0c 3f
       -0.6463457 -0.57570976 -0.5649649 0.5477675
000250 85 63 dd be 44 bc cb 3e de e5 8f be 9c 52 d8 3e
       -0.4323999 0.39792073 -0.28105062 0.42250526
000260 64 ce e6 bc 5c 42 65 be 9f 02 00 3f 29 bb 2f 3f
       -0.028174587 -0.22388595 0.50004 0.6864496
000270 84 2c 93 be b3 49 03 3f 9b 84 13 bf 72 7d 09 bf
       -0.287449 0.5128433 -0.57624215 -0.5370704
000280 91 f9 45 3c 12 99 18 3f 87 dc 06 3d a9 54 07 3f
       0.012083427 0.59608567 0.032925155 0.52863556
000290 c9 5c d8 3e 52 84 e2 3e 28 8f 7c 3e f5 e6 2e bf
       0.4225829 0.44241577 0.24663985 -0.6832116
0002a0 77 51 0a bf da 20 15 bf 89 08 29 3e e7 76 e3 3d
       -0.54030555 -0.5825325 0.16507162 0.11106663
0002b0 3f bd c9 3d e6 4c 2a bf ac 42 3f 3e 9e 03 d7 be
       0.09850549 -0.6652359 0.18677777 -0.41994947
0002c0 4c 38 2e bf 1b a0 27 3e db f2 06 bd 72 f6 07 bf
       -0.6805465 0.16369669 -0.03294645 -0.5311042
0002d0 6d 86 78 3c ff dd 9b 3e 93 74 2d bf b3 e7 c4 bc
       0.015168768 0.30442807 -0.67756003 -0.024036264
0002e0 0f bf 11 3f dc 02 1c 3f 67 31 95 be a1 5e 87 be
       0.5693216 0.60941863 -0.29139253 -0.26439384
0002f0 28 7a be be 48 30 0a bf 60 9c af be 30 b8 ec 3e
       -0.37202573 -0.5397992 -0.34298992 0.46234274
000300 c3 59 ff 3e c6 b6 6b be ba a2 b6 3d 47 5f d9 be
       0.4987317 -0.23018941 0.089177564 -0.42455503
000310 87 07 e2 bd 1e ae e7 3e 21 a7 e1 3e 81 18 fa bd
       -0.11036592 0.45250028 0.44072822 -0.12211705
000320 d2 77 10 bf 61 2c c9 bc ee 26 b2 be 5c 76 2b 3e
       -0.5643283 -0.024557294 -0.34795326 0.1674437
000330 79 4e 25 3f 5d a2 8a 3c c0 62 0a be ff 77 cb bd
       0.64572865 0.016923124 -0.13514233 -0.09934997
000340 47 5a bc bc a3 85 27 3e 06 38 27 bc c2 0e 25 bf
       -0.022992266 0.16359572 -0.010206228 -0.64475644
000350 db ae 25 3f e9 ae d2 be 0e e6 30 3f 92 43 3e bd
       0.64719933 -0.4114907 0.69101036 -0.04645116
000360 88 7e 2a bd 9f fd b1 3e 40 fd 9e be ab 6c df 3b
       -0.041624576 0.3476381 -0.3105259 0.006818374
000370 00 05 86 be 98 e1 fc be 23 76 e3 3e de 46 04 3f
       -0.2617569 -0.49390864 0.4442607 0.51670635
000380 0d 15 a4 3e 80 0f 31 3f 3c 24 b7 3e 37 f9 18 3f
       0.3204731 0.69164276 0.35769832 0.5975527
000390 39 02 27 be ff de 07 3f 6b 20 37 3e f2 a9 6a ba
       -0.16309442 0.5307464 0.1788346 -0.00089517154
0003a0 db 8f 06 3f 1e ac 0c bf 2e a4 cf bc 06 21 a4 be
       0.52563256 -0.5495013 -0.025346842 -0.32056445
0003b0 04 98 32 3f 4b 40 ae bd 5b 81 7e 3e 46 01 00 3f
       0.6976321 -0.08508357 0.24854033 0.50001943
0003c0 44 e9 bc 3e dc c7 8e be 19 14 8e 3c 70 da e1 3e
       0.36896718 -0.27886856 0.017343568 0.44111967
0003d0 ca f2 98 be fc 2a 6f 3d a1 31 08 bf b5 94 1e 3e
       -0.29872733 0.058390602 -0.5320073 0.15486415
0003e0 3b 90 fa 3e 68 63 46 3d cf d5 e5 3d 85 8e 18 3f
       0.48938164 0.048434645 0.112224214 0.5959247
0003f0 cc 08 c5 3c 7b f1 8a be ea 4e 0a 3f bf fd 02 bf
       0.024052046 -0.2713736 0.54026663 -0.51168436

fc.1.weight f4 [2, 2048]
000000 30 cb 81 bc df 3b 5e bc 55 36 c2 39 b0 10 16 bb
       -0.015843958 -0.013564079 0.00037043044 -0.002289813
000010 58 71 62 bc 25 b6 61 3c 6f 6c bb bb b1 7b 89 3b
       -0.013820969 0.013776337 -0.0057197134 0.0041956534
000020 17 06 a7 bb 6d 91 d2 bb e8 84 a3 bc d0 00 97 3c
       -0.0050971615 -0.0064260275 -0.019960836 0.018433005
000030 e3 04 00 3c 6b 74 a2 3c b2 a7 88 bc c0 ac 81 3b
       0.007813665 0.019830903 -0.016681526 0.003957361
000040 7e 9e 3d bc 8e cd 83 bc 75 33 8e ba 2c a8 21 3c
       -0.011573432 -0.016089227 -0.0010849076 0.009866755
000050 c0 54 05 3c ca 98 7e bc 7e b9 7e bc 2a 8e a9 3c
       0.008137882 -0.015539357 -0.0155471545 0.020697672
000060 fd 65 1f 3c 65 5d ac bb b2 ab a6 3c 12 e2 48 bc
       0.009728906 -0.005260157 0.020345543 -0.012260931
000070 19 9d 9c ba 8c ef 16 3c 39 89 a2 bc 72 85 8a 3c
       -0.0011948674 0.009212386 -0.019840823 0.016909335
000080 e3 26 91 3c 37 6e 14 bc 9b 08 8a 39 96 c8 b0 ba
       0.017718738 -0.00905948 0.00026327823 -0.0013487514
000090 12 38 db 3b bf fa f3 bb 90 82 93 bc 64 ca 0d 3b
       0.0066900337 -0.0074456627 -0.018006593 0.0021635527
0000a0 92 d7 b0 3b 50 74 49 bc 0e 57 84 3c 58 38 36 bb
       0.0053967917 -0.0122957975 0.016154792 -0.002780458
0000b0 ef ef 94 3c 94 23 21 bb a6 9b 14 bc 0f af 26 ba
       0.018180816 -0.0024587857 -0.009070313 -0.0006358483
0000c0 b4 77 82 3c e2 ad 9d 3b 26 ed 9a 3c b0 e3 72 3c
       0.01592622 0.004811988 0.01891191 0.014824793
0000d0 55 be 94 bc 0d 5a 63 3c f3 c1 21 bc e5 d1 d8 3b
       -0.018157164 0.01387645 -0.009872901 0.0066168183
0000e0 b4 8f 7c bc 8f 88 0d 3c 40 dd 65 bb 49 b5 a8 3c
       -0.015415121 0.008638515 -0.0035074502 0.020594256
0000f0 9d fb b0 3c fe 6d 68 3b 16 b5 8a bc fc 6c 84 bb
       0.021604354 0.003546595 -0.016932052 -0.0040413123
000100 a0 14 48 3a 1d c5 cd bb 3a f7 6d 3b 90 9c b4 bc
       0.0007632468 -0.0062796012 0.0036310689 -0.022047311
000110 ab 4d 70 3c 1b 38 6a bc 79 aa 57 bc 9d ad cf 3b
       0.014666955 -0.014295603 -0.013163202 0.006337835
000120 5a 7a 63 3c 99 3f e1 3b bb 11 8c bc 4c 75 b2 3c
       0.013884151 0.0068740365 -0.017098298 0.021784447
000130 0b 83 25 3c 53 e3 91 3c 9b d7 88 bc 67 45 4f bc
       0.010102044 0.017808592 -0.016704371 -0.012650824
000140 be 7d 70 bc 3e d1 8e 3c cb df 84 bc 15 52 99 3c
       -0.014678417 0.017433759 -0.016219994 0.018715898
000150 0a dd 27 b8 e0 80 dc 3b 43 d9 1f b9 a5 5f 9b bc
       -4.002176e-05 0.0067292303 -0.00015244358 -0.018966505
000160 ab 28 9a 3c e5 13 a9 bc c3 4b b1 bb fb 2a a0 3c
       0.01881822 -0.02063937 -0.005410643 0.019551745
000170 6f 63 33 bc 4b 6b 15 bc 21 96 09 bc 62 e7 7d 3c
       -0.010949 -0.009119819 -0.00839761 0.0154970605
000180 4e 54 04 bc 32 7a 79 bb 2a 79 7b 3c c9 33 9e bc
       -0.00807674 -0.003806722 0.015348712 -0.019311802
000190 27 11 48 bb 07 5e 2f 3c af 16 db bb 5a 6b 93 3c
       -0.0030527802 0.01070357 -0.0066860537 0.017995525
0001a0 5e cd 79 3b f5 e1 19 3c 8c 47 b4 ba 5f fc 40 3c
       0.0038116793 0.009392251 -0.0013754233 0.01177892
0001b0 3f ea 23 bb c9 ae 4a bb d2 0f 3d bc dd d7 a0 3b
       -0.0025011448 -0.0030926934 -0.011539416 0.0049085454
0001c0 3d b8 87 3c ec 4c 8a 3c e5 b1 a8 3c 4b 3e b5 3b
       0.016567344 0.016882382 0.02059264 0.0055311075
0001d0 d4 5b d3 3b b5 b8 27 3b 03 4a 91 bc 8d e7 bb bb
       0.0064501557 0.0025592272 -0.017735487 -0.00573439
0001e0 32 3c 71 3c 30 76 e0 3b 94 b9 8d 3c e9 e5 dc 3b
       0.014723824 0.0068500265 0.017300405 0.0067412746
0001f0 2c 5c b3 3b 25 4a f5 ba d0 f1 70 bc 52 a7 c5 3b
       0.005473634 -0.0018714113 -0.01470609 0.006031909
000200 72 63 96 bb 52 12 4d bc ca 93 08 bc 38 a2 84 3c
       -0.0045894915 -0.012516575 -0.008336017 0.016190633
000210 ef 49 14 bc 78 15 bf bb b7 52 fe b9 32 b9 85 bc
       -0.00905083 -0.0058314167 -0.00048508283 -0.01632366
000220 52 51 81 3b 53 69 cc bb 86 32 0c bc be 51 87 bc
       0.0039464617 -0.0062381416 -0.008556968 -0.01651847
000230 0c e3 5f 3c be 00 ad 3c 8b e3 ab 3c a0 fd 99 3c
       0.013664972 0.021118518 0.020982524 0.018797696
000240 49 8d 37 bb 92 7a 0b bc bc df 0a bb 6a 20 f9 3b
       -0.0028007796 -0.00851311 -0.0021190485 0.007602741
000250 04 86 2d bc 1b 0c b4 bc 80 43 b2 bb f5 3a a8 3c
       -0.010591034 -0.021978429 -0.0054401755 0.020535925
000260 58 b8 fe 3b 93 12 80 3c 23 7c 96 3c 5d d7 3d 39
       0.0077734403 0.015633857 0.01836974 0.00018104674
000270 5d 41 92 3b 0f 29 11 bc 1a 02 f0 bb ed 44 cb bb
       0.0044633583 -0.008859887 -0.0073244693 -0.006203285
000280 8b f2 68 bc e1 2e df bb da 97 c5 bb 7f 8c d6 bb
       -0.014217983 -0.0068110083 -0.006030065 -0.00654751
000290 5f d0 8b bc ab ca 9e bb 1a d7 8d 3c 1a 1c 32 ba
       -0.017067133 -0.0048459372 0.017314482 -0.00067943486
0002a0 84 00 c6 bb 40 37 6e 3b 1b db 6d 3c 38 e6 a3 3c
       -0.006042542 0.003634885 0.014517571 0.020007238
0002b0 fc 65 9e 3c 3b e0 4d bc b1 68 e5 3b f0 8a c2 bb
       0.01933574 -0.012565668 0.0070010056 -0.005936973
0002c0 6b 96 59 bb 62 97 18 bb d4 bc 14 bc 3a b7 47 bc
       -0.0033201228 -0.002328359 -0.009078223 -0.012189681
0002d0 56 5e 85 bb 2c 88 08 bc 0f 57 5e ba 94 dc f0 3b
       -0.0040700836 -0.008333247 -0.00084816007 0.0073505137
0002e0 b2 8a c3 bb 91 57 80 3c f6 6d 63 bb f9 0f a2 3c
       -0.0059674615 0.015666755 -0.0034702993 0.019783007
0002f0 a7 19 21 3c 7b 96 b2 3b 49 f8 44 ba ec e0 5c bb
       0.009832776 0.0054500676 -0.0007513804 -0.00337034
000300 5e f6 65 ba da 81 42 bc f0 0d 66 3c 49 2f 4d 39
       -0.00087723683 -0.011871779 0.014041409 0.00019567939
000310 2d ef 38 bc 53 c6 c4 bb c1 4f 09 bc bb 09 a1 bc
       -0.011287493 -0.0060050874 -0.008380831 -0.01965796
000320 63 ce 3a bc 7a 31 27 bc e2 0b a9 3c cd 03 9f 3c
       -0.0114017455 -0.010204667 0.020635549 0.019410992
000330 9b 5c 3e 3c 79 71 a2 3c f3 6a b5 bc 05 59 7b bc
       0.011618759 0.019829499 -0.022145724 -0.015341048
000340 3f 5d 2c 3c d4 d8 6f 3c c4 3b 02 ba 04 60 2a 3c
       0.0105202785 0.014639098 -0.0004968012 0.0103988685
000350 38 b5 78 bc e8 2f 41 3c f3 d6 d0 3b ab 03 5b bc
       -0.015179925 0.011791207 0.00637328 -0.013367574
000360 9b 4b 20 bc a7 0b 1b 3c 65 e2 18 bc 28 42 a0 bc
       -0.009783651 0.009463227 -0.00933132 -0.019562796
000370 e7 5c 26 bc 14 8b 0b 3c b1 d9 1d 3c 45 e3 86 3b
       -0.010153986 0.0085170455 0.009634421 0.004116448
000380 f8 21 b3 bc 8c 1f 8a 3c 55 9d ad 3c a8 4b 6f bc
       -0.021866783 0.016860746 0.021193186 -0.01460544
000390 89 c4 1c bc bc 74 aa b9 b6 ec a6 bb 00 46 87 3c
       -0.009568342 -0.000325119 -0.005094136 0.01651287
0003a0 f4 0f 94 bc 38 b8 17 bb ea 43 8e 3c 0b 8d a7 3c
       -0.018074013 -0.0023150574 0.017366368 0.020452997
0003b0 61 1e 6e 3c 4b 4d b1 3c cb f1 66 bc 83 15 a3 3b
       0.01453361 0.021643301 -0.014095734 0.0049769296
0003c0 42 a8 7e ba 95 71 18 bc 29 00 8d bc 58 98 62 bc
       -0.00097144034 -0.009304424 -0.01721199 -0.013830267
0003d0 3a bf aa bb 8c 27 93 3c f3 03 b3 3c 67 de 82 3c
       -0.0052107843 0.017963193 0.02185247 0.01597519
0003e0 6a 40 e0 3b 00 03 5e ba 7f 76 56 bc 40 78 3a bc
       0.0068436163 -0.0008469075 -0.013089775 -0.011381209
0003f0 6a f4 5b bc 2e 76 60 bb 33 48 b6 bc 89 28 93 bc
       -0.013424972 -0.0034250128 -0.022251224 -0.017963665

fc.1.bias f4 [2]
000000 7b c9 3d 3c 74 18 9f 3c
       0.011583681 0.01942084
