cache/2d_gm/smcusum/model_2/iter_8.pth (torch, 42952 bytes, 4 tensors)

fc.0.linear.weight f4 [2048, 2]
0	0x3ecf4bbf	0.40487477
1	0x3ebcefca	0.36901695
2	0x3f1a204b	0.60205525
3	0x3e182891	0.14859225
4	0xbdbd9cce	-0.09258424
5	0x3c074db8	0.008258276
6	0xbb9e1c02	-0.004825116
7	0x3d0e8a30	0.034799755
8	0x3c97545a	0.01847284
9	0xbdbce5f2	-0.09223546
10	0x3d9a5b42	0.07536937
11	0x3b38c105	0.002819122
12	0xbeb02389	-0.3440211
13	0x3d43cebd	0.047804583
14	0xbe8804fe	-0.2656631
15	0xbc102729	-0.008798399
16	0x3eca13f4	0.39468348
17	0xbf466a26	-0.7750572
18	0x3eea48be	0.45758623
19	0xbea9015b	-0.33008847
20	0xbd66e20e	-0.056367926
21	0xbd4c1066	-0.049820326
22	0x3f018620	0.50595284
23	0xbece24c6	-0.4026243
24	0xbf4ce60a	-0.8003851
25	0xbf0c8e73	-0.5490486
26	0x3e96d6ec	0.29460847
27	0xbe729bf3	-0.23692302
28	0x3cab9d0e	0.020948913
29	0x3dc30b88	0.09523684
30	0x3d180b8d	0.03712039
31	0x3f1138f2	0.56727517
32	0x3ec747b9	0.38921908
33	0xbf2dc306	-0.6787571
34	0xbf3032ed	-0.68827707
35	0xbeed7b8b	-0.46383318
36	0xbef80f70	-0.48449278
37	0xbd4923ab	-0.04910628
38	0xbe815bd0	-0.2526536
39	0xbf09f953	-0.53896064
40	0x3dadbb00	0.08482933
41	0x3b3d1997	0.0028854364
42	0xbe413bb9	-0.18870439
43	0x3e8f6ab9	0.2801111
44	0xbd10a223	-0.035310876
45	0x3bff6db8	0.007795062
46	0xbe58b55a	-0.2116293
47	0x3ea10681	0.31450275
48	0x3ef84e19	0.48497084
49	0x3d8c34ff	0.06846046
50	0x3f07d48b	0.5305869
51	0x3e03a5b6	0.12856182
52	0xbe23f68a	-0.16012016
53	0x3eedbcdc	0.4643315
54	0x3d5be8a5	0.053688664
55	0x3d18721d	0.037218202
56	0xbd0aec80	-0.03391695
57	0x3ed12ade	0.40853018
58	0xbe40eee5	-0.18841131
59	0xbd2eab74	-0.04264398
60	0xbf0d8dcc	-0.5529449
61	0xbee1c68a	-0.44096786
62	0x3ebd915d	0.37024966
63	0xbe89fe44	-0.26951802
64	0xbdba7219	-0.09103794
65	0x3f0b0663	0.5430662
66	0x3e8a6c89	0.2703593
67	0x3cc481a7	0.023987604
68	0x3f14fe97	0.58200973
69	0xbdd08bfd	-0.10182951
70	0x3f1fdf70	0.62450314
71	0x3f03aea4	0.51438355
72	0xbf357da4	-0.7089484
73	0x3df97d5b	0.12182113
74	0x3e94c72a	0.290582
75	0x3e8ca682	0.27470785
76	0x3f30759f	0.68929476
77	0x3f2323fe	0.63726795
78	0xbd91caba	-0.07118745
79	0x3bf70aa3	0.00753911
80	0xbe5ebdf8	-0.21752155
81	0xbea80f10	-0.32823992
82	0xbc75dbf5	-0.015006055
83	0x3da22a93	0.07918277
84	0xbd09bae0	-0.033625484
85	0x3de9bd5e	0.11413072
86	0xbedb638e	-0.42849392
87	0xbeb7972d	-0.35857525
88	0xbf1cc851	-0.6124316
89	0xbda7043c	-0.081551045
90	0x3ee7a8c8	0.45245957
91	0x3ecab982	0.39594656
92	0x3f2750f9	0.6535793
93	0x3f25fc04	0.6483767
94	0xbead94f5	-0.33902708
95	0x3b4002d6	0.0029298565
96	0xbea232c6	-0.31679362
97	0xbed4bf27	-0.41552088
98	0x3f0cb511	0.54963785
99	0xbf138b39	-0.5763431
100	0xbf2ab5d8	-0.6668372
101	0xbedc9ca4	-0.43088257
102	0x3f07af4e	0.5300187
103	0xbf104489	-0.56354576
104	0x3e3fadca	0.18718639
105	0xbee1de41	-0.4411488
106	0x3e2b8179	0.16748609
107	0x3e9e8810	0.30963182
108	0xbe9633c6	-0.29336375
109	0xbb4c4368	-0.0031168107
110	0xbedb170b	-0.42791018
111	0x3f3ebd8d	0.7450798
112	0xbe94c580	-0.2905693
113	0xbee9c4c6	-0.4565794
114	0xbcb304be	-0.021852847
115	0x3dbb51a6	0.091464326
116	0xbee5a9a0	-0.44855976
117	0x3edcbf57	0.4311473
118	0xbd07ff4a	-0.033202447
119	0xbf2ab34c	-0.66679835
120	0x3ea053d7	0.31313965
121	0x3e45e8af	0.19327043
122	0x3e6e64cd	0.2328064
123	0xbd774a34	-0.0603735
124	0xbe56062c	-0.20900792
125	0xbe6ebec4	-0.23314959
126	0x3ea30412	0.31839043
127	0x3f07a159	0.5298057
128	0x3e1f7924	0.15573555
129	0xbe6740d6	-0.22583327
130	0x3f0e7948	0.5565381
131	0x3d828765	0.06373481
132	0xbe94668f	-0.28984496
133	0x3e2a72f0	0.16645408
134	0x3dddc768	0.10829049
135	0xbbcb8aa6	-0.0062115965
136	0xbe4fc02a	-0.20288149
137	0xbe95fa4e	-0.2929253
138	0x3ed8a499	0.42313078
139	0x3f3f83c6	0.74810445
140	0xbe5fc1bb	-0.21851246
141	0x3e8c7d0e	0.2743916
142	0x3de3c4f2	0.11121549
143	0x3cd6a39f	0.026201067
144	0xbf16a0ca	-0.58839095
145	0x3eb9dd20	0.36301517
146	0x3d1e60d6	0.03866657
147	0xbf28ed5c	-0.6598718
148	0xbd4918b0	-0.04909581
149	0xbd7e1ce1	-0.06203926
150	0x3e9bf411	0.30459645
151	0xbf2cd457	-0.67511505
152	0x3e8381d6	0.25684994
153	0xbf04c87e	-0.51868427
154	0x3f06c466	0.5264343
155	0xbe9ff911	-0.3124471
156	0xbec82b8e	-0.3909573
157	0xbea1ab36	-0.31575936
158	0xbd6c88ed	-0.05774777
159	0xbd580334	-0.05273743
160	0xbee25b34	-0.44210207
161	0xbec2c63f	-0.38041875
162	0xbe1933aa	-0.14961115
163	0x3ecbc800	0.39801025
164	0x3dbf828d	0.093510725
165	0x3eebdbdd	0.4606618
166	0xbdda8c3c	-0.10671279
167	0xbb67a174	-0.0035344036
168	0x3e271031	0.1631477
169	0xbc9bcf85	-0.019019851
170	0xbf293c3e	-0.6610755
171	0xbeea229e	-0.45729536
172	0xbe8a6bcb	-0.27035365
173	0x3e06f6f1	0.13180138
174	0xbed4e6df	-0.4158239
175	0xbdb0818e	-0.086184606
176	0xbf3e5f1d	-0.7436388
177	0xbe1f4413	-0.15553312
178	0xbea2d62c	-0.31804025
179	0xbf0216cc	-0.50816035
180	0x3ee03848	0.4379294
181	0x3debac7c	0.11507508
182	0xbe66ab19	-0.22526206
183	0x3f22e0aa	0.6362406
184	0x3f1166af	0.5679731
185	0x3e289742	0.1646395
186	0x3cd37481	0.02581239
187	0x3f0763d6	0.5288671
188	0x3c959b02	0.01826239
189	0x3c3b0645	0.011415069
190	0xbc34b5ae	-0.011029644
191	0x3d9c5a58	0.07634419
192	0x3f1bfdc3	0.60934085
193	0x3f1ca2a9	0.611857
194	0xbef1f20e	-0.47254986
195	0x3e299282	0.16559795
196	0x3d126705	0.03574278
197	0x3d631468	0.055439383
198	0x3eea9c43	0.45822343
199	0x3ec467a1	0.38360313
200	0xbf4a3c2f	-0.7899808
201	0x3e11ba37	0.14231192
202	0xbb68152c	-0.003541301
203	0x3b0f527f	0.002186924
204	0xbf2d7f44	-0.67772317
205	0x3f016b1a	0.5055405
206	0x3e203555	0.15645345
207	0xbf03233b	-0.5122563
208	0x3f2525e2	0.6451093
209	0x3f04c03a	0.51855814
210	0xbf293a17	-0.66104263
211	0xbdb399bf	-0.08769559
212	0xbf19d588	-0.6009145
213	0xbe18d651	-0.14925505
214	0x3cf18949	0.029484408
215	0xbef218bb	-0.47284493
216	0xbef192ee	-0.4718241
217	0xbd94936c	-0.07254681
218	0x3f09b8ae	0.53797424
219	0x3f0f15fc	0.5589292
220	0x3f207fdc	0.626951
221	0x3e1ed0d5	0.1550935
222	0xbf166f4b	-0.5876357
223	0x3ecc0a76	0.3985173
224	0xbe28e66a	-0.16494146
225	0x3dd9049d	0.10596583
226	0x3f26886a	0.650519
227	0xbf0061b2	-0.5014907
228	0xbca9a8c1	-0.020710351
229	0xbf291abc	-0.6605642
230	0xbe058e29	-0.13042511
231	0xbdc0806e	-0.09399496
232	0xbcd3d464	-0.025858112
233	0x3f1a9ab6	0.6039232
234	0x3f30349a	0.68830264
235	0x3f113010	0.5671396
236	0x3c2b9f67	0.010475016
237	0x3ec96508	0.39334893
238	0xbd916e95	-0.0710117
239	0xbd6227da	-0.055213787
240	0xbe5c1db4	-0.21495706
241	0xbeca8057	-0.3955104
242	0xbdb4a9a9	-0.088214226
243	0xbcd01483	-0.025400406
244	0xbed2e5a3	-0.41190824
245	0x3e449195	0.1919616
246	0x3df582a5	0.11987809
247	0xbe2fe592	-0.17177418
248	0xbf1e2a02	-0.6178285
249	0xbe2ce2f6	-0.16883454
250	0xba087d81	-0.000520669
251	0x3cab3bda	0.020902563
252	0x3e85eac5	0.26155677
253	0xbe0a0c03	-0.13481145
254	0xbe18c019	-0.1491703
255	0xbea6ffd8	-0.32617068

fc.0.linear.bias f4 [2048]
0	0xbf560b4b	-0.8361098
1	0x3f06a954	0.52602124
2	0x3f4247db	0.7589089
3	0x3ea6ef6d	0.32604542
4	0xbf392da7	-0.72335285
5	0xbf1b6d62	-0.6071378
6	0xbf1e4190	-0.6181879
7	0xbf6eafa0	-0.9323673
8	0xbd93e200	-0.072208405
9	0x3f23cdb3	0.6398575
10	0x3f2e1a2d	0.6800869
11	0xbf3db101	-0.7409821
12	0x3def55be	0.11686276
13	0xbe84e891	-0.25958684
14	0xbf63934b	-0.88896626
15	0x3f41ad11	0.75654703
16	0x3e741e70	0.23839736
17	0xbeac9599	-0.33707884
18	0x3e89fa15	0.2694861
19	0xbf3e5dca	-0.7436186
20	0x3f2e61e2	0.6811811
21	0xbd00bab3	-0.03142805
22	0x3e835b7b	0.25655732
23	0x3f3fd09f	0.74927706
24	0xbf16291d	-0.58656484
25	0x3f5516c8	0.83237886
26	0x3f1d24bc	0.6138418
27	0xbf0a1b8b	-0.5394828
28	0xbf4210ee	-0.7580708
29	0xbf74411e	-0.9541186
30	0x3e2a0900	0.16604996
31	0x3ddc4f7f	0.1075735
32	0xbec82a3f	-0.3909473
33	0x3f2b8980	0.67006683
34	0xbed51345	-0.41616264
35	0x3ef2c4fe	0.47415918
36	0x3ebc1098	0.3673141
37	0xbd952e02	-0.07284166
38	0xbe537fa9	-0.20654167
39	0xbf18f297	-0.5974516
40	0xbf7b021b	-0.9805009
41	0x3f29936c	0.6624057
42	0x3f655892	0.8958827
43	0x3f83604d	1.0263764
44	0x3ccf2407	0.025285734
45	0xbe40a87f	-0.18814276
46	0xbe9bb52c	-0.3041166
47	0xbf839f58	-1.0283003
48	0xbf1432f6	-0.5789026
49	0xbf3f3dc5	-0.7470363
50	0xbebd8f06	-0.3702318
51	0xbeb7c372	-0.358913
52	0xbf4d9ccf	-0.80317396
53	0xbe4ebd6b	-0.20189445
54	0xbf50d037	-0.8156771
55	0xbe79ba67	-0.24387513
56	0x3e99c8ef	0.30036113
57	0x3f37e172	0.7182838
58	0x3f26d096	0.65162027
59	0x3d2f382e	0.042778187
60	0xbf373561	-0.71565825
61	0x3ec11f39	0.37719133
62	0xbf3352c4	-0.70048165
63	0x3e854ebf	0.2603664
64	0x3f52dd3e	0.8236884
65	0xbf59e3e6	-0.8511337
66	0x3f693a5c	0.91104674
67	0xbf36e165	-0.71437675
68	0xbf03f04d	-0.51538545
69	0xbe94b52b	-0.2904447
70	0x3ea22fd4	0.31677115
71	0xbf6bf2ff	-0.9216766
72	0xbf17ce00	-0.59298706
73	0x3eb2cad1	0.34920362
74	0xbf1e5151	-0.6184283
75	0x3f564fb0	0.83715343
76	0xbeba34db	-0.3636845
77	0x3f056262	0.52103245
78	0x3f22d702	0.63609326
79	0xbf241c31	-0.64105517
80	0x3f622a4c	0.8834579
81	0x3edf869e	0.43657392
82	0x3effa89a	0.4993332
83	0xbf5a4fbf	-0.8527793
84	0x3f7d4404	0.9893191
85	0xbf426adf	-0.7594432
86	0x3f4dad46	0.8034252
87	0x3f75a3bd	0.9595297
88	0x3e06e77e	0.13174245
89	0x3f0fd724	0.56187654
90	0xbf57c9f3	-0.84292525
91	0x3f43ca5f	0.7648067
92	0x3e2cd158	0.16876733
93	0x3e8e45fa	0.27787763
94	0xbe39c7dd	-0.18142648
95	0x3f245dc7	0.6420559
96	0xbe850f02	-0.25988013
97	0xbe1faad5	-0.15592511
98	0x3efc3651	0.4926019
99	0x3ee28eb1	0.4424949
100	0xbdd690fe	-0.10476874
101	0x3dbf2d1d	0.093347766
102	0x3dcacef7	0.09902757
103	0xbf24a040	-0.6430702
104	0xbe5d1e32	-0.2159355
105	0x3e91c316	0.2846915
106	0xbf248d83	-0.6427843
107	0x3f78554a	0.9700514
108	0x3dc24f89	0.094878264
109	0xbf0bde7b	-0.54636353
110	0x3ecf5c69	0.4050019
111	0xbe672d86	-0.2257596
112	0xbde60037	-0.1123051
113	0xbcb4662f	-0.022021381
114	0x3e336adb	0.17521231
115	0x3eb8d4ab	0.36099753
116	0xbe96cf8a	-0.29455215
117	0xbead7f9b	-0.33886418
118	0xbf66445a	-0.89948046
119	0x3f442a7a	0.76627314
120	0xbec42d4f	-0.38315818
121	0xbf466d29	-0.77510315
122	0x3eec8a5b	0.46199307
123	0x3f569ba2	0.83831227
124	0xbed8bfc7	-0.42333815
125	0x3e4d8c87	0.20073138
126	0xbf4b106d	-0.7932194
127	0x3f1c10a3	0.60962886
128	0xbf6f7c55	-0.9354909
129	0x3f2c58b1	0.6732283
130	0x3e91b102	0.2845536
131	0x3f4e1f4d	0.8051651
132	0xbf328dbf	-0.6974754
133	0x3e537d5b	0.20653288
134	0x3d26c405	0.040714283
135	0x3f00cf05	0.50315887
136	0x3e27809d	0.16357656
137	0x3ed85707	0.42253897
138	0x3f4c2322	0.7974111
139	0xbc8d951b	-0.017283013
140	0xbf34b6e8	-0.7059159
141	0xbeb825d4	-0.3596636
142	0x3e417feb	0.18896453
143	0x3f6318bd	0.8870962
144	0xbf77a68e	-0.9673852
145	0xbf0929d4	-0.5357945
146	0xbf4c929c	-0.7991121
147	0x3f2d6970	0.6773901
148	0xbe8e5801	-0.27801517
149	0x3f2de006	0.6791996
150	0xbf0662b2	-0.5249435
151	0x3f2077c5	0.62682754
152	0xbe704dfc	-0.23467249
153	0xbec45c4a	-0.3835166
154	0x3f3a183d	0.72693235
155	0x3f7ab889	0.9793783
156	0xbc9e880f	-0.019351987
157	0x3ed6395f	0.41840646
158	0xbf61bc93	-0.88178366
159	0xbf5b1794	-0.8558285
160	0xbe11d714	-0.14242202
161	0x3f581ba6	0.8441719
162	0x3e5e730c	0.21723574
163	0x3eb5dff4	0.35522425
164	0x3d8591cf	0.065219514
165	0x3f3677fe	0.71276844
166	0x3f04c697	0.51865524
167	0xbf661858	-0.89880896
168	0xbf3500f0	-0.70704556
169	0xbf68a633	-0.908786
170	0x3eb160ae	0.34644073
171	0x3e678a29	0.22611298
172	0xbe3b8c35	-0.18315203
173	0xbf5f5b20	-0.8724842
174	0x3efc3314	0.4925772
175	0xbf387071	-0.7204657
176	0xbf83042f	-1.0235652
177	0x3e643061	0.2228408
178	0xbe85327b	-0.26015076
179	0xbf459e86	-0.7719501
180	0xbe0fc965	-0.1404167
181	0x3f181742	0.5941049
182	0xbf750ed1	-0.95725733
183	0x3dd1a7b3	0.10237064
184	0x3f4c19c2	0.79726803
185	0x3f4382f4	0.76371694
186	0xbf184dcc	-0.5949371
187	0xbe5292bd	-0.20563789
188	0xbf2e0b37	-0.6798586
189	0xbf5ed3a1	-0.8704167
190	0xbf224f83	-0.63402575
191	0x3f4470e1	0.7673474
192	0x3f307c32	0.68939507
193	0xbf099ea8	-0.53757715
194	0x3ded2ed8	0.115812
195	0xbef2fa44	-0.47456563
196	0xbec00a92	-0.37508065
197	0x3f2e8762	0.6817533
198	0x3e6c6fb8	0.23089492
199	0xbec61e19	-0.38694838
200	0xbf4af5c2	-0.79281247
201	0x3e9bbe5d	0.30418673
202	0xbf1836f8	-0.59458876
203	0x3e070fc0	0.13189602
204	0x3f4d78aa	0.80262244
205	0xbdca5878	-0.09880155
206	0xbedb482c	-0.428285
207	0x3e4627fd	0.19351192
208	0xbb2c4236	-0.0026284582
209	0x3e5f7c24	0.218247
210	0x3e99d8fd	0.3004836
211	0xbf59f50a	-0.85139525
212	0x3f54cfe8	0.8312974
213	0xbe8f9f7d	-0.28051367
214	0x3f7cfae8	0.9882035
215	0xbe959771	-0.29217103
216	0xbe68297f	-0.2267208
217	0x3edb6199	0.428479
218	0xbe4df92e	-0.20114586
219	0x3e55aaf7	0.20865999
220	0xbf096ed5	-0.5368474
221	0xbf517767	-0.8182282
222	0x3efcc1bc	0.49366558
223	0x3f4cf61d	0.8006304
224	0x3f1c4fe1	0.61059386
225	0x3f6f917d	0.9358137
226	0x3f1c72c7	0.61112636
227	0x3f4e10b1	0.8049422
228	0xbeb2a93d	-0.34894744
229	0x3f5e7dd6	0.8691076
230	0x3e8bf012	0.27331597
231	0xbe13f162	-0.14447549
232	0x3f2f8955	0.6856893
233	0xbef11bdb	-0.47091565
234	0xbe3fc1ac	-0.18726224
235	0xbf0404f1	-0.5157004
236	0x3f7ec1eb	0.99514645
237	0xbe47d6d3	-0.19515543
238	0x3e3af605	0.18257912
239	0x3e29f27e	0.1659641
240	0x3e9ff9c0	0.31245232
241	0x3d7920f4	0.060822442
242	0x3e92bbb6	0.28658837
243	0x3f410f78	0.7541423
244	0xbefdbcab	-0.49558005
245	0x3e8d8ac4	0.27644932
246	0xbf56538d	-0.8372124
247	0xbd8349c1	-0.06410552
248	0x3ebf96f0	0.37419844
249	0x3e57e902	0.21084979
250	0x3ec2c9c8	0.38044572
251	0x3f723626	0.94613874
252	0x3e6d7fee	0.23193333
253	0xbf0677d7	-0.5252661
254	0x3eaa7b8a	0.33297378
255	0xbf0ec4d1	-0.5576907

fc.1.weight f4 [2, 2048]
0	0xbd7cb229	-0.061693344
1	0x3cc549b9	0.024083005
2	0xbcae5a08	-0.021283165
3	0x3c176f44	0.009242836
4	0xbd01ae31	-0.031660262
5	0xbd1c2356	-0.038119636
6	0x3d818d58	0.06325787
7	0x3cce4a22	0.025181834
8	0xbc9a0714	-0.018802203
9	0xbc659559	-0.014012658
10	0xbd031bbc	-0.03200887
11	0xbce5fc8a	-0.028074522
12	0xbc84fe3e	-0.016234513
13	0x3b3d4cbc	0.0028884849
14	0xbd12c2ef	-0.035830434
15	0x3b8ea203	0.0043528094
16	0x3c2b70ea	0.0104639325
17	0x3b4bf241	0.0031119736
18	0x3b0b22a2	0.002123036
19	0x3cd6ff8c	0.026244901
20	0x3d013382	0.031543262
21	0x3bb0fae5	0.0054010027
22	0xbcb00c15	-0.021490136
23	0xbcd2c5a0	-0.025729
24	0xbc27642b	-0.010216753
25	0x3c8b1635	0.016978363
26	0x3d0fe448	0.035129815
27	0xbd339251	-0.04384071
28	0xbd089967	-0.03334942
29	0x3dd99736	0.10624544
30	0x3b5eccdb	0.0033996615
31	0xbbaf16cd	-0.0053432942
32	0xbb897135	-0.0041944035
33	0x3b8e2ab9	0.004338589
34	0xbc90edd3	-0.017691528
35	0x3cb80605	0.022463808
36	0x3b13623b	0.002248897
37	0x3b8dda85	0.004329028
38	0xbb3dfaec	-0.0028988672
39	0x3d6b2e0c	0.05741696
40	0x3b5e801e	0.0033950876
41	0x3b989926	0.0046569286
42	0xbc9a17f2	-0.018810246
43	0xbd417902	-0.047234543
44	0x3db47477	0.088112764
45	0x3c33cfc4	0.010974828
46	0x3c9006ca	0.017581362
47	0x3d0141e3	0.031556975
48	0x3d60bce2	0.054867633
49	0xbcbb54e9	-0.022867637
50	0xbc13e77c	-0.009027358
51	0x3b9fb123	0.0048734113
52	0xbd384838	-0.04499075
53	0x3ce4f573	0.02794907
54	0x3d2162da	0.039400913
55	0x3d630fc0	0.055434942
56	0xbc9eebd7	-0.019399567
57	0xbbe4ae00	-0.00697875
58	0xbca642b1	-0.020295473
59	0x3c17a543	0.00925571
60	0xbd85ce78	-0.065335214
61	0x3c582c10	0.013194099
62	0xbc1487a1	-0.00906554
63	0x3bdd86ff	0.0067604776
64	0x3d121246	0.03566196
65	0xbd160453	-0.036625218
66	0xbcdf9d54	-0.0272967
67	0xbd57eed0	-0.052717984
68	0x3c0e7f8b	0.008697401
69	0x3cb6ce56	0.022315186
70	0xbc5bf3d3	-0.013424831
71	0xbd36729a	-0.044542886
72	0xbc7eb67d	-0.015546438
73	0xbc92fdd9	-0.01794331
74	0x3c14633b	0.0090568615
75	0x3d4cf597	0.0500389
76	0xb8d4b0c3	-0.00010141872
77	0x3c909162	0.017647449
78	0xbdc5091e	-0.096208796
79	0x3ca6968a	0.020335454
80	0xbd833238	-0.06406063
81	0x3d04ca82	0.03241969
82	0xbc8c081d	-0.017093712
83	0x3da53e15	0.08068482
84	0x3cf717e2	0.030162755
85	0x3cb3a9a7	0.021931482
86	0x39cd84a7	0.0003919948
87	0xbd81d899	-0.06340141
88	0xbbf90580	-0.0075995326
89	0xbaeffca3	-0.0018309545
90	0xbd62e37b	-0.055392724
91	0x3ceb7d2d	0.028746212
92	0x3bbdb8a0	0.0057898313
93	0xbc8d359c	-0.017237477
94	0xbcc798c8	-0.024364844
95	0x3cff9ea8	0.031203583
96	0x3cc3f2d9	0.02391951
97	0x3c5a723d	0.013332901
98	0x3c3a6e3f	0.011378824
99	0xba5a509a	-0.00083280506
100	0xbb5b8eef	-0.0033501943
101	0x3cfdb63d	0.030970687
102	0xba9e1646	-0.0012061081
103	0x3caa2d63	0.020773595
104	0xba0b3622	-0.00053104956
105	0x3bda2ddc	0.006658299
106	0x3d80d38b	0.062903486
107	0x3a160c36	0.00057238655
108	0x3cb20421	0.021730484
109	0xbcc261ea	-0.02372833
110	0x3d174abc	0.036936507
111	0xbcb97395	-0.022638122
112	0x3bee9bd8	0.0072817616
113	0xbc97875f	-0.018497167
114	0x3bf2b5ac	0.007406911
115	0xbd239caf	-0.039944347
116	0xbc927abe	-0.017880794
117	0xbcd4b514	-0.025965251
118	0xbd6c84d7	-0.057743873
119	0xbd30b398	-0.043140024
120	0x3d125c6b	0.035732668
121	0x3d2417d6	0.040061794
122	0x3b6bc6a8	0.0035976563
123	0x3d055f27	0.032561447
124	0x3cd1c06d	0.025604451
125	0xb91db636	-0.00015040566
126	0xbd500950	-0.05079013
127	0x3c08455e	0.00831732
128	0x3c871e96	0.016494077
129	0x3c8bb0f5	0.017052153
130	0x3c5cefe6	0.013484931
131	0x3cf74bae	0.030187454
132	0xbd7a1a09	-0.061059985
133	0xbcc8c44a	-0.02450766
134	0xbc031c90	-0.008002415
135	0xbd0d0a15	-0.034433443
136	0x3ae56e3d	0.0017504167
137	0xbce8710d	-0.02837422
138	0xbc084c11	-0.008318917
139	0x3b332371	0.0027334357
140	0xbc9092fa	-0.017648209
141	0x3d07d5cd	0.03316288
142	0xbb0b8ca3	-0.0021293543
143	0x3d521052	0.051285096
144	0xbd1b8a01	-0.037973408
145	0xbc5a79ff	-0.01333475
146	0xbd25f830	-0.040519893
147	0x3ca6ccba	0.020361293
148	0xbc756011	-0.014976517
149	0xbd1974ba	-0.037464835
150	0xbcb9d89d	-0.022686297
151	0x3d069828	0.03285995
152	0xbc55b765	-0.013044213
153	0xbc9a32de	-0.018823083
154	0x3b0cd978	0.0021491926
155	0x3cf3008e	0.02966335
156	0xbc98fd1b	-0.018675378
157	0x3a51705e	0.00079894613
158	0xbd2c30bc	-0.042038664
159	0xbd1aa414	-0.037754133
160	0xbad9c98d	-0.0016615853
161	0xbc9d4c56	-0.019201439
162	0x3c221877	0.009893528
163	0xbc5e8776	-0.013582101
164	0x3d24ae1c	0.040205106
165	0xbd2f9b84	-0.04287292
166	0x3c7a5d7c	0.0152810775
167	0x3bdbb4b4	0.006704891
168	0xbc8588f1	-0.01630065
169	0x3cdc1997	0.026867671
170	0x3b8f4998	0.0043727867
171	0x3b64a255	0.0034886796
172	0x3cfa245e	0.03053492
173	0xbcaef52e	-0.021357145
174	0x3d44e76b	0.04807226
175	0xbcb5955e	-0.02216595
176	0xbd66efb4	-0.056380942
177	0xbcdb07a2	-0.026737038
178	0xbc654ded	-0.01399563
179	0xbc355c7c	-0.011069413
180	0xbb2cb476	-0.002635268
181	0xbd188fd9	-0.03724656
182	0xbd65568b	-0.055990737
183	0x3bcdba60	0.006278321
184	0x3c3dca12	0.011583822
185	0xbcb6c284	-0.02230955
186	0xbd5a9ff9	-0.053375218
187	0x3d08ccef	0.033398565
188	0x3ba3a64f	0.0049941908
189	0x3d0bccc7	0.034130838
190	0x3cc77c7a	0.024351347
191	0xbc9602f0	-0.018311948
192	0x3cdc7d3b	0.026915183
193	0xbc9d9dfc	-0.019240372
194	0xbb8017d5	-0.003909091
195	0x3cc2fe0a	0.023802776
196	0x3b12d07e	0.0022402103
197	0xbcae03cf	-0.02124205
198	0xbd0b7c32	-0.03405399
199	0xbd4b78bd	-0.049675692
200	0x3c2d4f32	0.010577964
201	0xbc939256	-0.018014114
202	0x3d8e5836	0.06950419
203	0xbcb72071	-0.022354336
204	0xbc4385c4	-0.011933748
205	0x3bb6bf39	0.0055769947
206	0xbd076b79	-0.03306148
207	0x3a46eac7	0.0007588085
208	0xbbdf5f4a	-0.0068167793
209	0x3c8d80b0	0.017273277
210	0x3d04487c	0.03229569
211	0xbc9097bd	-0.01765048
212	0xbd6d91e5	-0.058000464
213	0x3c8a830b	0.01690819
214	0xbc8d0f7d	-0.0172193
215	0xbc106db3	-0.008815217
216	0xbd2f5a5d	-0.042810787
217	0x3cee36fe	0.029078957
218	0xbc15b242	-0.009136738
219	0xbca7519c	-0.020424657
220	0x3d0381d8	0.03210625
221	0x3dc43c91	0.095818646
222	0x3cfb3613	0.030665433
223	0xbc872fbe	-0.016502257
224	0xbcb4b942	-0.022060994
225	0x3caa0d31	0.020758243
226	0x3cc65817	0.024211926
227	0x3b4ea17a	0.0031529353
228	0x3d0e5fed	0.03475945
229	0xbce713e9	-0.028207736
230	0x3c252ed7	0.010081968
231	0x3ae58fd3	0.0017514176
232	0xbc907fa1	-0.017638983
233	0xbc8611db	-0.016365936
234	0xbc7a7851	-0.015287475
235	0x3c88c83a	0.016697038
236	0x3cb53a89	0.022122638
237	0xbb2b72f3	-0.0026161044
238	0x3c9147bc	0.0177344
239	0x3d3fb86d	0.04680674
240	0x3cd0065a	0.025393654
241	0xbd2dba9f	-0.042414304
242	0x3c49f39a	0.012326146
243	0x3d1e98c8	0.038719922
244	0xbc85cdee	-0.016333546
245	0xbc795e20	-0.015220195
246	0xbd4c67a7	-0.049903538
247	0x3bbc1375	0.005739624
248	0x3cc1d466	0.02366085
249	0x3c285aa6	0.0102755185
250	0xbcc6ce2a	-0.024268229
251	0xbd80b9e9	-0.062854595
252	0xbd12bbb4	-0.03582354
253	0x3b946819	0.004529011
254	0xbce791de	-0.028267797
255	0xbc84d265	-0.016213605

fc.1.bias f4 [2]
0	0x3d1bdfcb	0.038055222
1	0x3c6b4295	0.014359136
