cache/10d_nn/smcusum/model_1/iter_1.pth (torch, 45000 bytes, 4 tensors)

fc.0.linear.weight f4 [512, 10]
-0.25068635 -0.1560704 -0.08505388 -0.15150818 0.026876582 -0.10934797 -0.062234983 0.25143662
0.1314023 -0.0551895 0.06374385 -0.03930201 0.038894426 -0.1551919 -0.26460004 0.10718207
-0.24598534 -0.24013808 -0.18403615 0.084955096 0.07935298 -0.24471305 -0.11179421 0.082743585
-0.20103347 0.13608414 -0.30038318 -0.22053897 0.0628293 -0.068459295 -0.26543567 -0.2951761
0.0134291295 0.15871586 -0.23310715 0.06941104 -0.21637759 -0.10922242 0.18159226 0.07264344
0.23213412 0.3007743 0.25795144 0.2097903 0.1988274 -0.21945003 0.21316172 0.2225899
-0.05193243 -0.12332251 0.119199924 -0.015849398 -0.1934117 -0.18639868 0.1686416 0.25406522
0.034675222 0.25044256 -0.3125631 -0.20268074 0.28195423 0.09312187 0.117927626 0.003769801
-0.29593268 0.31124085 -0.16029327 0.29098478 0.2314011 -0.008280248 0.20035686 -0.09803839
-0.16150916 -0.314233 -0.21088469 -0.007983838 -0.22887246 -0.11359562 0.12722614 -0.29897505
0.087359525 0.16371584 -0.21003318 -0.17901218 0.16906658 -0.14188848 0.22924873 -0.017607339
-0.14848071 -0.25182277 0.12919769 0.18372464 0.20256233 0.13339621 0.061566558 0.29283676
-0.09442143 0.19552399 0.27545682 0.00085791794 0.09958165 -0.008663379 0.1853419 0.2612371
0.13668089 -0.17050795 0.10200535 -0.30995843 -0.0074634496 0.08421935 0.054849602 -0.29071462
0.04113008 -0.15770939 -0.29264545 0.24270156 0.011610708 -0.3106723 -0.07330472 -0.27154008
-0.2006866 -0.2449335 0.07367044 0.0011104923 -0.08028928 0.09734726 -0.17419815 -0.10690763
0.12101002 -0.14020911 -0.004207626 -0.23543312 -0.1909308 -0.010818627 0.16974053 -0.26114786
-0.29015082 -0.09252358 0.055355687 0.13599569 0.11162074 -0.031026326 -0.2864766 0.05109167
-0.04289722 0.03976035 0.026868606 -0.29696444 -0.27662688 0.2163079 -0.077133894 -0.08980223
0.014284542 -0.26538318 -0.008860488 0.16433108 0.105414994 -0.24512504 0.10068148 0.2011307
0.21026887 -0.11949977 -0.10482223 -0.20287107 0.12863079 0.22210988 -0.2061329 0.12960966
0.08857499 0.01849683 0.24594057 -0.044932317 -0.073518045 -0.21784502 0.25960273 0.16566916
0.26560172 -0.1659482 -0.03914222 0.06916076 -0.30234277 -0.3034609 -0.13879432 -0.19400619
0.30062824 0.25528687 -0.15161243 -0.28441477 -0.2957543 -0.023092734 -0.2553842 -0.17552978
0.1106142 -0.123592936 -0.15027888 -0.0515905 0.2887196 0.16956484 0.04962066 0.21133614
-0.06170711 -0.07771323 -0.038850505 -0.0077297795 -0.11110295 0.20979346 0.16053611 0.31064302
-0.3043855 -0.27531493 -0.16020057 0.004245297 0.061023355 0.17988983 -0.27963528 -0.1964889
0.19340956 -0.043936715 -0.24604961 -0.26927122 0.29499027 -0.014948454 0.19965418 -0.27712288
-0.015677782 0.08271451 -0.24633771 0.07337039 -0.25076887 -0.30470663 0.0057921796 0.19479038
0.0032109646 -0.07834031 0.17234056 0.20276353 -0.0136832455 0.15547585 -0.16787791 -0.26171184
0.02996973 -0.17448242 0.16760233 -0.060145073 -0.052103963 -0.20277658 -0.04808593 0.055563003
0.1789715 -0.17155387 -0.068770915 -0.1895017 -0.03329632 -0.08636721 0.12873264 0.013877373
00000000: f659 80be ebd0 1fbe bb30 aebd f624 1bbe
00000010: 472c dc3c d4f1 dfbd 1cea 7ebd 4dbc 803e
00000020: 538e 063e 630e 62bd 238c 823d 25fb 20bd
00000030: c34f 1f3d a0ea 1ebe a879 87be 4682 db3d
00000040: 95e3 7bbe c2e6 75be f973 3cbe f0fc ad3d
00000050: d183 a23d 0f96 7abe 5df4 e4bd 7875 a93d
00000060: b8db 4dbe a459 0b3e d3cb 99be f8d4 61be
00000070: a6ac 803d 6334 8cbd 2fe7 87be 5221 97be
00000080: da05 5c3c 6986 223e a4b3 6ebe 6027 8e3d
00000090: 1692 5dbe 01b0 dfbd 52f3 393e 15c6 943d
000000a0: 91b4 6d3e 17ff 993e 3612 843e 45d3 563e
000000b0: 6999 4b3e 82b7 60be 1147 5a3e 9bee 633e
000000c0: 1ab7 54bd 8390 fcbd 171f f43d 99d6 81bc
000000d0: b70d 46be 4cdf 3ebe 62b0 2c3e d614 823e
000000e0: 9b07 0e3d 023a 803e 4508 a0be 8a8b 4fbe
000000f0: 4e5c 903e aeb6 be3d 0a84 f13d c40e 773b
00000100: 7d84 97be f65a 9f3e eb23 24be f5fb 943e
00000110: 69f4 6c3e e1a9 07bc 592a 4d3e 5ac8 c8bd
00000120: a862 25be 26e3 a0be 28f2 57be a5ce 02bc
00000130: 8b5d 6abe d2a4 e8bd 9247 023e 4213 99be
00000140: 8de9 b23d 20a5 273e f012 57be f84e 37be
00000150: ca1f 2d3e 374b 11be 2ec0 6a3e 443d 90bc
00000160: 540b 18be eaee 80be 664c 043e 5022 3c3e
00000170: 806c 4f3e 0499 083e 372d 7c3d b3ee 953e
00000180: 0660 c1bd 7137 483e ad08 8d3e e6e5 603a
00000190: 77f1 cb3d d8f0 0dbc 44ca 3d3e dfc0 853e
000001a0: 13f6 0b3e a399 2ebe 2ee8 d03d dfb2 9ebe
000001b0: f48f f4bb 327b ac3d faa9 603d 8cd8 94be
000001c0: 0478 283d 927e 21be a0d5 95be c286 783e
000001d0: d73a 3e3c 7110 9fbe c920 96bd 4d07 8bbe
000001e0: ca80 4dbe d9cf 7abe 87e0 963d f08d 913a
000001f0: b56e a4bd 005e c73d 0061 32be 63f2 dabd
00000200: 1ad4 f73d fa92 0fbe 20e0 89bb 6115 71be
00000210: 5d83 43be 9c40 31bc 76d0 2d3e 2cb5 85be
00000220: a68e 94be 017d bdbd a5bc 623d 7442 0b3e
00000230: 6a99 e43d ec2a febc 10ad 92be 8045 513d
00000240: ffb4 2fbd c0db 223d 8d1b dc3c b90b 98be
00000250: 0aa2 8dbe d17f 5d3e 60f8 9dbd 3bea b7bd
00000260: b609 6a3c 4ee0 87be 952b 11bc 6846 283e
00000270: d1e3 d73d 0f02 7bbe 1732 ce3d 35f5 4d3e
00000280: b950 573e 4cbc f4bd 0aad d6bd 6fbd 4fbe
00000290: cab7 033e c670 633e 8114 53be 65b8 043e
000002a0: ce66 b53d aa86 973c d8d7 7b3e f30a 38bd
000002b0: a190 96bd c412 5fbe a6ea 843e 2da5 293e
000002c0: f3fc 873e 53ee 29be 9853 20bd 28a4 8d3d
000002d0: accc 9abe 3a5f 9bbe 1920 0ebe 8fa9 46be
000002e0: f2eb 993e f6b4 823e 4a40 1bbe d09e 91be
000002f0: 1c6d 97be f92c bdbc b8c1 82be 14be 33be
00000300: b389 e23d 4b1e fdbd b5e2 19be 8f50 53bd
00000310: 0ed3 933e 68a2 2d3e 083f 4b3d 8068 583e
00000320: 98c0 7cbd 1d28 9fbd b521 1fbd 174a fdbb
00000330: f289 e3bd 19d4 563e 9463 243e 9a0c 9f3e
00000340: 6bd8 9bbe 14f6 8cbe 9e0b 24be 221c 8b3b
00000350: a0f3 793d 0a35 383e 5b2c 8fbe 6334 49be
00000360: 280d 463e fcf6 33bd 6ef4 7bbe ebdd 89be
00000370: f708 973e 5cea 74bc 2572 4c3e 0de3 8dbe
00000380: b16e 80bc 3a66 a93d f43f 7cbe 3743 963d
00000390: c764 80be 8202 9cbe 53cc bd3b 2177 473e
000003a0: 0c6f 523b e270 a0bd 0b7a 303e 3ea1 4f3e
000003b0: b12f 60bc 1035 1f3e 30e8 2bbe 18ff 85be
000003c0: 1483 f53c 85ab 32be f29f 2b3e ae5a 76bd
000003d0: f76a 55bd aaa4 4fbe c1f5 44bd 0896 633d
000003e0: 4e44 373e d1ab 2fbe c4d7 8cbd bc0c 42be
000003f0: b961 08bd 4be1 b0bd 7dd2 033e ec5d 633c

fc.0.linear.bias f4 [512]
-0.2925705 -0.20098746 0.19878379 0.2830117 0.23943458 0.1705325 -0.20296048 0.09851631
0.25019014 -0.23960714 -0.05107291 -0.24806504 -0.009790307 0.20490243 -0.301986 -0.101139374
0.16579585 -0.073519565 0.2064448 0.10809194 0.05615037 -0.045458287 -0.07830417 -0.06764517
-0.026246386 -0.16847102 -0.09203894 0.17800573 0.22288811 0.05601857 0.050418355 -0.2690015
0.0625089 0.26575586 -0.13871431 -0.08069692 0.30526084 0.0459842 0.24565884 -0.08383751
-0.28307906 0.029259412 -0.2425656 -0.13652812 0.10783577 -0.2903898 0.16968945 0.29193026
0.29831237 -0.27269343 -0.31532186 -0.12677805 0.022939587 -0.15289077 0.22020198 0.28999004
0.08152348 -0.04924732 -0.29091847 0.18939641 -0.04800403 0.21457225 0.11879058 0.05094656
-0.2363742 0.2066128 0.058686737 0.24966106 0.23669761 -0.1683839 -0.24007794 -0.29629153
-0.104752325 -0.107579276 0.01876544 0.16544704 -0.024333525 -0.21485265 -0.2649321 0.24928609
-0.063263245 0.13009647 -0.12934856 -0.11952994 0.28512302 0.023161827 -0.08392126 -0.043040156
-0.27822787 0.2724413 -0.22941507 0.2372553 0.18109176 -0.049030762 0.04623687 -0.244634
0.21192156 0.20642191 -0.11636508 0.071726784 0.18491134 -0.0941074 0.021083737 0.2312126
0.039645042 -0.046365183 0.13984922 -0.0912354 -0.17293534 -0.16294865 -0.14765994 0.24958459
0.15768681 -0.02397835 0.22887644 0.14663225 0.254813 -0.22924107 -0.28495458 -0.110651314
0.14660315 -0.12080784 0.27146968 -0.07563973 0.25844422 0.15950935 0.14055476 0.13935183
-0.029143812 -0.22338536 0.0950776 0.07316066 0.30303416 0.0546313 -0.064052664 -0.10698365
0.27305213 -0.19380173 0.12526639 0.22671919 -0.03886192 0.110340685 0.048080895 0.0942034
0.24382375 -0.29723498 0.03986419 0.19746841 -0.26201546 0.31766784 -0.058253516 -0.16123559
-0.053925365 -0.21415798 -0.14322542 -0.09115013 0.043652166 -0.06334722 0.053935826 -0.2626635
0.0069885314 -0.055265836 0.15721379 -0.05903403 0.21024607 0.15069644 -0.03138698 0.20639518
0.0029817603 -0.14928319 -0.2667694 -0.06320624 -0.09648628 0.15409839 0.24732547 -0.2367168
0.19792026 -0.288582 -0.019687915 0.25738326 -0.008023995 -0.0073207053 -0.050470054 0.30449674
-0.13522927 0.088538416 -0.24573044 0.028353253 0.15753095 -0.12778352 0.21017584 0.27466875
-0.29268375 0.26479983 -0.25470492 -0.053989213 -0.25287202 0.19813035 -0.14646961 -0.11077074
-0.14030123 -0.24547538 0.06510788 -0.05779596 -0.112150535 -0.2791837 0.17738123 0.16421431
-0.19025935 0.17441602 -0.3050762 0.2671188 0.27463472 0.2074988 0.05755332 -0.22727922
0.23163237 -0.29292762 -0.31325716 0.20193332 -0.16413455 0.13268872 -0.2698845 -0.0917776
-0.30281526 -0.049141906 0.17514028 -0.16153029 0.17027661 -0.08508191 0.25614902 -0.246244
-0.25089154 -0.29313636 0.018148774 -0.28681126 0.26388994 -0.1344857 -0.003252622 -0.045350216
0.22935997 0.13539964 -0.10156934 0.29832977 0.20840345 -0.1499304 -0.16047826 0.17721283
0.2978197 -0.27047578 -0.2391316 0.30311492 0.29351693 0.07889438 -0.03622573 0.13586462
00000000: cdcb 95be a8cf 4dbe fa8d 4b3e e9e6 903e
00000010: 572e 753e 12a0 2e3e dfd4 4fbe ebc2 c93d
00000020: ec18 803e 935b 75be d431 51bd c304 7ebe
00000030: 8667 20bc f1d1 513e e99d 9abe 2922 cfbd
00000040: 63c6 293e 6d91 96bd 4466 533e 4f5f dd3d
00000050: eefd 653d 7832 3abd f05d a0bd 8d89 8abd
00000060: a902 d7bc ab83 2cbe e97e bcbd 2247 363e
00000070: c83c 643e ba73 653d 7a83 4e3d 91ba 89be
00000080: ab04 803d 2711 883e 200b 0ebe 6d44 a5bd
00000090: 264b 9c3e ee59 3c3d fe8d 7b3e 00b3 abbd
000000a0: bdef 90be 6fb1 ef3c 1e63 78be 07ce 0bbe
000000b0: 00d9 dc3d f9ad 94be 12c3 2d3e e277 953e
000000c0: 66bc 983e 799e 8bbe de71 a1be 1bd2 01be
000000d0: cdeb bb3c 668f 1cbe a17c 613e 9379 943e
000000e0: c8f5 a63d 8fb7 49bd 44f3 94be 22f1 413e
000000f0: e09f 44bd d4b8 5b3e 7a48 f33d 57ad 503d
00000100: 140c 72be 4e92 533e 8161 703d 26a7 7f3e
00000110: dc60 723e d46c 2cbe fed6 75be 86b3 97be
00000120: 6388 d6bd 8652 dcbd fbb9 993c f36a 293e
00000130: 1a57 c7bc 5502 5cbe 2ea5 87be da44 7f3e
00000140: 2990 81bd 0238 053e f373 04be 1dcc f4bd
00000150: a5fb 913e dfbd bd3c e9de abbd e04a 30bd
00000160: e273 8ebe 6d7d 8b3e c9eb 6abe 0ef3 723e
00000170: 1e70 393e 7bd4 48bd df62 3d3d 5681 7abe
00000180: f701 593e 4460 533e d150 eebd 7ee5 923d
00000190: 6659 3d3e 61bb c0bd cdb7 ac3c ffc2 6c3e
000001a0: d762 223d 6be9 3dbd a234 0f3e a0d9 babd
000001b0: f615 31be 03dc 26be 2b34 17be 1a93 7f3e
000001c0: a778 213e 3f6e c4bc 965e 6a3e c426 163e
000001d0: d976 823e 2cbe 6abe 91e5 91be 289d e2bd
000001e0: 231f 163e 1a6a f7bd 13fe 8a3e 01e9 9abd
000001f0: cd52 843e 6b56 233e 96ed 0f3e 3fb2 0e3e
00000200: 01bf eebc 22bf 64be 0bb8 c23d 42d5 953d
00000210: 4b27 9b3e 12c5 5f3d 0b2e 83bd 3e1a dbbd
00000220: 7dcd 8b3e f673 46be d545 003e 1329 683e
00000230: ad2d 1fbd 4cfa e13d 79f0 443d b6ed c03d
00000240: efac 793e 2f2f 98be a248 233d 2935 4a3e
00000250: e426 86be 5ca5 a23e 3d9b 6ebd f11a 25be
00000260: d8e0 5cbd 3b4c 5bbe afa9 12be ebac babd
00000270: 9dcc 323d 30bc 81bd d0eb 5c3d d57b 86be
00000280: 0d00 e53b 6e5e 62bd a7fc 203e abcd 71bd
00000290: bf4a 573e 2b50 1a3e a28f 00bd 4259 533e
000002a0: a369 433b b1dd 18be 0096 88be 4672 81bd
000002b0: 999a c5bd f8cb 1d3e e342 7d3e e465 72be
000002c0: 9cab 4a3e 05c1 93be 8d48 a1bc bdc7 833e
000002d0: 1377 03bc 87e2 efbb b0b9 4ebd ffe6 9b3e
000002e0: 8b79 0abe a153 b53d c3a0 7bbe 1545 e83c
000002f0: cb4f 213e afd9 02be 5638 573e 62a1 8c3e
00000300: a5da 95be d893 873e af68 82be cb23 5dbd
00000310: 7178 81be afe2 4a3e 21fc 15be c5db e2bd
00000320: 20ab 0fbe e65d 7bbe 4857 853d 75bb 6cbd
00000330: 2eaf e5bd 2af1 8ebe 6da3 353e cc27 283e
00000340: 59d3 42be 1d9a 323e f332 9cbe ccc3 883e
00000350: ec9c 8c3e 917a 543e 08bd 6b3d e2bb 68be
00000360: 0931 6d3e 9cfa 95be 3e63 a0be 9cc7 4e3e
00000370: e312 28be 8ddf 073e 4d2e 8abe e5f5 bbbd
00000380: 9a0a 9bbe 0649 49bd f957 333e 3268 25be
00000390: fe5c 2e3e 6d3f aebd f725 833e 6327 7cbe
000003a0: db74 80be f815 96be bdac 943c edd8 92be
000003b0: 951c 873e 9fb6 09be f129 55bb 26c1 39bd
000003c0: 57dd 6a3e 34a6 0a3e 9603 d0bd aebe 983e
000003d0: b767 553e 5b87 19be 6a54 24be 4877 353e
000003e0: d37b 983e cd7b 8abe eade 74be e131 9b3e
000003f0: da47 963e 6093 a13d 6e61 14bd 1820 0b3e

fc.1.weight f4 [10, 512]
0.017220845 -0.0428495 0.0365211 0.020454349 -0.002635712 0.026693594 0.004341695 0.0035192545
0.038238857 -0.025912391 0.026574813 -0.0011411002 0.04188136 0.011569829 -0.030159645 0.0024601948
0.007893068 0.006998283 0.008162764 -0.042351436 0.00806537 0.03473524 0.02496248 0.026445415
-0.02943395 -0.021535536 -0.027424546 -0.0027085936 -0.041692585 0.008527971 -0.029344628 -0.015134795
-0.021674354 -0.0038170966 0.008521722 0.00930235 0.03530527 -0.0029523843 -0.043935962 0.015211684
0.00897845 -0.029566165 0.009381048 0.0126271155 -0.04146008 -0.025685554 -0.04235296 -0.014840094
0.02906607 0.01138137 0.0053090714 -0.03845652 0.019160666 0.042774133 0.007719074 0.02466077
0.02198024 -0.015193958 -0.032049775 0.029836386 -0.023708023 -0.030266535 -0.036141757 -0.016034773
-0.0234966 0.012296811 -0.017443324 0.0423004 -0.0018371606 0.029263701 -0.009586933 0.033557534
-0.0078661945 -0.019495098 -0.025205206 0.019212717 0.01855878 0.037881996 -0.026809886 -0.020144448
-0.03295341 0.029053105 0.014073539 -0.041266024 0.016394254 -0.008225702 0.007500992 0.013462216
-0.041001838 0.033421967 -0.021586968 -0.04174783 -0.0062899934 -0.015810406 -0.004939783 -0.029166235
0.0063797967 -0.0003142501 -0.016360635 -0.03682552 0.031804603 -0.033169568 0.023148037 0.039662115
0.0020124163 -0.004569671 0.00693832 0.006236235 0.0392358 0.0017034593 0.015083026 0.012802554
0.024674594 0.02119703 -0.025823517 0.025281195 -0.033377066 -0.025969239 -0.011248605 -0.0007420874
-0.0012587083 0.037794042 -0.025400821 -0.0397227 -0.010953741 0.03303303 0.0069825314 0.011908665
-0.008101861 -0.014659981 0.016524905 -0.009587182 0.019993799 0.03734137 0.021229615 -0.014301506
0.0014106986 0.025486458 0.029833272 -0.018344631 0.038150292 -0.026230212 -0.0022844765 -0.016790092
-0.03560202 0.02427888 -0.04268265 0.010887933 -0.033250533 0.019165967 -0.03286017 0.028012129
0.02339803 0.00450539 0.011836424 -0.013059843 -0.0019324413 0.026529359 0.005632611 0.030676309
-0.013116811 0.039387036 0.012264659 0.031282857 0.0057521653 -0.0064333365 0.02234769 -0.012731964
0.03182888 -0.01824737 -0.009652725 0.039495666 -0.044171933 -0.012446916 -0.029086703 -0.015400387
0.01802725 -0.034190472 -0.005759362 -0.031323414 -0.020635443 -0.0047417255 -0.00010996927 0.022010257
-0.04391091 0.028352154 0.030608034 0.008369622 -0.041859027 -0.0020077513 0.032453317 -0.022434322
-0.023834314 -0.025963997 0.012306776 -0.032276466 -0.044512015 -0.014882809 0.0039983876 0.0077211936
-0.009137983 0.0070718187 -0.04245573 -0.014628162 0.0015563263 0.04088758 -0.045818843 0.02959292
-0.03543275 -0.03724358 0.016052052 -0.025747893 -0.026585462 0.04219969 -0.038740538 0.04131686
-0.036242835 -0.009125578 -0.0040736794 -0.03113554 0.027010197 0.039650027 -0.017279861 0.02192379
0.02475107 -0.04460977 0.013944194 -0.0011522531 -0.012154924 -0.0110660065 -0.030585216 -0.010405517
-0.042399265 -0.033943918 -0.002698884 0.008677651 0.0360821 -0.031716146 -0.03283574 0.034385044
-0.022505261 0.03890005 -0.0044405162 0.03631934 -0.037110355 0.03305345 0.03760528 -0.027013713
-0.016770458 -0.012936648 0.013016177 -0.0026118234 -0.02360037 0.0042455834 6.658276e-05 0.041004952
00000000: bb12 8d3c f582 2fbd 2697 153d e18f a73c
00000010: e9bb 2cbb 86ac da3c c744 8e3b 4ba3 663b
00000020: 59a0 1c3d 3946 d4bc 6cb3 d93c f890 95ba
00000030: ca8b 2b3d 618f 3d3c 5c11 f7bc 383b 213b
00000040: ed51 013c da51 e53b 1dbd 053c b378 2dbd
00000050: 9d24 043c 8a46 0e3d 1d7e cc3c 0ea4 d83c
00000060: 781f f1bc 4b6b b0bc 71a9 e0bc a982 31bb
00000070: d8c5 2abd e7b8 0b3c 2564 f0bc eef7 77bc
00000080: 6a8e b1bc 4128 7abb b19e 0b3c e268 183c
00000090: 429c 103d ca7c 41bb 32f6 33bd 6d3a 793c
000000a0: 591a 133c be34 f2bc f8b2 193c f6e1 4e3c
000000b0: 0bd2 29bd 836a d2bc 4c7a 2dbd de23 73bc
000000c0: f81b ee3c ed78 3a3c b8f7 ad3b 9584 1dbd
000000d0: d4f6 9c3c ee33 2f3d 49f0 fc3b 6205 ca3c
000000e0: e70f b43c 14f0 78bc a046 03bd 706b f43c
000000f0: 5437 c2bc 86f1 f7bc 6109 14bd 5b5b 83bc
00000100: f17b c0bc 9078 493c 4de5 8ebc 2f43 2d3d
00000110: e1cc f0ba 6eba ef3c 8312 1dbc a073 093d
00000120: 36e1 00bc 2fb4 9fbc 267b cebc fd63 9d3c
00000130: 9508 983c 272a 1b3d 68a0 dbbc f805 a5bc
00000140: 28fa 06bd c700 ee3c b394 663c 9006 29bd
00000150: 3e4d 863c 18c5 06bc e2ca f53b a090 5c3c
00000160: 8bf1 27bd 79e5 083d 27d7 b0bc c6ff 2abd
00000170: 4a1c cebb d384 81bc e7dd a1bb 07ee eebc
00000180: 9d0d d13b efc1 a4b9 bd06 86bc 5bd6 16bd
00000190: 8b45 023d d0dc 07bd f4a0 bd3c be74 223d
000001a0: bee2 033b 2ebd 95bb d95a e33b 5559 cc3b
000001b0: b8b5 203d 9c46 df3a cc1e 773c cec1 513c
000001c0: 6022 ca3c 65a5 ad3c d78b d3bc 821a cf3c
000001d0: 64b6 08bd 71bd d4bc 124c 38bc a488 42ba
000001e0: 3efb a4ba edcd 1a3d 6215 d0bc 45b4 22bd
000001f0: 5277 33bc a44d 073d b8cd e43b 901c 433c
00000200: abbd 04bc 6b30 70bc 3d5f 873c 8e13 1dbc
00000210: 09ca a33c 44f3 183d bbe9 ad3c dd50 6abc
00000220: 31e7 b83a fac8 d03c e864 f43c 7b47 96bc
00000230: 7b43 1c3d bee0 d6bc 28b7 15bb 608b 89bc
00000240: 6cd3 11bd 80e4 c63c 01d4 2ebd 4d63 323c
00000250: b631 08bd f201 9d3c 6398 06bd b179 e53c
00000260: 3aad bf3c f3a1 933b 8fed 413c f4f8 55bc
00000270: f849 fdba 1954 d93c c491 b83b e24c fb3c
00000280: e5e7 56bc 4d54 213d b5f1 483c 7422 003d
00000290: a97c bc3b bdce d2bb 8112 b73c ba99 50bc
000002a0: 005f 023d 827b 95bc 7726 1ebc 35c6 213d
000002b0: a1ed 34bd 26ee 4bbc 3d47 eebc e851 7cbc
000002c0: e2ad 933c 4f0b 0cbd 08b9 bcbb fb4c 00bd
000002d0: a90b a9bc 7a60 9bbb 4d9f e6b8 db4e b43c
000002e0: eddb 33bd c742 e83c b3bd fa3c bd20 093c
000002f0: 5f74 2bbd 7a94 03bb c5ed 043d 2fc8 b7bc
00000300: 2e40 c3bc 73b2 d4bc 5ca2 493c 5434 04bd
00000310: 3b52 36bd 06d7 73bc e804 833b 1102 fd3b
00000320: 7bb7 15bc b7ba e73b 0fe6 2dbd f5aa 6fbc
00000330: a5fd cb3a bc79 273d 8aac 3bbd da6c f23c
00000340: ee21 11bd b98c 18bd 987f 833c 3fed d2bc
00000350: c1c9 d9bc 95d9 2c3d 66ae 1ebd de3b 293d
00000360: 5e73 14bd 7383 15bc 807c 85bb f60f ffbc
00000370: 7d44 dd3c 1168 223d 7f8e 8dbc 8599 b33c
00000380: c2c2 ca3c bcb8 36bd 3076 643c 3307 97ba
00000390: 7225 47bc 324e 35bc d98d fabc e77b 2abc
000003a0: daaa 2dbd c708 0bbd c3df 30bb b52c 0e3c
000003b0: d3ca 133d cae8 01bd c57e 06bd 55d7 0c3d
000003c0: f45c b8bc a955 1f3d c081 91bb 97c3 143d
000003d0: 0701 18bd 0e63 073d fe07 1a3d dd4b ddbc
000003e0: 3362 89bc 3cf4 53bc ce41 553c 202b 2bbb
000003f0: 9055 c1bc 891e 8b3b 59a2 8b38 cff4 273d

fc.1.bias f4 [10]
-0.015436088 0.03821793 -0.025345853 -0.037460394 -0.022286234 -0.04501901 0.0053483625 -0.021442508
0.0034475084 -0.01195209
00000000: a5e7 7cbc 678a 1c3d 1ba2 cfbc 1270 19bd
00000010: 9f91 b6bc da65 38bd 5141 af3b 33a8 afbc
00000020: 98ef 613b b3d2 43bc
