cache/10d_nn/smcusum/model_1/iter_6.pth (torch, 45000 bytes, 4 tensors)

fc.0.linear.weight f4 [512, 10]
0	0xbdbd6020	-0.0924685
1	0xbd886994	-0.066607624
2	0xbe0f30cb	-0.13983457
3	0xbe5d2dbf	-0.21599482
4	0x3de6087f	0.11232089
5	0xbe4bed9c	-0.1991486
6	0xbd9726e2	-0.07380463
7	0x3e75a6aa	0.23989359
8	0x3e004caf	0.12529252
9	0xbd545c2b	-0.05184571
10	0x3d84e773	0.06489458
11	0xbd1a8c15	-0.03773125
12	0x3d29fb0a	0.041499175
13	0xbe1f7dde	-0.15575358
14	0xbe893758	-0.26800036
15	0x3dd16136	0.1022362
16	0xbe6f82f6	-0.23389801
17	0xbe740a85	-0.23832138
18	0xbe3b58d9	-0.18295611
19	0x3db30f19	0.08743114
20	0x3dcc7f9a	0.099852756
21	0xbe22f424	-0.15913445
22	0xbdf09fce	-0.1174923
23	0x3df82965	0.121172704
24	0xbe3b0cc4	-0.18266588
25	0x3e0fde62	0.14049676
26	0xbe93c57c	-0.28861606
27	0xbe654cfd	-0.2239265
28	0x3d34dde6	0.04415693
29	0xbd9ec009	-0.077514715
30	0xbeb04fda	-0.34435922
31	0xbe29cd68	-0.16582263
32	0x3dc49eb6	0.09600584
33	0x3e2eb804	0.17062384
34	0xbe3dd36a	-0.1853768
35	0xbca0559c	-0.019572072
36	0xbe0d8f76	-0.13824257
37	0xb97b5c6e	-0.00023971658
38	0x3e951472	0.2911716
39	0x3e590822	0.21194509
40	0x3e85d287	0.26137182
41	0x3e9fc1be	0.312025
42	0x3e447e26	0.19188747
43	0x3e81738c	0.25283468
44	0xbb19dd1c	-0.0023477739
45	0xbe09bd33	-0.1345108
46	0x3dfdf943	0.124010585
47	0x3d359647	0.04433277
48	0xbdbe1686	-0.0928164
49	0xbe3f0c1a	-0.1865696
50	0x3deb48be	0.11488484
51	0xbcbdf933	-0.023190117
52	0xbe4539a0	-0.19260263
53	0xbe3cede2	-0.1845012
54	0x3e2b8ad2	0.16752174
55	0x3e8066e0	0.25078487
56	0x3cf9098f	0.030400066
57	0x3e7de08a	0.24792686
58	0xbe9ebc00	-0.31002808
59	0xbe4dd0b4	-0.20099145
60	0x3e73cb9c	0.2380814
61	0x3c228911	0.0099203745
62	0x3d8bfc60	0.06835246
63	0x3c814c6e	0.015783515
64	0xbe5bd3c7	-0.21467505
65	0x3ec440e3	0.38330755
66	0xbe394695	-0.18093331
67	0x3e973c61	0.29538253
68	0x3e511c0b	0.20420854
69	0xbcebff28	-0.028808191
70	0x3e519044	0.20465189
71	0xbdd8e0a4	-0.10589722
72	0xbe1f3153	-0.1554616
73	0xbea6b798	-0.32561946
74	0xbe55c16c	-0.20874566
75	0xba6ec1b5	-0.0009107844
76	0xbe6ad21f	-0.22931717
77	0xbddf0779	-0.10890097
78	0x3df9a58e	0.1218978
79	0xbe94da59	-0.29072836
80	0x3db04e02	0.08608629
81	0x3e1eb30c	0.15497988
82	0xbe5253de	-0.20539805
83	0xbdbee843	-0.09321644
84	0x3e213345	0.15742214
85	0xbdcec130	-0.10095441
86	0x3e6a2faa	0.22869745
87	0xbc871e69	-0.016493993
88	0xbe12d1b2	-0.14337805
89	0xbe80bbaa	-0.25143176
90	0x3dcf1553	0.10111489
91	0x3eb9d924	0.36298478
92	0x3e7e4da7	0.2483431
93	0x3da9b3bf	0.08286237
94	0x3d4def23	0.050276887
95	0x3e860a7a	0.26179868
96	0xbda6e8a2	-0.0814984
97	0x3e5535d2	0.20821312
98	0x3eac97b0	0.33709478
99	0x3d78fb01	0.06078625
100	0x3dd83226	0.1055644
101	0x3d5b893e	0.05359768
102	0x3dd13126	0.102144524
103	0x3e8cdd81	0.27512744
104	0xbc535342	-0.012898268
105	0xbe16b3cc	-0.14717025
106	0x3db6658b	0.089060865
107	0xbeaa3c7f	-0.3324928
108	0xbda1927d	-0.078892685
109	0x3ccaaf75	0.024741868
110	0x3d8d633e	0.069036946
111	0xbe91f8b7	-0.28510067
112	0x3d2f74d6	0.042836033
113	0xbe1bc3e1	-0.1521144
114	0xbe8e0960	-0.27741528
115	0x3e693aa1	0.22776271
116	0x3caee407	0.021348966
117	0xbe9d6991	-0.30744603
118	0xbd9ddc66	-0.07708053
119	0xbe8b596f	-0.2721667
120	0xbe67aa2b	-0.22623508
121	0xbe92bdb5	-0.2866036
122	0x3e0e6b54	0.1390813
123	0x3ca88bc4	0.020574458
124	0x3b0dae1d	0.0021618672
125	0x3d53fb0b	0.051753085
126	0xbe080836	-0.13284382
127	0xbd96e032	-0.073669806
128	0x3e29b8fa	0.16574469
129	0xbda92381	-0.08258725
130	0xbd32e9d2	-0.04368002
131	0xbe836bb5	-0.2566811
132	0xbe111194	-0.14166862
133	0xbd208fde	-0.039199702
134	0x3eb5a0a9	0.35474136
135	0xbeb13639	-0.3461168
136	0xbe7ba2f3	-0.24573879
137	0xbd1269b1	-0.035745326
138	0x3dd9df9d	0.10638354
139	0x3e3d8b22	0.18510106
140	0x3de924ed	0.11383996
141	0xbcc35b6f	-0.02384731
142	0xbe917efa	-0.28417188
143	0x3cf2adda	0.029623915
144	0xbd2e84b0	-0.04260701
145	0x3ca487d4	0.0200843
146	0x3cf20808	0.029544845
147	0xbe964497	-0.29349205
148	0xbe8d34d2	-0.2757936
149	0x3e5fd340	0.21857929
150	0xbdf4bd67	-0.11950188
151	0xbe098bc2	-0.1343222
152	0xbc52d671	-0.01286851
153	0xbeb627df	-0.35577294
154	0xbc80a0a4	-0.0157016
155	0x3dbca8cb	0.09211882
156	0x3e0062ee	0.12537739
157	0xbe750a0e	-0.23929617
158	0x3d871d34	0.06597367
159	0x3e11db0a	0.14243713
160	0x3e4e4c85	0.20146377
161	0xbdb2b1e2	-0.08725335
162	0xbdbc4394	-0.09192577
163	0xbe1d7e70	-0.15380263
164	0x3e078005	0.1323243
165	0x3e5dfe1b	0.21678965
166	0xbe4bddcb	-0.19908826
167	0x3e10f0c3	0.14154343
168	0x3dcd4b12	0.10024084
169	0x3d0341cd	0.032045174
170	0x3e7cdfd3	0.24694757
171	0xbcf1a8f5	-0.02949951
172	0xbdb43c94	-0.08800617
173	0xbe26e6a3	-0.16298918
174	0x3e7e6a2b	0.24845187
175	0x3df25583	0.11832716
176	0x3e6368c6	0.22207937
177	0xbe458729	-0.19289841
178	0xbd3c1e35	-0.045927245
179	0x3d66bfe7	0.056335356
180	0xbe89dfd4	-0.2692858
181	0xbe7b9d8f	-0.24571823
182	0xbe1824a7	-0.14857732
183	0xbe1d2667	-0.1534668
184	0x3e9c5f17	0.30541298
185	0x3e81520e	0.25257915
186	0xbe14326e	-0.14472362
187	0xbe920d08	-0.28525567
188	0xbe9b55cf	-0.30338904
189	0xbd0ba018	-0.034088224
190	0x3de3696d	0.11104093
191	0xbe86ebcf	-0.26351783
192	0x3e2f25b7	0.17104231
193	0x3d95715e	0.07297014
194	0xbe2b9ba1	-0.16758586
195	0xbd5350fe	-0.051590912
196	0xbd36b210	-0.044603407
197	0x3e26044d	0.16212578
198	0x3d7d452d	0.06183355
199	0x3e96c1fc	0.29444873
200	0xbd5a69ca	-0.053323545
201	0xbd9539d9	-0.07286424
202	0xbd4d6956	-0.050149284
203	0x3d06ebe1	0.032939795
204	0xbdb44c9c	-0.088036746
205	0x3e6acac5	0.22928913
206	0x3dcbe55d	0.09955857
207	0x3e866547	0.26249143
208	0xbea0add3	-0.31382617
209	0xbe9422dd	-0.2893285
210	0xbe3c397a	-0.183813
211	0x3b761317	0.0037548
212	0x3d936919	0.0719778
213	0x3e2b0060	0.16699362
214	0xbe8f267a	-0.27959043
215	0xbe89986f	-0.2687411
216	0x3e6563da	0.22401372
217	0xbcf27b2d	-0.02959975
218	0xbe6f07b1	-0.23342778
219	0xbe834423	-0.25637922
220	0x3e90b8ca	0.28265983
221	0xbc9daf67	-0.019248677
222	0x3e4dedda	0.20110264
223	0xbe85d3ee	-0.26138252
224	0xbc8422f4	-0.016129948
225	0x3d9b154a	0.0757242
226	0xbe80fe44	-0.2519399
227	0x3d9687c4	0.07350114
228	0xbe7be932	-0.24600676
229	0xbe9aa605	-0.30204788
230	0xbb8458f7	-0.0040389257
231	0x3e53aa22	0.2067037
232	0x3c27bcab	0.010237853
233	0xbd558c8b	-0.052135985
234	0x3e4c51fd	0.19953151
235	0x3e413821	0.18869068
236	0x3c01e158	0.007927261
237	0x3e30570d	0.17220707
238	0xbe1aadf2	-0.15105417
239	0xbe82fba1	-0.25582603
240	0x3d230476	0.039799176
241	0xbe312b50	-0.17301679
242	0x3e3e25cc	0.18569106
243	0xbdca68b7	-0.09883254
244	0xbd151503	-0.03639699
245	0xbe4eaf3f	-0.20184039
246	0xbc9150b6	-0.017738681
247	0x3dabf639	0.083965726
248	0x3e3c87b6	0.18411145
249	0xbe1bdae3	-0.15220217
250	0xbda6c780	-0.0814352
251	0xbe413daa	-0.18871179
252	0xbc1fe691	-0.009759561
253	0xbd815edd	-0.06316922
254	0x3e399c0d	0.18125935
255	0xbcad7a92	-0.02117661

fc.0.linear.bias f4 [512]
0	0xbe913d0d	-0.2836689
1	0xbe4a1419	-0.19734229
2	0x3e6630b2	0.22479513
3	0x3e4c14da	0.19929829
4	0x3e9bddc6	0.30442637
5	0x3e2d8a49	0.16947283
6	0xbe42da56	-0.19028601
7	0x3de0ee53	0.10982957
8	0x3e74e254	0.23914462
9	0xbe8f8403	-0.28030404
10	0x3c615078	0.013752095
11	0xbe6f32d4	-0.23359233
12	0xbd854c6b	-0.06508716
13	0x3e1ca37e	0.15296742
14	0xbe96ee93	-0.29478893
15	0xbe0efa19	-0.13962592
16	0x3e316e20	0.17327166
17	0xbd6c3355	-0.05766614
18	0x3e5a6916	0.2132915
19	0x3e7d045e	0.24708697
20	0x3dc704fe	0.09717749
21	0xbd58b543	-0.05290724
22	0xbd8d7513	-0.06907096
23	0xbda8df90	-0.08245766
24	0xbd4f7e47	-0.050657537
25	0xbe4c0a87	-0.19925891
26	0xbddbb874	-0.10728541
27	0x3e60882e	0.21926948
28	0x3e7461d6	0.23865446
29	0x3d43b8fe	0.047783844
30	0x3d5de208	0.05417064
31	0xbe1cf452	-0.15327576
32	0x3dd11c02	0.1021042
33	0x3e853291	0.26015142
34	0xbe13c6bb	-0.14431278
35	0xbd88bc7e	-0.06676577
36	0x3e9a12f7	0.30092594
37	0x3d32ab92	0.043620653
38	0x3e6e4d6e	0.23271725
39	0xbdf9022a	-0.12158616
40	0xbea98031	-0.33105615
41	0x3caf0e6e	0.021369185
42	0xbe7f8b1a	-0.24955407
43	0xbe019d6d	-0.1265771
44	0x3dedcc09	0.11611182
45	0xbeaa1f14	-0.33226836
46	0x3e87d50c	0.2652973
47	0x3e8e77fb	0.27825913
48	0x3e8fbb92	0.28072792
49	0xbe956cb8	-0.29184508
50	0xbeb7baca	-0.35884696
51	0xbe01d21b	-0.12677805
52	0xbd3d22e2	-0.046175845
53	0xbe5699a5	-0.20957048
54	0x3e37eff3	0.17962627
55	0x3e5b9538	0.21443641
56	0x3da4861e	0.08033393
57	0xbd7e0e24	-0.062025204
58	0xbe829da3	-0.25510892
59	0x3e34668c	0.17617244
60	0xbdedbd14	-0.116083294
61	0x3e2ebb70	0.17063689
62	0x3dec0783	0.1152487
63	0x3d9da611	0.0769769
64	0xbe81f0fc	-0.2537917
65	0x3e495068	0.19659579
66	0x3d210219	0.03930864
67	0x3e25bf7b	0.16186325
68	0x3e8e719b	0.2782105
69	0xbda717bf	-0.08158826
70	0xbe7b8667	-0.24562989
71	0xbe9374ff	-0.28800198
72	0xbd2a6196	-0.04159697
73	0xbddc5286	-0.107579276
74	0x3ca74b5c	0.020421676
75	0x3ddfa8e1	0.10920883
76	0x3e2434e8	0.16035807
77	0xbe4cdcc3	-0.20006089
78	0xbe8cfb15	-0.2753531
79	0x3e7c9c34	0.24668962
80	0xbdbe5b31	-0.09294737
81	0x3e15efad	0.1464221
82	0xbe05f859	-0.13083018
83	0xbdfa05b8	-0.12208122
84	0x3e8bdaf3	0.27315482
85	0x3b75cbc8	0.0037505496
86	0xbdcc9ae2	-0.09990479
87	0xbcfec015	-0.031097451
88	0xbea2f1a8	-0.31824994
89	0x3eab8f1f	0.3350763
90	0xbe4da8a6	-0.20083866
91	0x3e73ac1f	0.23796128
92	0x3dc6159d	0.09672091
93	0xbd4939e6	-0.049127482
94	0x3cbe29f9	0.023213373
95	0xbebbd297	-0.36684105
96	0x3e108ce2	0.14116243
97	0x3b893adc	0.004187925
98	0xbe0c62a2	-0.137095
99	0x3d460340	0.048342943
100	0x3e487cc4	0.19578844
101	0xbd634a90	-0.05549103
102	0xbc8b2d3c	-0.016989343
103	0x3e7dd643	0.24788766
104	0x3ccd67e8	0.02507396
105	0x3c8e3398	0.017358586
106	0x3e0df18e	0.13861677
107	0xbdbb657d	-0.09150217
108	0xbe8e53a0	-0.27798176
109	0xbe4cbfd9	-0.19995059
110	0xbe3ab5f0	-0.18233466
111	0x3e515d5b	0.20445769
112	0x3e28bada	0.16477528
113	0xbc54de56	-0.012992462
114	0x3e852977	0.26008198
115	0x3e46a48e	0.1939871
116	0x3e810190	0.25196505
117	0xbf15c6c4	-0.5850642
118	0xbea110bf	-0.3145809
119	0xbde178ca	-0.11009367
120	0x3e9aaca4	0.3020984
121	0xbe459e09	-0.19298567
122	0x3e73fb18	0.23826253
123	0xbda98b99	-0.08278579
124	0x3e6ca12d	0.23108359
125	0x3e806f7d	0.2508506
126	0x3de5b0e4	0.1121538
127	0x3e039926	0.1285139
128	0xbcda2709	-0.026629942
129	0xbe2b6b4c	-0.1674015
130	0x3dcf46f1	0.10120953
131	0x3d868cda	0.06569834
132	0x3e63881a	0.22219887
133	0x3d5080d7	0.05090412
134	0xbd3456a6	-0.044027947
135	0xbd957b19	-0.0729887
136	0x3e8e6de8	0.27818227
137	0xbe3f71f1	-0.18695809
138	0x3d975bcb	0.07390555
139	0x3e619a48	0.2203151
140	0xbd9a9d07	-0.07549482
141	0x3dd51701	0.10404778
142	0x3d903adc	0.070424765
143	0x3dbeca68	0.0931595
144	0x3e4c2171	0.19934632
145	0xbe9da3f3	-0.30789146
146	0x3c5207e9	0.012819269
147	0x3e1f188d	0.15536709
148	0xbe9b75bd	-0.30363265
149	0x3ecac007	0.3959963
150	0xbd5cc38e	-0.053897433
151	0xbe3cf538	-0.18452919
152	0xbd4e6720	-0.050391316
153	0xbe1075c3	-0.14107423
154	0xbe0dfb48	-0.13865387
155	0xbddafa8f	-0.106923215
156	0xb9c50bf0	-0.00037583662
157	0xbdcd21a0	-0.10016179
158	0xbcbb647a	-0.02287506
159	0xbe87b30f	-0.26503798
160	0xbd29f63f	-0.041494604
161	0xbda51b83	-0.08061888
162	0x3e2e8e04	0.17046362
163	0xbe052bbf	-0.13004969
164	0x3e0cb485	0.13740738
165	0x3e354d2c	0.1770522
166	0xbcaee46c	-0.021349154
167	0x3e360b63	0.17777781
168	0xbbde50e7	-0.0067845467
169	0xbe2300f7	-0.15918337
170	0xbea640c5	-0.3247129
171	0xbd0f935b	-0.03505264
172	0xbe0ddb7d	-0.1385326
173	0x3dbe7f75	0.09301654
174	0x3e82d24d	0.25551072
175	0xbe527f6b	-0.20556419
176	0x3e10bbf3	0.14134197
177	0xbea5c957	-0.32380173
178	0xbd3d68e1	-0.0462426
179	0x3e8f32d1	0.27968457
180	0xbcafde88	-0.021468416
181	0xbd8c6b74	-0.068564326
182	0xbda5cea1	-0.08096052
183	0x3e758e72	0.2398012
184	0xbe330413	-0.17482023
185	0x3db897d9	0.09013338
186	0xbe954e9a	-0.2916153
187	0xbd046c6b	-0.032329958
188	0x3e3651a1	0.17804576
189	0xbe0dacef	-0.138355
190	0x3e573856	0.21017584
191	0x3e90ed4a	0.28306037
192	0xbe948e1a	-0.29014665
193	0x3e8a2579	0.26981714
194	0xbea3bd7f	-0.31980512
195	0xbdb1c520	-0.08680177
196	0xbe88a3e0	-0.26687527
197	0x3e493b9d	0.19651647
198	0xbe15fc21	-0.14646961
199	0xbe367781	-0.17819025
200	0xbdb6b3f0	-0.08921039
201	0xbe91a505	-0.28446212
202	0x3d8babdc	0.06819889
203	0xbddf8e5e	-0.10915826
204	0xbe1139ea	-0.14182249
205	0xbe8ac534	-0.2710358
206	0x3e406cf8	0.18791568
207	0x3de5f5dc	0.112285346
208	0xbe655cb4	-0.22398645
209	0x3e077cca	0.13231197
210	0xbe9ced7a	-0.3064993
211	0x3e87e615	0.26542726
212	0x3e8d62ea	0.27614528
213	0x3e54b5d5	0.20772488
214	0x3d69d14a	0.05708436
215	0xbe81a5a8	-0.25321698
216	0x3e4d0a5c	0.20023483
217	0xbebb8e70	-0.3663211
218	0xbe95893f	-0.29206273
219	0x3e0be309	0.13660826
220	0xbde82f82	-0.113371864
221	0x3e95ad9e	0.29234022
222	0xbe8cc288	-0.27492166
223	0xbe1369ef	-0.14395879
224	0xbe8e5aa0	-0.27803516
225	0xbd4349aa	-0.047677673
226	0x3e0fcdb2	0.1404331
227	0xbe329980	-0.17441368
228	0x3e2e5d21	0.17027713
229	0xbe029961	-0.12753822
230	0x3e56f680	0.2099247
231	0xbe7b593c	-0.24545759
232	0xbe8a4d6b	-0.2701219
233	0xbe8804ec	-0.26566255
234	0xbcb5ba6f	-0.022183625
235	0xbe91ef0a	-0.28502685
236	0x3e871c95	0.26388994
237	0xbe3ba363	-0.18324046
238	0xbd09dd9c	-0.03365861
239	0xbd782d43	-0.06059004
240	0x3e4c97d2	0.1997979
241	0x3e04cdbc	0.12969106
242	0xbe026abf	-0.12736033
243	0x3e91e13f	0.28492162
244	0x3e4b6195	0.19861443
245	0xbe0e87b6	-0.13918957
246	0xbe34571e	-0.17611358
247	0x3e78f2a6	0.24311313
248	0x3e9c51a2	0.3053103
249	0xbe9de572	-0.30839115
250	0xbe80f13f	-0.25184056
251	0x3e90f3c7	0.28310987
252	0x3e8ee9dc	0.27912796
253	0x3d9fd2af	0.078038566
254	0xbd29da0f	-0.041467723
255	0x3cf7dd61	0.030256929

fc.1.weight f4 [10, 512]
0	0xbd58d1a5	-0.052934308
1	0xbd2431d6	-0.04008659
2	0x3d29c389	0.041446242
3	0x3d2a9b6d	0.04165213
4	0xbc006e71	-0.007838831
5	0x3ca62bda	0.020284582
6	0x3baf282c	0.005345365
7	0x3a45aa8d	0.00075403677
8	0x3d0924fc	0.033482537
9	0xbd39c520	-0.04535401
10	0x3d0daaa4	0.034586564
11	0xba44d1ee	-0.00075080886
12	0x3d45297f	0.048135277
13	0x3c790842	0.015199723
14	0xbd023bdd	-0.03179537
15	0x3cd250fb	0.02567338
16	0x3c25e7fb	0.010126109
17	0x3c0ac42d	0.0084696235
18	0x3c6ebe07	0.014571673
19	0xbd95010d	-0.07275591
20	0x3b069419	0.002053505
21	0x3cf36e93	0.029715812
22	0x3c98fefa	0.01867627
23	0x3cc010b2	0.023445461
24	0xbd1323b0	-0.035922706
25	0xbcc6a8d3	-0.024250424
26	0xbcae4570	-0.021273345
27	0xbd4ece8a	-0.05048994
28	0xbd298086	-0.041382335
29	0x3cd298f6	0.025707703
30	0xbcf1bc12	-0.029508624
31	0xbc110742	-0.008851828
32	0xbccad0d5	-0.024757782
33	0x3c848ff1	0.016181918
34	0x3b2cf3aa	0.0026390352
35	0x3c61ba48	0.013777323
36	0x3cfdb7bb	0.030971399
37	0xbbe68b6f	-0.0070356647
38	0xbd0a270e	-0.03372865
39	0x3da8b5f2	0.08237828
40	0xbbef54fb	-0.0073038316
41	0xbcb92522	-0.022600714
42	0x3c7480db	0.0149233
43	0x3b60abd3	0.0034282103
44	0xbcffdd22	-0.031233374
45	0xbc92557e	-0.017863031
46	0xbd28b74c	-0.04119043
47	0xbc5ee5bc	-0.013604578
48	0x3cd79260	0.026314914
49	0x3c2d2104	0.010566954
50	0xbb436ed1	-0.002982069
51	0xbd1d8495	-0.03845652
52	0x3c97f8ec	0.018551312
53	0xbadab356	-0.0016685526
54	0x3c66a8c9	0.014078327
55	0x3c3640da	0.01112386
56	0x3cbcc57e	0.02304339
57	0xbc89f487	-0.016840233
58	0xbca2f115	-0.019890347
59	0x3cc772a9	0.024346666
60	0xbccd760d	-0.025080705
61	0xbd472323	-0.048617493
62	0xbd0d443a	-0.034488894
63	0xbc28e185	-0.010307674
64	0xbc332fd6	-0.010936698
65	0x3c21dc7a	0.009879226
66	0xbcd59dea	-0.026076276
67	0x3d26e47d	0.040745247
68	0xbaeb8da4	-0.0017971289
69	0x3cd70517	0.026247544
70	0xbcdee318	-0.027207896
71	0x3cf388c4	0.0297283
72	0xbbe3841f	-0.0069432403
73	0xbc9fb42f	-0.019495098
74	0x3a47def8	0.00076244725
75	0x3c635a0e	0.013876451
76	0x3d5e923d	0.054338682
77	0x3d3827bf	0.04495978
78	0xbcd5cb18	-0.02609782
79	0xbcadabba	-0.02120005
80	0xbd300703	-0.042975437
81	0x3cb0ff1d	0.021606022
82	0x3c7feee0	0.015620917
83	0xbd1c9f3c	-0.038237795
84	0x3b1b654f	0.0023711508
85	0xbc2062f4	-0.009789217
86	0xbabe84b9	-0.0014535404
87	0x3bde484b	0.0067835203
88	0xbd346fbf	-0.044051882
89	0x3d09239f	0.033481237
90	0xbd40bc59	-0.047054622
91	0xbd19d2f8	-0.03755471
92	0xba55c7c8	-0.0008155075
93	0xbc66cdf8	-0.014087193
94	0xbcac016d	-0.020996774
95	0xbd019a42	-0.031641252
96	0x3c3ea278	0.011635415
97	0xbd2ffd94	-0.04296644
98	0xbb5bdc09	-0.00335479
99	0xbcd350d8	-0.025795385
100	0x3cf132e5	0.029443214
101	0xbcf873af	-0.0303286
102	0x3d322b11	0.043498103
103	0x3d154c50	0.03644973
104	0x3b5fb921	0.0034137445
105	0x3d07c7fb	0.0331497
106	0x3c36a914	0.01114871
107	0x3892cef9	7.000374e-05
108	0x3d129df1	0.035795156
109	0x3b4fd223	0.0031710945
110	0x390f89f6	0.00013688937
111	0x3c193bbd	0.009352622
112	0x3cd40e2c	0.025885664
113	0x3cb9fce2	0.022703592
114	0xbc95cc43	-0.018285876
115	0x3c97189f	0.018444357
116	0xbd9b11ef	-0.0757178
117	0x3e3e69e2	0.18595079
118	0xbc2ca095	-0.010536333
119	0x3b691d71	0.0035570527
120	0x3d01f22c	0.031725094
121	0x3c98bd36	0.01864491
122	0xbcf36f90	-0.029716283
123	0xbd1c3d95	-0.038144667
124	0x3b9eb0a9	0.004842837
125	0x3dc9ddc4	0.098567516
126	0x3bf71b9f	0.0075411345
127	0x3c2fcb12	0.010729568
128	0x3acc248f	0.001557486
129	0xbdd5d305	-0.104406394
130	0x3c616c8d	0.013758791
131	0xbbcdf858	-0.0062857084
132	0x3c11a256	0.008888802
133	0x3d055337	0.032550063
134	0x3c8621df	0.016373573
135	0xbbc08a9e	-0.0058758995
136	0x3b524095	0.003208195
137	0x3c9b8b84	0.018987425
138	0x3cdf0b9a	0.027227212
139	0xbc8c0269	-0.017090993
140	0x3b10e00f	0.0022106206
141	0xbccb927f	-0.024850128
142	0x3b2c89da	0.0026327283
143	0xbcba3d6e	-0.02273437
144	0xbcc59130	-0.024117082
145	0x3cb36e54	0.021903194
146	0xbd2921ef	-0.041292127
147	0x3ccc1f78	0.02491735
148	0xbd03ebc6	-0.032207273
149	0x3c5832ff	0.013195752
150	0xbd0653a6	-0.032794617
151	0x3cbe4f4b	0.02323117
152	0x3cce392c	0.025173746
153	0x3d4c1f9a	0.049834825
154	0xbc07dbdf	-0.008292167
155	0xbc28401a	-0.010269189
156	0xbb466dc7	-0.0030277835
157	0x3c8b381b	0.016994527
158	0x3b194203	0.0023385293
159	0x3c95f73a	0.018306363
160	0x3ad783d4	0.0016442486
161	0x3d2a3207	0.041551616
162	0x3c732632	0.014840649
163	0x3cf79ee7	0.030227138
164	0x3b25873e	0.0025257613
165	0xbba2b42c	-0.004965326
166	0x3cbb32ff	0.022851465
167	0xbcbcd833	-0.02305231
168	0x3d08fef7	0.03344628
169	0xbc97fcd5	-0.018553177
170	0x3b33f099	0.002745664
171	0x3d3b799a	0.045770265
172	0xbd54c20b	-0.051942866
173	0x3b29b56d	0.0025895492
174	0xbc70c992	-0.014696496
175	0xbc501be6	-0.012701964
176	0x3c9f11de	0.0194177
177	0xbccb251d	-0.02479797
178	0xbbe5b665	-0.0070102685
179	0xbd04775d	-0.032340396
180	0xbc8ba887	-0.017048134
181	0xbba57190	-0.005048938
182	0x3c565679	0.01308214
183	0xbbc16e4f	-0.0059030424
184	0xbd582f33	-0.052779388
185	0x3cbf3c2b	0.02334412
186	0x3d879981	0.066210754
187	0x3beaa33d	0.007160573
188	0xbd36abfe	-0.04459762
189	0x3ca8f76f	0.020625798
190	0x3d04edc5	0.032453317
191	0xbc9bc331	-0.019013973
192	0xbd04aff9	-0.032394383
193	0xbc9b1665	-0.018931577
194	0x3c7a4fce	0.015277816
195	0xbc8d0155	-0.01721255
196	0xbd0c4214	-0.034242705
197	0xbc029ce0	-0.007971972
198	0x3b8304e8	0.0039983876
199	0x3cead477	0.028665764
200	0x39983792	0.00029033102
201	0xbadb851b	-0.0016748043
202	0xbd11d06b	-0.035599153
203	0xbba4a111	-0.0050240834
204	0xb8869756	-6.4178064e-05
205	0x3d045635	0.032308776
206	0xbd5e82d2	-0.05432398
207	0x3cd57e7a	0.026061285
208	0xbcb68bab	-0.022283396
209	0xbb8d9af1	-0.004321449
210	0x3c830aae	0.015996303
211	0xbce35f88	-0.027755514
212	0xbca9b310	-0.020715266
213	0x3d59dbab	0.053188007
214	0xbbbeaf43	-0.0058192327
215	0x3da8e09c	0.08245966
216	0xbcf134f0	-0.029444188
217	0x3c8a13e5	0.01685519
218	0xbbbca507	-0.0057569775
219	0xbc86d907	-0.016460909
220	0x3c4f59da	0.0126557
221	0xbe6e16c1	-0.23250867
222	0xbcc39baa	-0.023877937
223	0x3d133894	0.03594263
224	0x3c88bc0a	0.016691227
225	0xbd662923	-0.056191575
226	0x3ceb7c56	0.028745811
227	0x3a2ef096	0.00066734233
228	0xbc10ad1f	-0.008830338
229	0xbc4f8d1e	-0.012667922
230	0xbd0527e8	-0.03250876
231	0xbc12f95f	-0.0089705875
232	0xbd1c3fdd	-0.038146842
233	0x3bdd8259	0.0067599234
234	0x3b7c3449	0.0038483313
235	0x3c56d6dc	0.01311275
236	0x3d13cad3	0.0360821
237	0xbd45df00	-0.048308372
238	0xbd1607e7	-0.03662863
239	0x3c8f76af	0.017512647
240	0xbd604cf8	-0.054760903
241	0x3d15c1b8	0.036561698
242	0x3b6b57f7	0.0035910585
243	0x3c5950cf	0.013263895
244	0xbd1c624b	-0.038179677
245	0x3d04caa4	0.032419816
246	0x3bc4776b	0.005995681
247	0xbe05a3bb	-0.1305074
248	0xbc04229d	-0.008064893
249	0xbc6e9fa9	-0.014564433
250	0x3c282f23	0.0102651445
251	0x3b2ef3a7	0.002669552
252	0xbcd689de	-0.026188787
253	0x3b46e917	0.0030351335
254	0x3ad52585	0.0016261792
255	0x3d158af5	0.036509473

fc.1.bias f4 [10]
0	0xbc2891cc	-0.010288667
1	0x3d26ac8e	0.040691905
2	0xbd244300	-0.04010296
3	0xbd5dbaa1	-0.05413306
4	0xbd224545	-0.03961684
5	0xbd142a63	-0.036173236
6	0xbb7c2d40	-0.003847912
7	0xbdd20738	-0.10255283
8	0x3c03e16b	0.008049349
9	0xbd1ff2a5	-0.039049763
