cache/10d_nn/smcusum/model_1/iter_4.pth (torch, 45000 bytes, 4 tensors)

fc.0.linear.weight f4 [512, 10]
000000 a9 c6 4a be 07 e7 88 bc 6b 12 05 be fd e5 42 be
       -0.19802345 -0.016711725 -0.12995307 -0.19033046
000010 54 4e 07 bc d0 f0 02 be b1 fb 7f bd 22 da 30 3e
       -0.008258421 -0.12787175 -0.06249589 0.17270711
000020 02 ea 97 3d b7 7d db bd ce a2 8b 3d a2 f6 0f bd
       0.0741768 -0.107173376 0.06818162 -0.035147317
000030 3e 5d 20 3d 6f e1 1c be 95 59 87 be bb 3e cf 3d
       0.039151423 -0.15320371 -0.26435533 0.10119387
000040 b8 21 72 be 99 4f 74 be b0 5e 3d be 3b 3e ae 3d
       -0.23645675 -0.23858489 -0.18493152 0.08507963
000050 3a 5a d0 3d a2 0f 48 be d0 12 e7 bd 91 89 f3 3d
       0.10173459 -0.19537213 -0.11282885 0.11891473
000060 dd ed 3c be 0a 00 12 3e 11 49 96 be cc c1 63 be
       -0.18450113 0.14257827 -0.2935262 -0.22241896
000070 12 be 54 3d f2 8e 91 bd e8 76 a8 be 10 32 77 be
       0.051939078 -0.07107343 -0.32903218 -0.24140191
000080 ee 4b a1 3d b4 08 21 3e d5 7a 63 be 7d 2f 68 3c
       0.078758106 0.15725976 -0.22214825 0.014171478
000090 2a a9 2b be 1c fc 29 bd 14 84 72 3e 8e aa 27 3e
       -0.1676375 -0.041500196 0.23683196 0.16373655
0000a0 6c f4 75 3e f2 f5 9c 3e 71 5f 79 3e 22 ea 6e 3e
       0.24019021 0.3065639 0.24352814 0.23331502
0000b0 fd ff 9f 3d f5 4b 39 be 70 7b 4f 3e c1 3c 24 3e
       0.07812498 -0.18095382 0.20261931 0.16038801
0000c0 0d 74 6b bd fc 93 12 be 0c a3 ee 3d 2d b4 ab bc
       -0.05748372 -0.14314264 0.116521925 -0.020959938
0000d0 26 0f 45 be 08 89 40 be 69 3e 2f 3e 9e c3 81 3e
       -0.1924406 -0.18802273 0.17113651 0.25344557
0000e0 04 83 04 3d bb 89 7f 3e fd 45 9e be 7d 6e 4d be
       0.03235151 0.24954884 -0.30912772 -0.20061679
0000f0 89 26 88 3e 54 15 6d 3c 54 26 8e 3d 61 46 79 bb
       0.265919 0.014470417 0.06940904 -0.0038036334
000100 d1 29 5b be 3c 99 b9 3e 8b 25 35 be fe dd 92 3e
       -0.2140267 0.3624972 -0.17690103 0.28684992
000110 67 8f 4a 3e 94 28 fd bc 58 4c 52 3e 39 25 cb bd
       0.19781266 -0.030903138 0.20536935 -0.09919209
000120 d5 df 1e be 01 47 a3 be 23 41 54 be ba 29 47 bb
       -0.15515073 -0.3189011 -0.20727973 -0.0030389861
000130 98 9c 6a be a5 1d e2 bd 4f 85 fb 3d 15 cb 95 be
       -0.22911298 -0.110408105 0.12281286 -0.29256502
000140 b4 dd a7 3d 00 b4 21 3e 33 48 53 be fb 27 eb bd
       0.081965834 0.15791321 -0.2063301 -0.11482235
000150 8e fb 26 3e 87 af dd bd 41 56 65 3e 4f 25 94 bc
       0.16306898 -0.10824495 0.22396185 -0.018084196
000160 fa 88 13 be f3 fe 7e be 0e 12 e8 3d 0a ee 88 3e
       -0.14407721 -0.24901943 0.11331569 0.2674411
000170 30 40 6b 3e 04 a1 d1 3d c5 bb 41 3d db 98 8c 3e
       0.22973704 0.102357894 0.04729821 0.2746037
000180 84 b3 b4 bd fa 1d 50 3e a9 30 a3 3e 85 1f 06 3d
       -0.088233024 0.20323935 0.31873062 0.032744903
000190 8a 5c c7 3d db 76 f1 3c b4 89 16 3e 84 99 8a 3e
       0.09734447 0.02947562 0.14700967 0.27070248
0001a0 15 7f f1 3c b7 e7 38 be 34 44 dd 3d 0b 8d a3 be
       0.029479543 -0.18057142 0.10804024 -0.31943545
0001b0 4c 20 13 bd c5 63 5f 3d 98 20 88 3d e0 75 93 be
       -0.035919473 0.054538507 0.06646842 -0.2880087
0001c0 06 54 32 3d c1 76 1a be 43 f9 8f be 4b 0a 6b 3e
       0.043537162 -0.15084364 -0.2811986 0.22953145
0001d0 9c 7a 8c 3c ed e9 9d be bb d6 9b bd 1d 07 8b be
       0.017148308 -0.30842534 -0.07609316 -0.27153865
0001e0 36 1b 5c be 35 76 8b be 0b 5a eb 3d f6 ac 84 3c
       -0.21494755 -0.27238622 0.11491784 0.016195755
0001f0 e0 33 db bc 7f 3d 96 3d 88 7b 19 be 19 2b ba bd
       -0.026758134 0.07335948 -0.1498853 -0.090902515
000200 8e d9 12 3e dc 93 dd bd db b6 bf bc 68 68 82 be
       0.14340803 -0.108192176 -0.023402622 -0.2547028
000210 ce 9c 2b be bc ff ca bc 21 7c 84 3e 5e 7b 97 be
       -0.16759035 -0.024780147 0.25875953 -0.2958631
000220 6c 3f 8d be e7 65 8e bd 5d 61 a1 3d 57 ed 20 3e
       -0.2758745 -0.0695303 0.07879899 0.15715538
000230 4d e4 e2 3d 0d 0f d2 bc 0c 47 91 be d2 ee f7 3c
       0.11078701 -0.025641942 -0.28374517 0.030265246
000240 3a de 23 bd 5b d8 b5 3c a3 41 ee 3c 65 39 96 be
       -0.040006854 0.022197893 0.029084032 -0.29340664
000250 cd 64 8d be 4d 57 5f 3e 44 18 f4 bc 08 4a c2 bd
       -0.27615967 0.21810646 -0.029796727 -0.094867766
000260 a4 f4 98 bd db 22 a2 be fe 0c 38 bd ca ba 14 3e
       -0.074685365 -0.31667218 -0.044934265 0.1452438
000270 07 79 b5 3d 74 69 8a be 1e a3 09 3d fc 67 bf 3d
       0.08860975 -0.2703358 0.033602826 0.09346005
000280 bd 1e 52 3e 12 56 dc bd 15 36 bf bd e1 6b 23 be
       0.20519538 -0.10758604 -0.09336487 -0.15959121
000290 b2 52 18 3e 15 2f 5d 3e 1b 8b 4e be 4f a0 0c 3e
       0.14875296 0.21599992 -0.20170252 0.13733028
0002a0 0d ee c6 3d f3 33 eb 3c 29 2b 7a 3e f6 d0 25 bd
       0.09713373 0.028711295 0.24430527 -0.040482484
0002b0 42 9c 98 bd b3 8d 4e be a0 ca 88 3e c5 71 04 3e
       -0.07451679 -0.20171241 0.2671709 0.12934025
0002c0 a7 26 7f 3e b6 02 2e be 38 3c 04 bd 86 28 8a 3d
       0.24917088 -0.16993222 -0.03228399 0.067460105
0002d0 57 f5 8f be 51 85 8c be 5a 42 12 be fd 1e 2a be
       -0.28116867 -0.27445462 -0.14283124 -0.16613384
0002e0 e8 04 9f 3e 9e 70 82 3e 57 a6 17 be b4 a9 91 be
       0.3105843 0.25476545 -0.14809547 -0.28449786
0002f0 5f 23 99 be a2 d0 e4 bc b3 00 b4 bd eb 96 70 be
       -0.29909799 -0.027931515 -0.08789196 -0.2349507
000300 3c 06 4f 3e 29 90 c1 bd 16 51 1f be 75 2a 5e bd
       0.20217222 -0.094513245 -0.15558276 -0.05423971
000310 ba 5c 15 3e 60 0c f5 3d 4e f6 76 3d c2 b9 58 3e
       0.14586154 0.11965251 0.06029349 0.21164611
000320 07 0b 7f bd be 81 94 bd b1 db 2c bd fc 94 7e 3c
       -0.062266376 -0.07251309 -0.0422017 0.01553845
000330 fa 0e c7 bd 2f 41 54 3e 89 46 09 3e 2b f1 92 3e
       -0.097196534 0.2072799 0.13405813 0.28699622
000340 f2 fc 9c be 6c 19 90 be b5 3c 33 be 8a b1 b2 3a
       -0.30661732 -0.28144395 -0.17503627 0.0013633233
000350 8f 7f 89 3d 81 fb 34 3e 39 cc 8f be eb ee 69 be
       0.06713783 0.17674066 -0.28085497 -0.22845046
000360 12 9a 4e 3e aa a0 1b bd 5f a5 73 be 87 06 86 be
       0.2017596 -0.037995018 -0.23793553 -0.26176855
000370 73 8e 91 3e ae 07 9c bc 73 f0 4d 3e a1 b9 89 be
       0.28428993 -0.01904663 0.20111255 -0.26899436
000380 e7 3e 89 bc c2 d8 9f 3d 72 8f 7f be c4 8f 97 3d
       -0.016753627 0.07805015 -0.24957064 0.07400468
000390 32 de 7b be 38 97 9a be 4f 0a d0 bb 52 5f 4a 3e
       -0.2459648 -0.30193496 -0.006348885 0.19762924
0003a0 e0 70 fc 3b e1 a9 75 bd 64 e9 37 3e ff 66 4a 3e
       0.0077038854 -0.059976462 0.17960125 0.19765852
0003b0 5e 79 02 bc 9f d4 26 3e c6 e8 20 be 0b ed 83 be
       -0.0079635065 0.16292046 -0.15713796 -0.25766787
0003c0 d9 6a 15 3d ee 1b 2b be cd 28 44 3e 40 70 ae bd
       0.03647885 -0.16709873 0.1915619 -0.08517504
0003d0 21 eb 21 bd 5d 5a 4a be c5 65 b7 bc b2 92 a3 3d
       -0.039530877 -0.19761033 -0.022387395 0.07986964
0003e0 c0 eb 3b 3e a3 50 20 be ff 1e 8e bd ff 28 3b be
       0.1835165 -0.1565576 -0.06939506 -0.18277358
0003f0 64 39 c1 bc f6 e1 9e bd 99 76 20 3e e2 3e db bb
       -0.023586936 -0.077579424 0.15670241 -0.006690846

fc.0.linear.bias f4 [512]
000000 d9 bc 78 be b8 6a 49 be 61 73 56 3e 73 7f 6a 3e
       -0.2429079 -0.19669616 0.20942451 0.2290018
000010 37 82 80 3e af 86 2c 3e 10 7e 3e be 37 8a cd 3d
       0.25099346 0.16848253 -0.18602777 0.10036128
000020 9a a8 76 3e 94 e4 86 be 1f 87 e8 bc dc c1 76 be
       0.24087754 -0.26346266 -0.028384743 -0.24097389
000030 bd 5a 2b bd 62 a4 3d 3e 5a d5 97 be ac 8c 96 bd
       -0.04183458 0.18519738 -0.29654962 -0.0735105
000040 36 36 2a 3e ad 23 92 bd e3 8b 58 3e 97 67 35 3e
       0.16622242 -0.07135711 0.21147113 0.17715298
000050 d6 61 9a 3d b5 ce 4a bd a9 fc 99 bd 5a 1d 99 bd
       0.07538192 -0.049513537 -0.07518894 -0.074763015
000060 8d 65 43 bd 58 cb 3a be 82 c7 cb bd f5 bb 44 3e
       -0.04770427 -0.18241632 -0.099501625 0.19212325
000070 6f 0b 6d 3e 4b af 2f 3d e5 8c 5c 3d 14 a4 50 be
       0.23148893 0.04289178 0.053845305 -0.20375091
000080 75 14 a2 3d 55 d3 82 3e f6 92 12 be b6 81 a3 bd
       0.07914058 0.2555186 -0.14313874 -0.07983725
000090 f7 12 9a 3e d6 a6 33 3d 07 27 76 3e 2a 02 f9 bd
       0.30092594 0.04386028 0.24038325 -0.12158616
0000a0 03 22 a2 be b1 e2 e8 3c 43 28 7e be 89 02 07 be
       -0.31666574 0.028428407 -0.24820046 -0.13184561
0000b0 a6 91 e1 3d a6 74 9d be 6c 31 6e 3e fb 77 8e 3e
       0.11014108 -0.30753058 0.2326104 0.27825913
0000c0 fa 1a 92 3e 68 61 92 be 08 3b ad be 1b d2 01 be
       0.28536206 -0.2858994 -0.338341 -0.12677805
0000d0 b8 3d d0 3b f1 c5 3b be 0f 35 47 3e 39 de 7c 3e
       0.0063550137 -0.18337227 0.19453834 0.24694146
0000e0 a9 b7 9b 3d e8 02 7f bd 8a df 88 be b2 c2 37 3e
       0.0760339 -0.06225863 -0.26733047 0.17945364
0000f0 da ab ad bd 76 25 4e 3e f4 34 ef 3d 8f 5c 6e 3d
       -0.08480044 0.20131478 0.11680022 0.05819374
000100 91 99 80 be d9 0e 52 3e e1 43 4a 3d e8 85 54 3e
       -0.25117162 0.20513476 0.04938114 0.20754206
000110 ea 54 86 3e 63 a9 01 be 6c 3c 73 be a8 24 95 be
       0.2623666 -0.12662272 -0.23753518 -0.2912953
000120 b7 10 99 bd 86 52 dc bd f3 56 ef 3a ed 2b 07 3e
       -0.07473891 -0.107579276 0.0018260166 0.1320035
000130 db 7f ac 3d 5b 82 56 be 02 b0 89 be f5 ae 7d 3e
       0.08422824 -0.20948164 -0.26892096 0.24773772
000140 07 1f 96 bd fe cf 09 3e 16 0c 02 be 8f 12 f4 bd
       -0.07330137 0.13458249 -0.12699923 -0.11917602
000150 ca 23 90 3e eb 99 77 3c 07 61 b8 bd e8 74 10 bd
       0.28152305 0.0151123805 -0.090028815 -0.03526774
000160 0b db 96 be f9 b7 98 3e 1e ab 5a be cd ee 6f 3e
       -0.29463992 0.2982786 -0.21354339 0.23430939
000170 9d 61 19 3e b7 9b 43 bd 57 3f 02 3d 32 b4 a0 be
       0.14978643 -0.047755923 0.031798687 -0.31387478
000180 ac e8 45 3e 6f dc ef 3d 27 0a fe bd 77 16 70 3d
       0.19327039 0.11711966 -0.1240428 0.058615174
000190 56 cf 40 3e 5a 8d 86 bd 90 98 87 3b c5 ba 72 3e
       0.18829092 -0.065699294 0.00413806 0.2370406
0001a0 84 d9 07 3d 0e c7 9c bb 5f 60 0d 3e 15 e1 c1 bd
       0.033166423 -0.0047844714 0.13806294 -0.09466759
0001b0 d2 c0 74 be 38 47 3b be b5 e3 1d be b2 dd 62 3e
       -0.2390168 -0.18288887 -0.15418895 0.22154883
0001c0 6a 02 20 3e 05 b7 cf bc 97 cb 71 3e 0e 00 22 3e
       0.15625921 -0.025355825 0.2361282 0.15820333
0001d0 eb 20 83 3e 25 59 e7 be b3 8f 9a be 64 eb dd bd
       0.25611052 -0.451852 -0.3018776 -0.10835913
0001e0 d8 c2 2e 3e f9 f1 29 be 3d cf 87 3e e3 95 97 bd
       0.17066514 -0.16596211 0.26525298 -0.074016355
0001f0 df 77 80 3e d6 59 50 3e 65 95 04 3e 6c 58 08 3e
       0.25091454 0.2034677 0.12947614 0.1331498
000200 76 7a eb bb 52 d3 76 be b5 98 c9 3d 68 f4 88 3d
       -0.0071862293 -0.2410405 0.0984358 0.06687242
000210 14 12 86 3e 5a 30 4d 3d 3e 3f 48 bd 37 f6 af bd
       0.26185668 0.05009494 -0.048888437 -0.08591884
000220 32 00 8d 3e 0c 4e 48 be ad 18 c4 3d ce 89 61 3e
       0.27539212 -0.19561023 0.09575019 0.22025225
000230 56 9e 5e bd c2 3d d5 3d 4a 33 57 3d 3a b8 c7 3d
       -0.05435022 0.1041217 0.052539147 0.09751935
000240 a0 7c 5f 3e d3 4e 9d be 14 55 e9 3c 9d 14 37 3e
       0.21824884 -0.307242 0.028482951 0.17878957
000250 5a 28 90 be a2 39 b0 3e 12 fb 66 bd f7 80 34 be
       -0.28155786 0.3441897 -0.056391783 -0.17627321
000260 a6 f7 55 bd 09 25 56 be 0a 8a 23 be 35 ca c5 bd
       -0.05223813 -0.20912565 -0.15970626 -0.096577086
000270 f9 d9 7d 3c 2e 98 b3 bd 72 55 eb 3b 05 c3 84 be
       0.015493863 -0.0876926 0.0071818167 -0.25930038
000280 3a 2f ca bb e9 68 7f bd e7 bd 2f 3e 04 92 cf bd
       -0.0061701806 -0.06235591 0.17162286 -0.10135272
000290 2c 15 27 3e 61 df 29 3e b1 96 ed bc 75 68 49 3e
       0.1631667 0.16589119 -0.02900252 0.19668753
0002a0 68 8a 79 bc bd 9f 1d be ec cc 94 be a2 3e 54 bd
       -0.0152307525 -0.15392967 -0.29062593 -0.051817544
0002b0 de d0 dd bd dc 1b da 3d 52 31 82 3e 34 76 5d be
       -0.10830854 0.10649845 0.25428253 -0.21627122
0002c0 eb 98 2c 3e 47 bf 95 be fa c2 fa bc 50 30 8a 3e
       0.16855209 -0.29247496 -0.03061055 0.26989985
0002d0 83 8e 41 bc 29 3f 06 bd 8b 69 85 bd 17 fb 8b 3e
       -0.011813763 -0.032775078 -0.06514271 0.27340004
0002e0 e4 86 20 be 33 ee ad 3d ab 28 8b be 62 d1 9f bb
       -0.15676457 0.084926985 -0.27179465 -0.0048772553
0002f0 a2 0f 32 3e c6 53 01 be 56 38 57 3e b6 e2 8e 3e
       0.17388776 -0.12629613 0.21017584 0.27907342
000300 c3 35 93 be c1 00 89 3e da 10 92 be 16 3b 8b bd
       -0.28751954 0.26758388 -0.28528482 -0.06798379
000310 cd 15 84 be 4c ba 44 3e 21 fc 15 be 62 4a 1a be
       -0.25797883 0.19211692 -0.14646961 -0.15067437
000320 56 16 c2 bd 79 6a 8f be ec ce 8a 3d fe 11 a0 bd
       -0.094769165 -0.2801092 0.067777485 -0.07815932
000330 63 95 01 be 14 65 8e be 78 a2 3a 3e 97 b8 0e 3e
       -0.12654643 -0.2781149 0.1822604 0.13937603
000340 c5 44 53 be 95 53 08 3e ca 1b 9d be b0 c2 89 3e
       -0.20631702 0.13313134 -0.30685264 0.26906347
000350 ab 40 8e 3e 6e 6b 54 3e 29 d6 81 3d 58 c1 73 be
       0.27783713 0.20744106 0.06339676 -0.23804224
000360 32 b0 5c 3e bf c7 ae be 89 f5 9a be 5a a4 28 3e
       0.21551588 -0.3413677 -0.30265453 0.16468945
000370 e7 36 0d be ef a4 87 3e dd 6a 8a be ca a5 04 be
       -0.13790475 0.26493022 -0.27034655 -0.12953869
000380 1f a1 93 be d4 38 2a bd 29 b8 15 3e b2 82 2b be
       -0.28833863 -0.0415581 0.14621033 -0.16749075
000390 9d 4e 2d 3e de 02 d5 bd 70 a7 6b 3e 29 88 7d be
       0.1692452 -0.104009375 0.23013091 -0.24758972
0003a0 63 c2 87 be 60 13 8e be 90 b1 85 3a 3c b2 91 be
       -0.26515493 -0.27749157 0.0010200012 -0.28456295
0003b0 95 1c 87 3e 59 0b 20 be a9 81 d0 bc df 47 65 bd
       0.26388994 -0.15629329 -0.025452452 -0.055976745
0003c0 ac db 51 3e 5e 40 10 3e 09 4c e6 bd 86 e1 91 3e
       0.20493954 0.14087054 -0.11244971 0.28492373
0003d0 9a c9 52 3e 71 64 15 be 2b 8b 1d be 94 11 84 3e
       0.20584717 -0.14589097 -0.1538512 0.2579466
0003e0 8e a9 9c 3e 78 a0 98 be a7 0d 75 be c7 f3 90 3e
       0.3059811 -0.29809928 -0.23930989 0.28310987
0003f0 49 e8 91 3e 28 16 9c 3d 3a c1 18 bd 31 ef 8a 3d
       0.28497532 0.076214135 -0.03729365 0.067839034

fc.1.weight f4 [10, 512]
000000 1c 9a 56 bc 8e bf 23 bd ab c5 28 3d 5f d4 11 3d
       -0.013098266 -0.039977603 0.041204136 0.035602923
000010 fb 0b a4 bb 9b 63 ae 3c 7c ef 15 3c 39 78 ae 3a
       -0.005006311 0.02128773 0.009151336 0.0013310976
000020 2d 0b 09 3d 6e 2e 0c bd 21 7f 10 3d a0 9f 42 ba
       0.033457924 -0.034223966 0.03527749 -0.00074242987
000030 16 47 3b 3d f2 7f 76 3c 6f 6c fc bc fb df 98 3c
       0.04572209 0.015045153 -0.030813424 0.01866149
000040 8f b2 10 3c e5 ea 97 3b a9 42 43 3c e0 dc 09 bd
       0.008831634 0.004636156 0.0119177485 -0.03365791
000050 ae f9 21 3b 23 5f fd 3c 86 c0 a6 3c 0d 96 c1 3c
       0.002471547 0.030929154 0.020355474 0.02363112
000060 a3 bc 0d bd db 19 cf bc 24 4e c0 bc 18 e6 9c bc
       -0.034603726 -0.025280884 -0.02347476 -0.019152686
000070 c9 bd 21 bd 97 76 aa 3c 8b f9 e5 bc 86 93 00 bc
       -0.039487634 0.020808501 -0.028073093 -0.007847672
000080 63 41 ef bc 7c 99 4e 3c 93 3a 77 3b 52 68 57 3c
       -0.029205984 0.012609836 0.0037724122 0.0131474305
000090 bb b7 fd 3c 9b 37 b7 bb ef 19 09 bd f2 b5 a8 3d
       0.030971399 -0.0055913455 -0.033471998 0.08237828
0000a0 c8 a9 10 bc 7f f7 b4 bc 6e b4 81 3c fa 91 c2 3b
       -0.0088295415 -0.022090672 0.015833106 0.005937812
0000b0 02 3d 0f bd b8 20 b4 bc 6f cd 26 bd bc e5 5e bc
       -0.03497029 -0.021988258 -0.04072326 -0.013604578
0000c0 bb d7 d9 3c 6c dc 36 3c 11 82 7c 3a 95 84 1d bd
       0.026592126 0.011160951 0.00096324185 -0.03845652
0000d0 e3 e4 5b 3c b2 55 43 3c 9d 69 5a 3c 85 f9 b0 3c
       0.01342127 0.011922287 0.013330844 0.021603355
0000e0 fc 64 c3 3c d1 7f 53 bc aa 5a b8 bc fc 19 dc 3c
       0.023851864 -0.012908892 -0.02250417 0.026867859
0000f0 52 35 bb bc 09 7b 1e bd c3 27 0c bd d7 02 6a bc
       -0.022852574 -0.038691554 -0.034217607 -0.014282904
000100 c6 77 4e bc 63 ff 37 3c f8 12 cf bc a3 4a 29 3d
       -0.012601798 0.0112303225 -0.0252776 0.041330945
000110 ff cf 44 3a 61 ff ad 3c fc f7 55 bc 38 c1 f4 3c
       0.00075078005 0.021239938 -0.013059612 0.02987729
000120 c9 22 00 bc 2f b4 9f bc 3b 64 45 bc a9 9a 4f 3c
       -0.007820793 -0.019495098 -0.012047823 0.012671151
000130 32 36 82 3c 70 14 32 3d 2f eb a5 bc 7e fe ad bc
       0.015894983 0.043476522 -0.020253746 -0.021239515
000140 6e ed 1e bd d6 5b ba 3c 9c 04 98 3c ef 0a 14 bd
       -0.03880065 0.022748869 0.018556885 -0.03614324
000150 92 6e e6 3a 95 cc d6 bb ca 0d 34 3a 1e 4c f3 3b
       0.001758056 -0.00655515 0.000686851 0.0074248454
000160 21 f2 39 bd 20 e7 03 3d b6 40 1a bd 85 f2 1e bd
       -0.045396928 0.03220284 -0.03765937 -0.038805503
000170 27 de 75 bb c6 07 59 bc fe 92 88 bc e9 90 f1 bc
       -0.0037516446 -0.013246482 -0.016671654 -0.029488044
000180 a5 6d 0d 3b e7 60 44 3c af 3b c9 bb 8f ca ea bc
       0.0021580246 0.011985994 -0.006141148 -0.02866104
000190 84 cd ee 3c 31 c4 f6 bc b5 52 2f 3d f3 04 1a 3d
       0.029150732 -0.030122848 0.042803485 0.037602376
0001a0 3b 4c 02 3b 85 52 09 bd c4 6a 1e 3c f6 7e da ba
       0.0019881863 -0.033525962 0.00966901 -0.0016669917
0001b0 3a 73 08 3d fe 8b 39 3c 2f d8 09 3c 6e 36 2b 3c
       0.033313014 0.011324881 0.008413359 0.010449989
0001c0 15 98 d3 3c f2 4c b5 3c 51 4f a8 bc f8 63 b0 3c
       0.025829354 0.022131417 -0.020545634 0.021532044
0001d0 e2 64 71 bd 0e 4a 16 3e d7 20 34 bc 80 6f a1 3b
       -0.0589341 0.14676687 -0.010994158 0.004926622
0001e0 96 2e c2 3b 54 ba ad 3c b0 97 bd bc 86 3a 21 bd
       0.0059259636 0.021207012 -0.02314362 -0.039362453
0001f0 4a 4f 7f 3b 84 89 88 3d 33 30 9e 3b 35 6c 2d 3c
       0.0038957172 0.06666854 0.004827523 0.010584881
000200 eb 94 67 3b 91 1b 17 bd d9 fd 74 3c c0 cf da bb
       0.0035336565 -0.036891524 0.0149531 -0.0066775978
000210 b0 23 11 3c 27 75 06 3d f5 6b c7 3c 97 85 0d bc
       0.008858606 0.03282657 0.02434347 -0.008637807
000220 60 f2 46 3b ea d0 94 3c 46 23 df 3c 60 cd 89 bc
       0.003035687 0.018166024 0.0272385 -0.016821563
000230 ad 0e 5c 3c f5 2d db bc 56 eb 39 bb 89 86 b1 bc
       0.013431233 -0.026755312 -0.002836903 -0.021670597
000240 f6 1b dd bc 78 cb b3 3c b3 b4 29 bd 1d ab b9 3c
       -0.026990872 0.021947607 -0.041432094 0.022664601
000250 bf 2b 02 bd ed ee b3 3c e1 ca 04 bd be 90 c6 3c
       -0.03178 0.021964515 -0.032420043 0.02423894
000260 15 9d d0 3c 3a 0d df 3c 52 f6 3d 3b c5 d3 35 bc
       0.025465528 0.027227987 0.002898593 -0.011097853
000270 b2 f3 e2 ba 58 95 6e 3c 9e 2b f3 3a 9f 1f e5 3c
       -0.0017315059 0.0145619735 0.0018552428 0.02796918
000280 55 27 83 bb 3e 42 38 3d f8 59 b3 3b 81 91 fc 3c
       -0.0040024915 0.04498505 0.0054733716 0.0308311
000290 e5 26 4c 3b 2a 80 2c bb b8 da be 3c 24 3f 9f bc
       0.0031151113 -0.002632151 0.023297653 -0.019439287
0002a0 02 82 13 3d 48 dc 91 bc 69 cf 4d 3a 14 0b 27 3d
       0.036012657 -0.017805234 0.0007851036 0.04078205
0002b0 c1 0f 51 bd 1e fa 25 3a 35 22 97 bc e6 91 41 bc
       -0.051040415 0.0006331521 -0.018448928 -0.01181457
0002c0 f5 fc 7d 3c c6 8a db bc b2 5d d6 bb 4d ac 04 bd
       0.015502204 -0.02679957 -0.006541931 -0.03239088
0002d0 3c 58 86 bc 5f f1 bf bb 66 18 2c 3c fd 54 8a bb
       -0.016399495 -0.005857631 0.010503864 -0.004221557
0002e0 b9 2f 52 bd 08 d7 c7 3c 75 95 67 3d bb 26 04 3c
       -0.051315043 0.024394527 0.056539018 0.008065875
0002f0 b6 a3 32 bd 02 d5 80 3c c5 ed 04 3d 37 45 b0 bc
       -0.04361316 0.01572657 0.032453317 -0.02151738
000300 44 6f f5 bc 1c 94 ad bc 82 27 3a 3c 4c cb 93 bc
       -0.029960282 -0.021188788 0.011361958 -0.018041275
000310 2a 22 02 bd cd 22 f4 bb e8 04 83 3b fc 6a c0 3c
       -0.031770863 -0.0074504376 0.0039983876 0.023488514
000320 a9 46 de bb 9f 07 f0 ba d8 e0 17 bd c0 96 24 bb
       -0.0067833257 -0.0018312818 -0.037079662 -0.0025114268
000330 83 2f da ba 5b 00 11 3d 28 de 5b bd 9f 31 fb 3c
       -0.001664624 0.03540073 -0.05367866 0.03066331
000340 a6 79 ab bc bc f1 5b bc 5a 6c 88 3c 26 62 de bc
       -0.02093203 -0.013424333 0.016653229 -0.02714641
000350 ea 99 aa bc da 30 4a 3d 4a b9 18 bc 35 c2 88 3d
       -0.020825345 0.049362995 -0.00932152 0.06677667
000360 f8 a7 f9 bc 24 3e 47 3c 3d c3 a7 bb ba f8 99 bc
       -0.030475602 0.012160812 -0.0051197098 -0.01879536
000370 20 71 77 3c eb 5c 0e be 99 3b 9e bc 53 fa e7 3c
       0.015102655 -0.13902633 -0.019315528 0.028317606
000380 fa 77 8e 3c 02 47 4b bd 7d d1 0c 3d e8 a7 50 3a
       0.017391194 -0.049628265 0.03437947 0.00079595903
000390 cd 6b 16 bc ab b0 4e bc 59 3a 04 bd f6 14 2d bc
       -0.009180975 -0.012615363 -0.032282207 -0.0105640795
0003a0 e0 a0 02 bd 4e ea 4f bc 67 a7 e2 3a b6 38 5b 3c
       -0.031891704 -0.01269014 0.0017292321 0.01338022
0003b0 d3 ca 13 3d 29 8a 41 bd c3 ca 0e bd a4 92 af 3c
       0.0360821 -0.0472509 -0.034861337 0.021432228
0003c0 09 ea f6 bc 20 3e 24 3d 01 4c 25 3b a8 52 59 3c
       -0.030140894 0.04009831 0.0025222304 0.013264336
0003d0 36 0a 1b bd b0 b7 01 3d d8 5b a2 3c 95 22 d9 bd
       -0.037851535 0.03166932 0.019819185 -0.10602299
0003e0 fd 5b 2d bc eb 09 53 bc a0 dd 48 3c a7 f3 2e 3b
       -0.010581014 -0.012880783 0.012259871 0.002669552
0003f0 bf dc ce bc 28 d5 4f 3b 42 33 f0 3a 46 d6 17 3d
       -0.025251744 0.0031712744 0.0018325823 0.03706958

fc.1.bias f4 [10]
000000 a6 c2 86 bc ef a5 14 3d 25 f9 03 bd 39 d5 37 bd
       -0.016450237 0.03629106 -0.032220025 -0.04488108
000010 39 77 e1 bc a6 cc 20 bd e8 2e 0c ba 96 57 70 bd
       -0.02752267 -0.039257668 -0.0005347566 -0.05867728
000020 30 5a 79 3b 24 bf d4 bc
       0.003804814 -0.02597005
