cache/10d_nn/smcusum/model_2/iter_9.pth (torch, 45000 bytes, 4 tensors)

fc.0.linear.weight f4 [512, 10]
0	0xbe6b2f7d	-0.22967334
1	0x3e48dcdd	0.19615503
2	0x3dd5ebff	0.10445403
3	0x3e6b034c	0.22950476
4	0x3cb05c47	0.021528376
5	0x3e545aee	0.20737812
6	0x3e83cf6f	0.25744197
7	0x3e7f529d	0.24933858
8	0xbd82fcbc	-0.063958615
9	0x3e832fc0	0.25622368
10	0xbdb08936	-0.08619921
11	0x3e825a74	0.25459635
12	0xbdc24eb7	-0.0948767
13	0xbeded0cc	-0.43518674
14	0xbdc62243	-0.09674504
15	0xbde1fff2	-0.11035146
16	0xbe4d4c88	-0.20048726
17	0xbe2bfc4e	-0.16795465
18	0xbd6848ad	-0.056709934
19	0x3d57c620	0.05267918
20	0xbe858acc	-0.26082456
21	0x3dca399b	0.098742686
22	0xbe8c8206	-0.2744295
23	0x3ee6a082	0.45044333
24	0xbe02feda	-0.1279253
25	0xbdcc81fc	-0.0998573
26	0xbdfd3e78	-0.123654306
27	0x3e88bd0b	0.26706728
28	0xbe6d699e	-0.23184821
29	0x3d8e0b0f	0.06935703
30	0x3e0e4452	0.1389325
31	0xbe1d5e41	-0.15367986
32	0xbda4f0fc	-0.080537766
33	0xbd730f65	-0.059340853
34	0xbe0d9727	-0.13827191
35	0x3e4206ef	0.18947957
36	0x3dfd3e5a	0.12365408
37	0xbc919b7a	-0.017774332
38	0xbe41ffb4	-0.18945199
39	0x3d93aaf0	0.07210338
40	0x3e3012ce	0.17194673
41	0xbccdfcd7	-0.025144977
42	0x3d4e6921	0.050393227
43	0x3e99fc2d	0.30075207
44	0xbe2bfd68	-0.16795886
45	0xbe8e45ce	-0.27787632
46	0x3e9a8610	0.30180407
47	0x3ceab827	0.028652264
48	0xbe0bcd64	-0.13652569
49	0xbe5220f0	-0.20520377
50	0xbeca8b79	-0.39559534
51	0xbe91c4b2	-0.2847038
52	0xbe5e0edd	-0.21685357
53	0xbecae5a2	-0.3962832
54	0x3e6e15a3	0.23250441
55	0xbe9e6bba	-0.30941564
56	0x3e924f7b	0.28576264
57	0x3d891e81	0.06695271
58	0xbc897e2e	-0.0167838
59	0x3ebd7dad	0.37009946
60	0x3e085100	0.13312149
61	0x3e47571b	0.19466822
62	0xbe9fceb7	-0.31212398
63	0x3db51555	0.088419594
64	0x3e5a0896	0.21292338
65	0xbdfeb0e9	-0.12436087
66	0x3e2a66cd	0.16640778
67	0xbd62e08f	-0.055389937
68	0xbe7f3c3d	-0.24925323
69	0xbd0bb849	-0.034111295
70	0x3d46ed68	0.048566252
71	0x3e94ad80	0.2903862
72	0xbddbbda9	-0.10729534
73	0x3e5d66a7	0.2162119
74	0x3eb9912a	0.36243564
75	0xbd1244af	-0.035710033
76	0x3dc333c1	0.09531356
77	0xbe132303	-0.14368825
78	0xbce15aab	-0.027509054
79	0xbe14b1f3	-0.14521007
80	0x3db4c66b	0.08826908
81	0x3deaa3ac	0.11456999
82	0xbd2978ee	-0.041375093
83	0xbe0f741b	-0.14009134
84	0x3c11b262	0.008892627
85	0x3e0612fb	0.13093178
86	0xbe8162c3	-0.25270662
87	0xbe50eb6e	-0.2040231
88	0xbdad0a5b	-0.08449241
89	0xbe956d3a	-0.29184896
90	0xbe6974c4	-0.22798449
91	0x3e466fa3	0.19378524
92	0xbe1de3dd	-0.15418954
93	0xbe172b0c	-0.14762515
94	0xbe97d4e5	-0.29654613
95	0x3db7d6e0	0.08976531
96	0x3c98eae6	0.018666696
97	0xbdac12a7	-0.08401995
98	0xbe8fa592	-0.28056008
99	0xbe82b5e0	-0.25529385
100	0xbd569bd9	-0.05239472
101	0xbdf4ab05	-0.11946682
102	0x3d8a849a	0.06763573
103	0xbe9c4f65	-0.30529323
104	0xbd97f40d	-0.07419596
105	0xbdb7d4ab	-0.0897611
106	0xbe89aaab	-0.26888022
107	0xbe471258	-0.19440591
108	0x3e5e4b93	0.21708517
109	0x3d78dd61	0.060758
110	0xbdc9de51	-0.098568566
111	0xbe0a91a3	-0.13532118
112	0xbeaae6e8	-0.33379292
113	0x3dda3c82	0.10656072
114	0x3e1d8f0c	0.153866
115	0xbe8b6334	-0.27224123
116	0xbea71375	-0.32632032
117	0x3e2d0f4c	0.16900367
118	0x3e46eb70	0.1942575
119	0xbdececb1	-0.11568583
120	0xbea561cc	-0.32301176
121	0xbe659eb4	-0.22423822
122	0x3e9517a5	0.29119602
123	0x3dfc6c91	0.12325395
124	0xbe0e35d1	-0.13887717
125	0xbe5b2b6e	-0.21403286
126	0xbdf16133	-0.117861174
127	0x3e4ede8e	0.20202085
128	0x3e58012c	0.21094197
129	0xbe154bab	-0.14579646
130	0xbdef2927	-0.11677771
131	0x3da41c0b	0.08013161
132	0x3e9b4967	0.3032944
133	0x3de91bba	0.113822415
134	0x3e0bdccf	0.1365845
135	0x3cbe6b7b	0.02324461
136	0xbe71ea5b	-0.23624556
137	0x3eaed763	0.34148702
138	0xbe4f5a44	-0.20249277
139	0x3e365a10	0.17807794
140	0xbe9a2873	-0.30108985
141	0xbe5316ae	-0.2061412
142	0x3b891b00	0.004184127
143	0x3dd06da4	0.10177162
144	0x3e88f65f	0.26750466
145	0xbe26a86a	-0.16275182
146	0x3dd34784	0.10316375
147	0x3e76c70e	0.24099371
148	0x3e33d10e	0.17560217
149	0x3d59e548	0.053197175
150	0x3d129ea6	0.03579583
151	0xbe346091	-0.17614962
152	0x3d9dcc6c	0.07705006
153	0xbd914ef0	-0.07095134
154	0x3ef252c8	0.47328782
155	0x3be8468c	0.007088488
156	0xbc44ad38	-0.012004189
157	0x3e4c8ee6	0.19976386
158	0xbe76d596	-0.24104914
159	0x3dfb2521	0.12262941
160	0xbe43596d	-0.19077082
161	0xbdead210	-0.114658475
162	0xbe4ab77d	-0.19796558
163	0x3e478b7f	0.19486807
164	0xbc242a36	-0.0100198295
165	0x3e83dfb7	0.25756618
166	0x3e4991b8	0.19684494
167	0xbdbc7d3f	-0.09203576
168	0xbbcfb52d	-0.0063387365
169	0xbd90c391	-0.07068551
170	0xbe5f7293	-0.2182105
171	0x3e01babe	0.12668893
172	0xbe7f5386	-0.24934205
173	0xbec75cd2	-0.38938004
174	0x3e568b28	0.20951521
175	0x3dcf4483	0.101204894
176	0xbdcf3583	-0.101176284
177	0x3e6abfec	0.22924775
178	0x3e63a896	0.22232279
179	0x3e298331	0.16553952
180	0x3e83d77b	0.25750336
181	0xbd9c5842	-0.07634021
182	0xbd5b05bf	-0.053472277
183	0xbdf28c21	-0.11843134
184	0xbc095239	-0.00838142
185	0xbddbe27d	-0.107365586
186	0xbd99b361	-0.07504917
187	0xbe2519a5	-0.16123064
188	0xbe27ef3d	-0.16399856
189	0xbcf0fe1b	-0.029418042
190	0xbd0e48d0	-0.03473741
191	0xbe96a186	-0.29420108
192	0x3e27a823	0.16372733
193	0xbd649aa2	-0.05581153
194	0xbea6b94a	-0.3256324
195	0xbe268280	-0.1626072
196	0x3e759d2c	0.23985738
197	0xbe6e5d30	-0.23277736
198	0xbe7546d5	-0.23952802
199	0xbe15717b	-0.1459407
200	0xbe9ed350	-0.31020594
201	0xbebb1324	-0.3653804
202	0x3c98d481	0.018656017
203	0xbcc0db5d	-0.0235421
204	0x3eba66e3	0.3640662
205	0xbbdd6a57	-0.0067570615
206	0xbde28dcd	-0.110622026
207	0xbb0b9462	-0.002129816
208	0xbd846d68	-0.0646618
209	0x3e904d50	0.28183985
210	0x3e024ca0	0.12724543
211	0x3e545ac2	0.20737746
212	0x3dab669b	0.0836918
213	0x3e6d4dcc	0.23174208
214	0x3e914b2a	0.28377658
215	0x3c72221c	0.01477864
216	0x3db663ba	0.0890574
217	0xbcc40939	-0.023930179
218	0xbdfcee65	-0.12350158
219	0x3e48bb8b	0.19602792
220	0xbe767dca	-0.24071422
221	0xbd866b82	-0.06563474
222	0x3c87457f	0.01651263
223	0x3e2e1a54	0.17002231
224	0xbe9162a3	-0.28395566
225	0xbe3769d9	-0.17911471
226	0x3e8a9aac	0.2707113
227	0x3cbb9e54	0.022902645
228	0x3e9586a8	0.29204297
229	0xbcca88a9	-0.024723368
230	0xbe91bf78	-0.28466392
231	0xbdef2ec3	-0.11678841
232	0x3da31835	0.079636015
233	0xbdc7e715	-0.09760872
234	0x3e488675	0.19582541
235	0xbe2d0b7e	-0.16898915
236	0xbce1c254	-0.027558483
237	0xbdff35cc	-0.12461433
238	0xbe3db56b	-0.18526237
239	0x3e86bd77	0.26316425
240	0x3db1b5c9	0.08677251
241	0xbe12da22	-0.14341024
242	0x3e929100	0.2862625
243	0xbd2d597b	-0.042321663
244	0xbd91d427	-0.07120543
245	0x3e839722	0.25701243
246	0xbe42125f	-0.1895232
247	0x3eb70645	0.3574697
248	0x3cd2d672	0.025737021
249	0x3e5b40c5	0.21411426
250	0x3d145248	0.036211282
251	0x3db48598	0.088145435
252	0xbd72bcf9	-0.05926225
253	0x3e830960	0.2559309
254	0x3d258691	0.040411536
255	0xbe3e9838	-0.18612754

fc.0.linear.bias f4 [512]
0	0xbe0aee74	-0.13567525
1	0xbd8130f6	-0.06308167
2	0xbe816b43	-0.25277147
3	0x3ebdcaa7	0.37068674
4	0x3a300cba	0.00067157636
5	0xbe2a7104	-0.16644675
6	0x3e0db9a0	0.13840342
7	0xbe978629	-0.29594544
8	0xbe998b8c	-0.29989278
9	0x3dc6c679	0.097058244
10	0xbeaffac3	-0.34371004
11	0x3d42a76f	0.04752296
12	0xbea271b7	-0.31727383
13	0x3e5faeaa	0.21843973
14	0xbc9955e0	-0.018717706
15	0x3d146f82	0.036239155
16	0xbe450c40	-0.19242954
17	0x3ba20135	0.0049439915
18	0xbe6953aa	-0.22785822
19	0x3d3944a2	0.04523147
20	0xbd0eb896	-0.034844004
21	0x3de2946e	0.11063467
22	0xbe91bc8e	-0.28464168
23	0xbea15576	-0.31510514
24	0x3da5bcee	0.08092676
25	0x3d9ac16e	0.07556425
26	0x3e4f4f9d	0.20245214
27	0x3e175e9f	0.14782189
28	0x3f4fac67	0.8112244
29	0xbe2b7170	-0.16742492
30	0xbe13ea0c	-0.1444475
31	0xbedef11f	-0.43543336
32	0x3da7033c	0.08154914
33	0x3eb813d3	0.35952625
34	0xbee2f92c	-0.44330728
35	0xbe8c590a	-0.2741168
36	0x3e24574d	0.16048928
37	0xbe79a1a0	-0.24378061
38	0x3e837e8a	0.2568248
39	0xbe810595	-0.2519957
40	0x3e0dbe93	0.1384223
41	0xbe8041b9	-0.25050142
42	0xbe910fc8	-0.28332353
43	0xbe67676c	-0.22598046
44	0xbba1176f	-0.0049161236
45	0xbde78206	-0.11304097
46	0xbec91a55	-0.39277902
47	0x3d90420d	0.07043848
48	0x3e10961f	0.14119767
49	0x3e1129dd	0.14176126
50	0x3e5b7148	0.21429932
51	0x3d8e36a2	0.06944014
52	0xbe3affb7	-0.1826161
53	0xbe2b9051	-0.16754271
54	0xbe1559f1	-0.14585091
55	0x3df6933f	0.12039804
56	0x3e79e23a	0.24402705
57	0xbd901c68	-0.07036668
58	0x3e197a27	0.14988004
59	0x3e0342db	0.12818472
60	0xbd4f947a	-0.050678708
61	0xbdf45631	-0.11930502
62	0xbe6b2e87	-0.22966968
63	0xbd9c05a1	-0.07618261
64	0xbb8426bc	-0.004032938
65	0x3e3a1e8a	0.18175712
66	0xbe859520	-0.26090336
67	0x3e53f951	0.20700575
68	0xbe61b426	-0.22041377
69	0x3e8c45a4	0.27396882
70	0xbe9e51e4	-0.30921853
71	0xbe82b511	-0.25528768
72	0xbc94e7bb	-0.018176904
73	0x3eb6e13d	0.35718718
74	0xbecfa49a	-0.4055527
75	0x3d836b81	0.06416989
76	0x3e2be7fc	0.16787714
77	0x3e9d8093	0.30762157
78	0xbd8ffcd9	-0.07030649
79	0xbe59b447	-0.21260177
80	0xbe8dd711	-0.27703145
81	0x3e7a9998	0.24472654
82	0x3eb75d19	0.35813215
83	0xbd3320fd	-0.043732632
84	0xbe7058e8	-0.23471415
85	0x3e35d574	0.17757207
86	0xbeb02fca	-0.3441146
87	0x3e899f3a	0.26879293
88	0xbe8952de	-0.26821035
89	0xbe2358b8	-0.15951812
90	0xbdf53c97	-0.11974447
91	0x3e8bec47	0.27328703
92	0xbe848649	-0.258837
93	0xbdd336a1	-0.10313154
94	0x3d4f12af	0.050554927
95	0xbe879ef9	-0.26488474
96	0x3e1df3e1	0.15425064
97	0x3e8d9127	0.27649805
98	0xbea01243	-0.31263933
99	0x3e3fa8f1	0.1871679
100	0x3e05d50c	0.13069552
101	0x3b5ddee4	0.0033854777
102	0x3e21a058	0.15783823
103	0x3e73ec56	0.23820624
104	0x3e537c74	0.20652944
105	0xbeb63345	-0.3558599
106	0x3e1ce5f6	0.15322098
107	0xbe32208b	-0.17395227
108	0xbe237c01	-0.15965272
109	0xbe8518a9	-0.25995377
110	0xbebd4faa	-0.3697484
111	0x3e47baac	0.19504803
112	0x3dca4ce0	0.09877944
113	0x3dac5148	0.08413941
114	0x3e499b77	0.19688211
115	0xbd6ee5fa	-0.05832479
116	0xbeb10982	-0.34577566
117	0x3e266b0b	0.16251771
118	0x3c47d97c	0.012197848
119	0xbe2e3284	-0.17011458
120	0xbe411220	-0.1885457
121	0x3df00d23	0.11721256
122	0xbd6d1ff8	-0.057891816
123	0xbdc37063	-0.095429204
124	0xbeb11ac1	-0.34590724
125	0x3d9f01fb	0.077640496
126	0xbe906534	-0.28202212
127	0x3d021e54	0.031767204
128	0x3e483872	0.19552782
129	0x3e735186	0.23761567
130	0xbcdfe618	-0.027331397
131	0x3e8a9bdb	0.27072033
132	0x3e5ea0dc	0.2174105
133	0x3dec257d	0.11530588
134	0xbc213fb2	-0.009841846
135	0xbed132eb	-0.4085916
136	0xbdb9d549	-0.09073884
137	0xbda3aeee	-0.079923496
138	0x3e964042	0.293459
139	0xbdf18b0b	-0.117940985
140	0xbdbdf13f	-0.0927453
141	0xbcefb51c	-0.029261164
142	0xbd83e1ed	-0.06439576
143	0xbca9fc2c	-0.020750128
144	0xbd05434a	-0.032534875
145	0xbdea13af	-0.114295356
146	0x3d100426	0.035160206
147	0xbe8c1ae6	-0.27364272
148	0xbe680724	-0.22658974
149	0x3d8092c0	0.0627799
150	0xbeb105ce	-0.3457474
151	0xbe25f21f	-0.16205643
152	0xbe9c74eb	-0.3055795
153	0x3b1d771c	0.0024027294
154	0xbecc24a5	-0.39871708
155	0xbe97843f	-0.29593083
156	0xbe6d0583	-0.23146634
157	0xbe89a109	-0.26880673
158	0xbe9b89b9	-0.30378512
159	0xbcecdd3f	-0.028914092
160	0x3e81e770	0.25371885
161	0xbe5849d0	-0.21121907
162	0x3d5f650c	0.054539725
163	0xbd8e46d8	-0.06947106
164	0x3d8be050	0.068298936
165	0x3dd7ba00	0.105335236
166	0xbdc22891	-0.09480394
167	0x3d4522e2	0.04812897
168	0x3e44f3f3	0.19233684
169	0x3da45e86	0.080258414
170	0xbe192d50	-0.14958692
171	0x3e947645	0.28996482
172	0x3e9e564e	0.3092522
173	0xbdf83d30	-0.121210456
174	0x3ea23063	0.3167754
175	0x3e85fb5e	0.2616834
176	0xbe8bf798	-0.27337337
177	0x3bd2531f	0.0064186
178	0xbd93f598	-0.07224578
179	0x3e2bcf7d	0.16778369
180	0xbd0acb78	-0.03388545
181	0x3d101f19	0.035185907
182	0xbd903c6f	-0.07042777
183	0xbdbec338	-0.09314579
184	0xbea3b911	-0.31977132
185	0x3e331e57	0.17492042
186	0xbe81e961	-0.25373366
187	0xbe904191	-0.28175023
188	0xbe8a081b	-0.2695931
189	0xbe01ac67	-0.12663423
190	0xbeecea23	-0.46272382
191	0xbdcfc700	-0.10145378
192	0xbe3b12b8	-0.1826886
193	0xbdb564e9	-0.08857138
194	0xbd019156	-0.031632744
195	0x3e70d30c	0.23518008
196	0xbde3dd3d	-0.11126182
197	0xbcf942c5	-0.030427346
198	0x3cc88ca6	0.024481129
199	0x3ddd94ed	0.10819421
200	0x3e3b423a	0.18286982
201	0x3e3064cf	0.17225955
202	0x3b98220b	0.00464273
203	0x3e48623e	0.19568726
204	0xbe88001b	-0.2656258
205	0xbe1343b9	-0.14381303
206	0xbda22ff6	-0.07919304
207	0xbe9f5004	-0.31115735
208	0x3dfd749c	0.12375757
209	0xbed3b559	-0.41349295
210	0xbdb893c2	-0.090125576
211	0xbdd6dbff	-0.1049118
212	0x3d5c5e8e	0.053801112
213	0xbe92a0d0	-0.28638315
214	0xbe8c8d0f	-0.2745137
215	0xbe8d792f	-0.27631518
216	0xbe90180a	-0.2814334
217	0x3d450c5b	0.048107486
218	0x3e35e955	0.1776479
219	0x3dd82183	0.10553267
220	0x3e6bb224	0.23017174
221	0xbc57db41	-0.013174833
222	0x3e5b6e53	0.21428804
223	0xbda5a4d5	-0.0808808
224	0xbd929e4a	-0.071590975
225	0xbe654056	-0.22387823
226	0x3e69b3e0	0.22822523
227	0xbcd0f525	-0.025507519
228	0xbe9b2d7f	-0.30308148
229	0x3e1d7780	0.15377617
230	0x3e4e316c	0.2013604
231	0xbc992a08	-0.0186968
232	0x3d04eede	0.032454364
233	0xbe9891ee	-0.29798836
234	0xbd06834a	-0.03284005
235	0x3e8ab137	0.2708833
236	0xbe98c7bc	-0.29839885
237	0x3de590fa	0.11209293
238	0x3cfdba62	0.030972663
239	0xbe019fca	-0.12658611
240	0x3e5a68a3	0.21328978
241	0x3e07e0c3	0.13269334
242	0x3dab2371	0.08356369
243	0xbd7a26a6	-0.061072014
244	0x3eb613d7	0.35562012
245	0x3e075ae4	0.13218266
246	0x3e8fe2c8	0.28102708
247	0xbddc49ec	-0.10756287
248	0xbe42ca48	-0.19022477
249	0x3d854c4f	0.06508695
250	0x3d97c208	0.074100554
251	0x3e2f128a	0.17096916
252	0xbd162c8e	-0.036663584
253	0x3e8f25b2	0.27958447
254	0x3c01f320	0.007931501
255	0x3e865f43	0.26244554

fc.1.weight f4 [10, 512]
0	0x3c9bc4b5	0.019014696
1	0xbd2d1e70	-0.042265356
2	0xbcd49d90	-0.025954038
3	0xbc76176c	-0.015020233
4	0x3ca086b5	0.019595483
5	0x3daa9c7f	0.083306305
6	0x3cf5dc1c	0.030012183
7	0x3d051abc	0.0324962
8	0xbc68549f	-0.0141803315
9	0x3cb34f4c	0.021888398
10	0xbcd86c5a	-0.026418854
11	0xbbbe5bbb	-0.005809275
12	0x3d54a623	0.051916253
13	0x3d4674cb	0.048451226
14	0xbc1b49b8	-0.009478025
15	0xbdd8f96d	-0.10594449
16	0x3d03e227	0.032198098
17	0x3d78b735	0.060721595
18	0x3cf53930	0.029934496
19	0x3bf40422	0.0074467817
20	0x3d83cf8f	0.06436073
21	0x3ca716fa	0.020396698
22	0x3cccf64e	0.025019791
23	0x3ca34805	0.019931803
24	0xbd681074	-0.056656316
25	0xbce0a649	-0.027423041
26	0xbc3c68ad	-0.011499566
27	0xbc46a307	-0.01212383
28	0x38b35c7d	8.5526124e-05
29	0xbd0ece3a	-0.03486464
30	0x3c3ac170	0.011398658
31	0x3d314d16	0.043286406
32	0x3b8c6a20	0.004285112
33	0xbcf407b4	-0.02978883
34	0xbd4773cf	-0.048694428
35	0xbc53ca2e	-0.012926621
36	0xbbb01d95	-0.00537462
37	0x3d644e9d	0.055739034
38	0xbce507bd	-0.027957791
39	0xb95b6006	-0.00020921239
40	0xbc5f02a2	-0.013611468
41	0xbe82cd2a	-0.25547153
42	0xbc04ba8e	-0.008101119
43	0x3c674e36	0.014117768
44	0x3cd67010	0.026176482
45	0x3af9b656	0.0019051533
46	0x3d1ee904	0.03879644
47	0xbbd4b7a1	-0.006491617
48	0x3e870169	0.26368263
49	0x3d1ac0b6	0.03778144
50	0xbb7f6046	-0.0038967296
51	0x3d440a2f	0.047861274
52	0xbd127307	-0.03575423
53	0xbc24c952	-0.010057764
54	0x3c1db053	0.0096245585
55	0x39446232	0.00018728597
56	0xbd8f60b6	-0.07000868
57	0x3ec3edea	0.38267452
58	0xbda7d214	-0.08194366
59	0x3c8bb537	0.017054183
60	0x3d2681a0	0.040650964
61	0xbca3695c	-0.0199477
62	0x3cabd67c	0.020976298
63	0x3cd5aefd	0.026084417
64	0x3c865f79	0.016402947
65	0x3c52351f	0.012830048
66	0x3d19420c	0.037416503
67	0x3def13a2	0.116736665
68	0x3d34e02e	0.044159107
69	0x3c8b6318	0.017015025
70	0xbcbe3c80	-0.023222208
71	0x3d67d200	0.056596756
72	0xbd23a92f	-0.039956268
73	0x3dee14cc	0.116250604
74	0x3d1ad0b2	0.037796684
75	0xbca3f8b4	-0.020016052
76	0x3da8afcf	0.08236658
77	0xbe0efc57	-0.13963448
78	0xbbc7126f	-0.0060751955
79	0xbbc10699	-0.005890679
80	0xbc940e95	-0.01807336
81	0xbbe7c7c1	-0.007073373
82	0x3c4282d6	0.011872014
83	0x3d0b6ff1	0.034042303
84	0x3da513ab	0.08060392
85	0x3d16c8e9	0.036812697
86	0x3d4e9922	0.050439008
87	0xbd2f636f	-0.042819437
88	0x3baa323e	0.0051939776
89	0x3aa12a9a	0.0012296021
90	0xbcf48d3c	-0.029852502
91	0xbc31165a	-0.010808552
92	0x3f3a1a75	0.7269662
93	0xbc90003c	-0.017578237
94	0xbda27108	-0.07931715
95	0x3d0b174a	0.033957757
96	0x3c38f98b	0.011289964
97	0x3c0cc3d0	0.008591607
98	0xbc3dd3e4	-0.011586163
99	0xbd5aa588	-0.05338052
100	0xbd082d43	-0.03324629
101	0x3c3e2f67	0.011607981
102	0x3c359d94	0.011084933
103	0x3c890330	0.016725153
104	0xbe663e77	-0.22484766
105	0xbec4d78c	-0.384457
106	0x3b7531a6	0.0037413626
107	0xbcaac062	-0.020843688
108	0x3c421062	0.011844726
109	0xbdb55769	-0.08854563
110	0x3b8fb010	0.004385002
111	0xbba87c85	-0.005141797
112	0x3ca063b7	0.019578798
113	0x3c4eab7b	0.012614126
114	0xbcc6a480	-0.024248362
115	0xbd474a0c	-0.0486546
116	0xbcfa5b53	-0.030561125
117	0x3c18e222	0.009331258
118	0xbbfde158	-0.0077478103
119	0x3d0b63e1	0.0340308
120	0x3dcd32ae	0.10019432
121	0xbd944b30	-0.072409034
122	0x3d62e084	0.055389896
123	0x3d3ee7ea	0.04660789
124	0xbca12196	-0.019669335
125	0xbb760e6f	-0.0037545224
126	0xbd8f0c3d	-0.06984756
127	0x3cae8b74	0.02130673
128	0x3c9c6f39	0.019096004
129	0xbb8b9ae5	-0.004260408
130	0xbd818886	-0.06324868
131	0xbdef42e4	-0.1168268
132	0x3e930ee8	0.2872231
133	0x3d307c02	0.043087013
134	0xbc9f38d6	-0.019436281
135	0xbcbd8986	-0.023136865
136	0x3c635e35	0.013877441
137	0xbe19572e	-0.14974663
138	0xbd1c02f5	-0.038088758
139	0x3cd6d674	0.026225306
140	0x3c4bcb64	0.012438629
141	0xbc977398	-0.018487737
142	0x3c12e2e2	0.008965226
143	0x3d1edafb	0.038783055
144	0x3d8640a0	0.06555295
145	0xbc92ab3f	-0.017903922
146	0xbc59c1a4	-0.013290796
147	0x3ca8f4bb	0.02062451
148	0x3d3ec72c	0.046576664
149	0xbd04961e	-0.032369725
150	0x3d4427e2	0.047889598
151	0xbbc9cd81	-0.006158531
152	0x3db81f51	0.08990348
153	0x3cddbe5f	0.027068315
154	0x3bc0e179	0.0058862534
155	0xbd383ae8	-0.044978052
156	0x3dbef55b	0.093241416
157	0x3c588e77	0.01321756
158	0x3b9db423	0.0048127337
159	0xbc4bc5b9	-0.0124372775
160	0xbb855a55	-0.0040696063
161	0xbcbbd5d9	-0.022929119
162	0x3cf2e2e4	0.029649206
163	0x3d45ed21	0.048321847
164	0x3b1fd137	0.0024386176
165	0x3dc17158	0.09445447
166	0xbbf68653	-0.007523337
167	0x3d4fb93a	0.050713755
168	0x3c775d8e	0.015097989
169	0xbd07bdc3	-0.033139955
170	0x3d17285c	0.036903724
171	0x3c926342	0.017869595
172	0xbced1105	-0.02893878
173	0x3c8e92f1	0.017404051
174	0x3c2d0124	0.010559354
175	0x3d07ea08	0.033182174
176	0xbca117a5	-0.019664595
177	0x3ca28f54	0.019843735
178	0xbc76a407	-0.015053756
179	0x3da1291a	0.078691676
180	0x3beee000	0.0072898865
181	0x3cf91519	0.030405568
182	0xbc2e229c	-0.010628369
183	0x3bf93027	0.007604617
184	0x3ce32683	0.027728325
185	0xbc1192ad	-0.008885068
186	0x3c83a5cc	0.016070269
187	0xbb3affae	-0.0028533745
188	0x3d3b2ae9	0.04569522
189	0xbc2c75ca	-0.01052613
190	0xbca3b05a	-0.019981552
191	0x3dbeee3d	0.09322784
192	0xbcbc1b1f	-0.022962151
193	0xbd83286e	-0.06404196
194	0xbc9f7920	-0.019466937
195	0x3c44d643	0.012013975
196	0xbc1ab163	-0.009441706
197	0x3cac8ac0	0.021062255
198	0x3e746465	0.23866422
199	0xbc8a3cb2	-0.016874645
200	0xbdee43ae	-0.116340026
201	0xbc7f4911	-0.015581385
202	0xbb510610	-0.0031894483
203	0x3c20e9fb	0.00982141
204	0xbc647191	-0.013943092
205	0x3cb38d15	0.02191786
206	0x3b134594	0.0022471892
207	0xbd72d5f6	-0.05928608
208	0xbdc8af52	-0.09799065
209	0x3e100bac	0.14066952
210	0xbe0d06e8	-0.13772166
211	0x3d32ec4b	0.043682378
212	0xbbdc12aa	-0.006716092
213	0xbc59dceb	-0.0132973
214	0x3bbb61e6	0.0057184575
215	0x3d9d3bc7	0.07677417
216	0xbd3b5a0e	-0.04574018
217	0x3c9ea488	0.019365564
218	0xbb535684	-0.0032247612
219	0x3e03974a	0.12850681
220	0x3ca4e480	0.020128489
221	0x3d1d7210	0.038438857
222	0x3b967ad6	0.00459228
223	0x3be61cc1	0.0070224707
224	0x3c0f211b	0.00873592
225	0xbd1ecad1	-0.03876764
226	0x3b22835d	0.0024797537
227	0x3c2dc7fa	0.01060676
228	0x3cba49a6	0.022740196
229	0xbcfe5ea6	-0.031050991
230	0x3c0a7f76	0.008453241
231	0x3caf025c	0.02136343
232	0x3cd6f91b	0.02624183
233	0x3d4878b3	0.048943233
234	0x3d076c7c	0.033062443
235	0xbca29b3f	-0.019849418
236	0x3d2c8cb1	0.04212636
237	0xbca06366	-0.019578647
238	0xb9c66adf	-0.00037845128
239	0xbbfa3b03	-0.0076364293
240	0xbdff9c08	-0.124809325
241	0xbc9d76f3	-0.019221758
242	0xbc5d72b3	-0.013516116
243	0x3c4b317f	0.0124019375
244	0xbdae4ba2	-0.085105196
245	0xbc5a3c0f	-0.013319983
246	0x3ac77f76	0.0015220481
247	0x3ce854a6	0.028360676
248	0x3cd32722	0.025775496
249	0x3db72fc9	0.08944661
250	0xbe1dde4b	-0.1541683
251	0x3dcf7ebc	0.101315945
252	0x3dce97be	0.10087536
253	0x3dba8c82	0.09108831
254	0xbbd04058	-0.0063553266
255	0xbc70f60f	-0.014707102

fc.1.bias f4 [10]
0	0x3c3c85ba	0.011506492
1	0xbc9a5d61	-0.018843355
2	0xbc0c2488	-0.008553632
3	0xbe0e190a	-0.13876739
4	0xbbad14e0	-0.0052820295
5	0xba2f86f8	-0.0006695832
6	0x3c0cb221	0.008587391
7	0xbd89ff8e	-0.06738196
8	0xbcff48d7	-0.031162662
9	0xbd8e4482	-0.069466606
