cache/10d_nn/smcusum/model_2/iter_3.pth (torch, 45000 bytes, 4 tensors)

fc.0.linear.weight f4 [512, 10]
000000 0d 7b 4f be 05 39 73 3e b8 65 96 3d 94 88 6d 3e
       -0.20261784 0.2375222 0.0734362 0.23196632
000010 c7 ae b0 3d d4 a6 31 3e 17 71 8f 3e 82 39 86 3e
       0.08627086 0.17348796 0.28015968 0.2621575
000020 40 fd c5 bd 99 29 65 3e 12 fc 25 bd dd 03 73 3e
       -0.09667444 0.2237915 -0.040523596 0.23731942
000030 87 16 06 be 6d e7 94 be 2d f8 92 bd c9 90 15 bd
       -0.13094531 -0.29082814 -0.07176242 -0.03651503
000040 85 80 3a be 6c 00 46 be 59 bf ba bd 5c 30 66 3c
       -0.18213089 -0.19336098 -0.09118528 0.014049616
000050 1c b8 90 be 90 6a d4 3d dd 3a 8c be 03 24 9e 3e
       -0.28265464 0.10371888 -0.2738866 0.3088685
000060 37 6a dc bd 9f 08 f4 bd e4 1b dc bd 2a 18 91 3e
       -0.107624464 -0.11915707 -0.10747507 0.28338748
000070 37 63 6f be 71 41 98 3d 70 ab f9 3d 2c 99 29 be
       -0.23377691 0.07434357 0.12190902 -0.16562337
000080 1a 76 24 bd d9 45 0c be fc 5b 0a be 20 b3 1d 3e
       -0.040151693 -0.1369852 -0.13511652 0.15400362
000090 69 93 3a 3e b9 1d 93 3d de 25 1f be 4d c6 f7 3d
       0.18220295 0.071834035 -0.15541789 0.1209837
0000a0 47 97 31 3e 6f 9d fd bc c6 0d 22 3d 76 a7 9e 3e
       0.17342864 -0.03095886 0.039563917 0.30987138
0000b0 73 4f 38 be 45 f2 67 be b4 e0 90 3e 4b 01 99 3c
       -0.17999057 -0.22651012 0.28296435 0.018677374
0000c0 cc 96 11 be 2b 8e 59 be 79 cd a5 be cb de 82 be
       -0.1421768 -0.21245639 -0.32383326 -0.25560603
0000d0 9c 53 a4 be dc 40 64 be 23 5d 10 3e 75 b5 4e be
       -0.3209504 -0.22290367 0.14098029 -0.20186408
0000e0 68 24 87 3e c9 b9 57 3d 73 67 ca bd e9 bf 87 3e
       0.26394963 0.052667413 -0.098830126 0.26513603
0000f0 79 9c 03 3e 76 71 43 3e 24 0b a0 be 50 70 83 3d
       0.12852658 0.1908625 -0.312585 0.06417906
000100 e2 9d 84 3e 62 11 14 be 63 2a 44 3e d6 d5 29 bd
       0.25901705 -0.14459756 0.19156794 -0.041463695
000110 c0 d5 79 be 87 bc e0 bc 93 f1 87 3d 22 98 7e 3e
       -0.24397945 -0.027433647 0.066378735 0.24862722
000120 b0 bd f5 bd 7a 7a 4c 3e 59 4a 97 3e ef 71 6d 3b
       -0.11999071 0.19968596 0.2954891 0.003623124
000130 8f e7 77 3d 95 7c 28 be 46 df 58 bd f3 fc 21 be
       0.060523566 -0.16453774 -0.052947305 -0.15819149
000140 63 64 ae 3d 1d 40 fa 3d 91 c6 0d bd 45 84 1b be
       0.08515241 0.1221926 -0.034613196 -0.15187176
000150 a4 ac 6a 3c 72 88 0d 3e ca 7c 84 be c1 10 4c be
       0.014323387 0.13821581 -0.25876456 -0.19928266
000160 88 c0 ac bd 02 4c 96 be f1 ed 6a be e7 21 3c 3e
       -0.0843516 -0.29354864 -0.2294233 0.18372308
000170 a2 a1 1c be b5 f7 17 be 8f df 98 be 5c 66 b0 3d
       -0.15296033 -0.14840586 -0.29858062 0.086132735
000180 2b 14 ad 3c 07 08 b8 bd b9 f1 8f be 54 3a 82 be
       0.02112778 -0.08985906 -0.28114107 -0.25435126
000190 60 07 fd bc 23 3e 10 be c9 0b 5e 3d d8 5b 50 be
       -0.030887306 -0.14086203 0.054210458 -0.20347536
0001a0 40 35 5f bd 53 dd d1 bd 90 1a 8c be 0a 31 49 be
       -0.054494143 -0.10247292 -0.27364016 -0.19647613
0001b0 0f df 73 3e a8 36 51 3d d1 19 1c be 77 65 11 be
       0.23815559 0.051077515 -0.15244223 -0.14198862
0001c0 d0 62 9f be b5 63 c8 3d 5b d0 87 3e 5a 74 9a be
       -0.31130075 0.097846426 0.2652615 -0.30166894
0001d0 35 73 9f be d6 d0 46 3e 04 43 73 3e 76 37 a8 bd
       -0.31142583 0.19415602 0.23756033 -0.08213703
0001e0 04 89 94 be d4 67 8c be d0 17 80 3e 04 cc b9 3d
       -0.29010785 -0.27422965 0.25018167 0.09072116
0001f0 0f d9 40 be 8d 58 05 be 9d 7d 43 be 78 34 1a 3e
       -0.18832801 -0.1302206 -0.19090886 0.15059078
000200 f1 06 22 3e 62 7e 3d be 43 d1 a5 bd 75 08 51 3d
       0.1582296 -0.18505242 -0.08096554 0.051033456
000210 d0 d1 91 3e df 22 9d 3d a5 ed d2 3d 04 d5 1a 3d
       0.28480387 0.07672667 0.10299233 0.037800804
000220 11 99 7c be cb 7a a5 3e 24 1f 74 be ac 6c 14 3e
       -0.24667765 0.32320246 -0.23840004 0.1449458
000230 73 28 9a be ae 16 53 be 00 1b 89 3b a4 6d d0 3d
       -0.30108985 -0.2061412 0.004184127 0.10177162
000240 5f f6 88 3e 6a a8 26 be 84 47 d3 3d 0e c7 76 3e
       0.26750466 -0.16275182 0.10316375 0.24099371
000250 0e d1 33 3e 48 e5 59 3d 76 a0 0b 3d f1 10 e5 bd
       0.17560217 0.053197175 0.034088574 -0.11184872
000260 a6 77 95 3d 40 22 43 bc e4 f4 78 3e 27 ea 54 bd
       0.07298212 -0.011910021 0.24312168 -0.051981118
000270 87 26 df bb ef 80 6d 3e 40 4a 74 be af 75 fc 3d
       -0.0068100127 0.23193716 -0.23856449 0.12327134
000280 50 47 83 be ef 16 3c be 5e 5d 2a be c6 5b 56 3e
       -0.25640345 -0.18368123 -0.1663718 0.20933446
000290 02 b3 f3 3c a1 c6 89 3e cb a2 50 3e 94 61 a2 bd
       0.029748444 0.26909354 0.203746 -0.07928768
0002a0 6f e2 29 3d 72 a5 3a bd 37 17 6f be d3 5e 77 3e
       0.04147571 -0.045567937 -0.233487 0.24157266
0002b0 84 3a 9e be 84 7a b9 be 29 1e 0c 3e 5d 83 ed 3d
       -0.3090402 -0.36226285 0.1368338 0.11597321
0002c0 ec c5 f7 bd 38 97 22 3e a7 8c 1f 3e 82 b2 9d 3d
       -0.120982975 0.15877998 0.15580998 0.07700063
0002d0 4c 66 89 3e 8f 0f 94 bd e6 e4 4e bd 22 6b 1d be
       0.2683586 -0.0722953 -0.050511263 -0.15372899
0002e0 64 de 4e bc 92 35 e8 bd 63 c6 a7 bd d0 44 26 be
       -0.012626264 -0.11338343 -0.08192136 -0.16237187
0002f0 38 91 27 be ba 4b e3 bc f5 b2 87 3b e4 d9 8e be
       -0.1636399 -0.02774607 0.0041412064 -0.27900612
000300 8d a1 21 3e c2 79 81 bd 34 a5 9c be 72 eb 22 be
       0.15784283 -0.063220516 -0.3059479 -0.15910128
000310 c7 87 57 3e ca 71 82 be 28 64 77 be 45 06 29 be
       0.21047889 -0.2547744 -0.241593 -0.16506298
000320 85 d5 40 be ec 28 9d be 57 a6 9e bd 1a e6 20 bd
       -0.18831451 -0.30695283 -0.077465706 -0.039281942
000330 fc f5 90 3e 81 20 c4 3d bf 2a 2e be 1a 86 c3 bd
       0.2831267 0.09576512 -0.17008494 -0.09547062
000340 e5 19 5d be 61 3d 25 3e 5f 20 97 3d ab d5 37 3e
       -0.21591909 0.16136695 0.07379221 0.17952602
000350 bf eb a9 3d 2e 71 23 3e 62 53 88 3e 11 3d a5 3c
       0.08296918 0.15961143 0.26626116 0.02017072
000360 f6 fa 85 3d a1 a3 8c 3d d1 ce cc bd 08 dd 77 3e
       0.065420076 0.06867147 -0.100003846 0.2420541
000370 89 cf 44 be 5d 69 75 bc f2 a3 40 bd 7f 03 4c 3e
       -0.19219793 -0.014978734 -0.04703135 0.19923209
000380 7c eb a6 be e5 07 da bd f8 ab 92 3e dc 2a 7f bd
       -0.32601535 -0.10646037 0.28646827 -0.062296733
000390 aa 14 73 3e 44 84 ab bd 4e 3d 7e be 65 23 16 be
       0.23738351 -0.08374837 -0.24828073 -0.1466194
0003a0 50 6c 03 3d 1d 72 91 bd be e5 24 3e 6f d2 d1 bd
       0.032085717 -0.071018435 0.16103265 -0.10245215
0003b0 e6 21 bc bd 33 72 32 be f9 0a 6f be 8d cb 4e 3e
       -0.09186153 -0.17426376 -0.2334403 0.20194836
0003c0 cb 79 d2 3d 9f c3 de bd ad 0a 74 3e 44 f6 68 bc
       0.102771364 -0.108771555 0.23832197 -0.014218871
0003d0 c0 09 f6 bd 44 67 8f 3e ba 26 6b be 50 27 a8 3e
       -0.120135784 0.28008473 -0.22963992 0.32842493
0003e0 1c 8c 9d 3c 15 3d 44 3e df 2b 82 3d 21 69 1a 3e
       0.019231848 0.19163926 0.06356024 0.15079166
0003f0 4c 6f 2a be 29 62 9f 3e 35 50 d1 3c d7 e5 ec bd
       -0.16644019 0.31129578 0.025550941 -0.11567276

fc.0.linear.bias f4 [512]
000000 cf 19 db bd 7f 86 e4 bc cb 4d 86 be 91 ba 6e 3e
       -0.10698282 -0.027896164 -0.26231226 0.23313357
000010 f4 fc e4 3c 69 57 b8 bc 15 a5 b8 3d e7 ea 86 be
       0.027952649 -0.022502618 0.09015862 -0.2635109
000020 39 d2 9c be 25 8f b3 3d bb 77 8e be 69 42 e0 3c
       -0.30629137 0.08767537 -0.27825722 0.027375417
000030 4b e4 7a be e6 64 7c 3e e0 55 99 bc ba 5b 03 3c
       -0.2450115 0.24647865 -0.018717706 0.008017475
000040 2f 87 51 be c7 ab e9 3d 60 2e 6d be 0f 91 07 3d
       -0.20461725 0.11409717 -0.23162222 0.033097323
000050 9d f2 e7 3d d2 b7 e6 3d 0f ce 60 be ec 32 88 be
       0.11325572 0.1126553 -0.21953605 -0.2660135
000060 4c 75 bc 3d 3b b6 21 3e e5 6e 87 3e 82 1d 57 3e
       0.0920206 0.15792172 0.26451793 0.2100735
000070 79 a3 be 3e 3d 62 1f be 48 bb 0a be 56 06 96 be
       0.37234095 -0.15564819 -0.13548005 -0.2930171
000080 3c 03 a7 3d bb 24 96 3e b4 41 b9 be 73 d2 86 be
       0.08154914 0.29324898 -0.3618294 -0.26332435
000090 b4 02 07 3e 2d c6 50 be f4 18 fb 3d 1b 4f 5e be
       0.13184625 -0.20388098 0.12260619 -0.21709864
0000a0 f9 f0 9a 3d d1 07 31 be e2 3c 31 be 8b 74 c1 bd
       0.07565493 -0.17288138 -0.17308381 -0.09446057
0000b0 1f 2e 8b 3b 79 46 e2 bc 6a 1a a9 be e3 73 83 3d
       0.0042474414 -0.027621495 -0.33027965 0.06418588
0000c0 d0 79 2a 3e 0a 92 98 3d 69 1a 61 3e 43 af 67 3d
       0.1664803 0.0744973 0.21982731 0.056563627
0000d0 35 a1 39 be 96 40 0b be 70 07 a0 bd f3 4e 61 3e
       -0.18127902 -0.13598856 -0.078139186 0.22002773
0000e0 9f a9 8a 3e 56 a3 25 bd 25 97 49 3e 38 e9 ab 3d
       0.27082536 -0.040438972 0.19686563 0.08394092
0000f0 a7 d6 8d 3d 34 a9 b6 bd 7c a5 f6 bd eb 20 11 bd
       0.06925707 -0.08918992 -0.120432824 -0.035431784
000100 d4 ea 81 bc f2 c4 1f 3e 2f 93 85 be 7e 91 68 3e
       -0.015859045 0.15602472 -0.26088855 0.22711751
000110 ce 24 04 be 7f e5 76 3e 70 10 71 be af f2 71 be
       -0.12904665 0.24110983 -0.23541427 -0.23627733
000120 9c 45 be bc 77 86 7e 3d d3 90 a7 be 48 6c a9 3b
       -0.023226552 0.062139954 -0.3272768 0.005170379
000130 1f 73 56 3e 95 b3 5c 3e f3 f8 5b bd 16 94 0b be
       0.20942353 0.2155288 -0.053704213 -0.13630709
000140 b9 89 88 be 9d 05 b9 bd ab fb a0 3e 53 02 31 bd
       -0.26667574 -0.09034274 0.31442007 -0.043215107
000150 ee 8c 17 be b7 6f 55 3e 48 3e 83 be 4c 20 95 3e
       -0.14799854 0.20843397 -0.25633454 0.29126203
000160 df 09 78 be dd 6c 0a be 14 ad 1b be 35 14 5b 3e
       -0.24222516 -0.1351809 -0.15202743 0.21394427
000170 b2 76 2c be 60 14 7b bc bf 89 99 3d de 15 50 be
       -0.16842154 -0.015324682 0.07496976 -0.20320842
000180 8c b2 10 3e 92 8f 6a 3e 70 29 a1 be c2 e4 47 3e
       0.1413061 0.2290633 -0.31476927 0.19520858
000190 e4 77 f6 3d 79 58 4a 3d 58 a0 21 3e 8c 35 94 3e
       0.12034586 0.04940078 0.15783823 0.28947103
0001a0 34 38 73 3e 4a 78 80 be ce bd 83 3e ed bb 32 be
       0.23751909 -0.25091773 0.25730747 -0.174545
0001b0 7e a2 a9 bd c4 c0 8d be 2a aa 87 be df 15 86 3e
       -0.08282946 -0.2768613 -0.26497012 0.2618856
0001c0 9c f2 59 3d 7a 55 ea 3d 24 1e 1c 3e 5c f3 18 bd
       0.053209886 0.114420846 0.15245873 -0.03734146
0001d0 47 af 87 be eb 14 4f 3e ee bd 70 3c f9 7f 2a be
       -0.26500914 0.20222823 0.01469372 -0.1665038
0001e0 1d fb 43 be 82 8c 5d 3e 61 64 53 bd eb 47 7f bd
       -0.19138761 0.2163563 -0.0516094 -0.062324446
0001f0 22 3e 9a be 21 4c 20 3e c1 e1 5e be 34 d1 de 3c
       -0.3012553 0.15654041 -0.21765806 0.027199365
000200 4e 97 10 3e 58 0d 49 3e 30 48 73 bc f4 09 92 3e
       0.14120218 0.19633996 -0.014848754 0.2852322
000210 bd 82 8a 3e 17 f4 a5 3d 29 90 a3 bc cb 39 a6 be
       0.2705287 0.08103197 -0.019966202 -0.32465968
000220 2b a8 bd bd 7d bb 25 bd e5 56 69 3e a1 87 7a bd
       -0.09260591 -0.040462006 0.22787054 -0.061164502
000230 43 01 13 bd 9f af bf bc ce 3d ff bd b9 cd 47 3d
       -0.035889875 -0.023399172 -0.1246296 0.048780177
000240 ce 3d 29 3e a7 28 21 be 21 e7 2c 3d e1 bd 97 be
       0.16527483 -0.15738164 0.04221261 -0.29637054
000250 79 8e 63 be 82 d5 83 3d b5 6e 84 be de 78 57 be
       -0.22222318 0.06437208 -0.25865713 -0.21042201
000260 3a 16 91 be cf bd 9f 3d ab fe a0 be 61 26 89 be
       -0.2833727 0.07799875 -0.31444296 -0.26787093
000270 6a dc 47 be 31 dc 50 be 40 08 93 be d9 28 66 3b
       -0.19517675 -0.20396496 -0.28717232 0.0035119562
000280 47 44 54 3e 9e 3e 5b be 7e 70 55 bb ff 7d 60 bb
       0.2072917 -0.21410605 -0.0032568271 -0.0034254787
000290 5d 43 e8 3d 9b 18 14 3e d6 04 af bd 2c 28 0c 3d
       0.113409735 0.14462511 -0.08545844 0.034218
0002a0 9c fa 75 3e 3d 63 42 3e ea 8a e1 bd 66 5d 99 3e
       0.24021381 0.18983169 -0.11012824 0.2995407
0002b0 db 29 9f 3e 29 73 fa bd 16 c6 3c 3e 0c 14 96 3e
       0.3108662 -0.12228996 0.18434939 0.2931217
0002c0 44 db 6f be 1b ba e4 bd 51 d7 a7 bd ae 3b 78 3e
       -0.23423487 -0.11168309 -0.08195365 0.24241516
0002d0 78 cb 0a bd ed f6 57 3d ff 9b 85 bd e2 68 99 bd
       -0.03388545 0.05272572 -0.065238945 -0.07490708
0002e0 01 c7 92 be 04 df 28 3e f7 dd 3d be b7 b1 e1 bd
       -0.28667453 0.16491324 -0.18541704 -0.110202245
0002f0 49 76 8c be 1d ff c6 bc 96 27 96 be 6b c1 94 bd
       -0.27433994 -0.02429157 -0.29327077 -0.07263454
000300 ea 30 3c be 5b ca 91 bd e2 c1 b6 bd 38 5f 81 3e
       -0.18378034 -0.07118674 -0.08923699 0.2526796
000310 f1 a2 ba bd 30 ff e6 bd 91 6c c5 3d 07 c8 d8 3d
       -0.0911311 -0.11279142 0.09639848 0.10585027
000320 6d 03 54 3e 13 ad 8a 3c 67 17 f9 bc ee 2a 25 3e
       0.20704432 0.016928231 -0.030406667 0.16129658
000330 4b 4d 8e be fb 16 f5 bd 8c b2 b8 bc f7 22 84 be
       -0.27793345 -0.11967274 -0.022546075 -0.25807926
000340 fe b7 0e 3e 1b c5 80 be f9 f5 9a bd c9 86 54 bd
       0.13937375 -0.2515038 -0.07566447 -0.051886354
000350 d2 f8 36 3d 40 17 5f be e0 65 5f be de 90 15 be
       0.044670887 -0.21786213 -0.21816206 -0.14606044
000360 8a 6f 8c be 15 80 24 3d 84 b5 44 3e cc 70 07 3e
       -0.27428848 0.04016121 0.19209868 0.13226622
000370 62 ba 91 3e fc f2 9b bd 29 e8 97 3e 00 fb e0 bd
       0.2846251 -0.07614705 0.29669312 -0.109853745
000380 a4 fb ae bd 70 50 15 be 86 98 2c 3d 0c 1a ba 3c
       -0.085440904 -0.14581466 0.042137645 0.022717498
000390 1d 37 8f be 18 36 15 3e 8a eb 74 3e 89 01 ce bd
       -0.27971736 0.14571416 0.23917976 -0.100588866
0003a0 e2 df 20 3b 77 74 76 be 63 67 7e bd 88 af 92 3e
       0.0024547507 -0.24067865 -0.062110316 0.28649545
0003b0 aa e5 8f be a7 01 02 3e 15 80 0e 3d 71 f3 8c bd
       -0.28104907 0.12695943 0.034790117 -0.0688237
0003c0 e8 f3 61 3e 8d 22 07 3e d3 97 c5 3d 5b 7a 10 bd
       0.22065699 0.13196774 0.09648099 -0.035272937
0003d0 61 35 29 3e b6 ba 43 3e 4f 03 8d 3e ec 49 dc bd
       0.16524269 0.19114193 0.27541587 -0.10756287
0003e0 05 4b 3b be 39 49 d8 3d 51 69 2a 3e 27 42 4d 3e
       -0.18290336 0.10560841 0.16641738 0.20044766
0003f0 96 25 42 3d 21 b5 8b 3e 60 f6 15 3d 1e c5 6c 3e
       0.047399126 0.27286628 0.036611915 0.23122069

fc.1.weight f4 [10, 512]
000000 36 1c 45 3d e3 52 1b bd 98 0c b6 3a ad f9 da bc
       0.048122607 -0.037920844 0.0013889251 -0.026730383
000010 b8 9c a2 3c 9d 2a ef 3a 5c 08 18 3d 91 2c 08 3d
       0.01985012 0.0018246953 0.037117347 0.033245627
000020 cb bc 4b bc 2d 58 93 3c 97 7b fb bb cd 13 e9 3a
       -0.0124351485 0.017986381 -0.007674645 0.001778239
000030 33 b7 42 3c 86 16 52 3c b8 49 1b bc 6d d6 48 3b
       0.011884498 0.012822753 -0.009478025 0.0030645386
000040 cc 33 2a 3d c4 4b 93 3c 90 b6 24 3d c6 f3 fa 3b
       0.041553304 0.017980464 0.040213168 0.0076584546
000050 02 64 2b 3d 99 bf a6 3c ab 8f 02 bc 3e d9 e3 3b
       0.04184342 0.020355033 -0.007968823 0.0069533875
000060 ec 09 d8 bc e8 ec 28 bd c7 0f a3 bc 39 9e 20 bc
       -0.026371919 -0.041241556 -0.019904984 -0.009803348
000070 27 b2 90 bc 21 93 14 bd 3c f3 f0 3b 32 27 32 3d
       -0.017663075 -0.036273126 0.0073532145 0.04349441
000080 20 6a 8c 3b 47 b4 9d bc a4 f3 20 bd c7 31 60 bc
       0.004285112 -0.019251002 -0.039294854 -0.013683743
000090 a5 56 71 bc bf aa 1e 3d e5 cc a8 bc e1 26 bb b9
       -0.01473013 0.038737055 -0.020605514 -0.00035696386
0000a0 aa 46 7c bb 7a c5 05 bd ff 7c 8f bc 85 2c 99 3c
       -0.0038494268 -0.03265903 -0.017515657 0.018697986
0000b0 3e 45 01 3d 9d f7 77 3c 11 04 14 3c be ac 86 bc
       0.031560175 0.015134719 0.009034173 -0.016439792
0000c0 62 a0 09 3d 7a b3 c2 3b 05 01 05 3c be 0e 3e 3d
       0.03360022 0.0059418054 0.008117919 0.046400778
0000d0 47 73 13 bd 2f c4 b3 3a d2 ca 80 bc 0a 26 88 bc
       -0.03599861 0.0013715083 -0.015721712 -0.016619701
0000e0 4e 52 17 bd dc 9e a7 3d c3 e0 0c bd 07 d9 28 bc
       -0.036943726 0.08184597 -0.034394037 -0.01030565
0000f0 75 cd b9 3c 58 93 02 bd 6b 59 00 3d 4f 65 87 bc
       0.022680977 -0.0318788 0.031335276 -0.0165278
000100 a9 36 af 3c 73 72 48 3c 9e 27 19 3d 0f 9f 1c 3d
       0.021388369 0.012234318 0.037391298 0.038237628
000110 f2 b2 a6 3c d1 60 5f 3c a8 4c 25 3b 1d 82 22 3d
       0.020349 0.013633923 0.0025222693 0.039674867
000120 21 8a 29 bd e7 f2 7e 3c 5d 36 bb 3c 82 c1 ce bc
       -0.041391496 0.015560842 0.02285307 -0.025238756
000130 95 30 51 3c da fb c1 bc b3 ca 89 bc d6 ea e5 bc
       0.0127679305 -0.023679662 -0.016820287 -0.02806608
000140 41 11 7e bc ec 37 95 bc c5 35 13 3c 52 38 1d 3d
       -0.015507043 -0.018215142 0.008984988 0.03838379
000150 50 34 41 3d 80 1b c8 3c ce de cc bb 34 7a c5 bc
       0.04716903 0.024427176 -0.0062521463 -0.024106123
000160 f5 3c 24 bc 80 de 5b bb 8b 78 22 bd 95 0f 55 bc
       -0.010024299 -0.0033549368 -0.03966574 -0.013004203
000170 88 30 d2 3d 73 11 e9 3b 75 e4 c7 bc 8e 32 d2 3c
       0.10263163 0.007112676 -0.024400929 0.025658872
000180 10 30 5a 39 1a 83 a9 3c 6e 52 61 bc a8 4b c7 3c
       0.00020808005 0.020692397 -0.013752563 0.024328068
000190 e1 d2 be bc 62 10 b6 bc 94 9d 35 3c f4 40 46 3d
       -0.023293914 -0.022224609 0.011084933 0.048401788
0001a0 6c d1 bc bb f3 c7 93 bd 40 d8 c6 3b 98 8f 04 bd
       -0.0057622697 -0.07215872 0.0060682595 -0.032363504
0001b0 b9 db 99 3c 54 8a 48 bd fb 7f 5f bc 5a 1a f1 ba
       0.01878153 -0.048960045 -0.013641353 -0.0018394694
0001c0 77 00 a5 3c 8d 55 1b ba e9 af d0 bc 72 84 06 3c
       0.020141823 -0.0005925529 -0.025474505 0.008210288
0001d0 d9 c6 ad bc d0 63 82 3c 89 3a 1b bc 01 00 10 3d
       -0.021212982 0.015916735 -0.009474405 0.035156254
0001e0 a2 b4 80 bb fe 5d 41 bd f9 84 02 3d a1 45 0d 3d
       -0.003927783 -0.04720878 0.031865094 0.03449023
0001f0 7e a6 8e 3c 76 af 57 bb 66 0f dd bc 9d 1b bf 3c
       0.017413374 -0.003291098 -0.026984882 0.023328597
000200 d5 d0 8c bb 46 ea e5 bb db 83 53 bd c6 d7 4d bc
       -0.0042973557 -0.007016453 -0.05163942 -0.012563651
000210 b7 9d 10 3d 9c 3b 0d 3d 6c 84 78 bc 13 c1 1b bc
       0.03530666 0.034480676 -0.015168291 -0.009506482
000220 5b db 83 3c 9a 24 59 bd f2 fb 2c bd b3 ca c5 3c
       0.016095808 -0.05301342 -0.04223246 0.024144506
000230 9e 0e 10 3c 50 1d 08 bd da 1e ce 3b 75 63 0f 3d
       0.0087925475 -0.03323108 0.006290299 0.03500696
000240 07 2a 07 3d 6e 98 46 bb cb 27 bd bb 5d 0d 57 3c
       0.032999065 -0.0030303258 -0.005772566 0.013125745
000250 4c af 28 3d 8d 1d 00 bd 25 b4 df 3c ed 5e 83 bc
       0.0411828 -0.03127818 0.02730758 -0.016036475
000260 d8 c1 a7 3c 80 90 ff 3b 5f b8 be 3b 5e fd 3b bc
       0.020478174 0.007799208 0.0058203186 -0.011473982
000270 53 e5 09 3d bb 87 07 3d 4c b9 0e 3c 71 35 a7 bc
       0.033665966 0.033088427 0.00871117 -0.020411225
000280 f1 e4 78 bb f3 af 82 ba 17 ad 28 3d 1c ba 2e 3c
       -0.0037978257 -0.000997065 0.041180696 0.010664489
000290 79 07 79 bc d6 80 5d 3b 84 b2 89 b8 3a 58 11 3d
       -0.0151995355 0.0033798716 -6.56592e-05 0.03548453
0002a0 88 0f fd 3c 54 ad dd bb ae 29 10 3d 69 c9 71 3c
       0.030891195 -0.006765047 0.035196 0.014757493
0002b0 10 90 b8 bc 99 40 38 39 3d 90 76 3b 80 25 e9 3c
       -0.022529632 0.00017571672 0.0037622594 0.028460264
0002c0 4e 18 b2 bc ee 1e 93 3c 23 4e da bb 10 f0 1d 3d
       -0.021740105 0.017959084 -0.0066621467 0.03855902
0002d0 00 e0 ee 3b 89 f7 02 3c 88 bf 9a 3b 2d 10 d1 bc
       0.0072898865 0.007993587 0.0047225393 -0.025520409
0002e0 df 28 09 3d 91 fd d7 3b ed 18 16 bc db 1c ff bc
       0.033486243 0.006591507 -0.009161216 -0.031141689
0002f0 0b 74 23 3d a5 79 ad 3c 5c db 03 bd 5e 0f 86 3c
       0.03990559 0.021176169 -0.03219162 0.01636475
000300 7b cd 27 bd c9 a5 6c bc 24 4f 96 bb 86 a2 89 3c
       -0.040967446 -0.014443823 -0.004587071 0.01680113
000310 80 d4 05 ba 06 c0 b0 3c 05 84 12 3d 4e 5f d0 bc
       -0.00051052123 0.021575939 0.035770435 -0.02543607
000320 5b 22 3d bd 92 fe 20 bc 69 4d 79 3c 26 1d 4d 3c
       -0.046175342 -0.009826319 0.01521621 0.012519157
000330 6d 13 8f 3b 98 55 d1 3c 5a 75 1f 3c 1b 67 29 bd
       0.0043663294 0.02555351 0.009732569 -0.041358095
000340 93 ec e3 bc 8c 5d fa bb c0 c1 72 bd b4 b3 8b 3c
       -0.027822768 -0.007640546 -0.059266806 0.017053463
000350 86 a0 5c bb d0 d3 cd bc 23 34 dc bc ca 15 01 3d
       -0.0033665015 -0.025125414 -0.02688033 0.03151492
000360 a7 53 9e bc 02 17 a0 3c 7f 23 93 3c c0 5d bb 3d
       -0.019326998 0.019542221 0.017961262 0.09148741
000370 e1 ec f3 3c 02 87 e5 3c 34 46 76 bc a3 1b 10 3c
       0.029776039 0.028018478 -0.015031386 0.008795652
000380 ad 7c b2 bb eb 8e 58 3a 58 e3 69 bc d7 b9 e8 3b
       -0.0054469914 0.00082610425 -0.014275394 0.007102232
000390 4f 39 8b 3c b9 b2 0d bd 68 06 d2 3b 46 6c aa 39
       0.0169951 -0.03459427 0.006409455 0.00032505597
0003a0 59 e3 07 3d 84 df 03 3d 87 9c 06 3d 30 6e 88 bc
       0.0331758 0.032195583 0.03286412 -0.016654104
0003b0 94 02 0b 3d 25 36 17 bc 8d d3 d2 39 f8 cb 3e bc
       0.033938006 -0.009229218 0.0004021194 -0.01164531
0003c0 12 e8 02 bd 53 ac 05 bd a6 35 15 bc 46 05 ab 3c
       -0.0319596 -0.032635044 -0.009107029 0.020876538
0003d0 12 d9 1a bd 55 85 58 3b 87 55 a4 3b a6 54 e8 3c
       -0.03780467 0.0033038456 0.0050150785 0.028360676
0003e0 dd 2c b1 3b 7f c4 44 3c 74 b9 06 bd 1b 54 1a 3d
       0.0054069594 0.012009739 -0.032891706 0.037677865
0003f0 3e 47 cb 3c 57 bc 11 3d e4 6c 76 3b f3 cd 6f bc
       0.024814244 0.035580005 0.0037601525 -0.014636504

fc.1.bias f4 [10]
000000 2c f2 96 3c 2e 90 32 bb 99 64 a8 bc e0 ec 3c bc
       0.018426023 -0.0027246582 -0.020555781 -0.011531085
000010 45 fd 54 3b 55 d6 8b bc b4 b6 99 3c 24 26 8e 3c
       0.0032499593 -0.017069975 0.018763877 0.017352171
000020 19 f3 93 bc 39 80 fe bb
       -0.018060254 -0.00776675
