cache/10d_nn/smcusum/model_2/iter_6.pth (torch, 45000 bytes, 4 tensors)

fc.0.linear.weight f4 [512, 10]
000000 cc 11 67 be 96 98 54 3e af 1a cd 3d 07 25 70 3e
       -0.22565383 0.20761332 0.10014855 0.23451625
000010 80 b7 3a 3d 40 2b 50 3e 14 71 86 3e c0 91 6b 3e
       0.045585155 0.20328999 0.26258147 0.23004818
000020 d6 7a 8b bd 8e c5 7e 3e 8c 42 6f bd 8e 8d 66 3e
       -0.068105385 0.24880049 -0.058413073 0.22514936
000030 25 d1 f5 bd 01 73 c4 be 33 c7 a8 bd 79 cb 83 bd
       -0.12002782 -0.3836899 -0.08241119 -0.06435294
000040 be 8f 3e be 56 34 3d be f6 4d b7 bd 4a ca c6 3c
       -0.18609521 -0.18476996 -0.08950417 0.02426638
000050 56 1d 92 be f2 de d3 3d 95 a8 8a be de e2 ad 3e
       -0.28538007 0.10345258 -0.27081743 0.33962148
000060 dd 9a f2 bd 4c 21 fe bd 23 2b d6 bd 86 a1 91 3e
       -0.11845944 -0.124086946 -0.104574464 0.28443545
000070 9b e8 6c be 8d 90 a0 3d 00 10 0f 3e 11 ee 24 be
       -0.23135607 0.07840071 0.13970947 -0.1610644
000080 e7 9c 8c bd 47 e7 cc bd 06 9c 0f be 0e 87 35 3e
       -0.06865864 -0.1000505 -0.14024362 0.177273
000090 01 f6 03 3e 91 15 5c 3c 65 c6 37 be ad 2e b4 3d
       0.12886812 0.013432876 -0.17946775 0.08797965
0000a0 ea 04 31 3e fe 31 e1 bc ab f6 32 3d 0d c8 99 3e
       0.17287031 -0.027489658 0.043692272 0.3003544
0000b0 d4 87 30 be 48 96 73 be 23 13 94 3e 7f f3 be 3c
       -0.17239314 -0.23787796 0.2892085 0.023309467
0000c0 19 86 10 be 39 4d 57 be d8 2b a5 be 25 93 8f be
       -0.14113654 -0.21025552 -0.32260013 -0.2804195
0000d0 ea ba 86 be aa 4c a6 be 44 44 53 3e 71 4d 78 be
       -0.2631448 -0.32480365 0.2063151 -0.24248292
0000e0 95 54 8b 3e 6c 87 ec 3d fb 40 38 bd 13 64 aa 3e
       0.27212968 0.11549267 -0.044983845 0.33279476
0000f0 ae dc 08 3e 82 95 41 3e 7e 3f a0 be b7 e2 9a 3d
       0.13365433 0.18904689 -0.3129844 0.07562774
000100 55 59 69 3e e6 cc 03 be 3d 9b 32 3e 23 ed 49 bd
       0.22787984 -0.12871131 0.17442031 -0.049298417
000110 5f e1 7e be d2 9e 00 bd b7 73 6e 3d cc b7 86 3e
       -0.2489066 -0.031401463 0.058215823 0.263121
000120 3a ee f1 bd 5f c8 4e 3e b0 1e a3 3e dd a3 0c bc
       -0.11813016 0.20193623 0.3185935 -0.00858399
000130 d3 ea 89 3d 72 78 23 be b3 22 37 bd f1 e5 1e be
       0.06734242 -0.15963915 -0.044710826 -0.15517403
000140 c9 bc b0 3d 13 66 f0 3d 43 d2 1f bd 66 3c 15 be
       0.08629758 0.11738219 -0.03901888 -0.14573821
000150 d0 aa 49 3c 01 89 09 3e fb bb 82 be e4 cc 4e be
       0.012308791 0.13431169 -0.25534043 -0.20195347
000160 85 d0 ad bd 75 47 96 be 0c 66 66 be e6 16 43 3e
       -0.084870376 -0.29351392 -0.22499865 0.19051704
000170 44 2b 1e be 1b 3b 15 be 29 9c 97 be 2a b7 b6 3d
       -0.15446192 -0.14573328 -0.29611328 0.089216545
000180 db 30 9c 3c 50 b4 b4 bd f4 21 90 be 3d 9b 82 be
       0.019066265 -0.088234544 -0.28150904 -0.25509062
000190 7f 87 98 bc 40 ff 0d be f7 50 6e 3d 0a cd 73 be
       -0.018619297 -0.13866901 0.058182683 -0.23808685
0001a0 eb c1 7e bd ad ee c3 bd 7b 09 8c be e4 bc 4a be
       -0.062196653 -0.09567008 -0.27350983 -0.19798619
0001b0 75 c1 6a 3e e7 7e 57 3d ad 61 f3 bd 37 c0 07 be
       0.2292536 0.052611258 -0.118838646 -0.13256918
0001c0 07 6d a8 be e2 4d d4 3d 5a af 43 3e 69 b8 8a be
       -0.3289568 0.103664175 0.1910986 -0.2709382
0001d0 58 7b a5 be e9 5c 31 3e 74 ca 54 3e be 5c d8 bd
       -0.32320666 0.17320599 0.20780355 -0.10564564
0001e0 c5 9b a5 be 5d 78 6b be db 36 94 3e 9f 67 fc 3d
       -0.32345405 -0.22995134 0.289481 0.12324452
0001f0 65 99 15 be 50 0d 4f be 99 b1 04 be e4 41 47 3e
       -0.14609297 -0.20219922 -0.12958373 0.19458729
000200 09 e4 52 3e c4 12 18 be 25 92 d1 bd 0c c6 97 3d
       0.20594801 -0.14850909 -0.10232953 0.07410821
000210 73 d4 9c 3e ad 5f dd 3d 7f 39 0b 3e ad 99 ce 3c
       0.30630836 0.10809264 0.13596152 0.025219763
000220 1f 79 6d be e1 ab ad 3e 71 25 52 be 49 5e 32 3e
       -0.23190735 0.33920196 -0.20522095 0.1741878
000230 73 28 9a be ae 16 53 be 00 1b 89 3b a4 6d d0 3d
       -0.30108985 -0.2061412 0.004184127 0.10177162
000240 5f f6 88 3e 6a a8 26 be 84 47 d3 3d 0e c7 76 3e
       0.26750466 -0.16275182 0.10316375 0.24099371
000250 0e d1 33 3e 48 e5 59 3d 31 2f f0 3c 3e 4d 0d be
       0.17560217 0.053197175 0.029319378 -0.13798997
000260 8e 46 8f 3d 79 7d 90 bc 5f d5 ac 3e e2 c8 4f bc
       0.06995879 -0.017637955 0.3375654 -0.012682172
000270 10 97 a1 bc e7 4b 4e 3e 8f 02 79 be ae b1 ef 3d
       -0.019725353 0.20146142 -0.24317382 0.117038116
000280 c7 c5 57 be f1 12 14 be e1 a1 3f be d9 9c 4d 3e
       -0.2107154 -0.1446035 -0.18714096 0.20079364
000290 81 c2 42 3c c1 64 88 3e 5b 7b 4a 3e 39 a3 b0 bd
       0.011887194 0.2663937 0.19773619 -0.08624882
0002a0 9d 6e 8d 3c 70 f5 7d bd da 00 7a be 31 9d 4a 3e
       0.017264659 -0.062001646 -0.24414387 0.19786526
0002b0 03 e7 97 be 3e 14 d4 be b6 07 37 3e f6 c4 bc 3d
       -0.29668435 -0.41421694 0.17874035 0.09217255
0002c0 38 a3 ef bd 52 50 3e 3e 9a 5e 17 3e df 9a cb 3d
       -0.117010534 0.18585327 0.14782181 0.09941649
0002d0 d8 85 86 3e a6 dd 98 bd ee 8b 56 bd 9f 6e 09 be
       0.2627399 -0.07464151 -0.05237954 -0.13421105
0002e0 87 5b 10 bc cc d2 e0 bd 1c 6d 9f bd 01 11 26 be
       -0.008810884 -0.10977706 -0.07784483 -0.16217424
0002f0 ad a6 27 be f2 4d ec bc a2 c8 af bb 63 1c 8c be
       -0.16372176 -0.028845761 -0.0053644935 -0.27365407
000300 c9 e4 1a 3e d1 10 46 bd 4e 92 a0 be b5 be 18 be
       0.15126337 -0.04835588 -0.31361622 -0.14916499
000310 1b 41 60 3e 04 de 80 be ba 3c 7c be 70 86 25 be
       0.21899836 -0.25169384 -0.2463254 -0.16164565
000320 80 6b 91 be 94 16 be be da b6 44 bc 4a 49 84 bd
       -0.28402328 -0.371266 -0.012006486 -0.06459291
000330 14 4a b1 3e 73 d8 42 3d a0 cc 13 be c5 17 33 bd
       0.3462683 0.047569703 -0.14433527 -0.04372384
000340 db 57 0a be 89 48 6f 3e 59 ff d5 3d ca f0 3a 3e
       -0.13510077 0.23367514 0.10449094 0.18255916
000350 93 ab b1 3d 5e b1 3c 3e e2 99 9a 3e 52 4c d7 3c
       0.08675303 0.18427035 0.30195528 0.02628151
000360 b4 32 6e 3d 36 bc 59 3d 7f 12 d7 bd 09 9f 67 3e
       0.058153823 0.053158008 -0.10501575 0.22619261
000370 de 91 5c be 6f 52 50 bd 24 15 23 bc 37 ad 66 3e
       -0.21540019 -0.050859865 -0.009953771 0.22527014
000380 69 d5 9f be 70 06 ed bd e7 1e 90 3e d1 26 7d bc
       -0.31217507 -0.115734935 0.28148577 -0.015451149
000390 bd e4 8c 3e 5d b8 50 bd 19 f3 99 be 68 29 10 be
       0.27518263 -0.050957073 -0.3006828 -0.14078295
0003a0 e6 8a 65 3d 1d 84 a2 bd 7b 3c 3d 3e 77 51 04 be
       0.056040667 -0.07935355 0.18480103 -0.12921701
0003b0 a3 38 88 bd 6e 60 17 be 85 92 52 be 8c ad 72 3e
       -0.066514276 -0.14782879 -0.20563705 0.23699015
0003c0 f3 d0 c5 3d ad 2e f2 bd 04 65 7f 3e 93 eb e7 3b
       0.096589945 -0.11825309 0.24940878 0.007077643
0003d0 47 79 bb bd 85 bd 8c 3e af 6a 60 be 61 a7 ad 3e
       -0.09153991 0.27488342 -0.21915697 0.33916762
0003e0 ff 8d d9 3c 31 bb 4d 3e e5 04 2d 3d 2b 30 ff 3d
       0.026556967 0.20090939 0.042240996 0.12460359
0003f0 f0 b7 ee bd 73 97 a7 3e f9 d1 1b 3d 67 53 0d be
       -0.11656177 0.32732734 0.038042042 -0.13801347

fc.0.linear.bias f4 [512]
000000 dd 37 06 be 2c cb 04 bd bf a9 86 be 1f ac 97 3e
       -0.13107248 -0.032420322 -0.2630138 0.29623505
000010 9c 7e 82 3c a4 51 04 be 37 39 eb 3d cc 6c 8b be
       0.015929513 -0.12921768 0.11485522 -0.27231443
000020 82 cb 9a be d5 84 bf 3d 91 63 9a be da 87 34 3d
       -0.3023339 0.093515076 -0.30154088 0.04407487
000030 f0 b6 9d be 93 ea 5f 3e e0 55 99 bc 72 ba be 3c
       -0.30803633 0.21866827 -0.018717706 0.023282263
000040 e9 92 44 be a5 db a5 3d d7 84 68 be 19 c1 45 3d
       -0.19196667 0.080985345 -0.22706924 0.048279855
000050 2f ce e7 3c 7f 63 d9 3d e7 d5 82 be 01 9f 95 be
       0.028296558 0.106146805 -0.2555382 -0.29222873
000060 63 f9 af 3d 46 3d 02 3e 90 40 6e 3e f7 5b 49 3e
       0.085924886 0.12718686 0.23266816 0.19663988
000070 a9 f7 1f 3f ee d6 25 be 77 78 11 be e7 ee c0 be
       0.62487274 -0.1619527 -0.1420611 -0.37682268
000080 3c 03 a7 3d 48 13 a1 3e 8c 76 dc be 32 22 88 be
       0.08154914 0.31460023 -0.43059194 -0.2658859
000090 a8 41 14 3e 19 25 72 be 21 55 46 3e fa e5 6c be
       0.14478171 -0.23646964 0.19368412 -0.23134604
0000a0 c8 73 c9 3d 32 bd 13 be cb c0 61 be ef bc b2 bd
       0.09836537 -0.14427641 -0.22046201 -0.087274425
0000b0 27 72 f2 3a 33 3a a6 bd a7 38 bd be 42 87 8d 3d
       0.0018497155 -0.08116569 -0.36957285 0.06910564
0000c0 9c 81 1f 3e 93 8c ac 3d b0 32 63 3e d2 dc 85 3d
       0.15576786 0.0842525 0.22187304 0.06536259
0000d0 f7 08 3a be e5 9e e1 bd 61 3d db bd 92 43 23 3e
       -0.18167482 -0.11016635 -0.107050665 0.15943745
0000e0 64 99 7e 3e e7 e7 3f bd 70 af 30 3e 47 61 e2 3d
       0.24863201 -0.04685202 0.17254424 0.110537104
0000f0 45 8b be b9 21 3b cf bd 88 04 2d be 5c 03 68 bd
       -0.00036343388 -0.101187 -0.1689626 -0.05664383
000100 58 83 28 bc c1 bd 2d 3e 20 95 85 be 08 d6 52 3e
       -0.010285221 0.16966917 -0.26090336 0.20589459
000110 f6 fb 37 be 70 47 83 3e e8 85 8d be 5b e1 72 be
       -0.17967209 0.2564044 -0.27641225 -0.23718779
000120 c2 8d af bc 41 59 5b 3e 6e f9 c4 be 15 2a 0e 3d
       -0.0214299 0.21420766 -0.3847155 0.0347081
000130 2e 74 4f 3e 49 f1 81 3e 42 a8 66 bd 49 1b 34 be
       0.20259163 0.25379398 -0.056312807 -0.17588533
000140 b5 29 8c be 74 fa 0d 3e 65 76 aa 3e c1 00 30 bd
       -0.2737557 0.13865072 0.33293453 -0.04296947
000150 ea 08 2e be 9f 40 3f 3e 5d ba 9f be 22 f0 8a 3e
       -0.16995588 0.18676995 -0.3119687 0.27136332
000160 1a ae 86 be 92 1a 17 be 47 5d f7 bd cf 06 76 3e
       -0.26304704 -0.1475623 -0.12078338 0.24026035
000170 4b f6 41 be 2f fa 9b bd 2e d9 75 3d 55 a0 6f be
       -0.1894161 -0.07616078 0.06002157 -0.23401006
000180 35 c6 18 3e a8 de 79 3e da b3 a0 be e0 42 4d 3e
       0.1491936 0.24401343 -0.31387216 0.20045042
000190 8b f3 05 3e 29 ba 28 3d 58 a0 21 3e d0 0d 82 3e
       0.13081186 0.04119316 0.15783823 0.25401163
0001a0 49 0e 87 3e 90 85 8d be 23 43 53 3e 0f f3 37 be
       0.26378086 -0.27640963 0.2063108 -0.17963813
0001b0 cd 4a 8a bd 7a ce 70 be 8e 0b 9a be 87 6e 81 3e
       -0.06752548 -0.23516265 -0.3008694 0.25279638
0001c0 8f e6 98 3d d3 c8 e2 3d a6 06 40 3e 3e 4d 2a bd
       0.074658506 0.110734604 0.18752536 -0.04157757
0001d0 f6 72 99 be 45 ee 3b 3e ac a2 51 3c a1 4c 2a be
       -0.2997052 0.18352611 0.012795132 -0.16630794
0001e0 ef a5 41 be d1 28 36 3e 74 04 63 bd 64 9d 90 bd
       -0.18910955 0.17789008 -0.05542417 -0.0706127
0001f0 d4 ae a6 be 88 53 0d 3e 05 03 7a be c1 c3 fd 3c
       -0.32555258 0.13801396 -0.24415214 0.030977132
000200 0f 3f 3b 3e d7 a4 62 3e 5f 03 d8 bc 6c 7a 97 3e
       0.18285774 0.22133194 -0.026368795 0.29585588
000210 96 4c 7f 3e 60 fd ca 3d aa a5 80 bc 1b 9a ac be
       0.24931559 0.09911609 -0.015703995 -0.33711323
000220 de 09 b7 bd 75 a9 8f bd f6 49 83 3e 8e 09 a7 bd
       -0.08937429 -0.07014743 0.25642365 -0.08156119
000230 60 7e 73 bd 5a 5e 4e bd 96 37 bc bd de 8e 8b 3c
       -0.059446692 -0.05038295 -0.0919029 0.017035898
000240 f1 77 ac 3d 97 46 18 be a1 b0 2d 3d ef dd 8f be
       0.084213145 -0.14870678 0.042404775 -0.2809901
000250 b5 40 63 be 85 3d 85 3d b4 38 93 be 26 d2 05 be
       -0.22192653 0.065058745 -0.287542 -0.13068447
000260 64 7d 9a be ae 8b 49 3c df 62 bf be 5d 02 8c be
       -0.3017379 0.012301369 -0.3738012 -0.27345553
000270 69 04 61 be 5c 2e 6e be 30 38 95 be 30 bc 85 bc
       -0.21974339 -0.23259872 -0.2914443 -0.016325086
000280 8a 40 68 3e 27 3b 5d be e9 f0 7b 3b 8f b2 0f bd
       0.2268087 -0.21604596 0.0038443154 -0.035082396
000290 a0 6e a8 3d e2 cb f5 3d 7d b9 ad bd 14 b0 a3 3d
       0.08224225 0.12001778 -0.08482645 0.079925686
0002a0 9a 91 70 3e 4d 03 28 3e 46 7a 02 be 7d 33 96 3e
       0.23493043 0.16407509 -0.12741956 0.29336157
0002b0 aa cd 9e 3e e0 7a 0a be af 6d 7f 3e 59 61 90 3e
       0.31016284 -0.13523436 0.24944185 0.2819927
0002c0 82 3c 80 be 09 51 f0 bc ec 21 a3 bd e5 1a 49 3e
       -0.25046164 -0.029335516 -0.079654545 0.19639166
0002d0 78 cb 0a bd e7 ee 27 3d 8c 4b 8c bd b9 1a a6 bd
       -0.03388545 0.04099932 -0.06850347 -0.08110566
0002e0 3a 5d 98 be 2f ef 34 3e e4 c7 56 be 7e 42 37 be
       -0.29758626 0.17669366 -0.2097469 -0.17896459
0002f0 03 5d 8b be 8f 97 b1 bd 54 22 c6 be 32 c9 b5 bd
       -0.272194 -0.08671486 -0.38698065 -0.088762656
000300 98 7a 3c be 41 32 a5 bd 1b 21 94 bd 52 e9 83 3e
       -0.18406141 -0.08066226 -0.07232877 0.25763947
000310 af 78 c6 bd e7 83 8f bd 9f b0 9d 3d 59 9a de 3d
       -0.09690987 -0.0700758 0.076997034 0.10869283
000320 7d 47 4f 3e 4c f7 b7 3d 78 ce e3 bc db a1 35 3e
       0.20242114 0.08982715 -0.027808413 0.17737524
000330 af c9 87 be 75 34 02 be 6f 9e 44 bd a0 bf 99 be
       -0.2652106 -0.12715323 -0.048002657 -0.3002901
000340 00 6c f5 3d 18 a9 9e be 13 73 ab bd cb be b4 bd
       0.1198349 -0.30988383 -0.08371558 -0.08825453
000350 14 b6 44 3d 11 c0 6d be d3 1f 76 be 64 e4 29 be
       0.048025206 -0.23217799 -0.24035577 -0.1659103
000360 d5 bd 8c be 1b e9 32 3d 41 8c 43 3e ce 29 d8 3d
       -0.2748858 0.043679338 0.19096471 0.105548486
000370 e9 98 86 3e da e2 62 bd c8 26 7d 3e f9 b8 c8 bd
       0.26288536 -0.055392124 0.24721825 -0.09800906
000380 c9 d2 b5 bd 42 c1 42 be d5 0f 1f 3e 27 cc 5e 3b
       -0.08878095 -0.19019035 0.15533383 0.0033996196
000390 4e ed 91 be 01 ed 17 3e 37 ec 53 3e 4b 86 24 bd
       -0.28501362 0.14836504 0.20695578 -0.040167134
0003a0 9d 07 a1 3c 37 64 84 be 4c a5 45 bd 86 8c 92 3e
       0.01965695 -0.25857708 -0.048253343 0.28622836
0003b0 20 11 96 be 43 3f fb 3d 62 ba fd 3c a8 1c e0 bd
       -0.2930994 0.122679256 0.030972663 -0.10942966
0003c0 5e 43 5a 3e fb e9 0a 3e 39 e0 bc 3d a7 81 d2 bc
       0.21314761 0.13565819 0.092224546 -0.025696589
0003d0 8f 38 5c 3e f5 0c 1a 3e c1 a0 8c 3e ec 49 dc bd
       0.2150595 0.15044005 0.27466395 -0.10756287
0003e0 28 46 35 be 4f d0 9d 3d 47 f3 ca 3d c9 de 36 3e
       -0.17702544 0.07705747 0.09909683 0.17858423
0003f0 ae cb 01 3d 6f 96 87 3e 72 f8 a0 3d 91 c1 7a 3e
       0.031688385 0.2648196 0.07859887 0.24487902

fc.1.weight f4 [10, 512]
000000 ea d4 04 3d 3c 7a 21 bd 82 84 68 bc 24 8b 9e bc
       0.032429613 -0.039423212 -0.014191749 -0.019353457
000010 87 ef b2 3c 24 22 f5 3c 7d 64 0a 3d 21 97 07 3d
       0.021842731 0.029923506 0.03378724 0.033103112
000020 51 2d 59 bc 09 58 a2 3c 82 21 a4 bc bf 9c dd bb
       -0.013255433 0.019817369 -0.020035509 -0.0067630704
000030 3c 0a 48 3d 50 f6 17 3d b8 49 1b bc f9 39 44 bd
       0.048837885 0.037100136 -0.009478025 -0.04790685
000040 58 56 e5 3c 8b eb 1f 3d 4f 97 0e 3d 66 0b 10 3c
       0.027995273 0.03904299 0.034812268 0.00879178
000050 c7 ac 47 3d d3 fa d3 3c a2 e7 e3 3c 5a 6e ae 3b
       0.048748758 0.025876438 0.027820412 0.0053232135
000060 7f d8 1c bd 33 d2 18 bd 7e 98 55 bc 9a 5f 87 bc
       -0.038292404 -0.037309837 -0.013036845 -0.016525079
000070 5f 34 8b 3a e1 de 11 bd e0 b1 41 ba a1 77 23 3d
       0.0010620466 -0.035612945 -0.0007388871 0.03990901
000080 20 6a 8c 3b b7 f2 86 bc 78 b4 45 bd b8 a6 5e bc
       0.004285112 -0.016473157 -0.04826781 -0.013589554
000090 ab 4f 1d bc aa 56 3e 3d 1f c5 e7 bc c2 5e ad ba
       -0.009601514 0.046469368 -0.028292237 -0.0013227093
0000a0 70 04 66 bc fc 1a ea bd 14 3a 53 bc 0a ef ed 3c
       -0.014039144 -0.11430928 -0.012892265 0.029044647
0000b0 99 27 f1 3c d3 1f bf 3a 17 d1 ae 3c d6 26 1f bc
       0.029437827 0.0014581628 0.021339936 -0.009713849
0000c0 4a ce e5 3d 7f 7b 4d 3c 07 82 6f b7 cf b8 41 3d
       0.11220987 0.012541651 -1.4275784e-05 0.047295388
0000d0 1d 8c 12 bd c5 36 ee bc a0 fc d4 bb a4 47 98 bb
       -0.035778154 -0.02907885 -0.006499842 -0.004647212
0000e0 c4 00 68 bd 21 65 31 3e fa 59 3d bd 1b 4f 04 bb
       -0.056641355 0.17323734 -0.046228386 -0.0020188752
0000f0 b5 42 07 3d 86 a7 e7 bc 9d c4 ef 3c 06 60 65 3c
       0.0330226 -0.028278124 0.029268557 0.013999945
000100 98 b4 83 3c 4c 9b 4c 3c 0c 42 19 3d bb 6e b0 3d
       0.016077325 0.012488198 0.037416503 0.0861487
000110 fa 1c dc 3c 63 e5 79 3c c0 c9 e5 bb 19 ea 39 3d
       0.026869286 0.015252444 -0.007012576 0.04538927
000120 61 11 27 bd bc 84 c4 3d 6e f8 0e 3d ba 26 bb bc
       -0.04078806 0.095956296 0.03490489 -0.022845615
000130 51 80 18 3d 77 b8 cc bd 25 3d 2d 3b 22 83 87 bc
       0.037231747 -0.099961214 0.002643415 -0.016542021
000140 f6 8f 49 bc 36 b3 13 bc 54 d7 24 3c 3a 0b 0e 3d
       -0.012302389 -0.009014895 0.010061104 0.034678675
000150 09 10 7c 3d e3 77 d9 3c 9a 25 17 3d 2c cb 8b bc
       0.06153873 0.026546424 0.036901094 -0.017064653
000160 18 16 12 3b 4a d8 9f ba 17 40 13 bd 3d 06 31 bc
       0.0022291 -0.0012195196 -0.035949793 -0.01080471
000170 f1 69 cc 3e 83 70 a6 bb 33 c9 34 bd 63 c7 11 3d
       0.39924577 -0.0050793304 -0.04413719 0.03559054
000180 11 a5 f8 3b 94 7a 3a 3c 1a 2c 54 bc 0a 30 7d bb
       0.007588037 0.011381764 -0.012949968 -0.003863337
000190 ae b8 d4 bc 2a 78 16 bc 94 9d 35 3c ce b8 31 3d
       -0.025966968 -0.009183923 0.011084933 0.043389134
0001a0 3d 5b ef bd 1d 75 58 be f1 b2 bc 3b 22 5c d6 bc
       -0.11687324 -0.21138425 0.005758636 -0.02616698
0001b0 c8 26 8e 3b 38 b6 9a bd 18 c9 81 bb 4e 10 83 bb
       0.004338119 -0.07554287 -0.00396074 -0.0039997464
0001c0 f3 f6 a0 3c fd 61 05 3c c4 63 cc bc 2a 54 b1 bb
       0.019649005 0.008141038 -0.024949916 -0.0054116445
0001d0 23 4d d0 bc 30 aa 4c 3c 02 dd 16 bc 53 80 0b 3d
       -0.025427407 0.012491748 -0.009207966 0.034057926
0001e0 16 a9 d3 3c d1 1e 42 bd ed 86 39 3d 4e 01 34 3d
       0.025837462 -0.04739267 0.04529469 0.043946557
0001f0 7a fb 0e bc 5d 30 c1 bc 04 74 18 bd 5a 84 af 3c
       -0.008726949 -0.023582632 -0.037220016 0.021425415
000200 9f d9 5f 3c ea 04 52 bb 9e 23 7e bd bc a1 dc bc
       0.013662725 -0.0032046386 -0.062045686 -0.02693259
000210 30 b3 2a 3e 85 05 1a 3d 04 6b 8d bc 00 e8 7b bc
       0.16669917 0.03760292 -0.017262943 -0.015375137
000220 a0 ac 8d 3c 51 1a f7 bd 00 5b 2a bd ce 69 e1 3c
       0.017294228 -0.12065566 -0.04159069 0.027516272
000230 51 f6 28 3c b8 58 98 bc d1 19 fe 3a e6 74 15 3d
       0.010312633 -0.018596992 0.0019386356 0.036488436
000240 d0 48 8a 3d 68 4b db ba 56 55 16 bc 73 0d 85 3c
       0.06752169 -0.0016730847 -0.009175619 0.016241765
000250 83 97 30 3d 8c d7 01 bd 2c 7f 0f 3d 6e 94 7c bb
       0.043113243 -0.031699702 0.03503339 -0.003854062
000260 c9 e7 3a 3d 94 b5 b4 3c 3f b9 06 3c 6c 6e a8 bc
       0.045631204 0.02205924 0.008222877 -0.020560466
000270 b3 a0 b7 3d 10 a8 d1 3c cf e6 f3 3b a5 49 88 bc
       0.08966198 0.025592834 0.007443286 -0.016636679
000280 0b b3 8e bb c2 d6 b1 bb 04 2e 34 3d f8 dd b7 3c
       -0.0043548397 -0.0054272125 0.043989196 0.02244471
000290 24 8a a6 3a d4 31 2d 3d 16 c1 7f bb 49 fa 36 3d
       0.0012705964 0.042283848 -0.0039025 0.044672284
0002a0 d2 be b7 3c d8 16 f4 bc 3e f6 03 3d 1c ca ac 3c
       0.022429857 -0.029796049 0.032217257 0.021092467
0002b0 96 e5 ea bc a9 64 33 3c 9d 77 e6 3b d5 7b 43 3d
       -0.028673928 0.010949292 0.007033302 0.047725517
0002c0 58 a2 ab bc 55 39 70 3c b6 bc 0b bc d7 b1 93 3d
       -0.020951435 0.0146621065 -0.008528879 0.07211655
0002d0 00 e0 ee 3b 17 10 ce 3c 19 b2 4a 3b 95 65 93 bc
       0.0072898865 0.025154157 0.0030928908 -0.017992774
0002e0 58 75 ef 3c 9a 94 9a bb 23 5b 4d 3b 8b c6 93 bc
       0.029230759 -0.0047174217 0.003133484 -0.018039009
0002f0 21 19 21 3d d3 f4 7f 3c bc 9d d1 bc 96 ae 2d 3d
       0.039330605 0.0156223355 -0.025587909 0.042402826
000300 5a f3 0a bd 8e 6b f5 bc d2 17 24 bc d6 d2 57 3c
       -0.033923484 -0.029958513 -0.010015445 0.013172826
000310 ae 80 5e bb dd e9 ad 3c 3b a6 01 3e 2b eb a8 bc
       -0.003395121 0.021229679 0.12661068 -0.02061995
000320 be 2d 9a bd 44 e5 83 bc 91 5c 09 3c c2 8b 43 3c
       -0.07528256 -0.016100533 0.008383886 0.011935176
000330 38 0b 7f bb 3e 11 bf 3c eb 10 37 3b b5 df 5c bd
       -0.00389166 0.023323651 0.0027933668 -0.05392428
000340 65 83 88 bd 1f e7 be 3d 1c ef cf bd ac 58 2e 3d
       -0.066656865 0.093214266 -0.10153028 0.042565033
000350 9f e3 e0 bb ab f8 c3 bc 54 1c 05 bc c0 02 84 3d
       -0.006863072 -0.023922285 -0.00812443 0.06445837
000360 7d 2a f9 bc b7 61 9c 3c dc d4 93 3b 13 93 03 3e
       -0.030415768 0.019089563 0.004511459 0.12849073
000370 31 43 e3 3c f4 a2 10 3d d3 59 98 bc 79 54 dd 3b
       0.027742 0.035311654 -0.018597519 0.0067544547
000380 1b be 43 3c 5f c5 cd bc 71 15 1e bc fa d3 8c 3b
       0.01194718 -0.025118528 -0.009648667 0.0042977305
000390 d1 e5 9f 3c 3e 95 05 bd 51 50 0d 3c b9 a1 5d 3c
       0.019518765 -0.03261303 0.008625106 0.013527327
0003a0 19 69 f4 3c 42 a5 18 3d b6 53 05 3d 67 b5 e1 bc
       0.02983527 0.037266977 0.032550536 -0.02755232
0003b0 d0 b2 25 3d 80 d8 42 bc df 6a c6 b9 d0 29 18 bc
       0.040453732 -0.011892438 -0.00037845128 -0.009287313
0003c0 d9 02 a5 bd 15 d5 d6 bc 75 3e 3f bc 1a ed a1 3c
       -0.08057184 -0.026224652 -0.011672606 0.01976638
0003d0 81 f0 94 bd c1 2a 28 bc fc 33 70 3b a6 54 e8 3c
       -0.07272435 -0.0102641 0.003665208 0.028360676
0003e0 8b 54 c0 3c 4c 77 80 3d ee 78 8a bd 16 17 62 3d
       0.023477813 0.06272754 -0.06761347 0.055197798
0003f0 b7 b4 46 3d 0a c2 84 3d 83 02 b0 bb 21 3f 71 bc
       0.048512187 0.064823225 -0.005371393 -0.014724524

fc.1.bias f4 [10]
000000 27 08 9f 3c de 40 31 bc 89 98 7d bc 3e 81 9d bd
       0.019413067 -0.010818688 -0.015478262 -0.076906666
000010 2d 39 da 39 65 b5 1c bc 7e bb 77 3c 98 a4 b6 bc
       0.000416228 -0.009564732 0.015120385 -0.022295281
000020 dd 98 c1 bc 0b 32 10 bd
       -0.023632461 -0.035203975
