cache/tradeoff_exp/trial_2/iter_4.pth (torch, 581966 bytes, 600 tensors)

fcs.0.0.linear.weight f4 [128, 1]
0	0xbf29919b	-0.662378
1	0x3f5bb86e	0.8582829
2	0x3e8dd84c	0.27704084
3	0x3f5c5b4e	0.8607682
4	0xbc898440	-0.016786695
5	0xbf7b86b5	-0.9825242
6	0x3f4dac2a	0.80340827
7	0xbf5b41a4	-0.85647035
8	0xbea1cf8b	-0.31603655
9	0xbe897254	-0.26845038
10	0x3ed46ea9	0.41490677
11	0x3ca320c0	0.019913077
12	0x3ed244bd	0.41068068
13	0x3f13166f	0.57456106
14	0xbc396900	-0.011316538
15	0xbe12b100	-0.14325333
16	0x3e866e7b	0.26256165
17	0xbf3dfda1	-0.7421513
18	0xbe40b870	-0.18820357
19	0xbf290b84	-0.66033196
20	0xbf64fecc	-0.8945129
21	0xbf3cdfe9	-0.7377916
22	0x3f76934e	0.9631852
23	0x3ef41e03	0.47679147
24	0xbed870f3	-0.42273673
25	0x3f7bed28	0.98408747
26	0xbe1a5e55	-0.15075047
27	0x3f5eb403	0.86993426
28	0xbe3026e6	-0.17202339
29	0x3eecf772	0.46282536
30	0xbc9e5db1	-0.019331785
31	0x3f14dd2c	0.5814998
32	0x3d3f6fb8	0.046737403
33	0x3ebdf470	0.37100554
34	0x3f3e3d8f	0.7431268
35	0xbf76824d	-0.96292573
36	0xbbd57500	-0.0065141916
37	0xbf31bc11	-0.6942759
38	0x3f0b53db	0.5442483
39	0x3f1e8934	0.61928105
40	0xbf4e9429	-0.80694824
41	0x3e900af7	0.28133366
42	0x3f11b3c6	0.5691494
43	0xbeb89bd2	-0.3605638
44	0x3f04a427	0.51812977
45	0xbf6a9f9e	-0.91649806
46	0xbece1244	-0.4024831
47	0xbd881903	-0.066453956
48	0xbeb11b1e	-0.34591
49	0x3e69c4df	0.22829007
50	0x3f244d52	0.6418048
51	0xbe3818be	-0.17978188
52	0xbe27c468	-0.16383517
53	0xbf5f7b7e	-0.8729781
54	0x3f0eabcf	0.5573091
55	0x3e1006ec	0.1406514
56	0x3f0c5906	0.5482334
57	0xbb9c028b	-0.0047610453
58	0xbf59a180	-0.85012054
59	0x3ec28d6b	0.37998518
60	0x3eb8bf74	0.36083567
61	0xbeb12409	-0.34597805
62	0x3cde4313	0.027131593
63	0xbe663e2b	-0.22484653
64	0xbf22daae	-0.6361493
65	0xbe563435	-0.20918353
66	0x3ed0949c	0.4073838
67	0x3cff0a80	0.031132936
68	0xbf0e0820	-0.5548115
69	0xbc836854	-0.016040958
70	0x3f5b394d	0.8563431
71	0x3ec6169f	0.38689134
72	0x3d626700	0.05527401
73	0x3e87a96a	0.2649644
74	0xbd358f4b	-0.044326108
75	0x3f350bb2	0.7072097
76	0x3eacd7aa	0.3375829
77	0xbe2af78d	-0.16695996
78	0x3f2e8616	0.6817335
79	0xbf625779	-0.8841472
80	0xbed8de69	-0.42357185
81	0xbf7f7c52	-0.9979907
82	0xbf5bd337	-0.85869163
83	0xbe8b8c40	-0.2725544
84	0xbe6bf5ec	-0.2304303
85	0x3f2c7067	0.6735901
86	0x3e999691	0.29997686
87	0x3e301db2	0.17198828
88	0x3f3cc656	0.73740137
89	0xbf78cf52	-0.97191346
90	0x3f236396	0.6382383
91	0xbe1bee6f	-0.15227674
92	0x3ecc4df6	0.3990323
93	0xbf12f56d	-0.5740574
94	0x3e817964	0.25287926
95	0xbed9300d	-0.42419472
96	0x3e2652c3	0.16242509
97	0x3f17f9ec	0.59365726
98	0xbf173fc2	-0.5908166
99	0x3c089fa9	0.008338847
100	0x3eda91bf	0.4268932
101	0x3e11bdd1	0.14232565
102	0xbd7c3c00	-0.061580658
103	0xbeeed63b	-0.4664782
104	0xbe84f284	-0.25966275
105	0x3f6f2ed2	0.9343082
106	0x3f0e9a9a	0.55704653
107	0xbf6cbd7d	-0.92476636
108	0x3f66cc80	0.9015579
109	0xbea3129e	-0.3185014
110	0xbefeb972	-0.4975086
111	0xbef9b951	-0.48774198
112	0x3b386ce8	0.0028141085
113	0x3f4ca4b5	0.79938823
114	0x3e703423	0.23457389
115	0xbe8950ac	-0.2681936
116	0xbf7c27af	-0.9849805
117	0x3f4cc12d	0.7998226
118	0x3e382057	0.17981087
119	0x3e6d8744	0.23196131
120	0x3f41b811	0.7567149
121	0x3f5b0f45	0.85570174
122	0xbf53ea64	-0.82779527
123	0xbe33943c	-0.17537016
124	0x3f51736f	0.8181676
125	0x3e188149	0.14893068
126	0x3f3c073c	0.7344854
127	0xbed7b1c9	-0.42127827

fcs.0.0.linear.bias f4 [128]
0	0xbec97008	-0.39343286
1	0xbf0a0b68	-0.53923655
2	0xbf0bcc60	-0.54608727
3	0xbf0fcaec	-0.5616901
4	0xbef6e2cc	-0.48219907
5	0xbf728533	-0.94734496
6	0x3f5191f6	0.81863344
7	0x3f66b4d9	0.901197
8	0xbeb07cb0	-0.3447013
9	0xbdfb83c3	-0.12280991
10	0x3f521512	0.820634
11	0xbed25cc0	-0.41086388
12	0xbf2c2981	-0.6725083
13	0xbf24e8d9	-0.644178
14	0xbe9a95c8	-0.301924
15	0x3f033298	0.51249075
16	0x3d111060	0.035416007
17	0x3b1abbc0	0.0023610443
18	0xbe961b00	-0.29317474
19	0x3f0d4d6e	0.55196273
20	0x3ea3ff70	0.3203082
21	0x3f6ef1b1	0.9333754
22	0x3ea8c206	0.32960528
23	0xbe2e15a3	-0.17000441
24	0xbec446c1	-0.3833523
25	0xbf72dc31	-0.94867235
26	0x3ee0fc97	0.4394271
27	0x3f4ce523	0.80037135
28	0x3ed02b57	0.40658066
29	0x3e8fd742	0.28093916
30	0x3e84dd5e	0.2595014
31	0x3ef3538b	0.47524676
32	0x3f52cbd1	0.8234225
33	0xbf40e4f3	-0.7534935
34	0xbe81bbfc	-0.25338733
35	0x3c22350e	0.009900345
36	0xbec4254c	-0.38309705
37	0x3e9ec83c	0.31012142
38	0xbf669305	-0.90068084
39	0x3e64264f	0.22280239
40	0xbdbf91d8	-0.09353989
41	0x3f0dee94	0.55442166
42	0xbbe165d1	-0.0068785925
43	0x3f2414c8	0.6409421
44	0xbf3d1270	-0.7385626
45	0xbf338e12	-0.7013866
46	0xbdbb1f2c	-0.09136805
47	0x3f56a65b	0.8384759
48	0xbf4dcdec	-0.80392337
49	0x3f3cc949	0.73744637
50	0x3eb3a7c3	0.3508893
51	0x3f0a061b	0.53915566
52	0xbed14f46	-0.40880793
53	0x3f069e82	0.52585614
54	0x3e9ed843	0.3102437
55	0x3d5f73a9	0.05455366
56	0xbf6058fa	-0.8763577
57	0x3efdd523	0.49576673
58	0x3eb478f9	0.35248545
59	0xbf22343e	-0.63360965
60	0x3f3c25a9	0.73494965
61	0x3ea9885c	0.33111846
62	0x3f044964	0.51674485
63	0xbed71179	-0.42005518
64	0xbf322e23	-0.6960165
65	0xbf4b73ea	-0.79473746
66	0xbe5bfbf8	-0.21482837
67	0xbea922a8	-0.33034253
68	0xbe8aa45e	-0.27078527
69	0x3e9bd782	0.30437857
70	0xbefd0467	-0.4941742
71	0xbf0721ad	-0.5278576
72	0xbf0e9578	-0.5569682
73	0xbf02cd02	-0.5109407
74	0x3cd91cf7	0.02650307
75	0xbf70b887	-0.94031566
76	0x3f709896	0.9398283
77	0xbf173443	-0.5906412
78	0x3f56aa36	0.8385347
79	0x3f664932	0.8995544
80	0x3f1e98dd	0.61952
81	0x3eb81f1a	0.3596123
82	0xbf7f93c4	-0.9983485
83	0x3f08a2df	0.5337352
84	0x3f09873d	0.5372198
85	0xbed4f02a	-0.4158948
86	0xbf53a037	-0.82666343
87	0xbf520d28	-0.82051325
88	0xbe2977be	-0.16549584
89	0x3f386b89	0.72039086
90	0x3e16c684	0.14724165
91	0x3ee9df4f	0.45678183
92	0x3f3ab561	0.7293301
93	0xbf036499	-0.51325375
94	0xbe19da94	-0.15024787
95	0x3e812b65	0.2522842
96	0x3eff99ab	0.49921927
97	0x3f1a5b15	0.6029523
98	0xbf698437	-0.9121737
99	0x3ebf01bb	0.37306008
100	0x3d0296c5	0.031882066
101	0xbe91ea7f	-0.2849922
102	0xbf23b406	-0.6394657
103	0x3d586de7	0.052839186
104	0x3f04d2b8	0.5188403
105	0xba3740ad	-0.00069905334
106	0xbf34638d	-0.704644
107	0x3eb0b480	0.3451271
108	0xbf6fb958	-0.9364219
109	0x3d8e25d1	0.06940807
110	0x3d8f353b	0.06992575
111	0x3f17dafe	0.5931853
112	0x3f32bf15	0.6982282
113	0x3f791824	0.9730246
114	0xbf43bdfd	-0.76461774
115	0xbebf2edb	-0.37340435
116	0x3ede9eb9	0.4348047
117	0xbec66b5f	-0.38753793
118	0xbf349bc3	-0.70550174
119	0xbf562bd5	-0.8366063
120	0x3e9ab080	0.30212784
121	0xbed156ec	-0.4088663
122	0xbf3146f9	-0.6924892
123	0x3e9c5736	0.30535287
124	0xbf406c3c	-0.7516515
125	0x3f073a49	0.5282331
126	0xbf200ea1	-0.6252232
127	0x3eace8fe	0.3377151

fcs.0.1.weight f4 [1, 128]
0	0xbc69c5e9	-0.014268377
1	0x3dadd876	0.08488552
2	0x3c0f6310	0.008751646
3	0xbd5205bd	-0.051275004
4	0xbd6253bb	-0.055255633
5	0xbcb8cf28	-0.022559717
6	0xb9b84ba3	-0.0003515157
7	0xbd1fd440	-0.039020777
8	0x3db753e6	0.08951549
9	0xbd0ed24a	-0.034868516
10	0xbd418664	-0.047247306
11	0x3d90eb8d	0.07076178
12	0xbd796352	-0.060885735
13	0xbd5c9fe8	-0.053863436
14	0xbc754dd8	-0.014972173
15	0xbc4d4385	-0.012528305
16	0x3d82f836	0.06394999
17	0x3cce1ece	0.025161173
18	0xbd1c5b0c	-0.038172767
19	0x3bfded2f	0.0077492218
20	0xbd4489cf	-0.047982987
21	0xbd82d899	-0.06388969
22	0x3d30c8e6	0.04316034
23	0xbc6865a3	-0.014184388
24	0x3cf72427	0.030168606
25	0xbd9a34f8	-0.07529634
26	0x3b53d126	0.0032320707
27	0xbd573bb8	-0.052547187
28	0xbc37bc62	-0.011214348
29	0x3d193a06	0.03740885
30	0x3da84160	0.08215594
31	0x3c1b0d16	0.009463569
32	0x3dadf62b	0.084942184
33	0x3d8d7736	0.06907503
34	0xbcfc8386	-0.030824434
35	0x3db07d78	0.08617681
36	0xbd54e003	-0.051971447
37	0xbd92ffa7	-0.07177668
38	0xbd88c267	-0.06677704
39	0x3d4d345b	0.05009876
40	0xbba3ad39	-0.004995015
41	0x3d5fed86	0.05466988
42	0xbd886e85	-0.06661705
43	0xbd12e155	-0.035859425
44	0x3be88fb4	0.007097209
45	0xbbe34d5e	-0.006936713
46	0x3d370074	0.044678167
47	0x3d46c341	0.048526052
48	0x3d66c495	0.05633982
49	0xbb667bac	-0.003516893
50	0xbc9e928a	-0.019356985
51	0xbd4cca8c	-0.04999785
52	0xbda7f991	-0.08201898
53	0x3d802541	0.062571056
54	0xbc6b4a4a	-0.014360974
55	0xbd288f0c	-0.041152045
56	0xbd5c3652	-0.05376274
57	0xbc219636	-0.009862473
58	0x3ca52997	0.020161433
59	0x3ca2efb7	0.019889696
60	0xbcd4c02e	-0.025970545
61	0x3d006695	0.03134783
62	0xbcd7228e	-0.026261594
63	0x3cc055e2	0.023478452
64	0x3b880691	0.0041511734
65	0xbcc46cae	-0.023977604
66	0x3d86fa6a	0.065907314
67	0xbd61c5e1	-0.055120353
68	0x3d167e35	0.036741454
69	0x3da52eb1	0.08065546
70	0x3d0aded0	0.033903897
71	0x3d66c2d4	0.056338146
72	0xbd3600ec	-0.044434473
73	0x3d095b4f	0.033534344
74	0x3cb854e1	0.02250141
75	0xbcca2982	-0.024677996
76	0x3c041e29	0.008063831
77	0x3d8078fd	0.06273077
78	0xbc7b92e0	-0.015354842
79	0x3d937b49	0.07201249
80	0x3d85e31a	0.06537457
81	0x3d683248	0.056688577
82	0xbd430d3f	-0.047620054
83	0xbd8771d5	-0.066135086
84	0x3c07ba1b	0.008284117
85	0xbd45bf70	-0.048278272
86	0xb9f721fa	-0.00047136826
87	0x3d8df299	0.069310375
88	0xbc56d662	-0.013112636
89	0xbd630ded	-0.055433203
90	0x3cdb2106	0.026749145
91	0xbd472594	-0.04861982
92	0x3d2bffab	0.04199187
93	0xbd8bffa1	-0.06835867
94	0xbd7b5578	-0.061360806
95	0xbdb3c5e6	-0.087779805
96	0x3d9af147	0.07565551
97	0x3d800189	0.06250293
98	0x3ba37507	0.004988316
99	0xbdac780b	-0.08421334
100	0x3cc7df0c	0.02439835
101	0xbc4c159f	-0.012456327
102	0xbd348313	-0.044070315
103	0xbd149708	-0.036276847
104	0xbd74fd3e	-0.059811823
105	0xbd006c50	-0.031353295
106	0xbdaf12b9	-0.08548493
107	0x3d1eef7d	0.038802613
108	0xbca3e9bb	-0.020008912
109	0xbc9ff3bb	-0.0195254
110	0x3d549dc4	0.05190827
111	0xbcb30cee	-0.021856751
112	0x3d278fc1	0.04090858
113	0x3c9884f7	0.01861809
114	0xbcc2b3c1	-0.023767354
115	0xbc656f39	-0.014003568
116	0x3d1c12c8	0.03810385
117	0x3c3889af	0.011263295
118	0x3cc90c45	0.024541983
119	0x3cea58ef	0.02860686
120	0xbd1ebf7b	-0.03875683
121	0xbd5e6099	-0.05429134
122	0x3c81cc36	0.015844446
123	0xbd9de8e9	-0.0771044
124	0xbd6c70d8	-0.057724804
125	0xbca4d167	-0.020119382
126	0x3ce2b205	0.027672777
127	0x3db293fa	0.087196305

fcs.1.0.linear.weight f4 [128, 1]
0	0xbebf6228	-0.37379575
1	0xbf6f5520	-0.93489265
2	0x3f5de094	0.86670804
3	0x3f254aa8	0.6456704
4	0x3f7d1d43	0.98872775
5	0x3f31323a	0.69217265
6	0x3f2498b2	0.64295495
7	0x3f2cfbb0	0.67571545
8	0x3eab56c1	0.33464625
9	0x3eba0f12	0.36339623
10	0x3dff742c	0.1247333
11	0x3f55cb1d	0.8351305
12	0x3ea5ce64	0.32384026
13	0x3ee0e882	0.4392739
14	0xbbb44d00	-0.005502343
15	0x3f778d9d	0.9670046
16	0x3f0bdd9f	0.5463504
17	0xbebf13c6	-0.37319773
18	0xbd26a330	-0.04068297
19	0xbf1915eb	-0.5979907
20	0x3ea7fbb5	0.32809225
21	0xbf4ba9b4	-0.7955582
22	0x3dbdd830	0.0926975
23	0x3f7810c0	0.9690056
24	0xbdd4b9db	-0.103870116
25	0xbed9fe7f	-0.42576978
26	0x3f07def3	0.5307457
27	0xbf5c10c2	-0.8596307
28	0x3e95cfe7	0.2926018
29	0x3db4bdb7	0.08825248
30	0x3eaca98c	0.33723104
31	0xbf5f54f0	-0.8723898
32	0x3ec6e19e	0.38844007
33	0x3b460cb3	0.0030219972
34	0xbe95d056	-0.2926051
35	0xbebe7a5f	-0.37202737
36	0x3e10fcfa	0.14159003
37	0x3e823b28	0.25435758
38	0xbd592060	-0.05300939
39	0xbe246e05	-0.16057594
40	0xbf55fc7c	-0.83588386
41	0x3ee280c6	0.4423887
42	0x3f6c21b1	0.9223891
43	0x3f1300b7	0.57422966
44	0x3e8e9bd7	0.2785327
45	0xbf0b4956	-0.54408777
46	0xbe9bc6b0	-0.30425024
47	0xbf32bf8b	-0.6982352
48	0x3f584b8c	0.84490275
49	0xbf65587a	-0.8958813
50	0x3d9a9f83	0.07549956
51	0xbe5e3299	-0.21698989
52	0xbf395103	-0.7238924
53	0xbf5190aa	-0.81861365
54	0x3f31f0d5	0.69508106
55	0xbf63584f	-0.88806623
56	0xbdd3469a	-0.103162006
57	0x3f3a879f	0.7286319
58	0xbe458ab8	-0.19291198
59	0xbec2e1c1	-0.38062862
60	0xbe47e3d6	-0.19520506
61	0xbf697535	-0.9119447
62	0xbf7b8c65	-0.982611
63	0xbf43143b	-0.76202744
64	0x3eca1afd	0.39473715
65	0x3f7ded09	0.9918981
66	0x3f43c9c9	0.76479775
67	0xbe72aed6	-0.23699507
68	0xbe923819	-0.28558424
69	0x3f426deb	0.7594897
70	0xbf63c3e6	-0.8897079
71	0x3e276427	0.16346799
72	0xbdbad3a0	-0.091223955
73	0x3f7a3627	0.9773888
74	0x3e966a48	0.2937796
75	0xbeae9e46	-0.34105128
76	0x3f66a6b6	0.9009813
77	0x3e895a82	0.26826864
78	0x3d8a76ee	0.06760965
79	0xbf0d7d02	-0.5526887
80	0xbf153b28	-0.5829339
81	0xbe09afd7	-0.13445984
82	0xbf7913bb	-0.9729573
83	0xbf0be537	-0.5464663
84	0x3d45b9bc	0.048272833
85	0x3eb865a3	0.36015043
86	0x3f380a13	0.7189037
87	0x3f744865	0.95422965
88	0xbf006ee1	-0.5016919
89	0x3e3747aa	0.17898431
90	0x3f6150ed	0.8801411
91	0x3e7b4ec2	0.24541762
92	0xbee07370	-0.43838072
93	0x3f3122d8	0.6919379
94	0x3f5b4de4	0.85665727
95	0xbede5c77	-0.4342992
96	0x3e15c926	0.14627513
97	0x3f4effe7	0.80859226
98	0xbf715428	-0.9426904
99	0x3f2c3ca6	0.6728004
100	0xbf3d05dc	-0.73837066
101	0xbf11a35e	-0.56889904
102	0x3ecd07f0	0.40045118
103	0x3ebd7ee7	0.3701088
104	0x3ee8236c	0.45339525
105	0xbe36298a	-0.17789283
106	0xbe1ae907	-0.15127955
107	0xbf643406	-0.8914188
108	0x3f0ec15e	0.55763805
109	0xbe4c927a	-0.19977751
110	0xbf02916a	-0.51003134
111	0x3e6d96e2	0.23202088
112	0xbe09567f	-0.13411902
113	0xbf6939eb	-0.91104
114	0xbf439318	-0.7639632
115	0x3eb74f66	0.35802764
116	0xbde75f6a	-0.11297496
117	0x3f0db09c	0.5534761
118	0xbea1ac88	-0.31576943
119	0xbf572795	-0.8404477
120	0xbddfb040	-0.10922289
121	0xbf57aae6	-0.84245145
122	0x3f62376f	0.88365835
123	0xbf6da6f6	-0.9283289
124	0xbe24b74a	-0.16085544
125	0xbd15b070	-0.036545217
126	0xbd8c0162	-0.06836201
127	0x3e7b7d94	0.24559623

fcs.1.0.linear.bias f4 [128]
0	0xbea4779f	-0.32122514
1	0x3f0a32c8	0.53983736
2	0xbf77f87a	-0.9686352
3	0xbf5f6c19	-0.8727432
4	0xbe69f278	-0.228464
5	0xbdcc8e00	-0.09988022
6	0x3e336eed	0.17522784
7	0x3f4b3d0d	0.7939003
8	0x3f2020c6	0.6255001
9	0x3e963ed5	0.29344812
10	0x3f6c1555	0.9222005
11	0x3f69ea8c	0.91373515
12	0xbee80089	-0.45312908
13	0x3f55d4e5	0.83527976
14	0xbeecaa24	-0.46223557
15	0xbf245cf7	-0.64204353
16	0x3e31b50d	0.17354222
17	0x3ee89928	0.4542935
18	0x3dcdda70	0.10051429
19	0x3ec912da	0.39272195
20	0xbf6b64f1	-0.919509
21	0x3d24d1fc	0.04023932
22	0xbf5311b8	-0.8244891
23	0xbe0106cd	-0.1260025
24	0xbe9f5541	-0.3111973
25	0xbd9a9f58	-0.07549924
26	0xbca0402b	-0.019561848
27	0xbf69208b	-0.9106528
28	0x3e816c8a	0.2527812
29	0xbefc84e1	-0.4932013
30	0x3f2efaf7	0.6835169
31	0x3f0d950f	0.5530557
32	0x3effe730	0.4998107
33	0x3f4308fa	0.7618557
34	0xbf121c10	-0.5707407
35	0x3ec13baf	0.37740847
36	0xbf0586dc	-0.52158904
37	0xbee23fae	-0.4418921
38	0xbec47b10	-0.3837514
39	0xbe87257f	-0.26395795
40	0xbe127e70	-0.14306045
41	0x3e936b73	0.28792915
42	0xbcf350e4	-0.029701658
43	0xbe967424	-0.29385483
44	0x3f6e3f21	0.9306508
45	0x3d605ca1	0.054775838
46	0xbf204502	-0.626053
47	0xbeb7ac98	-0.35873866
48	0x3e8570dd	0.2606267
49	0xbf53796b	-0.82607144
50	0xbeb03b5b	-0.34420285
51	0xbf29137c	-0.66045356
52	0x3f07e6a5	0.5308631
53	0x3ec3efcd	0.3826889
54	0x3e6cde67	0.23131715
55	0xbf339707	-0.70152324
56	0x3dba96a7	0.09110766
57	0x3e9f4cac	0.31113183
58	0x3e9bf6eb	0.3046182
59	0x3f242d53	0.6413166
60	0xbd1d4b93	-0.03840215
61	0x3f321b42	0.6957284
62	0x3e92dc82	0.2868386
63	0x3e83cbd7	0.25741455
64	0x3f555c64	0.833441
65	0xbee08e3f	-0.43858525
66	0x3f5c2b68	0.8600373
67	0x3cc88f7a	0.024482477
68	0xbf58b4f0	-0.8465109
69	0x3e998d0b	0.2999042
70	0x3f7ccb32	0.9874755
71	0x3f344197	0.7041258
72	0xbe84cf3c	-0.25939357
73	0x3f185411	0.59503275
74	0x3e145463	0.14485316
75	0xbed759be	-0.42060655
76	0xbe300ad4	-0.1719163
77	0x3f6eddf5	0.9330743
78	0x3f1aec12	0.60516465
79	0xbf4a613f	-0.79054636
80	0x3f6196f3	0.88120955
81	0xbecbf67e	-0.39836496
82	0x3f5fbd8f	0.8739862
83	0x3e9551c1	0.29163936
84	0xbe746c91	-0.2386954
85	0xbe8e638e	-0.2781033
86	0xbec37704	-0.3817674
87	0xbf4419e2	-0.76601994
88	0x3f4f1d09	0.8090368
89	0x3f73d4c4	0.9524653
90	0x3df3c4ab	0.11902746
91	0x3f26d981	0.65175635
92	0xbf5c33d4	-0.86016583
93	0x3eb899a5	0.3605472
94	0x3f661e43	0.89889926
95	0xbd84ab41	-0.064779766
96	0xbf071371	-0.5276404
97	0xbf2dec77	-0.6793894
98	0xbf2d9baf	-0.6781568
99	0x3f1874d0	0.5955324
100	0x3dda09ed	0.106464244
101	0xbeac3fb3	-0.3364235
102	0x3e93856a	0.28812724
103	0xbeb69dd3	-0.35667285
104	0xbecf3006	-0.40466326
105	0x3f5b4469	0.8565126
106	0xbd089768	-0.033347517
107	0xbe98f23d	-0.29872313
108	0x3ddb1aef	0.106984966
109	0x3e65d9b4	0.22446328
110	0xbf4b8797	-0.7950377
111	0xbf5fbbff	-0.87396234
112	0x3e2c1e56	0.16808447
113	0xbf085106	-0.5324863
114	0xbed9784a	-0.42474586
115	0xbf6fed20	-0.937212
116	0x3f40dd3c	0.75337577
117	0x3e85edb8	0.26157928
118	0xbf665529	-0.89973694
119	0x3f354985	0.70815307
120	0x3f66ca17	0.90152115
121	0x3da50168	0.08056909
122	0xbebb6160	-0.3659773
123	0xbf69dd31	-0.91353136
124	0xbeef737a	-0.4676779
125	0x3f216654	0.63046765
126	0x3f2ce3b5	0.67534953
127	0x3f765d20	0.9623585

fcs.1.1.weight f4 [1, 128]
0	0xbd90977f	-0.070601456
1	0x3dac59af	0.08415543
2	0xbbe5c6c5	-0.0070122206
3	0x3d7401b9	0.059571955
4	0x3dabb8b8	0.08384842
5	0xbcafb015	-0.021446267
6	0x3d55ea3f	0.052225348
7	0xbd25e16e	-0.04049819
8	0xbd24da76	-0.040247403
9	0x3d6f841c	0.0584756
10	0x3c26712a	0.010158816
11	0x3da96635	0.082714476
12	0x3c37c85a	0.011217201
13	0x3b9c26be	0.0047653606
14	0xbd9a5aaa	-0.07536824
15	0xbd8b3516	-0.06797235
16	0xbda57953	-0.080797814
17	0xbdaeaee0	-0.085294485
18	0x3b7d1f3d	0.0038623356
19	0xbd07bac6	-0.033137105
20	0x3caada12	0.020855937
21	0xbd8f45c4	-0.069957286
22	0x3d54fb2e	0.051997356
23	0xbd57e1c3	-0.052705538
24	0xbd5c08ee	-0.053719454
25	0x3d6fea9d	0.058573354
26	0xbd38c3fe	-0.045108788
27	0x3cc69a0f	0.024243383
28	0x3da16d74	0.07882205
29	0x3d1169aa	0.03550116
30	0xbce05278	-0.027383074
31	0xbcb80d8f	-0.022467403
32	0xbcf6f316	-0.03014521
33	0x3d93d51e	0.07218383
34	0x3d1e06cb	0.038580697
35	0xbdb0c47e	-0.08631228
36	0x39ff9dcb	0.00048754955
37	0xbceafa20	-0.028683722
38	0xbd53b35c	-0.051684722
39	0x3dc72cd4	0.09725347
40	0xbc52a47d	-0.0128566
41	0xbd1b64ee	-0.03793805
42	0x3d748929	0.05970112
43	0xbcefea95	-0.029286662
44	0xbcc21057	-0.023689432
45	0xbb06e254	-0.002058168
46	0xbd951464	-0.0727928
47	0xbd113174	-0.035447553
48	0x3a1d7b41	0.0006007441
49	0x3d26cbbe	0.040721647
50	0x3ce43569	0.0278575
51	0x3db3339c	0.08750078
52	0x3b4f3d07	0.0031622068
53	0x3cdadf47	0.026717795
54	0xbcbb02b2	-0.022828434
55	0x3d1fe8be	0.03904032
56	0xbd51c292	-0.051210947
57	0x3ca4b809	0.020107286
58	0x3c3c9d83	0.011512163
59	0xbc11471e	-0.008867053
60	0xbd22912e	-0.039689235
61	0xbceb2ac5	-0.028706918
62	0x3b19c54a	0.002346354
63	0x3db1b437	0.086769514
64	0x3c064d18	0.0081970915
65	0xbdb7deb6	-0.089780256
66	0x3d2cdf12	0.042204924
67	0x3da02608	0.07819754
68	0xbcf0aa0c	-0.02937796
69	0xbd3a9b1e	-0.045558088
70	0x3bdee8c2	0.0068026492
71	0xbd986d38	-0.07442707
72	0x3dced17c	0.1009855
73	0x3d4283a2	0.047488816
74	0xbd1596ec	-0.036520883
75	0x3d1fa70e	0.038977675
76	0xbd9f59f4	-0.07780829
77	0xbdb06411	-0.08612836
78	0x3d8a6f4e	0.06759511
79	0x3ce240eb	0.027618846
80	0x3dab41bb	0.083621465
81	0x3d941aa2	0.07231642
82	0xbda02632	-0.07819785
83	0xbb827ea0	-0.00398238
84	0x3d6637c3	0.056205522
85	0xbccaacf7	-0.02474068
86	0x3ca8cca7	0.020605398
87	0xbdb3111e	-0.08743499
88	0x3d2f8c88	0.04285863
89	0x3cde2aea	0.027120072
90	0xbc13adf5	-0.009013643
91	0x3bd5841a	0.006515992
92	0x3db3e657	0.08784168
93	0x3c34369b	0.010999347
94	0x3caa3d42	0.020781163
95	0x3d935fbc	0.07195994
96	0xbd9b3b40	-0.075796604
97	0x3d21f70d	0.039542247
98	0xbd825e91	-0.06365693
99	0x3ce928bb	0.028461805
100	0x3d491451	0.04909164
101	0xbc89c198	-0.016815946
102	0xbd5e6a1d	-0.054300416
103	0x3d87109f	0.06594967
104	0x3d970e9c	0.073758334
105	0xbb05ddf9	-0.0020426495
106	0xbd06ab4c	-0.032878205
107	0xbd9043d7	-0.070441894
108	0xbd0c14df	-0.03419959
109	0xbd996dab	-0.07491621
110	0xbd1bc52c	-0.038029835
111	0xbd84c116	-0.06482141
112	0xbd6dd8a9	-0.05806795
113	0x3c6b9b62	0.014380308
114	0xbd9b0024	-0.07568386
115	0x3d1fa3d7	0.03897461
116	0x3d723b03	0.05913831
117	0x3bd72b84	0.0065664668
118	0xbbc1bb70	-0.005912237
119	0x3d1efc0f	0.0388146
120	0xbcc6618b	-0.024216434
121	0x3d545dfc	0.051847443
122	0xbc980750	-0.018558174
123	0x3d7b90aa	0.06141726
124	0x3da1c825	0.07899503
125	0xbd4a277c	-0.04935406
126	0xbd5ecb36	-0.054393016
127	0x3c62dae2	0.013846131

fcs.2.0.linear.weight f4 [128, 1]
0	0xbf18183f	-0.59411997
1	0xbecb8f3b	-0.39757714
2	0x3f299678	0.6624522
3	0x3ef26850	0.4734521
4	0xbd9d1670	-0.07670295
5	0xbf77d5e8	-0.9681077
6	0x3eda3439	0.42617968
7	0x3f3f2672	0.7466804
8	0xbe9a29c5	-0.30109993
9	0x3e588003	0.21142583
10	0x3d5afabd	0.05346178
11	0xbf1156d2	-0.567731
12	0xbf2ab874	-0.66687703
13	0xbe96bd5d	-0.29441348
14	0x3dcc98b6	0.09990065
15	0x3f5c6c56	0.8610281
16	0xbf8016cf	-1.0006961
17	0x3e97832d	0.29592267
18	0xbd2ff01a	-0.042953588
19	0xbe8b5436	-0.27212685
20	0xbf4d3194	-0.80153775
21	0xbee07914	-0.43842375
22	0xbf6358cf	-0.88807386
23	0x3f440cdc	0.7658212
24	0x3dc3d44b	0.09561976
25	0x3f025ac1	0.5091973
26	0xbec9f5f9	-0.39445475
27	0xbf274d1b	-0.6535203
28	0x3e537c24	0.20652825
29	0xbf251c52	-0.6449634
30	0x3f343611	0.70395
31	0x3edd1cc1	0.43186
32	0xbeed00c1	-0.46289638
33	0xbf0e8af6	-0.5568079
34	0x3e9f8329	0.31154755
35	0x3dac375b	0.08408996
36	0x3f7d9e75	0.9906991
37	0x3f2411de	0.64089763
38	0x3f5a49db	0.85268945
39	0xbf74454c	-0.9541824
40	0xbde23f2b	-0.110472046
41	0x3f642d98	0.8913207
42	0xbeed2f97	-0.4632537
43	0x3def0923	0.116716646
44	0xbf4b549a	-0.79425967
45	0xbf2cbad0	-0.67472553
46	0xbcbe47e7	-0.023227645
47	0xbeeedf1f	-0.46654603
48	0x3e90e518	0.28299785
49	0x3ef001ac	0.46876276
50	0x3e6bedf6	0.23039994
51	0xbf414c77	-0.755073
52	0xbf34e7f0	-0.7066641
53	0xbe588081	-0.2114277
54	0x3f53563b	0.8255345
55	0xbf0f5a31	-0.55996996
56	0x3f7aeaa8	0.9801431
57	0x3ec3ac70	0.38217497
58	0xbebb747b	-0.36612305
59	0xbd50eec0	-0.05100894
60	0x3d95ddc9	0.07317693
61	0xbe2ca1eb	-0.16858642
62	0xbf13f0a4	-0.57789063
63	0x3e05c618	0.13063848
64	0x3eaf0658	0.34184527
65	0xbf7ae93d	-0.98012143
66	0x3eb33f35	0.3500916
67	0xbe9820b0	-0.2971244
68	0x3f331561	0.69954497
69	0xbed2ad5e	-0.41147894
70	0xbeffa44c	-0.49930036
71	0xbf4c3aa4	-0.7977698
72	0xbf3c5539	-0.7356754
73	0x3f177c17	0.5917372
74	0x3f58deb8	0.8471484
75	0x3daed960	0.08537555
76	0x3f1a373e	0.6024054
77	0x3ed27aae	0.41109222
78	0xbf48e9be	-0.7848166
79	0xbf039ade	-0.51408184
80	0x3e593385	0.2121106
81	0xbf083d0e	-0.5321816
82	0x3f7be51b	0.9839646
83	0xbe54039e	-0.20704505
84	0x3f5d83fd	0.86529523
85	0x3f593502	0.8484651
86	0x3e7444d0	0.23854375
87	0x3e63310e	0.22186682
88	0xbe254f8d	-0.16143627
89	0xbea8b437	-0.32949993
90	0x3ee2b9f9	0.4428251
91	0x3f5d3516	0.8640913
92	0x3ef28f25	0.47374836
93	0xbf6085a8	-0.87703943
94	0xbdce70c3	-0.10080101
95	0xbdff44b7	-0.12464278
96	0xbf0c8237	-0.5488619
97	0xbef4810c	-0.47754705
98	0x3dcf3dd0	0.10119212
99	0x3e6799f7	0.22617327
100	0x3ef1ecba	0.4725092
101	0xbf692183	-0.9106676
102	0x3e03ce28	0.12871611
103	0x3e8c6e3e	0.27427858
104	0xbeee07fd	-0.4649047
105	0x3e0cf500	0.13765335
106	0x3e899732	0.26873165
107	0xbdda15c6	-0.10648684
108	0x3e818ae7	0.25301287
109	0x3f70655c	0.9390466
110	0xbf4d498f	-0.80190367
111	0x3d962f3b	0.07333227
112	0xbe68033e	-0.22657487
113	0xbf37178f	-0.7152032
114	0xbeffe809	-0.49981716
115	0xbf3e047c	-0.7422559
116	0x3ef74345	0.4829351
117	0xbed4db1b	-0.41573414
118	0x3f534f5d	0.82542974
119	0xbdd76018	-0.10516375
120	0xbf337971	-0.7010718
121	0xbee836c2	-0.45354277
122	0xbee8a717	-0.4543998
123	0xbec04eba	-0.37560064
124	0x3f166316	0.58744943
125	0x3f19bc0b	0.60052556
126	0xbf5970c4	-0.8493769
127	0x3f3ff5e4	0.74984574

fcs.2.0.linear.bias f4 [128]
0	0x3f07052a	0.52742255
1	0xbed22468	-0.410434
2	0xbf5b31df	-0.8562297
3	0x3f45a96b	0.77211636
4	0xbf22c2de	-0.63578594
5	0x3e20684e	0.15664789
6	0xbd55b640	-0.05217576
7	0xbd84897f	-0.06471538
8	0xbeeb40f9	-0.45948008
9	0x3f7ad300	0.9797821
10	0x3f094bbe	0.536312
11	0xbf56bcc0	-0.8388176
12	0xbecc9438	-0.39956832
13	0x3f304d46	0.6886791
14	0x3d38f3a2	0.04515422
15	0xbe511f78	-0.2042216
16	0xbe0d3135	-0.13788302
17	0xbdfce63f	-0.123486035
18	0x3f6144e4	0.87995744
19	0x3f7884ac	0.9707744
20	0x3e4b7d04	0.19871908
21	0x3e6724c6	0.22572622
22	0xbf7411d5	-0.9533971
23	0x3ed8807f	0.42285535
24	0x3f5afe9c	0.85544753
25	0xbe3bcdb2	-0.18340185
26	0xbf193617	-0.5984816
27	0x3eb80377	0.35940143
28	0xbe1ed60b	-0.15511338
29	0x3f39cc73	0.7257759
30	0x3ebcb9a0	0.3686037
31	0xbcfce210	-0.030869514
32	0xbe091b21	-0.13389255
33	0x3f4c87fc	0.79894996
34	0x3f038e42	0.51388943
35	0x3dfec577	0.12440007
36	0x3eafd2c8	0.343405
37	0x3e5c8588	0.21535313
38	0xbecc298a	-0.39875442
39	0xbdef88a0	-0.11695981
40	0xbeaa1cf4	-0.33225214
41	0xbed846e6	-0.4224159
42	0xbe4b1583	-0.19832425
43	0xbeb634dc	-0.35587204
44	0xbf48bda6	-0.7841438
45	0xbf5f3d22	-0.87202656
46	0x3ebfe934	0.37482607
47	0x3cd0b126	0.025475096
48	0x3f226389	0.6343313
49	0x3f6796de	0.9046458
50	0xbf23149e	-0.63703334
51	0x3e22c1f9	0.15894307
52	0x3f070e86	0.52756536
53	0x3f517dc9	0.8183256
54	0xbeed7529	-0.4637845
55	0xbf3a6c69	-0.7282167
56	0x3f4ce604	0.80038476
57	0x3e927899	0.28607634
58	0xbeb45024	-0.35217392
59	0xbf43f9ae	-0.76552856
60	0xbe42f998	-0.19040525
61	0x3e156946	0.1459094
62	0x3e6bb62c	0.23018712
63	0xbf69f242	-0.9138528
64	0x3e69c2d7	0.22828232
65	0x3f00d3ab	0.5032298
66	0xbe401256	-0.18756995
67	0xbef7e853	-0.48419437
68	0x3e4f1616	0.20223269
69	0xbdb18df2	-0.08669652
70	0x3eac52b8	0.3365686
71	0xbecd6689	-0.4011729
72	0xbf44b1f0	-0.7683401
73	0x3f4b06ad	0.7930706
74	0x3e0ad177	0.13556467
75	0xbf27c784	-0.6553881
76	0x3d2c3d7a	0.042050816
77	0x3dccc2b0	0.09998071
78	0x3ed169b5	0.4090096
79	0x3efd1d25	0.49436298
80	0x3f0b3820	0.54382515
81	0xbebff0d5	-0.37488428
82	0x3e6fde62	0.23424676
83	0xbe4ad58f	-0.19808029
84	0x3ea7b8cf	0.32758185
85	0xbe902add	-0.28157702
86	0xbf5bed1f	-0.85908693
87	0xbf69ab98	-0.91277456
88	0x3d2ef7f6	0.042716943
89	0x3ee52a80	0.44758987
90	0xbf05da2d	-0.52286035
91	0xbec84d89	-0.39121655
92	0xbe7cf4b5	-0.24702723
93	0x3c42d2bb	0.011891062
94	0x3f20dbf9	0.6283565
95	0xbf3faa80	-0.7486954
96	0xbf5f75a1	-0.8728886
97	0x3f61ec97	0.8825163
98	0xbf60d8a0	-0.87830544
99	0x3f0f2bcb	0.559262
100	0x3f194231	0.59866625
101	0xbf4427ca	-0.76623213
102	0x3f6e71f9	0.9314266
103	0xbf166bf1	-0.58758456
104	0x3e140a86	0.1445714
105	0x3e30317f	0.17206381
106	0xbeed809d	-0.46387187
107	0x3e88893d	0.26667204
108	0x3f614dd3	0.88009375
109	0x3e89a3ca	0.26882774
110	0xbf3d2145	-0.7387889
111	0x3f394abc	0.7237966
112	0xbe40ba02	-0.18820956
113	0xbf12636a	-0.57182944
114	0xbf00c8a2	-0.5030614
115	0xbe5300bd	-0.2060575
116	0x3f4a7246	0.7908062
117	0xbeb084a3	-0.34476194
118	0xbdca250c	-0.098703474
119	0xbef13084	-0.47107327
120	0xbf226b55	-0.63445026
121	0x3c485fc2	0.012229862
122	0x3ea3e39a	0.32009584
123	0x3f02a785	0.51036865
124	0xbefbc4ed	-0.4917368
125	0x3f145a97	0.5795073
126	0x3f5170ce	0.8181275
127	0xbe053ef3	-0.13012294

fcs.2.1.weight f4 [1, 128]
0	0x3da3ee07	0.080043845
1	0xbd7ba7f0	-0.061439455
2	0x3d881c1a	0.06645985
3	0xbd3c2f48	-0.04594353
4	0xbcbea11c	-0.023270182
5	0x3d44b16f	0.048020776
6	0xbc79fcf5	-0.015258064
7	0xbc8df830	-0.01733026
8	0xbd654166	-0.055970572
9	0x3d37a82a	0.044838108
10	0x3c5dc205	0.013535027
11	0x3d6701e8	0.056398302
12	0xbd7e74a1	-0.062122945
13	0xbda07a01	-0.078357704
14	0xbccd3047	-0.025047434
15	0x3bde9989	0.006793205
16	0xbc51a508	-0.012795694
17	0xbdaefa74	-0.08543864
18	0x3d35679d	0.044288266
19	0x3d986b02	0.07442285
20	0xbcda6cde	-0.02666324
21	0x3d29cebb	0.04145692
22	0x3d56d5f4	0.052450135
23	0xbd999b14	-0.07500282
24	0x3c191e17	0.009345553
25	0xbda382f2	-0.0798396
26	0xbd85f04e	-0.06539975
27	0x3d84e0e8	0.0648821
28	0xbd9b1d93	-0.07574
29	0xbcdbfcfe	-0.026854035
30	0x3c6adfdf	0.014335602
31	0x3cdb88cf	0.026798634
32	0x3d75ca62	0.06000746
33	0xbd08078c	-0.033210322
34	0x3d88ddd7	0.066829376
35	0xbd3957e5	-0.04524984
36	0x3d523605	0.05132105
37	0x3d1b87f8	0.037971467
38	0x3da7111f	0.081575625
39	0x3c27a807	0.010232932
40	0x3d33a123	0.043854844
41	0x3d977404	0.07395175
42	0x3d794241	0.0608542
43	0xbd4ad27f	-0.04951715
44	0xbd42949c	-0.047505006
45	0x3ca15202	0.019692425
46	0x3d9dc00d	0.077026464
47	0xbd3e3068	-0.046432883
48	0xbd83f47f	-0.06443118
49	0xbd9d5b48	-0.07683426
50	0xbcd44b4c	-0.02591481
51	0xbd694e91	-0.056959692
52	0xbd4a7b2c	-0.049433872
53	0x3cbd771c	0.023128085
54	0x3bf41ad9	0.0074494896
55	0x3d0f442d	0.034977127
56	0x3cb86303	0.02250815
57	0xbd32b48e	-0.04362922
58	0xbcf50590	-0.029909879
59	0xbd90440b	-0.07044228
60	0xbd8333b0	-0.06406343
61	0xbd90e951	-0.070757516
62	0xbdb5f831	-0.088852294
63	0xbc0dc078	-0.008651845
64	0x3d9452d4	0.07242361
65	0xbbb3b786	-0.005484524
66	0x3d76a561	0.06021631
67	0x3d563453	0.052295994
68	0xbd4bcb20	-0.049754262
69	0x3daa526a	0.083165005
70	0xbd3eff17	-0.04662999
71	0xbd33a96d	-0.04386275
72	0x3c6b8d2c	0.01437692
73	0x3d9af01d	0.07565329
74	0xbd1e4875	-0.03864332
75	0x3c7122f0	0.014717802
76	0xbd15d413	-0.036579203
77	0xbd436284	-0.047701374
78	0x3d9c275d	0.076246955
79	0x3cb9daee	0.022687402
80	0x3d601072	0.054703183
81	0x3c5a6443	0.013329568
82	0x3da55b4b	0.080740534
83	0xbda36ea8	-0.079800904
84	0xbd6d157a	-0.05788181
85	0xbbd6e86c	-0.0065584686
86	0xbdc97158	-0.09836072
87	0xbc00f04a	-0.007869789
88	0x3c91a7a8	0.01778014
89	0x3d793d63	0.06084956
90	0x3d630108	0.055420905
91	0xbda2f98e	-0.07957755
92	0xbd932265	-0.071842946
93	0xbda30ccd	-0.07961426
94	0xbd6f142f	-0.058368858
95	0x3d07c556	0.03314718
96	0x3ba0b595	0.0049044588
97	0xbd87ff92	-0.06640543
98	0x3db05ab7	0.086110525
99	0x3c882d18	0.016623065
100	0xbc055d35	-0.008139898
101	0x3d73416e	0.05938857
102	0xbd13cded	-0.036085058
103	0xbc9827a1	-0.018573584
104	0x3cf3a2ad	0.029740656
105	0x3d0be724	0.03415598
106	0xbd7b7358	-0.061389297
107	0x3be45d70	0.0069691464
108	0xbce0e50c	-0.027452968
109	0xbd100d46	-0.03516891
110	0xbc2e1ca8	-0.010626949
111	0x3dac5a62	0.08415677
112	0xbd6df9a2	-0.058099397
113	0x3cbc66be	0.02299821
114	0xbbb688f1	-0.005570524
115	0x3d398c3a	0.045299746
116	0xbcde192b	-0.02711161
117	0x3b96babd	0.0045998977
118	0x3b849b99	0.004046869
119	0x3d88759c	0.06663057
120	0x3db1b9bf	0.086780064
121	0xbdb138e4	-0.08653429
122	0x3d1875bb	0.03722165
123	0xbd4ccbe5	-0.049999136
124	0xbdb42eda	-0.08797999
125	0xbd1d1df7	-0.038358655
126	0x3d99c7b7	0.07508796
127	0xbd4481f9	-0.047975514

fcs.3.0.linear.weight f4 [128, 1]
0	0xbf20be2c	-0.6279018
1	0xbdb46daf	-0.08809983
2	0x3eae2810	0.3401494
3	0x3f2f9324	0.68583894
4	0xbf40d404	-0.7532351
5	0x3f573391	0.8406306
6	0x3f0c0f28	0.54710627
7	0x3f7226bb	0.9459035
8	0x3f1c8c8e	0.6115197
9	0xbe732c40	-0.23747349
10	0xbefb45c1	-0.49076656
11	0x3f77f026	0.9685081
12	0xbe1b779a	-0.15182343
13	0xbdd8e5cd	-0.10590706
14	0xbef4767c	-0.47746646
15	0x3d997df5	0.074947275
16	0xbedadeb9	-0.4274805
17	0xbf609465	-0.8772643
18	0x3e158425	0.1460119
19	0xbf7cab77	-0.98699135
20	0xbcae2200	-0.021256447
21	0x3e3729be	0.17887017
22	0x3f5cfb45	0.86320907
23	0xbf77c576	-0.96785676
24	0x3db7bb6d	0.089712955
25	0xbf451299	-0.769815
26	0x3f16473f	0.5870246
27	0xbeceb576	-0.4037282
28	0x3f1665fb	0.5874936
29	0x3d8ecd50	0.06972754
30	0x3f611cdb	0.87934655
31	0x3f078f1f	0.5295276
32	0xbdd2f427	-0.103004746
33	0x3f047e7a	0.5175549
34	0xbcaae59c	-0.02086144
35	0x3f136c1d	0.5758684
36	0xbef2c137	-0.47413036
37	0xbe010477	-0.1259936
38	0x3ef8e113	0.48609218
39	0xbf71d52c	-0.944659
40	0xbe173f72	-0.14770296
41	0x3f0a4fbb	0.5402791
42	0x3f0bcef0	0.54612637
43	0xbf0d47ab	-0.5518748
44	0xbf617b4a	-0.8807875
45	0x3f1f14ce	0.6214112
46	0xbd0e49a0	-0.034738183
47	0xbdbef75c	-0.09324524
48	0x3f6b4db6	0.9191545
49	0x3f5a1dc0	0.85201645
50	0xbf0bc1de	-0.5459269
51	0x3f02696c	0.5094211
52	0xbf75f003	-0.96069354
53	0x3f2f9afe	0.68595874
54	0xbf6aff16	-0.9179548
55	0x3dd3b560	0.10337329
56	0x3f15655d	0.58357793
57	0x3f090c1d	0.5353411
58	0xbf71be36	-0.94430864
59	0xbdae3978	-0.08507055
60	0xbf7e23f0	-0.99273586
61	0xbeed268a	-0.46318465
62	0x3f738506	0.9512485
63	0xbedb72e7	-0.428611
64	0xbebcb422	-0.3685618
65	0xbd695660	-0.05696714
66	0xbd9f73c9	-0.07785756
67	0xbe1120d7	-0.14172684
68	0x3eee3996	0.4652831
69	0xbf207a4a	-0.626866
70	0xbea23608	-0.31681848
71	0x3edd7bcb	0.4325851
72	0xbee97ed4	-0.45604575
73	0x3c7e4fd8	0.015521966
74	0x3eb5a758	0.35479236
75	0xbe86fed7	-0.26366302
76	0x3e43911c	0.19098324
77	0x3f726368	0.9468293
78	0x3f3bd8ac	0.7337749
79	0xbee7e572	-0.4529224
80	0x3db07c14	0.08617416
81	0x3eca5ba3	0.39523038
82	0xbf5e21c3	-0.86770266
83	0xbebe2c2c	-0.37143075
84	0xbf33740b	-0.7009894
85	0xbd84ca40	-0.064838886
86	0xbda570a0	-0.08078122
87	0xbe3d062a	-0.18459383
88	0x3f5ac370	0.85454464
89	0x3f6f23ba	0.9341389
90	0x3e5627d5	0.20913632
91	0xbf1e4bdf	-0.6183452
92	0xbf34690d	-0.70472795
93	0xbe685e99	-0.22692336
94	0x3f42f05f	0.7614803
95	0x3e7b1392	0.24519184
96	0x3f30c5bd	0.69051725
97	0x3e9e57fe	0.30926508
98	0xbf7b3977	-0.9813456
99	0x3da5d8d9	0.08098001
100	0x3f2924fe	0.6607207
101	0x3f68852c	0.90828204
102	0x3ecb7c18	0.39743114
103	0x3f3eb7eb	0.74499387
104	0x3ef95f6b	0.4870561
105	0xbdecdb13	-0.115652226
106	0x3f79c918	0.9757247
107	0xbf539e9d	-0.826639
108	0xbed8c0be	-0.4233455
109	0x3f2bb84c	0.6707809
110	0x3f209e31	0.6274138
111	0x3ed7422d	0.42042676
112	0xbf3535f1	-0.70785433
113	0x3ebe8b5a	0.37215692
114	0x3f191ec0	0.59812546
115	0x3dcef430	0.10105169
116	0xbee91df6	-0.4553067
117	0xbef53a41	-0.47896007
118	0x3f43404f	0.7627
119	0xbf54d77e	-0.83141315
120	0x3f53592b	0.82557935
121	0x3f3f0ceb	0.74629086
122	0xbed5e9ae	-0.41779846
123	0x3f176528	0.5913873
124	0xbf3fe78f	-0.74962705
125	0xbf5893e3	-0.8460066
126	0xbf33f6ec	-0.7029865
127	0xbedfe243	-0.43727311

fcs.3.0.linear.bias f4 [128]
0	0x3f170eae	0.59006774
1	0x3e57be97	0.21068798
2	0xbc02529e	-0.007954268
3	0xbf100811	-0.5626231
4	0xbcca8528	-0.024721697
5	0xbe741257	-0.23835121
6	0x3f4ad5b8	0.7923236
7	0xbe8ea819	-0.27862623
8	0x3d4ec73a	0.050482966
9	0x3d4f37f9	0.05059049
10	0x3f5337d5	0.8250707
11	0x3f763c9c	0.9618623
12	0xbf4314bd	-0.7620352
13	0xbe9ea38d	-0.30984154
14	0x3f02d4a5	0.5110572
15	0x3e6675de	0.225059
16	0xbf6b66d8	-0.919538
17	0xbf3e0cfe	-0.74238575
18	0x3e250e49	0.1611873
19	0x3eced419	0.40396193
20	0xbe84fe54	-0.25975287
21	0xbf0d7674	-0.5525887
22	0x3f64694d	0.89223176
23	0x3e0b3a76	0.1359652
24	0xbef1fba6	-0.47262305
25	0xbe10aeb4	-0.14129144
26	0xbf110d79	-0.5666118
27	0xbf36f1c0	-0.7146263
28	0xbf0d5bb0	-0.5521803
29	0xbf24628c	-0.6421287
30	0xbe55c6dd	-0.20876642
31	0xbf32fb47	-0.6991467
32	0x3f2cb37a	0.6746136
33	0xbe13a184	-0.14417082
34	0x3e8c04f7	0.27347538
35	0x3f3b6c0e	0.73211753
36	0xbe93e35d	-0.28884402
37	0xbe2227e4	-0.1583553
38	0x3e8f729b	0.28017125
39	0xbdede537	-0.11615985
40	0x3f0424eb	0.5161883
41	0x3f4368ff	0.76332086
42	0x3dc94f48	0.09829575
43	0xbf0d00ec	-0.5507953
44	0x3e8c3bbf	0.27389333
45	0x3f4a3acb	0.7899596
46	0xbf515084	-0.8176348
47	0xbf0cc959	-0.5499473
48	0xbf5a2847	-0.8521771
49	0xbf15ca4a	-0.58511794
50	0x3ce90d62	0.028448764
51	0xbdb8cfbe	-0.09023999
52	0x3f3ce23e	0.7378272
53	0x3e52b9b7	0.20578657
54	0x3e922e03	0.2855073
55	0xbed51734	-0.41619265
56	0xbf2618ee	-0.6488179
57	0x3ea21344	0.31655324
58	0x3f722cc7	0.94599575
59	0x3ed3ff60	0.41405773
60	0xbd80d87a	-0.0629129
61	0x3ed14765	0.40874782
62	0x3ec72ade	0.38899893
63	0x3f3b44d1	0.7315188
64	0x3f056aad	0.521159
65	0xbef44070	-0.47705412
66	0x3f1fc28b	0.62406224
67	0xbd812c65	-0.06307296
68	0xbd1e0d0e	-0.03858667
69	0x3d87a25b	0.06622764
70	0x3f784f43	0.96995944
71	0x3e58509f	0.21124505
72	0xbf0b75bd	-0.5447653
73	0xbd8e37ee	-0.069442615
74	0xbdfe16c9	-0.1240669
75	0x3ebaa591	0.36454442
76	0x3f109dce	0.5649079
77	0xbe2bd360	-0.16779852
78	0xbf6b463d	-0.9190405
79	0x3f333b4a	0.7001234
80	0xbd1cf890	-0.038322985
81	0x3f76d611	0.9642039
82	0x3f00d421	0.50323683
83	0x3ef7bce0	0.48386288
84	0xbf6b1c8a	-0.9184042
85	0xbed4470c	-0.41460454
86	0xbf174fc2	-0.59106076
87	0x3ef64847	0.48102018
88	0x3f7a97aa	0.9788767
89	0xbebdfaf0	-0.37105513
90	0xbe46ee6b	-0.19426887
91	0x3f792b63	0.9733183
92	0xbe7c028b	-0.24610345
93	0xbf117811	-0.5682383
94	0x3d0e0f4a	0.03468255
95	0xbca1788a	-0.019710798
96	0xbf29cfe5	-0.66332847
97	0x3f67c0dd	0.9052866
98	0x3ec2bd14	0.3803488
99	0x3eb2dd98	0.34934688
100	0x3eaa6d07	0.33286306
101	0x3d9a6580	0.07538891
102	0x3e4efacf	0.20212863
103	0x3dfae33b	0.12250372
104	0x3ee67c4e	0.45016712
105	0x3f58ed50	0.8473711
106	0x3e9495f6	0.2902066
107	0x3f2eda36	0.68301713
108	0xbe4acead	-0.19805403
109	0xbec6967c	-0.38786685
110	0xbf56ba33	-0.8387787
111	0xbf4703e2	-0.777403
112	0x3f3f13cf	0.746396
113	0xbe7dec9f	-0.24797295
114	0x3eb1a697	0.3469741
115	0xbf4868e2	-0.7828504
116	0xbd33a55a	-0.043858863
117	0xbf123536	-0.57112443
118	0xbec8fa89	-0.39253643
119	0xbf76f873	-0.96472853
120	0xbf441b3f	-0.76604074
121	0x3e38937e	0.18025014
122	0xbdd1026d	-0.10205541
123	0x3f73951f	0.95149416
124	0xbf74df7e	-0.9565352
125	0x3e8aec54	0.2713343
126	0x3ec4346d	0.38321248
127	0xbea55659	-0.3229244

fcs.3.1.weight f4 [1, 128]
0	0xbb52d859	-0.003217241
1	0xbd598147	-0.053101804
2	0x3d54ffcc	0.05200176
3	0xbcfb2c3f	-0.030660747
4	0x3d82e98f	0.06392204
5	0x3d80e0fc	0.06292912
6	0xbdae8e08	-0.08523184
7	0xbd9654de	-0.07340406
8	0x3a9503c5	0.0011368921
9	0xbd65650b	-0.056004565
10	0xbd37fe97	-0.04492053
11	0xbda42db0	-0.08016527
12	0x3d048f4d	0.032363225
13	0x3dcf6388	0.10126406
14	0xbb830e15	-0.0039994814
15	0x3cc8ade3	0.024496978
16	0x3cfbf13e	0.030754682
17	0x3d8d6a98	0.06905097
18	0x3dafdd10	0.08587086
19	0x3c965610	0.018351585
20	0xbc037180	-0.008022666
21	0x3d2f7eb0	0.042845428
22	0xbc723148	-0.014782257
23	0x3d825f86	0.06365876
24	0x3d55837a	0.05212734
25	0x3d872ef2	0.06600751
26	0x3d2bb218	0.04191789
27	0x3c075abc	0.008261379
28	0xbd9fe5be	-0.07807492
29	0x3d4ae9fe	0.04953956
30	0xbd5c94d2	-0.053852864
31	0xbd8d84e2	-0.06910111
32	0x3cb5c60c	0.022189163
33	0xbd64eb60	-0.055888534
34	0x3c8552bc	0.016274802
35	0x3cd3e01c	0.0258637
36	0xbcbd178e	-0.02308252
37	0xbceae6ed	-0.028674567
38	0x3d5f0e1e	0.054456823
39	0x3d818dcf	0.06325876
40	0xbd8324ab	-0.06403478
41	0x3da621df	0.08111929
42	0xbd8da27d	-0.06915758
43	0x3d9a9805	0.07548527
44	0xba338a55	-0.0006848921
45	0x3d139b84	0.036036983
46	0x3daceee9	0.08444006
47	0x3d2a5b52	0.041590996
48	0xbcc2560b	-0.02372267
49	0x3c4508e4	0.0120260455
50	0xbd8af541	-0.0678506
51	0xbd8d7ed2	-0.06908955
52	0x3d13e945	0.036111135
53	0xbd1f1ad8	-0.03884396
54	0xbcdec935	-0.027195552
55	0x3ce5e320	0.028062403
56	0xbc3dc564	-0.011582706
57	0xbd9cb280	-0.07651234
58	0x3d83ff0c	0.06445131
59	0xbb170dd2	-0.002304901
60	0xbcf3df77	-0.029769642
61	0xbcdb5f5b	-0.026778867
62	0xbc0cf436	-0.008603146
63	0x3c04501b	0.008075739
64	0xbd1b188a	-0.0378652
65	0x3cf85920	0.030315936
66	0x3d5d87cb	0.05408458
67	0x3da2180f	0.07914745
68	0x3d30681d	0.04306804
69	0x3d2ccc61	0.0421871
70	0xbd10af43	-0.035323393
71	0x3c717445	0.0147371935
72	0x3d1c2a7d	0.038126457
73	0x3ca3c582	0.01999164
74	0x3d7bb45d	0.061451305
75	0xbc131311	-0.008976714
76	0xbd9d1fa2	-0.07672049
77	0xbd8a07e2	-0.06739785
78	0xbc197238	-0.009365611
79	0xbd98d1c1	-0.074618824
80	0xbcad403a	-0.02114879
81	0xbd717db3	-0.058957767
82	0x3d6df706	0.058096908
83	0x3d7276b0	0.05919522
84	0x3d0644ff	0.032780644
85	0xbccd20e4	-0.025040098
86	0x3dac5097	0.08413809
87	0xbda4d48e	-0.08048354
88	0x3d536ce8	0.051617533
89	0x3bc73f16	0.0060805185
90	0x3d65643e	0.0560038
91	0xbce282cf	-0.027650265
92	0xbc3020bc	-0.010749992
93	0x3da8b27d	0.08237169
94	0x3d6dc0b2	0.058045097
95	0xbca6f780	-0.02038169
96	0x3a101e8c	0.0005497716
97	0x3c13f6b3	0.009030986
98	0xbc139ebb	-0.009010012
99	0x3cd703ec	0.026246987
100	0x3d5965b3	0.053075504
101	0xbb9483f2	-0.0045323307
102	0xbd9a5101	-0.075349815
103	0xbcfc71ac	-0.030815922
104	0xbb689ef5	-0.0035495136
105	0xbcbeccae	-0.023290958
106	0x3d617b10	0.055049002
107	0xbc433638	-0.011914782
108	0xbda3780b	-0.07981881
109	0xbc008aa4	-0.0078455545
110	0x3d8cf2cd	0.06882248
111	0x3b249d5b	0.0025118205
112	0x3d909bf9	0.070609994
113	0x3d057efd	0.03259181
114	0x3d9c091a	0.076189235
115	0xbbe40760	-0.006958887
116	0xbd70bc8b	-0.05877356
117	0x3d9f79f9	0.07786936
118	0xbd8db5a8	-0.06919414
119	0xbbbb2a25	-0.005711811
120	0x3cf5dfab	0.03001388
121	0x3c358c38	0.011080794
122	0xbc98b843	-0.01864255
123	0x3dad2b73	0.08455553
124	0xbd92b858	-0.07164067
125	0xbd7cb58e	-0.06169658
126	0xbd94f381	-0.07273007
127	0xbd899931	-0.06718672

fcs.4.0.linear.weight f4 [128, 1]
0	0xbe8eda90	-0.27901125
1	0x3eb98338	0.36232924
2	0x3f6f2028	0.9340844
3	0x3e3a225a	0.18177167
4	0xbec5c46e	-0.38626426
5	0xbdd72c07	-0.105064444
6	0xbee00948	-0.4375708
7	0xbf5bcbe2	-0.85857975
8	0x3d9dfa88	0.07713801
9	0x3eabf156	0.33582562
10	0x3e059dc1	0.1304846
11	0x3e85c744	0.2612859
12	0xbf59b5f5	-0.8504327
13	0xbde2bae3	-0.11070802
14	0x3df3ff66	0.11913948
15	0x3e71664c	0.2357418
16	0x3b81b48d	0.003958291
17	0x3ef77ecb	0.48338923
18	0x3f1efc76	0.62103975
19	0xbf1793e2	-0.59210026
20	0xbeaa4399	-0.33254698
21	0x3f6db54e	0.92854774
22	0x3eb944b6	0.36185235
23	0xbf35a6eb	-0.7095782
24	0xbef7c205	-0.48390213
25	0x3da3086b	0.0796059
26	0xbee72743	-0.45147142
27	0x3f482d9d	0.781946
28	0x3eab0550	0.3340249
29	0x3f57af31	0.84251696
30	0xbf033d6c	-0.512656
31	0x3f6771a7	0.90407795
32	0xbf495fd3	-0.7866184
33	0x3f5e73e2	0.86895573
34	0x3e45fe69	0.19335331
35	0xbf34a2b7	-0.70560783
36	0x3ede7f10	0.43456316
37	0x3e8ece3d	0.27891722
38	0x3f78a448	0.97125673
39	0xbf43c3b4	-0.76470494
40	0xbf5dbb85	-0.8661426
41	0xbec73e48	-0.38914704
42	0xbeb60f4d	-0.3555855
43	0xbf699fbb	-0.91259354
44	0x3f4314cc	0.7620361
45	0xbeac197a	-0.33613187
46	0x3ea98344	0.3310796
47	0xbf0bf26a	-0.5466677
48	0x3eca0e51	0.39464048
49	0xbf19db61	-0.6010037
50	0x3e39e022	0.18151906
51	0xbcae2dc0	-0.02126205
52	0x3f3f8336	0.74809587
53	0x3eeef7e2	0.46673495
54	0xbe9258b4	-0.285833
55	0x3f4b33e8	0.7937608
56	0x3e568c80	0.20952034
57	0x3e92ec96	0.28696126
58	0x3f188fce	0.5959443
59	0xbf3d0a97	-0.73844284
60	0xbf35bf02	-0.7099458
61	0x3f6c27dc	0.9224832
62	0xbda4376d	-0.08018384
63	0xbedaecc5	-0.42758766
64	0xbec4b7fd	-0.38421622
65	0xbee8223a	-0.45338613
66	0xbf1b360b	-0.6062934
67	0xbe976bbf	-0.2957439
68	0x3dd10170	0.10205352
69	0x3f7ed166	0.99538267
70	0x3eaef06e	0.34167808
71	0xbed4e69e	-0.41582197
72	0x3f03968e	0.51401603
73	0x3f390832	0.7227813
74	0x3eb06195	0.3444945
75	0xbe05a820	-0.13052416
76	0xbe3f2517	-0.18666492
77	0x3f448ea1	0.76780134
78	0xbcf7f500	-0.030268192
79	0xbf10cd70	-0.5656347
80	0x3f283f54	0.6572163
81	0xbd995b30	-0.07488096
82	0xbf194f24	-0.59886384
83	0x3f1b3a22	0.6063558
84	0x3f1f8203	0.6230776
85	0x3f34b251	0.7058459
86	0x3c76906f	0.015049084
87	0xbf612320	-0.8794422
88	0xbf3344f3	-0.70027083
89	0x3e85e2b8	0.26149535
90	0x3f294e94	0.66135526
91	0xbf3d1446	-0.7385906
92	0xbdcdf124	-0.100557595
93	0xbd2d8c62	-0.042370208
94	0x3e4777f1	0.19479348
95	0xbc8cd57b	-0.01719164
96	0xbf2f105a	-0.68384326
97	0x3e78cc2c	0.24296635
98	0x3e65658c	0.22402018
99	0xbf2536fd	-0.6453703
100	0xbea92f26	-0.33043784
101	0xbb21ad63	-0.0024669997
102	0x3f2598bb	0.64686173
103	0x3f5f4fab	0.8723094
104	0x3f1119f3	0.5668022
105	0x3f7b63ae	0.98198974
106	0x3e0b525d	0.13605638
107	0xbe9ef1cf	-0.3104386
108	0xbc39a380	-0.011330485
109	0xbef79eef	-0.48363444
110	0xbeabe6cd	-0.33574525
111	0xbe8e0148	-0.27735353
112	0xbecab2a1	-0.39589408
113	0x3dce1032	0.10061683
114	0xbf18d2a3	-0.59696406
115	0xbf0aa6fc	-0.5416105
116	0xbe5fe2f6	-0.21863922
117	0xbecff45e	-0.40616125
118	0x3f777ad4	0.96671796
119	0xbf29cdf5	-0.6632989
120	0xbf604081	-0.87598425
121	0xbf0cd427	-0.5501122
122	0xbea54f56	-0.3228709
123	0x3e0fea35	0.14054187
124	0xbf65fa4d	-0.89835054
125	0xbf2f3873	-0.6844551
126	0xbe0757c5	-0.13217075
127	0xbf765c43	-0.9623453

fcs.4.0.linear.bias f4 [128]
0	0xbf4b7c59	-0.79486614
1	0x3f7ef602	0.9959413
2	0xbd1291aa	-0.035783447
3	0xbf51dced	-0.8197773
4	0x3f532f29	0.82493836
5	0xbde18036	-0.110107824
6	0x3e667f22	0.22509435
7	0x3f530cee	0.82441604
8	0xbeec0107	-0.46094534
9	0x3e588dac	0.21147794
10	0x3ec968a2	0.3933764
11	0xbe8b3fcc	-0.2719711
12	0x3f153511	0.582841
13	0x3f39819c	0.72463393
14	0xbda14b48	-0.07875687
15	0xbf1d3279	-0.6140514
16	0x3ef1bda1	0.47214988
17	0xbf3738a6	-0.71570814
18	0x3b8ca5f9	0.0042922464
19	0xbeca6a69	-0.3953431
20	0xbf08b943	-0.53407687
21	0x3f57e8b8	0.84339476
22	0xbe0de63a	-0.13857356
23	0x3c92be4e	0.01791301
24	0x3f1bf521	0.6092091
25	0x3f799b40	0.9750252
26	0xbd8447fc	-0.064590424
27	0x3d78c654	0.060736015
28	0xbf27831a	-0.6543442
29	0xbdb9af21	-0.09066606
30	0x3ca76a45	0.020436415
31	0x3f3cfca1	0.7382298
32	0xbe96bd10	-0.29441118
33	0x3ddeb164	0.10873678
34	0xbf68f772	-0.9100257
35	0xbf70bdc4	-0.9403956
36	0xbf5e82c4	-0.8691828
37	0x3f32be72	0.69821846
38	0x3d506a0d	0.050882388
39	0xbdcd1f65	-0.10015754
40	0x3f48231d	0.7817858
41	0xbf02b33f	-0.5105476
42	0x3c71889a	0.014742041
43	0x3ec609f0	0.38679457
44	0x3d89c509	0.067270346
45	0x3ef97d5b	0.4872845
46	0x3f4e3a31	0.80557543
47	0x3f5e4f48	0.86839724
48	0x3f08c8af	0.5343122
49	0x3f6550fa	0.89576685
50	0xbf3f9699	-0.7483917
51	0xbf77ffe2	-0.9687482
52	0xbf32d8e9	-0.6986223
53	0x3f7c7c7b	0.9862744
54	0xbf399954	-0.72499585
55	0xbdfb3cf0	-0.12267482
56	0x3bd49728	0.006487746
57	0x3ec7683b	0.3894671
58	0xbf7c113d	-0.98463804
59	0x3f0421dd	0.5161417
60	0x3f1ada08	0.6048894
61	0x3efdc361	0.49563125
62	0x3f14161b	0.5784623
63	0x3e9ba17f	0.3039665
64	0x3f3d00e0	0.7382946
65	0x3f457f24	0.77147126
66	0x3f1cd479	0.6126171
67	0xbac0b34e	-0.0014701874
68	0x3f1a0fe4	0.601805
69	0x3f3fe932	0.749652
70	0xbdb37c06	-0.0876389
71	0x3effe29a	0.4997757
72	0xbf1a551a	-0.60286105
73	0xbe60a382	-0.21937373
74	0x3d0dfc1f	0.03466427
75	0x3eb321c4	0.349867
76	0x3e0fee38	0.14055717
77	0x3e94c6c8	0.29057908
78	0xbe85ca88	-0.26131082
79	0x3f248788	0.64269304
80	0xbf341335	-0.7034181
81	0xbf26933c	-0.6506841
82	0x3ecff4e9	0.4061654
83	0x3f025268	0.5090699
84	0xbe4a87b3	-0.19778328
85	0x3f67805e	0.9043025
86	0x3f555775	0.83336574
87	0x3f14e80e	0.5816659
88	0xbe6f6716	-0.23379168
89	0x3f63a705	0.88926727
90	0xbeb632b9	-0.35585573
91	0xbf674428	-0.90338373
92	0xbeda632d	-0.4265379
93	0x3d9df536	0.07712786
94	0x3f3f7a2e	0.74795806
95	0x3f710c67	0.9415955
96	0xbf379c7c	-0.7172315
97	0x3ddf7c7b	0.10912415
98	0xbf0f8560	-0.5606289
99	0xbd90e839	-0.07075543
100	0xbf4350fb	-0.7629544
101	0x3f5a01de	0.851591
102	0xbe930e64	-0.28721917
103	0xbf48096b	-0.7813937
104	0x3f55ac3d	0.8346594
105	0xbf6f6299	-0.93509823
106	0x3e1aea35	0.15128405
107	0x3f009d61	0.5024014
108	0xbda3c930	-0.07997358
109	0xbf09e399	-0.5386291
110	0xbf3bd1e1	-0.73367125
111	0x3f48de10	0.7846384
112	0x3d517b72	0.051143117
113	0x3eaf4be2	0.34237581
114	0x3f6fe40b	0.9370734
115	0xbf2d648f	-0.67731565
116	0xbe83b802	-0.25726324
117	0xbf667cfb	-0.90034455
118	0x3f25adaa	0.64718115
119	0xbf5851f4	-0.8450005
120	0x3db7a685	0.08967308
121	0xbf722841	-0.9459267
122	0xbe104114	-0.14087325
123	0x3eb15fa8	0.34643292
124	0x3e38fe6a	0.18065801
125	0x3f6b359a	0.91878664
126	0xbf1e5517	-0.61848587
127	0x3f678a7a	0.90445673

fcs.4.1.weight f4 [1, 128]
0	0x3d4d67fc	0.050147995
1	0xbcd0d568	-0.025492385
2	0x3d1a8139	0.037720893
3	0xbdc27186	-0.09494309
4	0x3dbf6e53	0.093472145
5	0x3c1ee355	0.009697755
6	0xbd85e2db	-0.0653741
7	0xbc80fc49	-0.015745299
8	0x3d0648c0	0.032784224
9	0x3cba2b6c	0.022725783
10	0xbd8a436a	-0.067511395
11	0xbd9a35d4	-0.07529798
12	0xbc8229c5	-0.015889058
13	0xbd82fc50	-0.06395781
14	0x3cd16e83	0.025565391
15	0x3ce363e5	0.027757594
16	0xbc510af8	-0.012758963
17	0xbcd629fa	-0.026143063
18	0x3d95e3a4	0.0731881
19	0x3dc22260	0.09479213
20	0x3c72024d	0.014771056
21	0xbda3a098	-0.07989615
22	0x3cee2a23	0.029072827
23	0x3dab3d8f	0.08361351
24	0xbda61e7a	-0.08111282
25	0x3d72e2fd	0.059298504
26	0xbd51532e	-0.051104717
27	0x3d109a04	0.03530313
28	0xbc80d398	-0.015725896
29	0xbc6d63aa	-0.014489094
30	0x3d3a58e4	0.04549493
31	0xbcb22b9c	-0.02174931
32	0x3c56fab4	0.013121296
33	0x3d0fc3cf	0.035098847
34	0xbd91357c	-0.070902795
35	0x3dbf10f4	0.093294054
36	0xbdc12d2b	-0.09432443
37	0xbd127014	-0.035751417
38	0xbcd4c1fd	-0.025971407
39	0x3dbe727b	0.09299179
40	0x3d06425f	0.03277814
41	0xbd290bcd	-0.04127102
42	0x3c666a87	0.014063484
43	0xbd9c25be	-0.07624386
44	0xbd0ebe6e	-0.034849577
45	0xbd03bcb8	-0.032162398
46	0x3d8650c8	0.065583766
47	0x3d2c8c6d	0.042126108
48	0x3dbca41d	0.092109896
49	0x3cba9618	0.022776648
50	0x3d15e21c	0.036592588
51	0x3c8a5f34	0.0168911
52	0x3c335fc7	0.010948128
53	0xbd9b1b34	-0.07573548
54	0x3d2cd54d	0.042195607
55	0x3d3807d9	0.04492936
56	0xbc120e59	-0.008914554
57	0x3d749499	0.059712026
58	0xbd394537	-0.045232024
59	0x3d68263d	0.056677092
60	0x3d07945e	0.03310048
61	0x3bb19b0e	0.0054200953
62	0xbd335e11	-0.04379088
63	0x3dbd71eb	0.09250244
64	0x3d906f67	0.07052498
65	0xbcfd07e4	-0.030887552
66	0xbd577b14	-0.05260761
67	0x3d1160e4	0.035492793
68	0x3d9d183b	0.07670637
69	0x3c0da09b	0.008644248
70	0xba9005c9	-0.0010988052
71	0xbd71b6f8	-0.059012383
72	0xbb2eabad	-0.002665262
73	0x3d8ae76b	0.06782421
74	0xbcb92cde	-0.022604402
75	0x3d988e16	0.07448976
76	0x3ca45ffb	0.020065298
77	0xbd97eea7	-0.07418566
78	0xbd92fdeb	-0.07177337
79	0xbd001051	-0.03126556
80	0xbd9f8928	-0.07789832
81	0x3c0feb58	0.008784138
82	0xbc081b76	-0.008307328
83	0xbd130ba0	-0.03589976
84	0xbd3709c3	-0.044687044
85	0xbd558683	-0.052130233
86	0xbd2a939a	-0.04164467
87	0x3d153077	0.036423173
88	0xbd3c04fb	-0.045903187
89	0x3da52d4b	0.080652796
90	0x3ce718a3	0.02820999
91	0xbcfdb587	-0.030970348
92	0x3db92415	0.09040085
93	0xbca46c09	-0.020071046
94	0xbc155a32	-0.0091157425
95	0xbd8d4b35	-0.0689911
96	0xbb0aaf3b	-0.0021161574
97	0x3cd7ae3a	0.026328195
98	0xbd54433d	-0.051821936
99	0x3a3c3021	0.00071788026
100	0x3cbbedc0	0.022940516
101	0xbd78d21e	-0.06074726
102	0xbca401df	-0.020020423
103	0xbc33fab1	-0.010985062
104	0x3c199352	0.009373503
105	0x3d64f4a4	0.05589737
106	0x3da814c6	0.08207087
107	0xbd5e57d1	-0.054282967
108	0x3d5a361a	0.05327425
109	0x3d31913a	0.04335139
110	0x3da258eb	0.07927116
111	0x3d7d2c9d	0.061810125
112	0xbc5d3d2c	-0.013503354
113	0x3cbe4bb8	0.023229465
114	0xbbe1fd69	-0.006896664
115	0x3d3df2cd	0.04637413
116	0x3d465da6	0.048429154
117	0x3cd9beed	0.026580298
118	0x3c136091	0.008995191
119	0x3d004b10	0.031321585
120	0xbc195dbc	-0.009360727
121	0xbd885075	-0.06655971
122	0xbaa00480	-0.0012208372
123	0x3d221d93	0.039578985
124	0xbd63220e	-0.0554524
125	0xbc967008	-0.018363968
126	0x3a69ca45	0.0008918385
127	0xbd5049f1	-0.050851766
