cache/tradeoff_exp/trial_2/iter_6.pth (torch, 581966 bytes, 600 tensors)

fcs.0.0.linear.weight f4 [128, 1]
00000000: e49b 29bf 2304 5c3f 1ccf 8d3e f80a 5c3f
00000010: 4084 89bc 1896 7bbf a595 4d3f af5b 5bbf
00000020: 43c7 a1be bd95 89be c650 d33e c020 a33c
00000030: dbd7 d13e ead4 123f 0069 39bc 6db3 15be
00000040: 9401 873e d1e0 3dbf 38be 40be 98e8 28bf
00000050: 9c12 65bf 7c0f 3dbf 0dda 763f f77b f33e
00000060: cf44 d8be efa0 7b3f c6fa 17be f25c 5e3f
00000070: fb6c 31be 8281 ed3e 65f4 94bc 9b10 153f
00000080: f513 443d de05 be3e afec 3d3f 1d68 76bf
00000090: 0075 d5bb b3d1 31bf 0b27 0b3f 16d1 1e3f
000000a0: 448d 4ebf dff5 903e d763 113f 425c b9be
000000b0: 75c7 043f 649a 6abf 6cdb cdbe a2c1 85bd
000000c0: 9f87 b1be 326a 673e a0fe 233f 9f98 3abe
000000d0: e8ca 25be 9b58 5fbf 575d 0e3f adc8 0e3e
000000e0: 3f32 0c3f a51f b9bb a37d 59bf 7fca c23e
000000f0: cc76 b73e fccf b0be ad6f d53c 0727 66be
00000100: acc2 22bf ad07 55be 861b d13e 800a ff3c
00000110: beed 0dbf 0b0a 74bc 507a 5b3f be85 c63e
00000120: 0067 623d 7ffc 873e 6c7b 33bd f0e0 343f
00000130: 6b68 ae3e bc04 30be 5018 2e3f 4e34 62bf
00000140: 226c d8be 5c62 7fbf 43de 5bbf 2814 8cbe
00000150: bb8e 6abe 8f20 2c3f 7aa7 993e 3468 2d3e
00000160: e775 3c3f e4e1 78bf 78a5 233f b151 1ebe
00000170: c320 cd3e 1f02 13bf 3de8 803e 8c6e d9be
00000180: 797c 2a3e bf49 183f b23e 17bf fa35 ec3b
00000190: 4613 db3e 2745 113e 003c 7cbd bbfb eebe
000001a0: 2488 85be d6de 6e3f 5d67 0e3f c9a2 6cbf
000001b0: 1b7d 663f 3d2f a3be 3084 febe baec f9be
000001c0: 34df 803b 2b03 4d3f 348b 703e 8f55 89be
000001d0: cf0c 7cbf 87f3 4c3f 3b5d 383e 6d74 6c3e
000001e0: 7968 413f 79c0 5a3f 94c9 53bf 78cb 34be
000001f0: 3126 513f df65 153e c346 3c3f 1e66 d7be
-0.66253495 0.8594381 0.27697074 0.85954237 -0.016786695 -0.982759 0.80306464 -0.85686773
-0.31597337 -0.26872054 0.41272563 0.019913077 0.40984997 0.5735613 -0.011316538 -0.14619227
0.26368392 -0.7417117 -0.18822563 -0.6597991 -0.8948152 -0.7385175 0.9642647 0.47555515
-0.42239997 0.9829244 -0.14841756 0.86860573 -0.17326729 0.4638787 -0.018182943 0.5822846
0.047870595 0.3711385 0.74189276 -0.96252614 -0.0065141916 -0.694606 0.5435645 0.6203779
-0.80684304 0.28312585 0.5679297 -0.362032 0.5186685 -0.9164183 -0.40206468 -0.06531073
-0.34673783 0.22599104 0.640604 -0.18222283 -0.16190684 -0.87244576 0.55611175 0.13943739
0.5476417 -0.0056495243 -0.8495733 0.38045117 0.35832822 -0.3453368 0.026054228 -0.22475825
-0.63578296 -0.2080371 0.4084131 0.031132936 -0.5544089 -0.014894973 0.8573351 0.38773912
0.05527401 0.26559827 -0.043818876 0.7065573 0.3406404 -0.17189306 0.6800585 -0.8836106
-0.4227 -0.9975946 -0.8588602 -0.27359128 -0.2290601 0.6723718 0.30010587 0.16934282
0.73617405 -0.9721968 0.6392436 -0.1546085 0.40064058 -0.5742511 0.25177184 -0.42467153
0.16649045 0.5948753 -0.5908004 0.007208583 0.42788142 0.14186536 -0.061580658 -0.4667643
-0.2608043 0.9330877 0.5562647 -0.9243589 0.90034646 -0.31871977 -0.49710226 -0.4881342
0.003932858 0.8008296 0.23490602 -0.2682309 -0.98457044 0.80059093 0.18004315 0.23091288
0.7555004 0.8544994 -0.8272946 -0.17655742 0.816989 0.14589642 0.73545474 -0.42070097

fcs.0.0.linear.bias f4 [128]
00000000: 24a3 c8be c643 09bf 7db5 0bbf 7d8c 10bf
00000010: cce2 f6be ad0b 72bf f395 513f 8c2f 673f
00000020: 5061 b1be df2a f7bd 86d5 513f c05c d2be
00000030: d2ae 2cbf db7f 25bf c895 9abe 6fd8 023f
00000040: e562 1d3d 5374 e637 0059 95be 00ea 0c3f
00000050: 1145 a53e 894b 6f3f 9333 aa3e 2b80 30be
00000060: 615d c5be dd96 73bf 3e27 e13e 893d 4c3f
00000070: 651d d03e 0b41 913e e40b 853e 8c26 f43e
00000080: d3e2 523f a2a6 40bf e236 83be d013 ef3b
00000090: 4c25 c4be 5016 a03e 0708 67bf 951c 673e
000000a0: 7214 bebd a643 0e3f 4154 20bc 4818 243f
000000b0: bdc9 3cbf bf5a 33bf a86b c0bd a2bb 563f
000000c0: dfed 4dbf 9fc9 3c3f c260 b23e b8c8 093f
000000d0: 65dd d1be ad1f 063f 8aaf 9d3e 7675 533d
000000e0: 74bf 60bf e5a1 fd3e 0ba4 b33e 67e4 21bf
000000f0: 5109 3c3f cfb0 a83e f52e 043f fbe8 d7be
00000100: 6b70 32bf bf95 4bbf 5980 59be a822 a9be
00000110: 19db 8bbe c505 9c3e bfcc fbbe fa98 06bf
00000120: 7895 0ebf 1165 02bf 17ca c93c 380f 71bf
00000130: 5d53 703f c925 16bf 825a 563f 5fc1 653f
00000140: 4744 1e3f adbb b63e 1718 7fbf 71d8 083f
00000150: 0572 093f aa6a d6be 0c9f 53bf fc87 52bf
00000160: 60ca 2bbe 500f 393f 135f 193e 8b6f e93e
00000170: dc15 3b3f a6df 02bf e75d 1cbe 6421 823e
00000180: 6bdc fe3e f704 1b3f 3bbb 69bf facc be3e
00000190: a9be 0c3d 196b 92be 06b4 23bf f5e9 613d
000001a0: 26fd 043f b740 64bb 07e2 34bf 7c61 af3e
000001b0: aa55 70bf 6311 923d aaba 893d 853a 183f
000001c0: 1fd3 323f d35e 793f 9fce 43bf 0e99 bebe
000001d0: db56 dd3e 3e86 c5be 207c 34bf 304a 56bf
000001e0: 2a34 993e 8fd2 d2be 32d6 31bf 61ae 9c3e
000001f0: 9e25 41bf a85c 073f 0b75 1fbf c3e7 ab3e
-0.39186966 -0.5361904 -0.54573804 -0.5646437 -0.48219907 -0.94549066 0.8186943 0.90306926
-0.34644556 -0.12068724 0.81966436 -0.41086388 -0.67454255 -0.64648217 -0.301924 0.511115
0.03842439 2.7472304e-05 -0.29169464 0.55044556 0.32279256 0.9347463 0.33242473 -0.17236392
-0.38547805 -0.95152074 0.43975252 0.79781395 0.40647426 0.28369936 0.25985634 0.4768566
0.82377356 -0.7525426 -0.2562781 0.007296063 -0.38309705 0.31267023 -0.90246624 0.22569497
-0.092812434 0.55571973 -0.009785713 0.6409955 -0.7374533 -0.7006034 -0.09395534 0.83880055
-0.8044109 0.7374515 0.34839445 0.538219 -0.40989223 0.52392083 0.30797988 0.05162569
-0.87792134 0.49537578 0.35086092 -0.6323914 0.73451716 0.32947394 0.5163415 -0.42169937
-0.69702786 -0.7952537 -0.21240367 -0.33034253 -0.27315596 0.30473152 -0.49179646 -0.52577174
-0.5569682 -0.50935465 0.024632497 -0.94163847 0.938772 -0.58651406 0.83731854 0.89748186
0.6182293 0.3569006 -0.99646133 0.53455263 0.53689605 -0.41878253 -0.8266456 -0.82238746
-0.16776419 0.7228899 0.14977674 0.45592913 0.7308023 -0.5112251 -0.15270196 0.254161
0.4977754 0.6055445 -0.91301316 0.3726576 0.034361515 -0.28597334 -0.6394657 0.05515476
0.51948774 -0.0034828612 -0.7065739 0.34254062 -0.93880713 0.071322225 0.067250565 0.59464294
0.69853395 0.97410315 -0.76487154 -0.37226146 0.43230328 -0.3857898 -0.705019 -0.8370695
0.2992261 -0.41176268 -0.6946746 0.3060179 -0.75448024 0.5287576 -0.6228797 0.33575258

fcs.0.1.weight f4 [1, 128]
00000000: 6dde 65bc f83c af3d c289 fc3b 2455 4fbd
00000010: bb53 62bd 1db0 b2bc f58b b63a 70e3 23bd
00000020: 2933 b93d 5d80 0ebd 10ee 39bd 8deb 903d
00000030: c4a9 7bbd b21a 5cbd d84d 75bc 1882 58bc
00000040: a39d 853d 79f6 ca3c 5a7e 15bd 42e5 df3b
00000050: 7537 47bd 57ff 84bd 41ac 363d ae41 59bc
00000060: 9d76 fc3c 7192 99bd 23e0 193b fc35 50bd
00000070: ccde 48bc 19aa 1f3d 3078 a83d c955 363c
00000080: b626 af3d 8323 8b3d b8d0 f4bc 62b0 af3d
00000090: 03e0 54bd fb71 94bd 86f3 89bd db1e 533d
000000a0: d1a8 acbb 3274 673d 47f4 85bd 7c64 17bd
000000b0: 1b9a e03b 843c d4bb e746 363d 5e34 473d
000000c0: b6b5 733d 1f33 0cbb 9ddc 91bc 4350 50bd
000000d0: f271 a1bd b708 7d3d f1c9 51bc e68f 22bd
000000e0: f245 5ebd f967 1bbc 267b 9f3c ff03 9e3c
000000f0: d6b1 c5bc 50ea f83c c04a d2bc 09d1 d33c
00000100: fa75 a63b e1f8 abbc b88a 883d e1c5 61bd
00000110: fbe8 163d f38f a53d 26d5 0d3d 3118 663d
00000120: ec00 36bd d154 053d 6dc0 b13c b421 cbbc
00000130: 3cad 1d3c 3c2b 883d d242 5ebc 0878 913d
00000140: 52ad 833d d47d 653d 0ec1 3ebd bbaf 89bd
00000150: 8287 ec3b 3ae6 42bd 9e95 29bb b7cd 8a3d
00000160: 77cd 45bc f79b 66bd 1851 e63c d8a8 4abd
00000170: 8291 333d 5cae 8abd bd65 78bd 435f b5bd
00000180: 85f0 9d3d e090 833d b19f da3b 0274 abbd
00000190: 3b30 d23c a59c 5dbc 1383 34bd f180 16bd
000001a0: e273 79bd 95de f6bc a433 afbd 6831 1c3d
000001b0: 351b a2bc 706f a4bc c792 523d 3883 bbbc
000001c0: d836 293d 2e21 a73c e42c d8bc 725c 4ebc
000001d0: 3e2b 193d 5dc4 453c d2fc b23c 2f8a d23c
000001e0: 89b3 18bd d405 5bbd 1655 863c af25 a0bd
000001f0: fff9 6abd 39ad 9abc 9530 e63c 8ab9 b03d
-0.014030081 0.08556551 0.0077068517 -0.050618306 -0.055255633 -0.021812493 0.0013927208 -0.040011823
0.09042961 -0.034790386 -0.04539305 0.07076178 -0.061441198 -0.053736396 -0.014972173 -0.0132146105
0.065242074 0.02477573 -0.03649745 0.0068327496 -0.048636872 -0.06494015 0.044597868 -0.013260288
0.030818278 -0.074986346 0.0023479543 -0.050832734 -0.01226015 0.038980577 0.08226049 0.011128851
0.085523054 0.06793883 -0.029884681 0.08578564 -0.051971447 -0.072483025 -0.067359015 0.051543098
-0.005269148 0.056507297 -0.06540733 -0.036961064 0.0068543083 -0.0064769406 0.04450121 0.048633926
0.059499465 -0.0021392775 -0.017805392 -0.050857794 -0.078830615 0.06177589 -0.012804494 -0.039688013
-0.054265924 -0.009485238 0.019467901 0.019289015 -0.02413265 0.030385166 -0.02567041 0.025856512
0.005079982 -0.020992698 0.066670835 -0.055120353 0.03684328 0.08084097 0.034627102 0.056175414
-0.044434473 0.03255159 0.021698201 -0.024796344 0.009623822 0.06648871 -0.013565736 0.07102972
0.064295426 0.056028202 -0.04657083 -0.06722971 0.007218302 -0.047582842 -0.0025876532 0.06777518
-0.012072912 -0.056301083 0.02811484 -0.04947743 0.04383994 -0.06771538 -0.0606439 -0.0885606
0.07711891 0.06424117 0.0066718687 -0.08371736 0.025657764 -0.0135261165 -0.044070315 -0.03674406
-0.06090153 -0.030135432 -0.085547715 0.038133055 -0.019788364 -0.020072669 0.05140951 -0.022889718
0.04131207 0.020401563 -0.026388593 -0.012595283 0.037394755 0.012070742 0.02184907 0.025700657
-0.037280593 -0.053472355 0.016397994 -0.078196876 -0.05736732 -0.018881427 0.028099338 0.08629139

fcs.1.0.linear.weight f4 [128, 1]
00000000: 8b6f bfbe 4345 6fbf 2740 5e3f a5c9 243f
00000010: f4cc 7c3f 4178 313f ff46 243f 502e 2d3f
00000020: b05a ab3e bf77 b93e a981 fd3d ad95 553f
00000030: 3e23 a53e 54d0 e03e 004d b4bb 89d8 773f
00000040: 172b 0c3f d02d bfbe 0c4b 1dbd 2719 19bf
00000050: 05d8 a53e 70b1 4bbf 30d8 bd3d 775c 783f
00000060: 1784 c8bd bfe9 d9be 142a 083f e626 5cbf
00000070: fa3a 953e b823 b53d e001 ac3e 6057 5fbf
00000080: ef6d c73e 63ef 0f3b c592 96be 5b95 bebe
00000090: 50ce 173e 1f6a 833e 6020 59bd 2aa2 24be
000000a0: bafc 55bf 2911 e33e efd0 6b3f 2953 133f
000000b0: 8aa9 8d3e e833 0bbf 19a7 9abe 09c5 32bf
000000c0: 7d02 583f 8d56 65bf bb48 913d 8698 64be
000000d0: 2134 39bf 8f81 51bf 5e36 323f f754 63bf
000000e0: 3209 d4bd b038 3a3f 03c7 44be 074d c3be
000000f0: 07fa 47be 1477 69bf 4562 7bbf bd08 43bf
00000100: 3c75 ca3e c33c 7e3f d17b 433f 3e84 72be
00000110: bf9b 8fbe 71b8 423f 5299 63bf aaa5 263e
00000120: f06c cbbd 4ee2 793f 1af9 963e dce6 aebe
00000130: def3 663f 0fc9 863e 48c4 883d 5bad 0dbf
00000140: fd17 15bf 5aee 0ebe bb2c 79bf 71de 0bbf
00000150: 39ad 323d 4af8 b83e 83b4 373f 53a2 743f
00000160: fd1d 00bf 89b0 363e 6189 613f e633 7f3e
00000170: b83d e1be 87cc 303f bc14 5b3f e446 debe
00000180: 6c3a 213e bdac 4e3f f053 71bf cbf3 2b3f
00000190: 79fa 3cbf a2a7 11bf da8d cd3e 77cc bc3e
000001a0: ab69 e73e 1abe 36be 4cff 1abe 683c 64bf
000001b0: 5809 0f3f ae13 4dbe 377a 02bf fe2e 7b3e
000001c0: d1fb 09be bb26 69bf 179d 43bf dfc5 b43e
000001d0: 580d e9bd 8d58 0d3f b11a a1be d616 57bf
000001e0: e93e debd 9f9f 57bf 4484 623f 37a0 6dbf
000001f0: 9f7c 2bbe b29e 12bd 3d74 8abd 5dc8 7b3e
-0.37389788 -0.9346506 0.8681664 0.64370185 0.98750234 0.6932412 0.6417083 0.6764879
0.33467627 0.36224172 0.12378246 0.8343151 0.3225345 0.43908942 -0.005502343 0.9681478
0.5475325 -0.3733964 -0.03840165 -0.59804004 0.32391372 -0.79567623 0.0926975 0.9701609
-0.09790819 -0.42561147 0.53189206 -0.85996854 0.29146558 0.088447034 0.3359518 -0.872427
0.3895106 0.0021962754 -0.2940885 -0.37223324 0.14824796 0.256669 -0.05300939 -0.16077486
-0.83588755 0.4434903 0.9211568 0.5754877 0.2766841 -0.5437608 -0.3020561 -0.698319
0.84378797 -0.8958519 0.0709395 -0.22323808 -0.7234517 -0.81838316 0.6961421 -0.8880152
-0.10353316 0.7274275 -0.19216542 -0.38144705 -0.19528972 -0.91197324 -0.9819682 -0.7618521
0.39542568 0.99311465 0.76360804 -0.23683259 -0.28048512 0.76062685 -0.88905823 0.16274133
-0.099328876 0.9761094 0.29486924 -0.34160507 0.9021586 0.2632527 0.06678063 -0.55342644
-0.5823973 -0.13958111 -0.9733388 -0.54636294 0.04362223 0.3612693 0.71759814 0.9556019
-0.5004576 0.1784078 0.8810025 0.24922141 -0.439924 0.69062084 0.85578513 -0.4341346
0.15744942 0.8073233 -0.94268703 0.67168874 -0.7381969 -0.5689641 0.40147287 0.36874744
0.45197806 -0.17845955 -0.1513645 -0.8915467 0.5587363 -0.20027038 -0.50967735 0.24529645
-0.13474967 -0.91074723 -0.76411575 0.35307214 -0.11379498 0.5521324 -0.31465676 -0.8401922
-0.10851843 -0.8422794 0.8848307 -0.92822593 -0.16746758 -0.035795875 -0.06760452 0.24588151

fcs.1.0.linear.bias f4 [128]
00000000: fd37 a2be 1525 093f e69b 78bf ad0a 5fbf
00000010: 9cdb 65be 7c3d d4bd 4c72 373e d58e 4a3f
00000020: 6dcf 1f3f 7404 983e d6f8 6b3f 8d93 6a3f
00000030: 415f e7be 55e7 553f 24aa ecbe e465 25bf
00000040: 8b8a 2d3e 9dae ea3e c134 ce3d 6b44 cb3e
00000050: 330b 6cbf d9ae 373d b811 53bf 402e 05be
00000060: bbfb a1be ffd5 a3bd b125 bfbc 90eb 69bf
00000070: 5f37 833e fe6f fcbe c124 2f3f e99a 0e3f
00000080: 933b fe3e 1bef 423f 3a92 12bf 1a5a c33e
00000090: e59c 04bf 1823 e3be 107b c4be d917 89be
000000a0: 7323 0fbe 9c84 913e 466f d5bc ed01 98be
000000b0: 69b4 6e3f 56c2 653d 4e43 20bf 6e8c b5be
000000c0: 5e3e 853e 438a 54bf 21c7 b1be 22c5 27bf
000000d0: 375b 073f 46de c13e a422 693e 3ea8 34bf
000000e0: d5b2 c13d d9d3 a03e 5fe2 9a3e 6a90 243f
000000f0: 6b61 0cbd 4034 333f 81f8 913e af69 813e
00000100: 7142 553f 447f e2be 0e09 5d3f 9e6b a03c
00000110: 59c6 59bf 5590 973e a843 7c3f 1b94 343f
00000120: f7f8 80be 1e58 193f 3ea1 103e 0acc d8be
00000130: 1a48 34be c810 703f a5d2 1a3f b70d 4bbf
00000140: acc8 603f b418 cabe 99a8 603f 0747 963e
00000150: 27e5 77be d753 90be 8c2c c2be bef1 44bf
00000160: c6a8 4e3f 22b2 733f fa72 ed3d c904 263f
00000170: 729c 5cbf 8717 ba3e ebb0 663f db5d 8ebd
00000180: dea3 04bf 601e 2dbf 2796 2cbf aa3b 193f
00000190: e544 d03d 6c60 aabe 7cd1 913e 140a b5be
000001a0: 5fad cdbe e31b 5b3f fc3d efbc d08b 96be
000001b0: 1ad6 d33d 653d 693e dfd3 4abf c7b8 5cbf
000001c0: 3f28 2f3e 0573 09bf 7507 d7be 72b4 70bf
000001d0: b2c2 403f b216 873e 7c82 66bf 0e43 343f
000001e0: 7bd9 663f 1730 9b3d dde3 bcbe d604 6bbf
000001f0: 7295 ecbe 457a 213f f4f7 2c3f 601c 763f
-0.3168334 0.5357221 -0.9711288 -0.87125665 -0.22447056 -0.1036329 0.17914695 0.79124194
0.6242588 0.29690897 0.9217657 0.91631395 -0.4518986 0.8355611 -0.46223557 -0.646086
0.16947381 0.45836344 0.10068656 0.39700636 -0.9220459 0.044844482 -0.8244891 -0.13005924
-0.31637368 -0.07999801 -0.023333402 -0.91375065 0.25628182 -0.49304193 0.68415457 0.55705124
0.49654827 0.76146096 -0.57254374 0.3815468 -0.518019 -0.44362712 -0.3837514 -0.26776007
-0.13978367 0.28421485 -0.026054036 -0.2968897 0.93244034 0.056093536 -0.626027 -0.35458702
0.26024145 -0.8302347 -0.34722236 -0.65535176 0.5287356 0.37864894 0.2276712 -0.7056922
0.09457938 0.31411627 0.30250832 0.6428286 -0.034272593 0.700016 0.28509906 0.25275943
0.83304507 -0.4423772 0.8634194 0.019582566 -0.8506828 0.29602304 0.98540735 0.7053849
-0.25189945 0.5990008 0.14124009 -0.4234317 -0.1760563 0.93775606 0.6047767 -0.793178
0.878062 -0.39471972 0.8775726 0.29351065 -0.24208508 -0.28188965 -0.37924612 -0.7693137
0.8072628 0.95193684 0.11594196 0.6485105 -0.86176217 0.36346075 0.90113705 -0.06951495
-0.5181254 -0.67624474 -0.67416614 0.59856665 0.101693906 -0.3327669 0.28480136 -0.35359251
-0.40171334 0.85589427 -0.029204361 -0.29403543 0.10343571 0.22777326 -0.7922954 -0.8621945
0.17105196 -0.5369113 -0.41997877 -0.9402534 0.7529708 0.26384503 -0.90042853 0.7041482
0.901756 0.07577532 -0.36892596 -0.91804254 -0.46207768 0.63077193 0.67565846 0.96137047

fcs.1.1.weight f4 [1, 128]
00000000: 1245 8dbd 5a8a aa3d f461 32bc d41f 613d
00000010: 9352 a83d dfd5 bbbc 03b1 523d a01b 25bd
00000020: 42da 22bd 7400 6f3d c1d5 1b3c 50a7 a93d
00000030: dfbd d33b 3915 ac3b aa5a 9abd 5f7f 90bd
00000040: 2cf2 a6bd 2591 b1bd 41b5 253b ceab 0bbd
00000050: 8f09 363c 20bc 8fbd 2efb 543d 74d9 5dbd
00000060: 8811 46bd 138b 703d 8e04 3ebd 6d80 d83c
00000070: 954a a13d a5c8 0d3d 6255 dcbc a0bb bfbc
00000080: 43e4 f4bc 3607 933d 7fc5 333d eb61 b3bd
00000090: ca0f 26bc e5f9 0dbd 5cb3 53bd 988f cf3d
000000a0: 555e 50bc 1d8e 1cbd 734b 6f3d fe15 01bd
000000b0: cf8b c4bc 7496 1abb 4dcf 89bd efe6 0dbd
000000c0: a233 0ab9 992c 2e3d c912 c53c faf7 c33d
000000d0: e4a0 0a3b 6f87 d43c 75b8 c0bc 1cdf 253d
000000e0: e98b 56bd 3211 a03c f78b 233c f28e 2abc
000000f0: f9d8 21bd 4b06 f4bc 14b1 e83a e36b b03d
00000100: bbe9 0d3c b522 bcbd 007a 2d3d 2d8a 9f3d
00000110: e7b5 b8bc 6919 3dbd d5da b23b ffb4 99bd
00000120: cc50 e03d 8c23 413d f990 17bd aa93 2a3d
00000130: d693 a2bd e131 b1bd 6c2d 893d bf96 fd3c
00000140: 972b a83d 50c7 a43d a698 a2bd 9af9 9dbb
00000150: c8d3 603d 8031 e2bc 3421 963c f725 b9bd
00000160: 253e 293d 0d74 d83c 60fb 23bc 773d dd3b
00000170: c7dd be3d d0d8 2c3c 790a ab3c 3497 933d
00000180: 072e b7bd a75b 153d 107b 7fbd 41c7 e83c
00000190: c095 473d 30b7 81bc 6847 5fbd c410 803d
000001a0: 2275 903d 416e 04bb 73cb 05bd d85b 8fbd
000001b0: 8acb 0fbd 432d 9cbd 7974 0cbd 7324 9fbd
000001c0: a3a8 73bd 668a 7b3c f428 99bd b7fd f13c
000001d0: 0f2f 723d fd69 c63b 96b5 493a cf45 1a3d
000001e0: 04ed c6bc 162c 533d fa9c a8bc a4d6 813d
000001f0: 5d64 b13d 790f 4bbd a341 5fbd 3f1b 5a3c
-0.0689794 0.0832717 -0.010887612 0.054961994 0.08218875 -0.02292913 0.051438343 -0.04030955
-0.039758928 0.05835004 0.009511412 0.082838655 0.0064618434 0.0052515534 -0.07536824 -0.07055544
-0.08151659 -0.08670262 0.0025285038 -0.034099393 0.011110677 -0.07018304 0.051997356 -0.054162458
-0.048356563 0.05872638 -0.046391062 0.026428426 0.078755535 0.034615178 -0.026896182 -0.023404896
-0.029894 0.0717911 0.04388952 -0.08758911 -0.0101356 -0.034662146 -0.051684722 0.1013481
-0.012717803 -0.038221467 0.058421563 -0.031515114 -0.023992447 -0.0023588212 -0.067289926 -0.034644064
-0.0001317994 0.042523 0.024056809 0.09568782 0.0021153027 0.025943486 -0.023525456 0.040495977
-0.052379522 0.01953945 0.009982101 -0.010410057 -0.039513562 -0.029788157 0.0017752969 0.08614328
0.008661683 -0.09186307 0.042352676 0.07790027 -0.022547675 -0.04616681 0.0054582157 -0.075052254
0.10952911 0.04715304 -0.03700349 0.04164473 -0.07938354 -0.08652092 0.06698117 0.03095567
0.08211439 0.08045828 -0.07939272 -0.0048210146 0.05488947 -0.027611494 0.01832638 -0.09040444
0.04131903 0.026422525 -0.010008663 0.006751712 0.093196444 0.010549739 0.020879017 0.07206574
-0.08944326 0.03646436 -0.06237322 0.028415324 0.048726797 -0.01583442 -0.054511458 0.06253198
0.07053591 -0.0020207318 -0.032664727 -0.0699994 -0.03510622 -0.076258205 -0.034290764 -0.07770624
-0.059486996 0.015352821 -0.07478514 0.029539926 0.05912691 0.0060551153 0.00076946 0.03766423
-0.02428294 0.051555716 -0.020582665 0.063397676 0.08661721 -0.049575303 -0.054505955 0.01331216

fcs.2.0.linear.weight f4 [128, 1]
00000000: 4a08 18bf 7048 cbbe 3eff 293f 5f7f f03e
00000010: 7016 9dbd 4eda 77bf 70fa d83e 7c88 3e3f
00000020: 6a7e 99be 8d85 5c3e d70a 623d efd1 11bf
00000030: f6b2 2abf bcb0 98be 1e9d c73d 4e07 5d3f
00000040: db10 80bf 2639 963e 7e9e 28bd 519e 87be
00000050: 2329 4dbf 2d6c e0be c192 63bf 2b67 433f
00000060: 4547 c73d a3b2 013f 2f44 c9be dc46 27bf
00000070: bede 503e d728 25bf 3aea 343f a36f de3e
00000080: 580a edbe 79a0 0ebf 49a4 a13e d467 a43d
00000090: 7e4b 7e3f 39bf 243f aded 5a3f 7b43 74bf
000000a0: 025c fdbd 3bd1 643f 8d45 edbe aaa5 003e
000000b0: c043 4bbf eaea 2cbf 4778 afbc d9ce eebe
000000c0: 311c 8e3e 3e62 ed3e 06b3 733e 8d44 41bf
000000d0: eeda 34bf eee4 53be cfda 533f 918e 0fbf
000000e0: a1a8 7b3f 8b51 c23e 2654 bbbe c0ee 50bd
000000f0: ff52 9c3d 3bd6 2cbe f4ef 13bf 18c6 053e
00000100: 4b78 b03e fee0 7abf ca77 b43e d202 99be
00000110: 1f71 323f bfb8 d2be 968c ffbe b72f 4cbf
00000120: 088a 3cbf f35f 183f e73a 583f 60d9 ae3d
00000130: e393 193f ae31 d13e 4be3 48bf f287 03bf
00000140: f187 603e 354d 08bf 6e91 7c3f 06b5 53be
00000150: 57de 5c3f e39f 583f aa64 7e3e 9a62 703e
00000160: e24f 25be b848 a8be eef4 e33e f08f 5c3f
00000170: a050 f13e 807e 60bf 2fe3 d2bd d155 00be
00000180: 82fc 0cbf 8cb7 f5be d03d cf3d 55d5 6f3e
00000190: 27e6 f03e 792f 69bf 6af3 013e 9e91 8c3e
000001a0: 590a eebe 736c 103e d54d 893e 93a5 d3bd
000001b0: 4002 793e 0fc4 6f3f 8435 4dbf 71e9 993d
000001c0: 31bb 67be 3429 37bf bdc6 ffbe de08 3ebf
000001d0: 7376 f53e 9de4 d4be 8ae9 533f 2ef8 fbbd
000001e0: bf90 33bf 9228 e8be 35b7 e8be 4ea8 c0be
000001f0: 0ec5 153f 0715 193f 2b61 59bf 654e 3f3f
-0.5938765 -0.39703703 0.66405094 0.46972176 -0.07670295 -0.9681748 0.4237857 0.7442701
-0.2997926 0.2153532 0.05518612 -0.5696096 -0.6667932 -0.29822338 0.097467646 0.8633927
-1.0005144 0.29340476 -0.041166775 -0.26487973 -0.80140895 -0.43832532 -0.88895804 0.76329297
0.097303905 0.50663203 -0.39309832 -0.653425 0.2039747 -0.6451544 0.706699 0.43444547
-0.46296954 -0.5571361 0.31570652 0.08027616 0.9933394 0.6435428 0.85518914 -0.9541547
-0.12371065 0.8938176 -0.46342126 0.12563196 -0.79400253 -0.6754595 -0.021419657 -0.46642187
0.27755883 0.46364015 0.23798761 -0.75495225 -0.7064656 -0.20692798 0.8275575 -0.56076914
0.9830418 0.37952837 -0.36587638 -0.05100894 0.07633018 -0.16878597 -0.57788014 0.13063848
0.34466776 -0.9799956 0.35247642 -0.29884964 0.6970386 -0.41156575 -0.49911946 -0.7976031
-0.7364812 0.59521407 0.8446488 0.08537555 0.5999128 0.40858215 -0.7847182 -0.5137931
0.21926858 -0.5324281 0.9865941 -0.20674524 0.86276764 0.8461897 0.24843088 0.23475114
-0.16143754 -0.3286798 0.44522804 0.8615713 0.47131824 -0.87693024 -0.10297238 -0.12532736
-0.55072796 -0.47991598 0.10119212 0.23421223 0.47050592 -0.9108806 0.12690511 0.27454847
-0.4649227 0.1410387 0.26817194 -0.10334315 0.24317265 0.93658537 -0.80159783 0.075152285
-0.22630002 -0.71547246 -0.49956313 -0.7423228 0.47941932 -0.41580668 0.8277823 -0.12303196
-0.7014274 -0.45343453 -0.45452276 -0.37628406 0.58503807 0.5979771 -0.8491389 0.74728996

fcs.2.0.linear.bias f4 [128]
00000000: 098c 053f d254 cfbe 6f9c 59bf 0284 443f
00000010: dec2 22bf defd 183e 5822 74bd 6e16 94bd
00000020: 2d77 e9be fbcf 7a3f ac88 093f 70a1 57bf
00000030: 92df c8be d748 303f 501a 1b3d e4aa 49be
00000040: a699 06be e606 07be 618a 613f 4e9c 793f
00000050: 40ca 523e ba15 613e 2564 75bf b71c d43e
00000060: c336 5b3f 06be 44be 2b50 18bf 72e8 b43e
00000070: 688d 27be 7257 3b3f 0323 c13e a425 b5bc
00000080: f7a9 10be 93fd 4d3f bfd7 043f 1dcf f53d
00000090: b07d b43e 6fcc 653e 9bd9 c7be cdb6 fbbd
000000a0: e100 a5be 43fa d3be d50a 52be 578d b2be
000000b0: de2b 47bf 01c1 60bf 0679 c03e e6ac 063d
000000c0: 68f9 213f 78f7 663f 7bdb 21bf 5780 2a3e
000000d0: c6f5 083f e31a 523f d769 eabe 9bdd 3bbf
000000e0: 0f03 4f3f cbbb 8e3e 355b b1be aef9 43bf
000000f0: 351e 43be 9da7 1b3e cfb1 723e 42f2 69bf
00000100: 144f 723e ba27 023f 3c1a 38be e1f9 f9be
00000110: dc66 463e 789c c0bd 2114 b03e f3f6 c9be
00000120: b211 46bf 17b2 4c3f 6164 023e 84c7 27bf
00000130: b6a4 093d 2484 bb3d 3147 ce3e 389d fa3e
00000140: c032 0b3f 7f0f c3be 693a 793e 8161 44be
00000150: be60 a33e 6f29 93be 43b9 59bf 5be2 67bf
00000160: cea9 153d c9f2 e23e d9d1 03bf f797 ccbe
00000170: ae7d 82be cf85 9d3c e086 203f fb9b 3fbf
00000180: 6787 60bf 997a 623f a0d8 60bf 050f 0f3f
00000190: bc50 183f caeb 45bf d728 6e3f 6083 17bf
000001a0: 8f59 0d3e 7c42 373e ef12 f0be 55e6 883e
000001b0: 6c4f 623f d274 853e 540f 3cbf 6493 393f
000001c0: 2750 3abe 640a 14bf b819 00bf 0174 5abe
000001d0: 6363 493f c479 b3be 2f26 bcbd fad7 e8be
000001e0: 2a16 24bf f9bc a03c ab73 a03e 0df2 033f
000001f0: 85e5 ffbe f27e 123f 47f9 4f3f 9231 0ebe
0.521668 -0.404944 -0.85004324 0.7676393 -0.63578594 0.14940593 -0.059603065 -0.072308406
-0.45598736 0.97973603 0.5372417 -0.8423071 -0.3923307 0.68861145 0.03786689 -0.19694096
-0.1314455 -0.13186225 0.88101774 0.9750413 0.20584965 0.21980944 -0.95855933 0.41428158
0.85630435 -0.19213113 -0.59497327 0.35333592 -0.16362536 0.73180306 0.37722024 -0.022112675
-0.14127336 0.8046505 0.518917 0.12002394 0.35252142 0.22441266 -0.39033207 -0.12290726
-0.32227233 -0.41401872 -0.20511945 -0.3487346 -0.7780131 -0.877945 0.37592334 0.032879733
0.6327119 0.9022136 -0.63225526 0.1665052 0.5350002 0.82072276 -0.45783874 -0.7338502
0.8086404 0.2787765 -0.34639898 -0.76552856 -0.19054492 0.15200658 0.23700641 -0.9138528
0.23662978 0.5084187 -0.17978758 -0.48823455 0.19375175 -0.09404844 0.34390357 -0.3944622
-0.7737075 0.79959244 0.12733604 -0.6553881 0.033604346 0.09156063 0.4028869 0.48948073
0.54374313 -0.3809776 0.24338688 -0.1917782 0.31909746 -0.2874255 -0.8504831 -0.90579766
0.03653889 0.44325855 -0.5149208 -0.3995969 -0.2548651 0.019228844 0.627058 -0.7484738
-0.8770661 0.8846832 -0.87830544 0.55882293 0.5949819 -0.7731291 0.93031067 -0.5918484
0.13803695 0.17896456 -0.46889445 0.2673823 0.8840244 0.2606569 -0.7346089 0.72490525
-0.18194638 -0.57828355 -0.50039244 -0.21333314 0.7866728 -0.35053837 -0.091869704 -0.45477277
-0.6409632 0.01962136 0.31338248 0.51541215 -0.49979797 0.57224953 0.8123974 -0.13886097

fcs.2.1.weight f4 [1, 128]
00000000: 01ab a03d fc48 6cbd a79f 843d 9fb4 29bd
00000010: 1ca1 bebc c275 433d e581 54bc 1db6 74bc
00000020: 2a2e 4cbd 2e09 403d d503 783c 8a21 7f3d
00000030: 4b67 76bd 3502 a5bd 45bb b1bc 7acf 103c
00000040: 85fc 49bc 1ef3 abbd 54ff 383d c488 963d
00000050: 0fad debc 46a7 253d 71f1 663d af24 92bd
00000060: e029 343c 041e a0bd 0cf7 72bd 17ae 823d
00000070: cb47 9abd 2d72 ebbc bf3b 933c 1aee ef3c
00000080: 6ea0 793d e0ef 10bd ec35 923d b67f 27bd
00000090: 79e9 5f3d 752e 293d 86f7 a93d 95d0 2e3c
000000a0: 5181 7e3d 8050 9a3d 70eb 7e3d 6176 78bd
000000b0: 4a04 34bd dddf c93c 9b62 9f3d a070 3ebd
000000c0: 0177 76bd fd37 94bd 7f4e 10bd 3e17 6bbd
000000d0: 9148 50bd 747d b83c 12d5 0c3c 60b3 233d
000000e0: 8270 d93c 25b5 22bd 19ef d8bc 0b44 90bd
000000f0: 5edb 95bd 1232 94bd 47ad b7bd 78c0 0dbc
00000100: 8343 9c3d 3f78 d5bb f6be 7b3d bf87 713d
00000110: 26b3 3ebd bbc0 ab3d 8a4b 44bd 4e0e 2dbd
00000120: 2eff 943c 7017 a43d 5833 12bd f022 713c
00000130: 0495 0abd 14bb 36bd 190b 9a3d b021 ac3c
00000140: d842 713d 80b1 803c f6c8 ab3d 337d 9cbd
00000150: 9c49 5fbd 2044 9dbb 9352 e3bd d228 9bbc
00000160: a58a 8d3c 6baf 703d 8066 5e3d 4b11 a0bd
00000170: 6ba6 90bd 9df2 a2bd 7d04 6ebd 06f1 0f3d
00000180: c485 3a3c 7fd7 8cbd b75a b03d d022 ab3c
00000190: ace3 75bb 3437 7f3d 0baa 0cbd 1823 c9bc
000001a0: 997d ee3c cd25 1e3d f107 86bd 926e a23b
000001b0: ff9d cabc 56f3 02bd f080 f1bb 1aa7 af3d
000001c0: b650 62bd dfe4 d23c 5b77 fcba 9736 3d3d
000001d0: a61e b9bc 80ae f43b 0d97 d13b 49f1 a43d
000001e0: c141 b83d b734 b1bd fb13 133d 9f74 55bd
000001f0: 2fd6 b3bd da0b 0cbd 7556 963d f89b 3bbd
0.078451164 -0.05768679 0.06475764 -0.04143202 -0.023270182 0.047719724 -0.012970422 -0.014935997
-0.049848713 0.046883754 0.015137632 0.062287845 -0.0601571 -0.080570616 -0.021695742 0.008838529
-0.012328272 -0.0839598 0.045165375 0.07350305 -0.02718213 0.040442728 0.0563826 -0.07135903
0.010996312 -0.07818225 -0.059317634 0.06380861 -0.07533225 -0.028740967 0.017972825 0.02928834
0.060944013 -0.035385013 0.07139191 -0.04089328 0.054666016 0.04130407 0.082991645 0.010669847
0.062135044 0.075348854 0.06223625 -0.06065977 -0.043949403 0.02464288 0.077824794 -0.046494126
-0.060172085 -0.072372414 -0.03523111 -0.057395212 -0.050850455 0.022520758 0.008595722 0.039965987
0.026542906 -0.039723534 -0.026481198 -0.07044228 -0.073172316 -0.07236113 -0.08968597 -0.008651845
0.07630064 -0.0065145786 0.06146141 0.05896735 -0.046557568 0.0838637 -0.047923602 -0.04224997
0.018188085 0.08012283 -0.035693496 0.014717802 -0.03383352 -0.044612005 0.07521648 0.021012157
0.058901638 0.015709639 0.0838794 -0.07641067 -0.05451356 -0.004799381 -0.11099734 -0.018940363
0.017278025 0.05876104 0.05429697 -0.07815798 -0.07062992 -0.07956431 -0.05810975 0.035141967
0.011384431 -0.0687704 0.086110525 0.020890623 -0.0037519736 0.062308505 -0.034341853 -0.024552867
0.029112624 0.03861027 -0.065444835 0.0049570287 -0.024733542 -0.031970344 -0.007370107 0.08576794
-0.055252753 0.0257439 -0.0019261645 0.04619464 -0.022597622 0.007467091 0.0063961805 0.08053834
0.089969166 -0.08652633 0.035907727 -0.05211317 -0.08781087 -0.03419099 0.07340709 -0.04580304

fcs.3.0.linear.weight f4 [128, 1]
00000000: 27f4 20bf e920 c0bd e3cb ad3e 28d3 2f3f
00000010: 87ad 40bf 4804 573f 47c9 0b3f 7e54 723f
00000020: 9a35 1c3f d7c2 73be 23bf fcbe 9007 783f
00000030: 1a6e 1cbe 56b4 eebd 9de6 f4be 0b5e a23d
00000040: a52f ddbe 4776 60bf 826d 153e 3c81 7cbf
00000050: 0022 aebc a08c 2e3e 29f7 5c3f fd9f 77bf
00000060: 4993 ae3d c5ec 44bf 100f 163f bd85 d0be
00000070: 06a7 163f 50cd 8e3d b748 613f 9936 083f
00000080: 8b2f d3bd 04ac 043f ebfb abbc 7e6a 133f
00000090: a0fd f2be d192 00be 0880 f83e b8ae 71bf
000000a0: 19a6 1ebe 0f7a 0a3f d3f8 0b3f 013b 0dbf
000000b0: 597d 61bf 7414 1f3f a049 0ebd 3d1b bdbd
000000c0: 9e93 6b3f eff8 593f c7e6 0bbf 8794 023f
000000d0: a7ca 75bf 32c4 2f3f c725 6bbf 6ef4 c23d
000000e0: 16b2 153f 8937 093f cd92 71bf 1779 afbd
000000f0: 2247 7ebf b1a2 edbe 029b 733f b89a dabe
00000100: da9d bdbe 6056 69bd 99b3 9fbd 0e9f 10be
00000110: b3dd ed3e 9054 20bf 0263 a8be 691a dd3e
00000120: e4c3 e9be 27c5 553c db49 b53e 8713 88be
00000130: 5cb9 3a3e 758e 723f ff46 3c3f b5d5 e8be
00000140: dd1e b23d 07cb c73e 87ee 5dbf ab21 bdbe
00000150: 7980 33bf 40ca 84bd a070 a5bd 8bcf 44be
00000160: 21be 5a3f bcf2 6e3f ae22 553e 05dc 1ebf
00000170: 7282 34bf 39a7 6fbe 1cc2 423f 46b0 7b3e
00000180: 4edb 303f d92c a03e 8b61 7bbf 1214 ad3d
00000190: d4f8 283f fb97 683f 82c8 cb3e 6edf 3e3f
000001a0: d447 f93e b19a ecbd c799 793f 84da 53bf
000001b0: d7fa d8be 3af0 2b3f 690b 203f 7af6 d73e
000001c0: 7f08 35bf 5e33 be3e eeee 183f 30f4 ce3d
000001d0: 4567 e9be e47d f5be 1978 433f b9b5 54bf
000001e0: 821b 533f 60d7 3e3f be28 d6be 3e9a 173f
000001f0: 54d9 3fbf 0cbb 58bf c72b 34bf 3508 e0be
-0.62872547 -0.09381277 0.33944616 0.68681574 -0.7526478 0.8399091 0.54604 0.94660175
0.6101929 -0.23804794 -0.49364576 0.9688654 -0.15276375 -0.1165549 -0.47832194 0.079280935
-0.43200412 -0.87680477 0.14592555 -0.98634696 -0.021256447 0.17045832 0.86314636 -0.967285
0.08524186 -0.7692378 0.58616734 -0.40727034 0.5884861 0.06972754 0.8800158 0.5320831
-0.103118025 0.51824975 -0.020994147 0.5758437 -0.47459126 -0.12556006 0.4853518 -0.94407225
-0.15493049 0.54092497 0.5467655 -0.5516816 -0.8808189 0.62140584 -0.034738183 -0.09233711
0.9202212 0.8514547 -0.54649013 0.51007885 -0.9601235 0.68658745 -0.9185452 0.095192775
0.5847486 0.53600365 -0.94364625 -0.08568018 -0.9932729 -0.46413186 0.951584 -0.42696166
-0.37034494 -0.05696714 -0.077979274 -0.14123175 0.46458206 -0.6262903 -0.32888037 0.43184212
-0.45657265 0.013047493 0.3540791 -0.26577398 0.18234771 0.9474862 0.7354583 -0.45475546
0.08697293 0.39022085 -0.8669209 -0.3693975 -0.7011791 -0.064838886 -0.08078122 -0.19219796
0.85446364 0.93339133 0.2081401 -0.62054473 -0.70511544 -0.23403634 0.7607744 0.24578962
0.6908463 0.31284216 -0.98195714 0.08451094 0.6600468 0.90856904 0.39801413 0.74559677
0.48687613 -0.115529425 0.9750027 -0.82755303 -0.42378876 0.6716343 0.6251741 0.42180234
-0.7071609 0.37148565 0.5973958 0.10105169 -0.455866 -0.4794761 0.7635513 -0.83089787
0.8246385 0.74547386 -0.4182796 0.5921973 -0.7494099 -0.8466041 -0.703793 -0.4375626

fcs.3.0.linear.bias f4 [128]
00000000: 7361 183f 5273 563e 1d87 263a 9901 12bf
00000010: 89e6 09bd 2c80 6bbe 7ce1 493f ab0f 93be
00000020: 24f7 5c3d ad16 753d eb32 543f a063 743f
00000030: 9109 43bf b393 9abe 8a65 043f b57d 643e
00000040: 3ea0 6bbf 4535 40bf c0c3 2b3e 4b5f cb3e
00000050: 54fe 84be 4c30 0fbf 781b 633f b307 023e
00000060: 18c9 f3be 0ba6 19be e448 0fbf f0e2 37bf
00000070: 9e53 0fbf 8c62 24bf 25bc 5ebe ff19 34bf
00000080: 9caf 2c3f 025c 1cbe dafa 8b3e d702 3d3f
00000090: 99c6 8fbe 9d1a 1dbe 38f5 933e 9d13 00be
000000a0: 6a01 033f cfa5 443f 3bde b73d defa 0ebf
000000b0: ace7 8c3e 47d1 4b3f 8450 51bf baf1 0cbf
000000c0: 881f 5cbf 9424 14bf fd3f 1a3d a730 cbbd
000000d0: 52e9 3a3f 0c0c 4a3e 1bc5 963e ab99 d8be
000000e0: fe38 28bf a5b1 9d3e 4337 703f e8b6 d33e
000000f0: f181 5cbd 9c4a d53e 5705 c43e e5c2 3a3f
00000100: 65ed 063f 7040 f4be d7c0 1f3f d34b 92bd
00000110: e754 f5bc cb9f 6b3d d321 763f 277c 603e
00000120: 6201 0dbf 2556 91bd 64db ecbd 6181 bd3e
00000130: 0513 123f f004 35be 334b 6dbf 28a9 343f
00000140: afeb 3bbd 3660 773f fff7 fd3e ea7b f53e
00000150: d4e5 6cbf 0c47 d4be c24f 17bf ce55 f43e
00000160: eb40 7c3f 7852 bbbe c603 40be ce7f 7a3f
00000170: e140 74be 2997 10bf 8566 323d c9fa e5bc
00000180: 9f59 2abf e088 673f 4ad9 c63e 53a2 b13e
00000190: b7c0 ae3e 091e 8e3d 7aab 463e 2814 ea3d
000001a0: 0fe7 e43e 7de9 583f 6e24 993e ffde 303f
000001b0: ad50 42be 4636 cabe c9be 55bf 3601 47bf
000001c0: 5320 3d3f 0825 76be 212e b63e e268 48bf
000001d0: af97 0dbd 4dbd 13bf 1bef ccbe ac77 76bf
000001e0: 237f 42bf cacc 403e 31c9 bfbd 14b6 743f
000001f0: e24d 73bf bd92 8f3e 0436 c83e d268 a1be
0.59523696 0.20942429 0.0006352531 -0.5703369 -0.03366712 -0.22998112 0.78859687 -0.2872289
0.05394663 0.05983608 0.82890195 0.95464516 -0.7618647 -0.3019081 0.51717436 0.22313578
-0.92041385 -0.7508128 0.16773891 0.3972114 -0.25975287 -0.5593307 0.8871379 0.1269825
-0.4761436 -0.15004747 -0.559706 -0.71830654 -0.55986965 -0.6421287 -0.21751459 -0.70352167
0.6745546 -0.15269473 0.27339822 0.7383246 -0.28081205 -0.15342183 0.28898025 -0.12507482
0.5117403 0.76815504 0.08977934 -0.5585154 0.27520502 0.79616207 -0.8176348 -0.55056345
-0.8598561 -0.57868314 0.03765868 -0.09921389 0.7301227 0.19731158 0.29447255 -0.4230474
-0.65711963 0.30799595 0.9383432 0.41350484 -0.05383486 0.41658485 0.38285324 0.72953635
0.52705985 -0.47705412 0.62403625 -0.071433686 -0.029947711 0.057525437 0.9614536 0.2192236
-0.55080235 -0.07096509 -0.11565283 0.3701277 0.5706027 -0.17677665 -0.9269287 0.7057061
-0.045879062 0.9663118 0.49603269 0.479461 -0.9253819 -0.41460454 -0.59106076 0.47721714
0.98536557 -0.36586356 -0.1875144 0.97851264 -0.23852874 -0.5648065 0.0435548 -0.028073685
-0.66543 0.9044323 0.38837653 0.34694156 0.34131405 0.069393225 0.1940135 0.11429626
0.44707534 0.84731275 0.29910606 0.69090265 -0.18976088 -0.39494532 -0.8349424 -0.7773622
0.7387745 -0.24037564 0.3558207 -0.7828504 -0.034568485 -0.57710725 -0.40026173 -0.96276355
-0.75975245 0.18828121 -0.09364546 0.9559033 -0.95040715 0.2804164 0.3910371 -0.31525284

fcs.3.1.weight f4 [1, 128]
00000000: 1863 bdbb 2e7e 65bd 3f05 523d 8a95 0dbd
00000010: 4ff5 813d 42fe 7a3d db62 aabd e0d6 99bd
00000020: 27d7 3b3a 7472 6abd 512d 45bd 00f2 a0bd
00000030: 51e8 1d3d bf43 f43d e249 ddbb 9414 d53c
00000040: 0aff 263d 2cd8 923d 7672 b33d c5f8 883c
00000050: 8071 03bc 0e96 fc3c ab64 57bc 1d64 803d
00000060: 7e64 4b3d a535 873d d1e2 183d 695d 823c
00000070: 9c13 a9bd fee9 4a3d 73c0 62bd 9437 9bbd
00000080: c60e b63c 33b9 6bbd 654e 853c f066 e33c
00000090: a613 b0bc 6339 c4bc ef8d 623d f62c 813d
000000a0: c9c9 85bd ed48 aa3d d3f7 8dbd eb8d a13d
000000b0: caf5 09bb 635e 1b3d e9ee ac3d f686 313d
000000c0: 9e84 e6bc 47eb 0f3c 7d80 8cbd 1527 90bd
000000d0: ef7f 0a3d 6f6b 1ebd 188b eabc 55bf ae3c
000000e0: 596a 8bbc b6f5 9abd e032 7d3d a23a 1bbb
000000f0: df25 f7bc 85e5 efbc 008f 05bc 4c0f a03b
00000100: 7bc2 27bd 2059 f83c 67a2 5d3d 271a a43d
00000110: 699b 2c3d 5143 293d 6b45 18bd d62d 7c3c
00000120: 2402 2e3d 7787 9c3c 1b00 743d 1171 45bc
00000130: 2d59 9abd baab 8cbd 206b 80bc 5b53 9fbd
00000140: eb49 c0bc 4982 69bd 1ffc 653d 2b33 663d
00000150: 30ab 1a3d e420 cdbc 9750 ac3d 053a aabd
00000160: 5cb0 5a3d 5fff 823b 8672 533d c3a0 fcbc
00000170: dbc0 26bc 863d c23d d496 6b3d dffd aebc
00000180: 4b06 84bb 5a54 2c3c 82f4 2dbc 490e d83c
00000190: 5332 5c3d babf a2bb 76f8 98bd f616 febc
000001a0: 425e 08bb fe68 bebc 513e 623d 88cc 6abc
000001b0: 3a6a a1bd 5737 2ebc 2239 7e3d b5d7 f1bb
000001c0: b60f 8b3d ab59 f13c 7ccb 9d3d 6007 e4bb
000001d0: 6f01 72bd a360 a83d abeb 92bd d30f c4ba
000001e0: a0c2 d13c ea24 363c 0441 97bc 6487 b13d
000001f0: d2e0 88bd fd57 81bd efdf 98bd 6d32 85bd
-0.005779635 -0.056028537 0.051274534 -0.03456644 0.06345617 0.061277635 -0.083196364 -0.07511687
0.0007165544 -0.057238057 -0.04813892 -0.07858658 0.038551632 0.11926984 -0.0067531923 0.026010789
0.040770568 0.07170138 0.08762066 0.016720185 -0.008022666 0.03083327 -0.01314656 0.06269095
0.049656384 0.06602029 0.037325684 0.015913682 -0.08255693 0.04953956 -0.055359315 -0.0757896
0.022223841 -0.057549667 0.016272733 0.027759045 -0.021493744 -0.023953145 0.05531114 0.06307404
-0.06532628 0.08314691 -0.06932034 0.07888397 -0.0021051043 0.03793181 0.08444006 0.0433416
-0.028139409 0.008784122 -0.06860445 -0.07038704 0.033813413 -0.038676675 -0.028630778 0.021331469
-0.017018484 -0.07566397 0.061816096 -0.002368607 -0.030169426 -0.029284248 -0.00815177 0.004884636
-0.040956955 0.030315936 0.054109957 0.08012801 0.0421404 0.041323964 -0.037175577 0.0153917875
0.04248251 0.019107563 0.059570413 -0.012050883 -0.0753654 -0.06868692 -0.015676081 -0.07779571
-0.023472747 -0.057009015 0.056148645 0.05620114 0.037760913 -0.025040098 0.08413809 -0.083118476
0.053390846 0.0039977278 0.05162289 -0.030838376 -0.010177816 0.09484391 0.057516888 -0.02136129
-0.0040290705 0.010518158 -0.010617377 0.026374 0.05375893 -0.0049667032 -0.07469265 -0.031016808
-0.0020808135 -0.023243424 0.05523521 -0.014330991 -0.07881589 -0.010633311 0.062066205 -0.0073804506
0.06790106 0.029461702 0.07704827 -0.006958887 -0.0590834 0.08221557 -0.07173856 -0.0014958329
0.0256055 0.011117199 -0.018463619 0.08668402 -0.06683506 -0.063156106 -0.07464587 -0.065037586

fcs.4.0.linear.weight f4 [128, 1]
00000000: 1448 98be ac9c b53e 38b9 6e3f 7680 513e
00000010: b9e5 c3be 2efe ddbd 2662 dfbe 8a89 5bbf
00000020: 6a23 a23d cf21 ab3e c7d1 f83d e4ce 863e
00000030: 0c53 59bf 6367 debd 1cec f03d 5170 693e
00000040: a745 bc3b 04f7 f83e 4795 1e3f 1906 18bf
00000050: e8cc acbe 5907 6e3f a076 b83e 2f0b 36bf
00000060: 7b86 f7be 9c65 9e3d 0f69 e6be 79c5 473f
00000070: 4050 b03e 0310 583f 21a2 03bf b1bc 673f
00000080: dcd1 49bf 890b 5e3f 6bf0 573e 865e 35bf
00000090: 95d8 e23e ee27 8c3e 2006 793f 9d28 44bf
000000a0: 89f7 5dbf a41f c6be 09db b6be 7245 69bf
000000b0: b577 433f 59b0 abbe d11c ac3e 5300 0cbf
000000c0: 6edf c93e bb09 1abf 6af1 2e3e c02d aebc
000000d0: 0022 3f3f 064f ed3e d998 98be 2ece 4a3f
000000e0: e8ef 573e d2bf 923e 6da0 193f e46e 3dbf
000000f0: da01 36bf b5a4 6b3f 3efc 9fbd 17b8 dbbe
00000100: a6fa c2be f3a3 e8be f1e7 1abf 7236 98be
00000110: 3086 cc3d 1665 7e3f 6c9f af3e 0648 d4be
00000120: aa15 043f dd9f 383f 6e22 b13e 245e f3bd
00000130: ffa6 40be 52f1 443f 00f5 f7bc 3286 10bf
00000140: 57c8 283f 305b 99bd f5ef 18bf 048b 1b3f
00000150: a8eb 1f3f 8dc7 343f 3741 8c3c f381 61bf
00000160: 6ee8 32bf 16ed 883e 67df 283f 2b7b 3cbf
00000170: 3c31 00be 76f9 36bd eb4b 433e 93e9 76bc
00000180: 1414 2fbf ca31 773e bf04 733e 5547 25bf
00000190: c5c9 aebe a778 bab9 3b0c 263f 1eff 5f3f
000001a0: 0b4f 113f 59e3 7a3f 20cf 0a3e 010c 9fbe
000001b0: 80a3 39bc 101b f9be 3afe afbe 3a37 88be
000001c0: 6901 cabe 29c7 da3d e3b6 18bf af7d 0bbf
000001d0: 3a29 63be 4667 d5be 670a 773f 77a6 2abf
000001e0: 3fed 5fbf 1ec9 0bbf 4034 a5be 4727 153e
000001f0: 5a99 65bf f94a 2fbf 97ea 09be b41c 76bf
-0.2974249 0.35471094 0.9325137 0.2045916 -0.38261202 -0.108394966 -0.4362957 -0.8575674
0.07916911 0.3342423 0.12149387 0.2632972 -0.84892344 -0.10859563 0.11763784 0.22796752
0.005745608 0.48625958 0.6194653 -0.59384304 -0.3375008 0.9297996 0.36028004 -0.71110815
-0.48344788 0.07734224 -0.45002028 0.78035694 0.34436226 0.8439943 -0.51419264 0.90522295
-0.78835845 0.8673635 0.21087806 -0.70847356 0.44305864 0.27374214 0.9727497 -0.7662447
-0.86705834 -0.38696015 -0.35713986 -0.9112159 0.76354533 -0.3353298 0.33615735 -0.54687995
0.39428276 -0.601711 0.1708428 -0.02126205 0.74661255 0.46349353 -0.29804114 0.79220855
0.2108761 0.28661972 0.60010415 -0.7399733 -0.71096575 0.920482 -0.07811783 -0.42913887
-0.38081855 -0.45437583 -0.60510164 -0.29729038 0.09986532 0.99372995 0.34301317 -0.414612
0.51595557 0.7211893 0.3459658 -0.1188319 -0.18813704 0.76930726 -0.030268192 -0.56454766
0.65930694 -0.07488096 -0.59741145 0.60758996 0.6246896 0.7061699 0.01712094 -0.8808891
-0.6988591 0.26743382 0.65965885 -0.7362544 -0.12518781 -0.0446715 0.19071929 -0.015070337
-0.6839001 0.24140087 0.23732279 -0.6456197 -0.34138313 -0.00035566578 0.6486241 0.8749865
0.56761235 0.98003155 0.13555574 -0.31063846 -0.011330485 -0.4865346 -0.34373647 -0.26604635
-0.394542 0.10682518 -0.59654063 -0.5448865 -0.22183695 -0.41680354 0.9650025 -0.66660255
-0.87471384 -0.54603755 -0.32266426 0.14565764 -0.8968712 -0.68473774 -0.13468395 -0.9613755

fcs.4.0.linear.bias f4 [128]
00000000: 2c5e 47bf 2d26 803f ac09 d4bc 9f11 4cbf
00000010: d9b4 533f b11c f1bd 2ee5 6d3e 5e91 543f
00000020: 1b53 ebbe 5a9f 623e a4b4 cc3e d2ff 8fbe
00000030: 3f2d 173f f02c 393f 0665 91bd 28b2 1ebf
00000040: 6b24 f13e 8fc1 39bf 00e5 6f3c cada cebe
00000050: 581e 0abf c696 553f a2f8 04be 0257 0e3c
00000060: 754a 1d3f a8f1 793f 0f15 65bd d139 913d
00000070: adbc 27bf 074b cfbd 2bf2 373c a6d9 3a3f
00000080: ddb4 9bbe 2a7a f33d 09b4 64bf 8c3d 72bf
00000090: 4013 5ebf c25a 333f 6bd3 253d 195e e0bd
000000a0: 388e 463f d094 01bf 8825 ba3b f717 ca3e
000000b0: e57c 683d 9b5b fc3e f6b3 4d3f 6227 5d3f
000000c0: bc7b 0a3f 76f7 633f f90e 42bf e2ff 77bf
000000d0: 13dc 31bf f278 7c3f 84c5 37bf a282 e6bd
000000e0: fa64 53bb b1c8 ca3e f3ca 7dbf 5cf4 013f
000000f0: 4d2d 193f 2926 013f cbc2 133f 5633 973e
00000100: 0669 3d3f da18 463f 679b 1e3f 9caf 30bc
00000110: 0665 1a3f 6c38 423f cc4a c6bd 0cba 013f
00000120: 96f7 1cbf 80a9 56be 4a6b c73c 03c1 b83e
00000130: 0eac 073e 197d 8f3e 88ca 85be 4a32 263f
00000140: c568 36bf 3c93 26bf 7f75 d33e 900f 003f
00000150: cb2d 55be 09e7 653f 2f03 553f 72d5 123f
00000160: caa5 66be 30b1 623f a758 b2be 0665 66bf
00000170: 2034 cebe 1125 9e3d 780f 403f eab6 703f
00000180: 01e8 37bf b768 f33d 6db0 0dbf 30f7 99bd
00000190: a952 42bf a3ac 593f 4c2b 98be e69e 4abf
000001a0: 68c4 563f 2e87 6dbf df28 223e 2b98 013f
000001b0: 30c9 a3bd 2083 0bbf 7a19 3bbf 738d 4b3f
000001c0: db19 703d 0f45 ad3e 82f1 703f 63cd 2ebf
000001d0: fe8a 86be 296f 65bf 7a0a 283f 1be7 59bf
000001e0: d94c c53d aae6 71bf 208f 11be 6e4d b03e
000001f0: a70c 423e 3506 6c3f cbf9 1dbf 1526 693f
-0.7787807 1.001165 -0.025883518 -0.7971439 0.82697827 -0.117730506 0.23231956 0.8303431
-0.45961842 0.221311 0.39981568 -0.28124863 0.59053415 0.72334194 -0.07099347 -0.61990595
0.47098097 -0.7256097 0.014642 -0.40401298 -0.5395255 0.83433187 -0.12985471 0.0086877365
0.6144174 0.97634363 -0.055928286 0.07091106 -0.6552227 -0.10121732 0.011227171 0.72988355
-0.30411425 0.11888535 -0.8933721 -0.94625163 -0.86748123 0.7006036 0.040484827 -0.10955448
0.7756076 -0.50617695 0.0056807436 0.3947141 0.056759734 0.4928864 0.80352724 0.8638822
0.54095054 0.8904947 -0.75804096 -0.9687482 -0.6947643 0.9862205 -0.7178576 -0.11255385
-0.0032256232 0.3960624 -0.991378 0.5076349 0.5983475 0.5044885 0.57719105 0.29531354
0.7398838 0.7738167 0.61955875 -0.010784056 0.603104 0.7586734 -0.09682235 0.5067451
-0.61315286 -0.20963097 0.024343152 0.36084756 0.13249227 0.2802513 -0.26131082 0.64920485
-0.71253616 -0.6506841 0.4130058 0.50023746 -0.2081825 0.89805657 0.8320798 0.5735694
-0.22524181 0.88551617 -0.3483326 -0.899979 -0.40274143 0.077219136 0.75023603 0.94029105
-0.71838385 0.11885207 -0.5534733 -0.075178504 -0.7590738 0.8502905 -0.29720533 -0.7914871
0.8389344 -0.9278439 0.15835904 0.50622815 -0.07997358 -0.54496956 -0.7308575 0.7951271
0.058618408 0.3384175 0.9411851 -0.68282145 -0.26277918 -0.8962274 0.65640986 -0.85118264
0.09633798 -0.9449259 -0.14214754 0.34434074 0.18950139 0.9219697 -0.6170928 0.91073734

fcs.4.1.weight f4 [1, 128]
00000000: cc05 8b3d 84db c4bc 557a 133d 09c4 e9bd
00000010: 0dc5 bc3d 3558 833c b5d9 85bd 99c7 87bc
00000020: 58c4 013d 4c1c bf3c fc32 88bd 5290 a8bd
00000030: 95ed 84bc c32c 7dbd 245f ab3c 3cce 3e3c
00000040: a229 3cbc d8d7 14bd 52c5 923d 0614 cb3d
00000050: ffb7 c63c ec22 a1bd d04f d33c 2c35 ae3d
00000060: 9cb3 a8bd 9b08 763d 0c17 49bd 7281 0b3d
00000070: 65ea f4bc 8964 87bc fe1a 403d 3ee4 a9bc
00000080: 3417 843c 696a 0b3d 762c adbd e849 cf3d
00000090: 2b86 debd 5af0 0abd ee04 e0bc 9791 c23d
000000a0: 483d 033d 6e86 09bd 9388 7d3c a3ad 9bbd
000000b0: 7ecf 13bd 2d7c 09bd 2350 8a3d 534d 263d
000000c0: 2e8b c03d 33d6 ae3c 65e5 ee3c 345f 8a3c
000000d0: 221f 973b bedc 96bd fcf1 6e3d 85f2 2e3d
000000e0: 1a9b 2abc 896b 7c3d 9f14 69bd f2ba 663d
000000f0: 1fe3 043d 8fc2 bb3b 6bcd 2abd 1fb3 bc3d
00000100: 185a 8d3d 68fc 04bd 1634 5bbd 92d6 173d
00000110: 1c7a 9d3d 3022 1c3c a227 7abb ec99 76bd
00000120: 2d0a 2ebc dbf2 843d a012 c3bc bd08 983d
00000130: f7d2 a03c 5357 98bd ebfd 92bd 5a8a 04bd
00000140: 4253 aebd 58eb 0f3c bc68 0dbc e8b7 0ebd
00000150: b756 43bd 1c2c 4ebd 0b9d 25bd 431b 143d
00000160: a599 30bd 91cc a63d f7e9 c53c 9361 c2bc
00000170: 253c f03d 0754 b1bc 7224 11bc 284f 8abd
00000180: 8b8e 8a3b 6d65 d83c bb77 90bd 9bc8 2c3b
00000190: ce66 163d 4445 73bd 9f94 c1bc 9f0b 8cbc
000001a0: e842 3a3c 638b 4a3d 0071 ab3d 2eae 64bd
000001b0: 1a36 5a3d c926 4d3d 3e15 bd3d e9b7 7c3d
000001c0: 30ea 4bbc 9143 c53c 30cf 09bc c17d 5c3d
000001d0: 0179 633d f46d 233d b68f 1e3c fc58 1f3d
000001e0: a153 06bc 53b4 67bd 8b26 043b d528 2a3d
000001f0: 4bb0 5fbd 6630 a1bc 24d2 e63b 8990 53bd
0.06788215 -0.024030454 0.036005337 -0.11414344 0.09217272 0.016033271 -0.06535665 -0.016574668
0.03168139 0.023328923 -0.066503495 -0.08230652 -0.01622657 -0.061810266 0.02091939 0.01164585
-0.011484535 -0.036338657 0.07166542 0.099159285 0.024257658 -0.07867989 0.025794894 0.085062355
-0.08237383 0.0600668 -0.049094245 0.034058996 -0.029896924 -0.016527431 0.04690074 -0.020738717
0.016124345 0.034037028 -0.08455746 0.101215184 -0.10865434 -0.033920623 -0.0273461 0.09500425
0.032040864 -0.033575468 0.015474456 -0.07601478 -0.03608655 -0.03356569 0.06753566 0.040601086
0.094015464 0.021342373 0.029162118 0.0168911 0.0046118656 -0.07366322 0.058336243 0.042711753
-0.010412956 0.06162599 -0.05690443 0.05633063 0.032443162 0.0057299803 -0.041699808 0.09213852
0.0690195 -0.032467276 -0.05351647 0.037069865 0.07689306 0.009529635 -0.0038170596 -0.060205385
-0.010622543 0.064916335 -0.023812592 0.07423542 0.019631846 -0.07438531 -0.07177337 -0.032358505
-0.08511974 0.008784138 -0.008630928 -0.034843355 -0.04769012 -0.050335035 -0.04043297 0.03615881
-0.043115277 0.08144487 0.024159415 -0.023728168 0.11730222 -0.021646513 -0.008858787 -0.06753379
0.004228418 0.026415551 -0.07054087 0.0026364687 0.036719136 -0.05939223 -0.023630438 -0.017095385
0.011368491 0.049449336 0.083711624 -0.055830173 0.05327425 0.050085817 0.09232567 0.061698828
-0.012445971 0.02408007 -0.008411214 0.053830866 0.05553532 0.03989978 0.009677818 0.03890322
-0.00819865 -0.056568455 0.0020164575 0.041542847 -0.054611485 -0.019676398 0.0070440937 -0.05165151

fcs.5.0.linear.weight f4 [128, 1]
00000000: 0368 e63e af5c 053f 597c 2b3d 003c b53a
00000010: 1803 a4be 0792 de3e c80a f33e fd04 0abf
00000020: 2009 9cbe da7f bbbe 4c8e 38be 376a 10bf
00000030: abbc f4be c4cd 29bf b03b 66bf 9534 6f3f
00000040: a25d 5fbf 3fc4 3f3f 9645 583f 2d41 f8be
00000050: 30ae de3d 8249 d1be e10f c2be 1d0b 1ebf
00000060: 05d0 6c3f e3ae 6b3f 80a8 2ebf 1f71 3abe
00000070: cfe6 1f3e 059e 67bf f51b ba3e a8ce 7e3d
00000080: a094 043d fc50 40bf 542e 713d 8001 52bc
00000090: 88c3 35bd 3f9b 493f dea3 23bf c70c fabe
000000a0: d053 b33e df64 58bf 04cf f33e 8fce fdbd
000000b0: d77b 323f 41ec 73be dc50 03bf 3187 68bd
000000c0: 6dd7 5f3f 9a0a 8bbe a24c 1c3f c053 26bd
000000d0: 206d 42bd 0fc0 e0be 00dd ce3c cabf 533d
000000e0: e98e 5dbf 3629 10be a77e 64bf 0bbf 24bf
000000f0: 4824 1bbe 2991 593f 238b 4c3f 96a9 2f3f
00000100: 65e8 2c3f a55a c2bd d225 103f a295 cdbe
00000110: 678a 27bf 14c1 293f a997 7cbf cb38 f8be
00000120: 6a2d c93e 961a 6b3f 8f8e c93e eb82 633f
00000130: 84cb 473e a31b 8a3e 3d2c 763f b4da 6dbe
00000140: 777d 853e af0c be3e cfc9 6ebf 3397 023d
00000150: 64bc 26bf c70f a8be d4f8 f33e f2e8 713f
00000160: 7ecd 22bf 8f8d 253f 6481 c9be 1714 a4be
00000170: 3041 883d 1e65 563f ceda 28bf c024 0fbf
00000180: 708e ba3d 43c1 da3e 673b 0abf a7dc 593e
00000190: 546a 9ebe 0a32 8e3e 1db6 fdbb 2671 8cbe
000001a0: 63d6 ce3e 8c37 41bf 22ad 9c3e bd6a 6a3f
000001b0: f00e 073f 3795 d63e be02 19bf 8f94 653f
000001c0: c7dd 5f3f 2444 61bd 2091 3e3f 9c12 6e3e
000001d0: 926c 8abe c21d 803f 62c3 443f a56b febe
000001e0: dcba c0be c0d2 0fbe 3955 3fbf 198f d8be
000001f0: f998 093f c323 08be 8a99 4bbf 2ec9 d23e
0.4500123 0.5209455 0.041866634 0.0013827085 -0.3203361 0.43470785 0.47469163 -0.5391386
-0.30475712 -0.3662098 -0.18023032 -0.5641207 -0.47800192 -0.663296 -0.89934826 0.9343961
-0.8725225 0.7490882 0.8448118 -0.48487225 0.108730674 -0.40876395 -0.3790274 -0.6173571
0.9250491 0.9206373 -0.6822586 -0.18207215 0.1561539 -0.90475494 0.36349455 0.0622088
0.032368302 -0.7512357 0.058882073 -0.01281774 -0.044375926 0.7875251 -0.63921916 -0.48837873
0.3502488 -0.8452892 0.47618878 -0.123929136 0.69720215 -0.23820592 -0.51295257 -0.056769554
0.8743809 -0.27156526 0.6105443 -0.040607214 -0.04746735 -0.4389653 0.025251865 0.051696576
-0.8654619 -0.1407822 -0.89255756 -0.6435401 -0.15150559 0.8498712 0.79899806 0.6861814
0.67542106 -0.09489945 0.5630771 -0.40153223 -0.6544556 0.6631024 -0.98668915 -0.4848083
0.3929246 0.9183744 0.39366576 0.8887164 0.19511229 0.2697421 0.9616125 -0.2322796
0.26072285 0.37119052 -0.93276685 0.031882476 -0.6513121 -0.32824537 0.47650778 0.9449607
-0.63594806 0.64669126 -0.3935653 -0.32046577 0.066530585 0.8374804 -0.6595887 -0.5591545
0.09109199 0.42725572 -0.5399689 0.21275578 -0.30940497 0.27772552 -0.007742657 -0.27430075
0.4039794 -0.7547538 0.3060084 0.9156912 0.5275717 0.41910717 -0.5976981 0.8967981
0.8744778 -0.054996625 0.74440193 0.23249286 -0.27035958 1.0009081 0.7686063 -0.496915
-0.37642562 -0.14045238 -0.74739414 -0.42296675 0.5374904 -0.13294892 -0.79531157 0.41169113
