cache/10d_nn/dsmcusum/model_1/iter_4.pth (torch, 45064 bytes, 4 tensors)

fcs.0.0.linear.weight f4 [512, 10]
0.26643112 0.044828087 -0.30113956 0.12454197 -0.20673105 -0.22952804 0.016193606 -0.09646731
0.0798646 0.24381487 -0.27634475 0.3175084 -0.17252693 -0.05106068 0.214171 -0.13458668
-0.14305669 -0.06685354 0.12210118 -0.018926427 0.29381114 0.1255034 -0.28555018 -0.24501699
0.05099358 0.0017124482 -0.093544155 0.111120775 0.1408066 -0.17046952 -0.0751035 0.13983236
0.12723497 0.0061370456 0.16614363 0.107150294 -0.28369194 -0.29822668 0.019721711 0.11024909
-0.22907789 -0.1616273 -0.29736575 0.07314607 0.22122416 0.27183852 -0.2521873 0.24632178
-0.12666097 -0.28046384 0.20230588 0.268859 -0.015891224 -0.09422951 0.016219433 0.16883206
0.13219105 -0.16234516 0.0047016027 0.093658775 -0.0005055336 0.047201235 0.0860457 0.02409604
0.13106556 -0.16235918 0.238648 -0.059700917 -0.24937986 0.22376092 -0.14937137 -0.2969159
0.011854476 0.27920675 -0.2292679 0.041368358 -0.21962155 0.15406816 0.22947793 -0.018579008
-0.27967417 -0.23366164 -0.1889477 -0.12160631 -0.15236402 0.14476673 0.07387277 -0.24865547
0.03956779 -0.29081705 0.22552556 -0.026790071 0.28686044 0.24542277 -0.20246197 0.21655463
-0.2600505 -0.28563094 0.18698671 -0.1708153 -0.23867877 -0.16072622 -0.18674237 -0.30023098
0.045799978 -0.25867227 -0.09099338 0.19583161 -0.24599874 0.20803608 0.31498516 -0.048630655
-0.039979074 -0.30407894 0.28150433 0.25571105 -0.033269465 0.18633506 -0.28028467 -0.21411191
0.3151805 -0.3013135 -0.03543591 -0.08944161 -0.2759634 0.032740787 -0.14512259 0.05066715
-0.12162833 0.10194285 0.108063355 -0.31275117 0.2358858 0.22615156 -0.2338843 0.08248786
-0.14304054 0.22089823 -0.15802944 0.18514691 -0.19800998 -0.16435423 0.16929682 0.08198054
-0.1335229 0.20456265 0.06894746 0.15373689 -0.18353947 0.07789719 0.0492606 0.18418069
0.30106643 0.1549108 0.27282846 -0.1498792 -0.21097937 0.105604894 0.033997785 0.000826884
-0.24392669 -0.016409038 0.015749311 0.14947183 0.106003225 0.037873726 0.25346676 -0.018671066
0.25550997 -0.28762528 -0.014243019 -0.13094339 0.16948779 -0.106011905 -0.21206123 -0.044133097
-0.033020716 0.25651377 0.15493491 -0.29323715 -0.13191943 -0.15811586 0.013466912 0.15994842
-0.04279605 0.27482173 0.03929607 0.16374014 -0.06633822 0.21069564 0.12248765 0.0072908606
-0.0055812057 0.13977343 0.058871474 -0.17317088 -0.07247522 -0.19237004 0.12255611 0.2462282
-0.17549619 0.09679081 -0.23122203 0.1319755 -0.2858821 -0.12372749 0.0017857417 -0.048136525
0.18801181 -0.11889794 0.1452555 0.23706517 0.07471325 -0.30434486 -0.2694257 -0.156393
0.002637204 0.12098843 0.17084756 0.033549953 -0.21103351 -0.30080023 0.31155232 -0.015942397
-0.28953302 -0.08436782 0.111507356 -0.017629372 0.19897379 -0.04059398 0.040176474 0.2954324
-0.27793974 0.012809371 -0.24988519 -0.21226709 -0.2947468 0.1532009 -0.057343617 0.11675816
0.035793837 0.10470086 -0.26700658 -0.08457196 -0.074114576 -0.22557476 0.116242215 0.17432812
-0.112972125 -0.2200694 -0.22252168 -0.30074844 -0.20911768 -0.052043673 0.040966548 -0.13930385
00000000: a969 883e a89d 373d f72e 9abe dc0f ff3d
00000010: 4eb1 53be 6609 6bbe 74a8 843c a790 c5bd
00000020: 0d90 a33d 9baa 793e 0f7d 8dbe 7690 a23e
00000030: e6aa 30be 0125 51bd a54f 5b3e 17d1 09be
00000040: 747d 12be 82ea 88bd 2f10 fa3d 980b 9bbc
00000050: 6a6e 963e f783 003e a233 92be bce5 7abe
00000060: a5de 503d 3a74 e03a 1494 bfbd 4a93 e33d
00000070: 9b2f 103e 908f 2ebe ddcf 99bd 3730 0f3e
00000080: e249 023e 4519 c93b 8e21 2a3e 9d71 db3d
00000090: 1240 91be 2bb1 98be 6d8f a13c 46ca e13d
000000a0: 6593 6abe a081 25be 5340 98be 9bcd 953d
000000b0: 9688 623e 6b2e 8b3e b21e 81be c73b 7c3e
000000c0: 6ab3 01be f598 8fbe 4629 4f3e e3a7 893e
000000d0: 502e 82bc 67fb c0bd 9ede 843c 50e2 2c3e
000000e0: 175d 073e cf3d 26be e70f 9a3b 2cd0 bf3d
000000f0: c985 04ba 1556 413d ba38 b03d 0f65 c53c
00000100: 0d36 063e 7c41 26be 2460 743e f388 74bd
00000110: 6f5d 7fbe 9521 653e cff4 18be 5c05 98be
00000120: 4739 423c 30f4 8e3e 34c5 6abe de71 293d
00000130: 79e4 60be 0bc4 1d3e 43fc 6a3e 0133 98bc
00000140: 7431 8fbe ff44 6fbe 827b 41be bb0c f9bd
00000150: 5005 1cbe bb3d 143e 9b4a 973d 8a9f 7ebe
00000160: d611 223d f9e5 94be 2cf0 663e da76 dbbc
00000170: 5fdf 923e 1b50 7b3e 3152 4fbe 7fc0 5d3e
00000180: 5725 85be 383e 92be 7279 3f3e 35ea 2ebe
00000190: 3568 74be 6a95 24be 6439 3fbe e0b7 99be
000001a0: c298 3b3d b170 84be bd5a babd 1588 483e
000001b0: 18e7 7bbe 6907 553e bc45 a13e f030 47bd
000001c0: 19c1 23bd 3cb0 9bbe 5621 903e 8fec 823e
000001d0: 9045 08bd 9ece 3e3e 7981 8fbe 2740 5bbe
000001e0: 575f a13e c345 9abe 3f25 11bd 2a2d b7bd
000001f0: 134b 8dbe 341b 063d 049b 14be 5c88 4f3d
00000200: 4618 f9bd 6ac7 d03d 5250 dd3d ec20 a0be
00000210: 0c8c 713e 4694 673e 5e7f 6fbe 65ef a83d
00000220: 3879 12be 2533 623e 78d2 21be 2797 3d3e
00000230: 21c3 4abe 7a4c 28be 255c 2d3e 6ae5 a73d
00000240: 3aba 08be df78 513e 5334 8d3d 346d 1d3e
00000250: c5f1 3bbe 9088 9f3d 7cc5 493d dd99 3c3e
00000260: 6125 9a3e f0a0 1e3e 2cb0 8b3e ef79 19be
00000270: fa0a 58be 6147 d83d 4341 0b3d 3fc3 583a
00000280: ebc7 79be 3f6c 86bc b304 813c 250f 193e
00000290: 3818 d93d 7b21 1b3d 65c6 813e 10f4 98bc
000002a0: 34d2 823e 9f43 93be 8d5b 69bc 0616 06be
000002b0: 358e 2d3e c51c d9bd 9426 59be e8c4 34bd
000002c0: bb40 07bd c655 833e 42a7 1e3e 2e23 96be
000002d0: e315 07be 20e9 21be 53a4 5c3c 85c9 233e
000002e0: e94a 2fbd 6fb5 8c3e eaf4 203d 7fab 273e
000002f0: 55dc 87bd 99c0 573e ceda fa3d 2ce8 ee3b
00000300: 8ce2 b6bb c420 0f3e 3723 713d b553 31be
00000310: e36d 94bd a7fc 44be b3fe fa3d 3f23 7c3e
00000320: 46b5 33be 433a c63d 78c5 6cbe 9624 073e
00000330: 235f 92be d764 fdbd 8c0f ea3a ce2a 45bd
00000340: 2b86 403e c380 f3bd dcbd 143e 36c1 723e
00000350: 4303 993d 17d3 9bbe 2af2 89be 7d25 20be
00000360: f1d4 2c3b c8c8 f73d aaf2 2e3e ad6b 093d
00000370: 2b19 58be 7d02 9abe c983 9f3e a199 82bc
00000380: ac3d 94be 09c9 acbd f85d e43d 796b 90bc
00000390: c9bf 4b3e e045 26bd 1690 243d ea42 973e
000003a0: 1e4e 8ebe 65de 513c e7e1 7fbe 8b5c 59be
000003b0: 0de9 96be b2e0 1c3e 24e1 6abd e71e ef3d
000003c0: 8f9c 123d 686d d63d 16b5 88be 1034 adbd
000003d0: 62c9 97bd 12fd 66be 6610 ee3d 1283 323e
000003e0: ee5d e7bd df59 61be b9dc 63be b3fb 99be
000003f0: f222 56be bf2b 55bd 8acc 273d aba5 0ebe

fcs.0.0.linear.bias f4 [512]
0.17215444 0.167476 0.10522655 0.17046927 -0.046140224 -0.20394436 0.19789204 -0.0955872
-0.03486259 -0.20094427 0.22566915 0.25053716 -0.15084647 0.26970422 0.20828731 0.050059177
-0.16985819 -0.20443909 0.058789805 0.10428313 -0.223228 0.32031462 0.19088347 0.0005644236
-0.31067887 -0.23968868 0.22691247 0.04668783 -0.050150596 -0.19832286 -0.1354883 0.2681981
0.13516587 0.036264766 0.22517721 -0.21398629 -0.095717765 0.11884477 -0.2772868 0.27173138
0.19331032 0.037189662 -0.25866398 0.22232741 -0.100593835 -0.030608427 0.2356648 -0.070397496
0.3073752 -0.03137172 -0.20233294 -0.06887456 -0.26403838 0.19377077 0.14634858 0.0586423
-0.14687099 0.09803298 0.15058026 0.25819868 -0.11308866 0.12725821 0.13686755 -0.047549408
-0.0063254503 0.19045463 -0.009732611 -0.09915756 0.13101664 0.026641898 -0.10198484 -0.009178717
0.16839431 0.31622517 -0.0778953 0.23494291 0.3002863 0.1972521 0.1374907 -0.26066396
-0.16581057 -0.104374014 0.31685907 0.039664213 -0.26871225 -0.2909569 -0.28150943 -0.2398649
-0.20767842 -0.1722713 0.24616353 -0.14494526 0.26156256 -0.07064872 -0.24783166 -0.13272965
-0.106637344 -0.18712604 -0.3051069 0.019428058 -0.25704923 -0.03666974 -0.09340896 -0.14887491
-0.031202685 -0.21171753 -0.104198106 0.27068418 0.29266325 0.011516531 0.10013264 0.2741853
0.30923218 -0.15068966 0.08604728 -0.0894988 -0.2654484 0.27212486 0.25023362 0.01818127
0.24724741 0.07112003 0.20458627 0.11854085 0.16386895 0.12346092 0.15366888 0.2970054
0.13326554 -0.21559854 0.11998487 0.3180795 0.25759766 0.17675842 -0.12664227 0.30642727
0.08215897 -0.15927818 -0.007888302 0.25671008 -0.29039386 -0.077520475 0.23852989 -0.09865169
-0.12281887 -0.06751963 0.10990405 -0.24550767 0.046990104 0.14688495 0.13177575 0.014617202
0.13880178 -0.0349872 0.26010254 0.20152892 -0.19602975 -0.073011346 0.24077319 -0.039788175
-0.08703702 -0.011491813 -0.04887405 -0.11622127 0.061106306 0.33439147 0.046630766 0.17378232
0.2198102 -0.20538521 -0.23601727 0.0032100354 0.1161037 -0.0403254 -0.15616345 -0.24133892
0.0146662025 0.21960601 0.0114691835 0.25785837 -0.16818838 0.2688156 -0.2066271 0.2424086
0.056576923 0.3106861 0.29032186 -0.11937347 -0.019716945 -0.06841215 0.08211653 -0.17463054
-0.09285388 -0.168727 0.18619357 0.30129945 0.053715095 -0.010136861 -0.2646447 -0.30195117
-0.22613148 -0.20231572 -0.25564283 0.13917117 -0.2534451 0.16136661 0.19992271 0.04792865
0.096008494 0.19579862 -0.26721165 0.2825184 0.31899828 0.2671579 -0.11773141 0.18656637
-0.06698101 0.044668786 0.31843525 0.05719352 0.11818894 -0.09952675 -0.14635324 0.35494196
-0.27511284 0.054513466 -0.048563633 -0.083317086 -0.31264484 -0.19841008 -0.17714784 0.049569275
0.13074282 -0.31362006 -0.12681146 -0.30349886 0.21576641 -0.29816672 -0.03313722 -0.033237174
-0.16555586 0.20762263 0.13019788 0.1563488 0.25349092 -0.14684927 0.14569215 0.25693342
-0.08867923 -0.03467959 0.0426827 -0.2953124 -0.045447867 -0.041799895 -0.21735352 0.18076085
00000000: 4149 303e d47e 2b3e 0481 d73d 7f8f 2e3e
00000010: 88fd 3cbd cad6 50be 36a4 4a3e 39c3 c3bd
00000020: 13cc 0ebd 56c4 4dbe d015 673e 6846 803e
00000030: 7f77 1abe ac16 8a3e 4549 553e da0a 4d3d
00000040: 4eef 2dbe 7b58 51be 94cd 703d 6592 d53d
00000050: e195 64be 4700 a43e f576 433e d4f5 133a
00000060: 4d11 9fbe f370 75be be5b 683e bd3b 3f3d
00000070: b66a 4dbd 2615 4bbe 72bd 0abe 4351 893e
00000080: ec68 0a3e 5d8a 143d db94 663e 391f 5bbe
00000090: ad07 c4bd e364 f33d 89f8 8dbe 6020 8b3e
000000a0: 24f3 453e 3054 183d 9b6f 84be cca9 633e
000000b0: 2404 cebd 86be fabc 1d52 713e 902c 90bd
000000c0: 4860 9d3e a27f 00bd 5e30 4fbe 1b0e 8dbd
000000d0: 0a30 87be d86b 463e 67dc 153e e932 703d
000000e0: 5965 16be 84c5 c83d b631 1a3e 9e32 843e
000000f0: 079b e7bd fa4f 023e 0227 0c3e 2bc3 42bd
00000100: b945 cfbb 8a06 433e 8775 1fbc 1e13 cbbd
00000110: 3a29 063e 1c40 da3c 6edd d0bd 5462 16bc
00000120: 8f6f 2c3e 44e8 a13e 9287 9fbd e094 703e
00000130: 20bf 993e 74fc 493e 5dca 0c3e bf75 85be
00000140: 3fca 29be 0bc2 d5bd 5a3b a23e f176 223d
00000150: a794 89be 4ef8 94be 0122 90be 259f 75be
00000160: a7a9 54be e367 30be 4b12 7c3e 886c 14be
00000170: 87eb 853e 47b0 90bd 95c7 7dbe 48ea 07be
00000180: ae64 dabd f89d 3fbe f936 9cbe 9727 9f3c
00000190: f59b 83be 0233 16bd 324d bfbd aa72 18be
000001a0: c69c ffbc 7bcc 58be d165 d5bd 1e97 8a3e
000001b0: f5d7 953e d5af 3c3c 5712 cd3d 0462 8c3e
000001c0: ae53 9e3e 644e 1abe 8e39 b03d 264b b7bd
000001d0: dae8 87be f353 8b3e 9f1e 803e e3f0 943c
000001e0: 6d2e 7d3e 61a7 913d 107f 513e 8cc5 f23d
000001f0: 43cd 273e 14d9 fc3d 605b 1d3e 1711 983e
00000200: c376 083e ddc5 5cbe a1ba f53d 51db a23e
00000210: d7e3 833e 2900 353e 83ae 01be 09e4 9c3e
00000220: f642 a83d d219 23be f03d 01bc 816f 833e
00000230: 81ae 94be 0ec3 9ebd 2e41 743e e609 cabd
00000240: 7688 fbbd bb47 8abd 6015 e13d 5d66 7bbe
00000250: b278 403d 0269 163e 39f0 063e fd7c 6f3c
00000260: 0e22 0e3e bd4e 0fbd 292c 853e 995d 4e3e
00000270: 06bc 48be f986 95bd 3f8d 763e edf8 22bd
00000280: 7740 b2bd 2848 3cbc 2830 48bd 6b05 eebd
00000290: 9b4a 7a3d 5c35 ab3e e7ff 3e3d fef3 313e
000002a0: ed15 613e 8050 52be 83ae 71be 755f 523b
000002b0: c7c7 ed3d 3f2c 25bd 50e9 1fbe 8d21 77be
000002c0: 834a 703c 66e0 603e 3ee9 3b3c 0306 843e
000002d0: 9339 2cbe 33a2 893e 0e96 53be f639 783e
000002e0: 34bd 673d 4012 9f3e 11a5 943e 147a f4bd
000002f0: 6e85 a1bc ab1b 8cbd b62c a83d 59d2 32be
00000300: 2d2a bebd c5c6 2cbe 87a9 3e3e ec43 9a3e
00000310: 5c04 5c3d 1415 26bc 837f 87be 5899 9abe
00000320: 038f 67be da2b 4fbe 9ee3 82be e382 0e3e
00000330: 8ec3 81be 4a3d 253e 8ab8 4c3e d550 443d
00000340: 1aa0 c43d 6f7f 483e f7cf 88be 40a6 903e
00000350: be53 a33e ecc8 883e 2a1d f1bd 410b 3f3e
00000360: 572d 89bd 9ef6 363d f209 a33e c143 6a3d
00000370: 0b0d f23d aed4 cbbd a0dd 15be f4ba b53e
00000380: 97db 8cbe 8349 5f3d a9ea 46bd 26a2 aabd
00000390: fc12 a0be 032c 4bbe 3e66 35be 2709 4b3d
000003a0: 72e1 053e cf92 a0be ddda 01be 3464 9bbe
000003b0: dff1 5c3e 4fa9 98be e5ba 07bd b423 08bd
000003c0: 7a87 29be 079b 543e 9852 053e e619 203e
000003d0: 90c9 813e a85f 16be 5330 153e c78c 833e
000003e0: 759d b5bd 300c 0ebd 0ed4 2e3d 3033 97be
000003f0: 8b27 3abd 5e36 2bbd ec91 5ebe 5f19 393e

fcs.0.1.weight f4 [10, 512]
0.012790246 -0.032569595 -0.01759917 -0.03962502 -0.011469752 -0.0034798798 -0.012047909 0.010422193
-0.0027939084 0.023894764 0.03281571 -0.04163407 0.023296196 -0.03666547 0.0035584117 -0.007089867
-0.034662142 -0.006883828 -0.02278252 -0.011534986 -3.9805458e-05 -0.025622316 0.0017693414 -0.015756398
-0.011614121 0.01107326 0.04943719 0.017551081 -0.03657164 0.019387674 0.00027757246 0.01421239
-0.025014143 0.0075435634 -0.015121358 0.043869443 0.03461597 0.006783036 0.03297811 0.023474611
0.00017778683 0.0030967628 0.008615696 -0.009497478 -0.032981213 0.024871623 -0.013991417 -0.013663017
0.003615923 0.008293762 -0.00018048502 -0.051201463 0.021127284 -0.0234464 -0.022049071 -0.00656282
0.064018235 -0.04155763 -0.009069139 0.023839144 -0.029324919 0.00819467 0.007438296 -0.00038380275
-0.017744837 -0.024235863 -0.010900576 0.026663123 0.030785635 0.026059546 -0.0013200645 0.044338685
-0.0147379385 0.0284344 0.0017810455 -0.026942763 0.011771784 0.025774276 -0.012981549 -0.0424255
0.032371197 0.015951483 0.025542432 -0.014067117 0.024672057 0.0029693872 -0.008629474 0.016327577
0.0362842 -0.04663383 0.0179404 -0.008688389 0.01773465 -0.010954831 -0.02310613 -0.018915247
0.053789515 -0.0072278706 0.017587025 0.0082998555 -0.032945883 -0.06826636 0.0065987953 -0.065623395
-0.008192913 0.087535374 0.038911294 -0.025371581 -0.0098643 -0.04436004 0.00054612174 -0.018845003
0.020474063 0.006485788 0.033798713 -0.015392312 -0.026143456 0.022426492 -0.022330644 -0.046034195
0.0361845 -0.0090010455 0.024917196 -0.01003554 0.00019611795 -0.00016286565 -0.029127438 0.04859145
0.04623648 -0.015563946 -0.031122468 -0.004472687 0.00020251708 -0.0011532671 0.022253148 0.0076346816
0.018570857 0.023676217 -0.033854045 0.02609406 0.04260193 -0.0037275006 0.033872183 0.035950933
0.028434439 0.0011090445 0.045324057 0.023388177 0.03640362 0.007889354 -0.05008733 0.028469516
-0.033920858 0.0012562786 -0.017093448 -0.029759554 0.035390303 -0.030403102 -0.04385115 0.044786416
0.02331496 0.0077774934 0.039664526 -0.0021106165 -0.0249993 -0.08971502 0.007462223 -0.033043884
-0.04311695 -0.009537084 -0.0067789075 0.03231168 -0.019568278 -0.033181004 -0.03369804 -0.017247006
0.007857171 -0.004500531 -0.023467535 0.015221923 -0.014867732 -0.026648367 0.0038418802 0.00811481
0.024833132 0.00025822438 0.013821742 0.01326119 -0.028302329 0.034504104 -0.004821235 -0.0056248405
0.011993113 0.04075211 0.024609523 -0.013406741 -0.020805253 -0.0202893 0.008471739 -0.00366701
-0.030631723 0.054029897 0.009410675 -0.019431587 0.010301838 -0.015847448 -0.018113868 0.024975434
0.025299374 -0.012158956 0.030657586 0.024308627 -0.039641622 -0.0036034447 -0.044181723 -0.003769418
0.027371226 0.01859584 -0.009421459 0.045934137 0.012426073 0.00053280767 -0.018089123 0.061370682
-0.043748584 -0.035929967 -0.040600434 0.026162982 0.018800143 0.040914588 0.017692825 -0.0006036934
0.016457558 0.046175044 0.002499082 -0.033124216 -0.035761405 0.03006756 0.027071815 0.013623219
-0.007133059 -0.038312312 -0.0358362 -0.009800546 -0.004903314 -0.042689532 0.016345534 -0.0060346485
0.01371215 0.03315598 0.0061416924 -0.0030063046 -0.008910764 0.011845303 0.019307038 0.017516637
00000000: 2e8e 513c b267 05bd 222c 90bc d84d 22bd
00000010: a0eb 3bbc b20e 64bb 9864 45bc d9c1 2a3c
00000020: 011a 37bb f4be c33c c469 063d 7d88 2abd
00000030: aad7 be3c 882e 16bd 3e34 693b 1d52 e8bb
00000040: e4f9 0dbd bc91 e1bb 68a2 babc 3dfd 3cbc
00000050: c9f4 26b8 e4e5 d1bc 3fe9 e73a 9013 81bc
00000060: 2749 3ebc 9e6c 353c a77e 4a3d 49c7 8f3c
00000070: 25cc 15bd e6d2 9e3c 2587 9139 16db 683c
00000080: 76ea ccbc ff2f f73b 93bf 77bc 72b0 333d
00000090: 7ac9 0d3d 3b44 de3b 0e14 073d d44d c03c
000000a0: 4a6c 3a39 0ff3 4a3b d928 0d3c 4f9b 1bbc
000000b0: 4f17 07bd 93bf cb3c 423c 65bc d9da 5fbc
000000c0: 1ff9 6c3b 8fe2 073c 9440 3db9 a0b8 51bd
000000d0: 2013 ad3c aa12 c0bc 41a0 b4bc ed0c d7bb
000000e0: fe1b 833d 5538 2abd ba96 14bc 4f4a c33c
000000f0: d03a f0bc f042 063c f3bc f33b 2239 c9b9
00000100: 9f5d 91bc 4a8a c6bc 5498 32bc 9f6c da3c
00000110: 2832 fc3c d47a d53c 0406 adba 7b9c 353d
00000120: 6577 71bc 42ef e83c f871 e93a 12b7 dcbc
00000130: 71de 403c 9324 d33c 90b0 54bc 5cc6 2dbd
00000140: a997 043d afac 823c 5d3e d13c c479 66bc
00000150: 0e1d ca3c 0d9a 423b a362 0dbc 69c1 853c
00000160: be9e 143d 1d03 3fbd bff7 923c bf59 0ebc
00000170: 4248 913c e47b 33bc 1149 bdbc 26f4 9abc
00000180: 6552 5c3d c6d7 ecbb aa12 903c 1efc 073c
00000190: 43f2 06bd 3ccf 8bbd b53a d83b 8f65 86bd
000001a0: 913b 06bc bf45 b33d 7361 1f3d 10d8 cfbc
000001b0: df9d 21bc e0b2 35bd 9c29 0f3a d660 9abc
000001c0: 39b9 a73c bc86 d43b 8570 0a3d 0930 7cbc
000001d0: cd2a d6bc c3b7 b73c c1ee b6bc 5a8e 3cbd
000001e0: 3336 143d 1f79 13bc 261f cc3c 1b6c 24bc
000001f0: 03a5 4d39 eac6 2ab9 aa9c eebc d407 473d
00000200: 7762 3d3d ecff 7ebc 8cf4 febc 9e8f 92bb
00000210: c45a 5439 3929 97ba 3c4c b63c 5a2c fa3b
00000220: e921 983c a0f4 c13c 8aaa 0abd 36c3 d53c
00000230: 5d7f 2e3d 1549 74bb 8fbd 0a3d 4941 133d
00000240: 57ef e83c 5c5d 913a b8a5 393d 9098 bf3c
00000250: f61b 153d 5942 013c 5f28 4dbd e738 e93c
00000260: 99f0 0abd b7a9 a43a 8f07 8cbc 4fca f3bc
00000270: 6cf5 103d ed0f f9bc 439d 33bd f671 373d
00000280: 04ff be3c 58da fe3b 4577 223d 4552 0abb
00000290: 55cb ccbc 82bc b7bd aa85 f43b 0659 07bd
000002a0: 669b 30bd 6e41 1cbc 9921 debb 4159 043d
000002b0: a74d a0bc cee8 07bd f506 0abd 9849 8dbc
000002c0: 5dbb 003c 3179 93bb fd3e c0bc 5f65 793c
000002d0: ca97 73bc ad4d dabc 0ec8 7b3b fbf3 043c
000002e0: da6e cb3c 4a62 8739 9674 623c 7645 593c
000002f0: 49da e7bc 2d54 0d3d 73fb 9dbb 9550 b8bb
00000300: c37e 443c afeb 263d e999 c93c f3a7 5bbc
00000310: c76f aabc bf35 a6bc 0ccd 0a3c 3852 70bb
00000320: 61ef fabc 744e 5d3d 3b2f 1a3c fe2e 9fbc
00000330: 0ac9 283c 82d2 81bc 8963 94bc 4899 cc3c
00000340: a240 cf3c 5c36 47bc 9e25 fb3c e322 c73c
00000350: 415f 22bd c527 6cbb e5f7 34bd 5708 77bb
00000360: 9f39 e03c 4e56 983c 775c 1abc 6f25 3c3d
00000370: ba96 4b3c 1eac 0b3a a42f 94bc d35f 7b3d
00000380: b731 33bd 4d2b 13bd a44c 26bd c053 d63c
00000390: c202 9a3c 0e96 273d 8bf0 903c 2e41 1eba
000003a0: 00d2 863c 0b22 3d3d a3c7 233b 42ad 07bd
000003b0: 8d7a 12bd 3e50 f63c b6c5 dd3c ec33 5f3c
000003c0: 70bc e9bb 5fed 1cbd fbc8 12bd 7892 20bc
000003d0: fbab a0bb 38db 2ebd 12e7 853c 4dbe c5bb
000003e0: eda8 603c 91ce 073d 4040 c93b 6c05 45bb
000003f0: 74fe 11bc cd12 423c cb29 9e3c 0d7f 8f3c

fcs.0.1.bias f4 [10]
0.018262025 0.0029318882 -0.0010123113 -5.7167887e-05 0.017508015 0.03536688 -0.040728513 -0.021287447
0.0013147033 -0.028570358
00000000: 3e9a 953c ec24 403b 88af 84ba 8dc7 6fb8
00000010: f86c 8f3c dddc 103d f1d2 26bd 0363 aebc
00000020: 1f52 ac3a 620c eabc
