cache/10d_nn/dsmcusum/model_1/iter_5.pth (torch, 45064 bytes, 4 tensors)

fcs.0.0.linear.weight f4 [512, 10]
00000000: 8a8d 883e 00bc 533d 9db7 9abe 4497 063e
00000010: d933 4bbe bc85 68be 46cc 943c 9693 c5bd
00000020: 8001 a43d 7119 783e d6c1 8dbe 9c9f a23e
00000030: 477d 31be 17c2 51bd 14f7 563e 36f9 05be
00000040: daa7 10be 3c9b 88bd 0ea8 f73d 9c16 a3bc
00000050: 4123 963e 06d8 fe3d 975f 92be edff 79be
00000060: be01 4e3d 4330 6c3b 6fc7 c0bd 35ac e63d
00000070: abbd 113e d914 2cbe 63c4 a4bd 1bfa 1c3e
00000080: b4fb 013e 1b53 173c c66b 263e ad8a cc3d
00000090: b5fc 90be 1ab4 98be 1eeb 9d3c 9b2c e03d
000000a0: 8c5c 69be fc14 26be f357 98be e381 953d
000000b0: 8cd3 5f3e 03b4 8a3e 30ca 80be 45c3 7b3e
000000c0: dd56 02be 50b3 8fbe f60c 4b3e a755 883e
000000d0: ae60 72bc 04d4 c9bd e00c a13c fe8c 363e
000000e0: 8a01 033e 92fc 25be 9061 c33b 2487 c93d
000000f0: e41f f0bb d1d6 4a3d 59f6 b13d eef4 253c
00000100: 5524 073e 76ae 24be c62b 733e f126 70bd
00000110: 4806 7fbe bf97 653e 7b56 1abe 2fdb 98be
00000120: 39b4 383c 3b8f 863e e53c 6cbe 6d17 223d
00000130: 24dc 60be 04d9 1f3e 2038 6a3e 7593 88bc
00000140: f3de 90be d20b 6fbe 0a70 40be 2d2d 00be
00000150: 0ca2 1fbe 2c7b 113e 06af 9d3d 96b5 7cbe
00000160: 1d5e 233d fe7a 94be 0a48 683e fbe6 dcbc
00000170: 8298 923e 7273 783e 7f44 50be d647 5d3e
00000180: 2c9d 83be 6afb 91be 0d0b 3b3e 1428 32be
00000190: d1f4 7dbe 3c24 24be e28e 3fbe 070d 9cbe
000001a0: e2c5 3a3d 646b 84be 52a4 bebd a44f 483e
000001b0: 6d84 78be 5897 563e 336a a03e a847 4bbd
000001c0: c4c7 24bd d1be 9abe 6a9e 8d3e 15e6 823e
000001d0: b7de 04bd 5e6a 3e3e d7eb 8fbe 9357 5bbe
000001e0: d080 a23e 5152 9abe c911 12bd bd6e a9bd
000001f0: 5027 8dbe 6526 0e3d 5930 17be 6c27 433d
00000200: 6be3 f5bd 08e5 ce3d a28b ec3d 5715 a1be
00000210: 0168 7f3e de46 653e dc61 6dbe 3c64 a43d
00000220: f8c3 12be 238c 633e 9db3 23be 5828 383e
00000230: 6381 4dbe 4b7f 28be 27d4 383e 34b9 ac3d
00000240: aaaf 07be e9e7 4c3e d08c 993d 08b7 1c3e
00000250: 2224 3ebe c4ca 903d a6e7 4b3d 55e8 3c3e
00000260: b333 993e 0f87 1b3e 269a 8b3e 26c6 1bbe
00000270: 4096 4fbe 4b98 e93d a661 2e3d 08ca 3d3b
00000280: b0ff 76be 9af8 63bc 5da9 873c 4eca 103e
00000290: ffe9 dc3d 9122 2b3d 0407 843e 266f 80bc
000002a0: 213f 823e 5161 93be d04c 0abc c18b f1bd
000002b0: 6260 233e 8180 d0bd 64ab 62be cc49 f4bc
000002c0: 470d 48bd 48d2 8b3e bf64 1d3e 67fd 98be
000002d0: cda7 11be 7f95 25be f942 9c3c e31f 203e
000002e0: 701c 30bd acd3 8c3e ec33 1c3d b66c 213e
000002f0: 0515 87bd 34bc 5d3e 6172 f53d 74b1 33bb
00000300: 7221 fbb9 60a7 0e3e f107 3d3d 0960 37be
00000310: e680 88bd 91cf 42be 6f8c 073e d48a 7e3e
00000320: 2cde 30be f250 bf3d f6d0 6bbe 7e1b 0a3e
00000330: 3f8c 91be ffd3 f7bd acd8 dcb9 169f 47bd
00000340: c04a 423e 156f f1bd 1954 0e3e 9507 773e
00000350: 2039 bc3d 5042 93be 5af4 8ebe de25 35be
00000360: c9b5 44bb 7c03 f63d ade6 2b3e d1a3 253d
00000370: a96a 59be c012 97be e91f a33e e821 b9bc
00000380: 035e 93be 3279 c0bd 6553 e73d b73f 8ebc
00000390: 8428 4f3e c9ee 01bd e2cf 2a3d 588f 973e
000003a0: 9b38 8ebe 65b3 033c e1ed 81be 2052 5abe
000003b0: be53 95be 7218 1c3e ce1c 68bd 42b7 ee3d
000003c0: 65e3 0c3d 6981 d23d 98b1 88be 053b abbd
000003d0: c5f2 96bd a414 63be 77a0 e73d 6a63 313e
000003e0: 59bd e8bd 4eea 61be fcca 64be 8001 97be
000003f0: a613 53be ac4a 4abd 3c4d 483d 189f 0dbe
0.26670486 0.051692963 -0.3021821 0.13143641 -0.19843997 -0.22707266 0.018163811 -0.096472904
0.080080986 0.24228455 -0.27686948 0.31762397 -0.17332946 -0.05121049 0.2099269 -0.13083348
-0.1412653 -0.066702336 0.12092601 -0.019908242 0.29323772 0.12443547 -0.28588554 -0.24414034
0.05029463 0.0036039508 -0.09413039 0.11263315 0.14232509 -0.16804828 -0.0804527 0.15329783
0.12693673 0.0092361225 0.1625205 0.09987388 -0.283178 -0.29824907 0.019277152 0.10946008
-0.2278921 -0.16218942 -0.297546 0.073001646 0.21858042 0.27090463 -0.25154257 0.24586208
-0.12728448 -0.28066492 0.19829163 0.26627848 -0.014793558 -0.09854892 0.01965946 0.17827222
0.12793556 -0.16209629 0.005962558 0.09840229 -0.0073280204 0.04952127 0.08689565 0.010129197
0.13197453 -0.16082177 0.23747167 -0.058630887 -0.2490474 0.22421168 -0.15072052 -0.29854724
0.011273437 0.2628115 -0.23070104 0.03957312 -0.21958977 0.15610129 0.22872972 -0.016671875
-0.28295097 -0.23344353 -0.1879274 -0.12517233 -0.1558916 0.14207143 0.07699399 -0.24678645
0.039884675 -0.29000086 0.2268373 -0.026965609 0.2863198 0.24262789 -0.20338629 0.21609434
-0.2570585 -0.28512126 0.18265934 -0.17398101 -0.24800421 -0.16029447 -0.18706849 -0.3047869
0.045598872 -0.25863183 -0.09308685 0.1956163 -0.24269266 0.2095617 0.31331024 -0.049628884
-0.040229574 -0.30223706 0.27659923 0.25566164 -0.03243896 0.18595263 -0.2810962 -0.21420126
0.317389 -0.30140927 -0.035661492 -0.08273075 -0.27569056 0.034704585 -0.14764537 0.047645018
-0.12006267 0.10102278 0.1155007 -0.31461594 0.24942018 0.22390315 -0.23181862 0.08026931
-0.14332569 0.22221427 -0.15986486 0.1798414 -0.20068888 -0.16454808 0.1804968 0.08433762
-0.13250604 0.20010342 0.07497561 0.15304196 -0.18568471 0.070699245 0.049781464 0.18448003
0.29922256 0.1518824 0.27266043 -0.15212306 -0.2027216 0.11406001 0.042573594 0.0028959531
-0.24120975 -0.013914252 0.01656025 0.14139673 0.10786819 0.041781012 0.25786602 -0.015678
0.2543879 -0.28785184 -0.008441165 -0.11794234 0.15954736 -0.1018076 -0.22135693 -0.029820345
-0.048840787 0.2730887 0.15370463 -0.2988083 -0.14224167 -0.1617031 0.019074904 0.15637164
-0.04299587 0.27505243 0.038135454 0.15764126 -0.06595806 0.21653825 0.11984707 -0.0027419003
-0.0004789937 0.13931036 0.04615015 -0.17907728 -0.066652104 -0.19024493 0.13237165 0.24857646
-0.17272252 0.09341611 -0.23028931 0.1348705 -0.28427312 -0.12100982 -0.00042123103 -0.0487357
0.18973827 -0.11788765 0.13899268 0.24123986 0.09190583 -0.2876153 -0.279208 -0.17690226
-0.003001558 0.12012383 0.16787215 0.04043943 -0.21232094 -0.29506493 0.31860283 -0.022599176
-0.28782663 -0.09398116 0.11295203 -0.017364366 0.20230299 -0.031721864 0.04170216 0.2960155
-0.27777562 0.008038376 -0.253768 -0.2132039 -0.29165453 0.152437 -0.056668095 0.116560474
0.034396548 0.10278589 -0.26697993 -0.083608665 -0.07370523 -0.22175843 0.11309903 0.1732308
-0.1136424 -0.22062036 -0.22343057 -0.29493332 -0.20612964 -0.04938762 0.04890178 -0.1383022

fcs.0.0.linear.bias f4 [512]
00000000: 1b91 313e aef1 323e ae52 db3d 9734 303e
00000010: d83b 34bd d607 4ebe f8c0 433e d689 bbbd
00000020: e5c0 d3bc caaf 4dbe a58c 6c3e d432 833e
00000030: 89ea 17be bc5c 8d3e 6482 5f3e 4520 453d
00000040: c068 35be 519a 43be 38be 8b3d 34cc ba3d
00000050: 1790 6abe 8b85 a63e 7358 3b3e b572 1cbb
00000060: 50da 9dbe 1b29 7bbe fa62 683e 88ec 5e3d
00000070: e29e 46bd 85c5 48be 0457 05be cba9 863e
00000080: 5824 063e e339 3c3d 28e7 613e ab80 6fbe
00000090: 1a22 babd 8e96 fe3d 232b 98be 3074 883e
000000a0: 7820 433e 7f6f 1e3d 1bdd 86be 98f2 5e3e
000000b0: 8728 c6bd ca52 b2bc 4474 6c3e d7f7 95bd
000000c0: 0f0e a03e 2ab0 f8bc e2f2 54be 789e 82bd
000000d0: 5ea8 72be 2275 433e ed60 123e 2cb1 4f3d
000000e0: cad2 dbbd 24d2 c93d 63c6 133e 6e7f 843e
000000f0: 7dd9 d0bd fa4f 023e aa9b 073e 4af5 87bd
00000100: 747f 8abc 7281 4a3e 686f 86bc b64e c5bd
00000110: 890d 0c3e dfcc e53c 8b2a c9bd b337 6e3b
00000120: 3f04 253e 1b4a a43e 9523 9ebd 50f4 753e
00000130: a96d 993e c9a6 4d3e 487f 043e 5812 82be
00000140: 790e 27be cd79 bcbd 0c60 a93e 5179 393d
00000150: c586 88be d5c6 98be d70b 8fbe 0e2a 7ebe
00000160: 2e09 5dbe 9826 33be c76d 803e 33f8 17be
00000170: 613e 843e 6cb2 90bd f9ff 76be 6e66 0dbe
00000180: 252b cebd 5810 3cbe 0ec1 9fbe 91f6 b53c
00000190: bb3e 86be 187d 5eba 1b48 cbbd b902 0dbe
000001a0: 58c5 28bd c60d 48be f421 d6bd 01f8 8a3e
000001b0: 18df 963e df78 fc3b 7527 dd3d b158 8b3e
000001c0: 592b 9f3e ba2a 1ebe 1b92 a63d b6d7 bcbd
000001d0: 821e 92be 6ff1 863e 7c8e 813e 5e31 113c
000001e0: 95a8 773e 5c5f 803d 47cd 503e 2088 ea3d
000001f0: 36e3 203e 96ff 093e f60b 1e3e a91b 993e
00000200: adb3 093e cafc 60be 2250 f93d 343a a33e
00000210: 43c8 823e b454 3d3e 3d3f 09be 3d67 a23e
00000220: e8be be3d 21c8 1ebe 153b c2bb 1399 893e
00000230: 81ae 94be 414d a3bd 9954 7a3e 2c97 d4bd
00000240: 59c7 eebd 8668 7bbd 25ec e63d d2bb 7bbe
00000250: 1436 3b3d e957 283e 04d5 0e3e 540d c33c
00000260: bf71 083e 8f49 1cbd 7a53 883e fa2e 463e
00000270: 46b3 41be 545c 9fbd ad79 733e 8179 1dbd
00000280: 02d3 a6bd a2c0 5fbb fb25 38bd f835 f4bd
00000290: cdb9 723d 3b79 af3e 11c0 443d fca7 303e
000002a0: fe1c 563e 87a6 51be be1f 73be 41dd 863c
000002b0: eb49 fa3d f41b 34bd 8d4b 20be e14b 81be
000002c0: e265 273c d7e8 5a3e 8d53 163c ddf7 7a3e
000002d0: 23b3 33be 70ac 863e 6142 56be d52b 733e
000002e0: 4f37 833d 958d 9d3e ec41 953e 955a fabd
000002f0: b439 afbc a90b 7abd 84f0 983d 40f0 34be
00000300: fd73 c9bd cf65 23be 45ea 3d3e df86 ad3e
00000310: 0a11 7b3d d2a2 27bc eaf0 8cbe 90e7 9dbe
00000320: 6add 5fbe 3422 43be e037 7cbe 35c8 0a3e
00000330: b107 84be 112b 293e 18d1 493e b209 783d
00000340: 6b50 d53d 5297 413e ae37 83be f59c 923e
00000350: 6ff7 a53e 043d 803e bd08 e3bd 1d26 3e3e
00000360: 64c3 71bd 157c 2c3d 622a aa3e 9448 6d3d
00000370: 9525 ef3d 2720 d9bd b02a 16be 4159 b63e
00000380: ec93 8bbe be5a 613d 506e 6bbd 7ef7 afbd
00000390: c388 a1be 5a07 4fbe 3396 34be adaa 813d
000003a0: f39b 073e 7180 b0be 1313 03be 958f 9bbe
000003b0: 0fea 613e 3960 9abe 68f5 e6bc 5cee eebc
000003c0: 9be5 28be 83c0 553e 0b4a ff3d a1e7 1e3e
000003d0: f8fe 853e e8d4 17be 7df1 0e3e 6c4a 843e
000003e0: bed0 babd 38f5 16bd 7387 4e3d 9aa5 94be
000003f0: 6749 33bd 6eed 36bd 5ef7 57be 1f4b 2e3e
0.1734051 0.17475006 0.10709129 0.17207561 -0.044002384 -0.20120177 0.1911658 -0.091571495
-0.025848815 -0.2008659 0.23100527 0.25624716 -0.14835562 0.27609813 0.21827084 0.048126478
-0.1771574 -0.19101836 0.06823391 0.0912098 -0.22906528 0.3252376 0.1829546 -0.0023872082
-0.30830622 -0.24527399 0.22694007 0.054424793 -0.048491366 -0.19606598 -0.13021475 0.26301417
0.13099802 0.045953643 0.22060835 -0.23388927 -0.090885356 0.1243106 -0.2972041 0.26651144
0.19055355 0.03868055 -0.26340565 0.2177223 -0.09675699 -0.021767993 0.23091227 -0.07322662
0.31260726 -0.03035744 -0.20795777 -0.06377882 -0.2369704 0.19087651 0.14294787 0.050706074
-0.10733564 0.09854534 0.14431147 0.2587847 -0.101977326 0.12725821 0.13242975 -0.06638582
-0.016906478 0.19775942 -0.016410545 -0.096341535 0.13677038 0.028051792 -0.098225676 0.0036349117
0.16114901 0.32087788 -0.077216305 0.24018979 0.29966477 0.20083155 0.12939179 -0.2540462
-0.16314115 -0.09202919 0.3308109 0.045281712 -0.2666532 -0.29839197 -0.2793872 -0.2482073
-0.21585533 -0.17495191 0.25083753 -0.14840774 0.2582884 -0.07065281 -0.24121083 -0.13808605
-0.10066823 -0.1836561 -0.31201977 0.022212299 -0.26219735 -0.00084872684 -0.099258624 -0.1377057
-0.041203827 -0.19536504 -0.10455695 0.27142337 0.29467082 0.0077048386 0.107985415 0.27216104
0.3108776 -0.15445986 0.08133336 -0.09220831 -0.285389 0.26356074 0.2530402 0.008861868
0.24185403 0.06268188 0.20390807 0.11451745 0.15711674 0.13476405 0.1543425 0.29903916
0.13447447 -0.21971431 0.12173487 0.31880343 0.25543413 0.18489343 -0.1340303 0.3171939
0.09313756 -0.1550603 -0.0059274533 0.268746 -0.29039386 -0.079737194 0.24446334 -0.10380396
-0.11659116 -0.06137898 0.1127551 -0.24583367 0.04570587 0.16439785 0.13948447 0.023810066
0.1332464 -0.03815609 0.26626188 0.19353858 -0.18916044 -0.07781282 0.23776884 -0.038445953
-0.08145715 -0.0034141918 -0.044958096 -0.11924356 0.059259225 0.3427218 0.04803473 0.17251581
0.20909497 -0.20473681 -0.23742577 0.016462924 0.1222113 -0.04397197 -0.1565382 -0.25253204
0.010217162 0.21377884 0.0091751935 0.24508615 -0.17548804 0.26303434 -0.20923759 0.2374719
0.06407034 0.3077208 0.29151857 -0.122243084 -0.02138982 -0.061046276 0.0746775 -0.17669773
-0.09836576 -0.15956806 0.18546398 0.3389196 0.061295547 -0.0102316905 -0.27527553 -0.3084073
-0.21861807 -0.19056016 -0.2463069 0.13552935 -0.25787118 0.16520335 0.19708669 0.06055612
0.10415729 0.1890538 -0.25628418 0.28635374 0.3241534 0.2504655 -0.11085651 0.18569227
-0.05902423 0.04211052 0.3323546 0.057930544 0.1167709 -0.10601836 -0.14664721 0.3561497
-0.27261293 0.05501818 -0.05747825 -0.08592127 -0.31549653 -0.20217648 -0.17635421 0.06331382
0.13243084 -0.34472993 -0.12800245 -0.30382982 0.22061943 -0.30151537 -0.02819319 -0.029166393
-0.16493838 0.20874219 0.124652945 0.15518047 0.26171088 -0.14827311 0.13959308 0.2583803
-0.09121846 -0.036854953 0.050422143 -0.29032594 -0.043771174 -0.044660024 -0.21090457 0.17020844

fcs.0.1.weight f4 [10, 512]
00000000: cea4 3d3c f6e1 fdbc 238c 8fbc 3a7a 24bd
00000010: 829c 3fbc fe0b 2fbb 33fd 79bc ba49 6a3c
00000020: 1a23 30bb 3d36 b93c e3f5 043d 2cb8 2bbd
00000030: a9b0 c43c 15a9 2bbd 8ad5 8d3b 99a3 abbb
00000040: 5d5f 0fbd 0f02 00bc a97a bcbc 74e1 65bc
00000050: bb16 993a 1578 e3bc de8d 1d3b 38e1 88bc
00000060: 57eb 3cbc 63d8 a03b c944 5e3d 2277 8e3c
00000070: 626c 17bd e910 7a3c a85e 8f38 9c80 973c
00000080: b4ff cfbc 8dc1 84bc 1cf1 72bc a9e3 503d
00000090: 7553 0a3d 3aec de3b f7f6 153d 3df5 bd3c
000000a0: b56d 9c3a 87cf 373b 2669 193c 121f 12bc
000000b0: 2d96 02bd 02c4 ba3c 66bf 48bc 3f17 98bc
000000c0: 0fff c03b f03f 0d3c a0d8 0aba 9832 4fbd
000000d0: 7a5d 323c 3ce1 e1bc 9e09 a1bc 1518 5ebc
000000e0: 091a 933d 3af0 28bd ee8f 25bc 7b7d 623d
000000f0: 69ba eabc f042 063c fbdd 053c c5e9 4a3a
00000100: 4ae7 6dbc 34fa 20bd 9db5 6ebc 443b cc3c
00000110: a613 f83c f230 c43c 3780 d038 cbec 4a3d
00000120: 225c 74bc 6101 003d da7e 7c3a 6752 e8bc
00000130: e9cc b43c d371 c03c 901d 59bc 6fdd 2bbd
00000140: 94d7 fa3c 77de 7c3c 93a4 dd3c f869 70bc
00000150: 6c73 bf3c c221 443b a0cd 3abc ee4d 693c
00000160: e524 153d 04ae 3dbd 6ce0 a13c 112f e1bb
00000170: 9ae9 9a3c b4a9 7cbc 7dfe 01bd 9d50 9bbc
00000180: 6c29 573d d82a 17bc 8e21 863c 7ef7 0a3c
00000190: b5f9 07bd 29ca e3bd 0899 0c3c 385a 95bd
000001a0: 6610 d8bb 1219 e83d 1728 1e3d 3431 c3bc
000001b0: 7ab0 11bc de33 38bd 3563 91b8 e2fe abbc
000001c0: 8d61 a63c 881d 143c 52c8 1a3d 15b5 91bc
000001d0: 260d d9bc d95a b03c d105 b0bc 430d 52bd
000001e0: e48b 123d fc99 0fbc f810 b93c 4ec7 20bc
000001f0: 3afe 19bb 5ce1 1e39 7067 ebbc b396 453d
00000200: 6fe1 503d 9155 64bc 1256 fdbc 06eb 98bb
00000210: 2b3f 4539 c782 cbb9 4b25 af3c 9cea cc3c
00000220: d0b4 8f3c 9b7a be3c 0fc1 07bd 00c0 ea3c
00000230: 5d7f 2e3d 7998 86bb f5a9 023d 1b22 1d3d
00000240: edec 043d 0055 a13a d57a 333d 4767 ae3c
00000250: 3d0a e03c 0872 a93c 86f1 70bd 5770 e73c
00000260: 423c 16bd ba8e ca3a 8195 87bc 6c9e 00bd
00000270: 83da 0a3d dd8a f6bc 905d 33bd a70a 393d
00000280: cea2 bc3c 278c 293c 120a 283d 7e1a 2bbb
00000290: 9a3f f5bc 99fc cfbd 177e f93b 73a2 f0bc
000002a0: 99a4 30bd 945f 28bc c1b4 07bc 9dc9 043d
000002b0: a296 bebc 2cfd 05bd c9e3 05bd 512c a7bc
000002c0: 504e 6c3c e8a1 96bb e74c c2bc ebd6 7b3c
000002d0: e11b 75bc de5e dbbc e6d5 803b 1042 693c
000002e0: 6bda cb3c 275f d53a 3b6a 473c 60b9 513c
000002f0: 18ff d4bc b6c4 0b3d 7b58 06bc e266 f5bb
00000300: 874e 423c 920c 293d 3526 c33c 0fe8 9bbc
00000310: 3f3f a7bc e185 a2bc 861f f33b b5fc 85bb
00000320: 5815 16bd 626b 6d3d 6edc 543c 218b 9ebc
00000330: 8034 273c 19c6 85bc bcc1 8ebc 4306 023d
00000340: 7fe5 d43c a553 46bc cd75 123d 17e4 c53c
00000350: 20f6 20bd 87fc 37bb 98ef 2dbd 5cf5 da3a
00000360: 6884 043d 8f5e a83c 775d b1bb 8fcb 363d
00000370: 9586 4d3c e790 0139 6962 96bc 36f2 943d
00000380: 3696 33bd 9cce 06bd 9c96 29bd 57d7 f23c
00000390: d384 a03c 33c3 263d 834d 563c f4f0 dfbb
000003a0: 9d88 873c e1ee 373d 1cad ac3a e940 08bd
000003b0: 0eee 11bd b63f e53c 7f9e d63c 3491 cb3c
000003c0: cec3 88bb c5cc 18bd 7659 0fbd 03e8 02bc
000003d0: f850 3dbc fb1b 49bd 92a2 833c e5fb 11bc
000003e0: cd12 7b3c f237 0d3d 62ad be3b aed0 5bbb
000003f0: 25c4 1abc d618 5f3c 0549 9d3c 07d0 cf3c
0.011574937 -0.030991536 -0.017522877 -0.040155627 -0.011695029 -0.0026710029 -0.015258121 0.014299804
-0.002687639 0.02260887 0.03246106 -0.041923687 0.02401002 -0.041909296 0.0043284344 -0.005238008
-0.035003055 -0.007812991 -0.023007708 -0.014030803 0.0011679748 -0.02776722 0.0024040858 -0.016708955
-0.011530719 0.004908608 0.054264817 0.017390791 -0.036968596 0.015262821 6.8364025e-05 0.018493943
-0.025390483 -0.016205573 -0.014827993 0.050998364 0.033770997 0.0068030627 0.036612477 0.023188228
0.0011934551 0.002804728 0.009363448 -0.008918541 -0.0318815 0.022798542 -0.012252664 -0.018565772
0.0058897804 0.008621201 -0.0005296562 -0.05058536 0.010886544 -0.02757322 -0.019657906 -0.013555546
0.071827 -0.041244723 -0.010105116 0.05529545 -0.02865334 0.00819467 0.0081706 0.0007740523
-0.014520476 -0.039301112 -0.014569667 0.024930604 0.030282807 0.02394912 9.942095e-05 0.04954223
-0.014914544 0.031251315 0.00096319395 -0.028359605 0.022070365 0.023491776 -0.013251677 -0.041959222
0.030620374 0.015433899 0.027056014 -0.014673702 0.023370467 0.0029927348 -0.011401564 0.014239771
0.03641214 -0.046308532 0.019760333 -0.006872066 0.018910218 -0.01542132 -0.03173684 -0.018959338
0.052529737 -0.009226523 0.016373422 0.008481858 -0.033197124 -0.11122543 0.008581407 -0.072925985
-0.0065937517 0.11332907 0.03861245 -0.023827173 -0.008892173 -0.04497134 -6.9326175e-05 -0.020995561
0.020310188 0.009040244 0.037788697 -0.017786542 -0.026495527 0.021527695 -0.021487148 -0.05128218
0.03577794 -0.00876474 0.0225911 -0.009813143 -0.0023497478 0.00015152007 -0.028735846 0.04823942
0.05099624 -0.013936416 -0.03092483 -0.004666689 0.00018810916 -0.00038816614 0.021380087 0.025014214
0.017542273 0.023251822 -0.0331431 0.028656006 0.04260193 -0.0041075316 0.031900365 0.038362604
0.032452513 0.0012308657 0.043818314 0.02128948 0.027348632 0.020684257 -0.058824085 0.02825181
-0.03667856 0.0015453913 -0.016550781 -0.031401083 0.033899795 -0.030095512 -0.0437904 0.045176174
0.02302685 0.010348356 0.04102523 -0.002610832 -0.029937554 -0.10155601 0.007613908 -0.029374337
-0.043125723 -0.010276694 -0.008282841 0.032418836 -0.023265187 -0.032712147 -0.032687936 -0.020406874
0.014422968 -0.0045969374 -0.02371831 0.015371065 -0.01496026 -0.026778635 0.0039317487 0.014236942
0.024884423 0.0016278968 0.012171323 0.0128005445 -0.026000544 0.034123145 -0.008199806 -0.007489071
0.011859543 0.041271754 0.02382193 -0.019031553 -0.0204159 -0.019839229 0.0074195294 -0.004088963
-0.03664145 0.057963736 0.012992008 -0.019353451 0.010205388 -0.016329812 -0.017426364 0.031744253
0.025988339 -0.012104903 0.035756875 0.024156613 -0.039297223 -0.0028074102 -0.042464823 0.0016705203
0.032352835 0.020552902 -0.005412753 0.044627722 0.012544294 0.00012356379 -0.018357472 0.072727606
-0.043844424 -0.03291188 -0.041403398 0.029643698 0.019594586 0.0407135 0.013080004 -0.006834144
0.016544634 0.044905547 0.0013174149 -0.03326503 -0.035627417 0.027984481 0.026198624 0.024849512
-0.0041737324 -0.03730466 -0.034997426 -0.007989886 -0.011554949 -0.04909895 0.01606873 -0.008910154
0.015324307 0.03447718 0.0058190087 -0.003354113 -0.009446179 0.013616761 0.019199857 0.02536775

fcs.0.1.bias f4 [10]
00000000: a862 ae3c ded0 4d3b 28dd 9cbb 93fe 2cbc
00000010: 07ec 683c d364 143d af93 3bbd 8104 efbc
00000020: 434b 003c 1b74 0dbd
0.021287277 0.0031405012 -0.004787106 -0.010558742 0.01421643 0.036228966 -0.04579514 -0.029176952
0.007830444 -0.034534555
