cache/10d_nn/dsmcusum/model_1/state_dict.pth (torch, 45288 bytes, 4 tensors)

fcs.0.0.linear.weight f4 [512, 10]
0	0x3e8a0a49	0.26960972
1	0x3d907e04	0.070552856
2	0xbe993d90	-0.2992978
3	0x3e283d7b	0.16429703
4	0xbe2af64b	-0.16695516
5	0xbe625b02	-0.22105029
6	0x3d021991	0.031762663
7	0xbdc0694d	-0.093950845
8	0x3db0547f	0.08609866
9	0x3e7b956d	0.2456872
10	0xbe915dd6	-0.28391904
11	0x3e9fda75	0.31221357
12	0xbe319ae0	-0.17344236
13	0xbd58c4b3	-0.052921962
14	0x3e38d2f8	0.18049228
15	0xbdfc29c0	-0.12312651
16	0xbe09f187	-0.13471042
17	0xbd7f19ed	-0.062280584
18	0x3df5d9d6	0.120044395
19	0xbca2bd61	-0.019865694
20	0x3e91a19e	0.28443617
21	0x3df6dd55	0.120539345
22	0xbe9285f6	-0.2861783
23	0xbe6c0c4e	-0.23051569
24	0x3d3db965	0.046319384
25	0x3ccded2a	0.025137503
26	0xbdcddda2	-0.10052039
27	0x3df4611e	0.11932586
28	0x3e1ed397	0.15510403
29	0xbe1bd847	-0.15219222
30	0xbe09a603	-0.13442235
31	0x3e42f0ac	0.19037122
32	0x3e075d78	0.13219249
33	0x3c9e3f51	0.019317301
34	0x3e1f2bcc	0.15544051
35	0x3d8c190e	0.06840716
36	0xbe8e1a1b	-0.27754292
37	0xbe974950	-0.2954812
38	0x3ccfa11e	0.025345381
39	0x3de1ab83	0.110190414
40	0xbe6a869b	-0.2290291
41	0xbe26db63	-0.16294627
42	0xbe969421	-0.29409888
43	0x3d9d5baf	0.07683503
44	0x3e5e67b6	0.2171925
45	0x3e87fa4b	0.26558146
46	0xbe7bc351	-0.24586226
47	0x3e7cbc93	0.2468131
48	0xbe01293d	-0.12613387
49	0xbe8e67b4	-0.27813494
50	0x3e3b8641	0.18312933
51	0x3e820142	0.25391585
52	0xbcb067f4	-0.021533944
53	0xbdf01d34	-0.1172432
54	0x3c3da7cd	0.011575651
55	0x3e619238	0.22028434
56	0x3dd1ef9b	0.10250779
57	0xbe24c335	-0.1609009
58	0xba26fd05	-0.00063701003
59	0x3dee93d5	0.116492905
60	0xb992b325	-0.00027980763
61	0x3d5c951e	0.053853147
62	0x3dbaadcf	0.091151826
63	0xbcdd3ebe	-0.027007457
64	0x3de06efa	0.10958667
65	0xbe366ea3	-0.17815642
66	0x3e77bbc6	0.24192724
67	0xbd254058	-0.040344566
68	0xbe7d2760	-0.24722052
69	0x3e5f8e3f	0.21831606
70	0xbe0f72d9	-0.14008655
71	0xbea1cf70	-0.31603575
72	0xb88f6151	-6.836898e-05
73	0x3e62f7aa	0.22164789
74	0xbe7b1fa7	-0.24523793
75	0x3c2a4473	0.010392296
76	0xbe540cc2	-0.20707992
77	0x3e271865	0.163179
78	0x3e6b5e4e	0.22985193
79	0xbc113393	-0.008862394
80	0xbe9713c9	-0.29507282
81	0xbe71ea1b	-0.2362446
82	0xbe382133	-0.17981414
83	0xbe03fa1d	-0.1288838
84	0xbe1b6c84	-0.15178114
85	0x3e09ece8	0.13469279
86	0x3daca699	0.084302135
87	0xbe75504f	-0.23956417
88	0x3d2d6487	0.0423322
89	0xbe9194e4	-0.28433907
90	0x3e640b6e	0.22269985
91	0xbce851cd	-0.028359318
92	0x3e95491f	0.2915735
93	0x3e6a74a9	0.22896065
94	0xbe624ead	-0.22100325
95	0x3e4e1c48	0.20127976
96	0xbe79ea12	-0.24405697
97	0xbe8f35da	-0.27970773
98	0x3e2edcdd	0.1707644
99	0xbe3cfd10	-0.1845591
100	0xbeac2eb6	-0.33629388
101	0xbe0de9a6	-0.13858661
102	0xbe4f4cb3	-0.20244102
103	0xbe8c1aec	-0.2736429
104	0x3daffd37	0.08593219
105	0xbe6cbb1e	-0.23118255
106	0xbdfb161b	-0.12260076
107	0x3e3b5537	0.18294226
108	0xbe6dfffa	-0.23242179
109	0x3e5e6a37	0.21720205
110	0x3e9aea5b	0.30256924
111	0xbd68175b	-0.0566629
112	0xbd204789	-0.03913072
113	0xbe9618fb	-0.29315934
114	0x3e8409f0	0.25788832
115	0x3e829661	0.25505355
116	0xbcdde2f6	-0.027085762
117	0x3e3f82fb	0.18702309
118	0xbe91acff	-0.28452298
119	0xbe5a9d44	-0.21349055
120	0x3e9eebb7	0.3103921
121	0xbea1cd75	-0.31602064
122	0xbcef10b3	-0.029182767
123	0xbdafe8fd	-0.08589361
124	0xbe912fec	-0.28356874
125	0x3cc8c4d0	0.02450791
126	0xbe0943da	-0.1340479
127	0x3d5de804	0.054176345
128	0xbdd89e75	-0.10577098
129	0x3ddcb268	0.10776216
130	0x3dc6fec0	0.097165585
131	0xbe9d3e62	-0.30711657
132	0x3e97de4e	0.29661793
133	0x3e2f6544	0.17128474
134	0xbe599a35	-0.21250232
135	0x3d8fdc13	0.07024398
136	0xbe28c33d	-0.16480727
137	0x3e6e195f	0.23251866
138	0xbe45dbf3	-0.19322185
139	0x3e20a8a7	0.15689336
140	0xbe70eb8c	-0.23527354
141	0xbe21879c	-0.15774387
142	0x3e823f36	0.2543885
143	0x3d812068	0.06305009
144	0xbdfe60d0	-0.12420809
145	0x3e4bd16f	0.19904111
146	0x3da2cbae	0.07949005
147	0x3e0c7fc5	0.13720615
148	0xbe44e00b	-0.1922609
149	0x3d1ce989	0.038308654
150	0x3d6c99c1	0.05776382
151	0x3e591801	0.21200563
152	0x3e8f2e78	0.2796514
153	0x3e2c36dc	0.16817802
154	0x3e9757a9	0.29559067
155	0xbdfb6afd	-0.12276266
156	0xbe5a5aca	-0.21323696
157	0x3df148d0	0.11781466
158	0x3d941ca5	0.07232026
159	0x3b2fb4aa	0.0026810565
160	0xbe4bf847	-0.19918929
161	0xbc6cf429	-0.014462509
162	0x3c31dedb	0.010856356
163	0x3dfb8eb9	0.122830816
164	0x3e26ef38	0.16302192
165	0x3d6a8f79	0.057265732
166	0x3e82e0f4	0.2556225
167	0x37ec4b35	2.8168413e-05
168	0x3e6ff329	0.23432602
169	0xbe98f040	-0.29870796
170	0x3cb73ef9	0.022368895
171	0xbda28202	-0.07934953
172	0x3e2b6ecf	0.16741489
173	0xbe1045c2	-0.1408911
174	0xbe862bb7	-0.26205227
175	0xbbeb2512	-0.00717605
176	0xbe13a970	-0.14420104
177	0x3ea7c73c	0.3276919
178	0x3e1bc9f4	0.15213758
179	0xbe94f84f	-0.29095694
180	0xbe3fad9d	-0.18718572
181	0xbe2f4448	-0.17115891
182	0x3d0621b5	0.03274699
183	0x3dd449b8	0.10365623
184	0xbcf2a081	-0.02961755
185	0x3e8ff062	0.28113085
186	0x3d2092d9	0.039202545
187	0x3e03e5ea	0.12880674
188	0xbd65f190	-0.056138575
189	0x3e8c8ad2	0.27449661
190	0x3e217b2b	0.15769641
191	0xbd132a0e	-0.03592878
192	0x3c2f67bc	0.010705885
193	0x3e277e37	0.16356741
194	0xbcb66f75	-0.022269944
195	0xbe47eb5b	-0.19523375
196	0xbd3025fa	-0.043004967
197	0xbe47e409	-0.19520582
198	0x3e41270d	0.18862553
199	0x3e6e3e83	0.23266034
200	0xbe280367	-0.16407548
201	0x3d965566	0.07340507
202	0xbe69a1d7	-0.22815643
203	0x3e04fe96	0.12987742
204	0xbe90dc05	-0.28292862
205	0xbde52c26	-0.11190061
206	0xbc426b3b	-0.011866386
207	0xbd6a350f	-0.057179507
208	0x3e42937b	0.19001572
209	0xbdef3a1f	-0.116810076
210	0x3e0dec1c	0.138596
211	0x3e8e246e	0.2776217
212	0x3e12cf98	0.14337003
213	0xbe5b385e	-0.21408221
214	0xbeae2fb9	-0.34020784
215	0xbe602215	-0.21888001
216	0xbd4e53bd	-0.050372828
217	0x3e09593b	0.13412945
218	0x3e1aef88	0.15130436
219	0x3d340d54	0.043958023
220	0xbe50aa15	-0.20377381
221	0xbe8f2c4d	-0.27963486
222	0x3eb3a542	0.3508702
223	0xbd16ed35	-0.036847312
224	0xbe9da405	-0.307892
225	0xbe33a8d5	-0.17544873
226	0x3e2d0522	0.1689649
227	0xbc94a9f8	-0.018147454
228	0x3e4c24ae	0.19935867
229	0xbd06d12c	-0.032914326
230	0x3d1c67f4	0.038185075
231	0x3e91f76f	0.2850909
232	0xbe8bb2d2	-0.27284867
233	0xbc68e1d2	-0.014213996
234	0xbe8cbe4d	-0.27488938
235	0xbe5f8ca5	-0.21830995
236	0xbe921348	-0.28530335
237	0x3e194823	0.14968924
238	0xbd63a1c3	-0.05557419
239	0x3df64108	0.120241225
240	0x3ca74135	0.020416835
241	0x3dbb21df	0.0913732
242	0xbe880639	-0.26567248
243	0xbdb1fa73	-0.086903475
244	0xbd8cb8b1	-0.068711646
245	0xbe4db2d4	-0.20087749
246	0x3dbb8026	0.09155302
247	0x3e2c23f9	0.16810597
248	0xbde9cf4b	-0.11416491
249	0xbe60a247	-0.21936904
250	0xbe510286	-0.20411119
251	0xbe9381f7	-0.28810093
252	0xbe495d96	-0.19664606
253	0xbd1fd055	-0.03901704
254	0x3dc1e9a0	0.094683886
255	0xbe1536d0	-0.1457169

fcs.0.0.linear.bias f4 [512]
0	0x3e3871cd	0.18012162
1	0x3e66c0e9	0.22534527
2	0x3deecb86	0.11659913
3	0x3e28b570	0.16475463
4	0xbd034f19	-0.032057855
5	0xbe3f9351	-0.1870854
6	0x3e1a18c5	0.15048511
7	0xbd85b09b	-0.065278254
8	0x3cd0426e	0.025422301
9	0xbe4829f4	-0.19547254
10	0x3e94c3d4	0.29055655
11	0x3e95d7f0	0.2926631
12	0xbe13da8a	-0.14438835
13	0x3ea583bb	0.32327065
14	0x3ea07ce8	0.31345296
15	0x3d8dfb42	0.06932689
16	0xbe519816	-0.20468172
17	0xbdddf808	-0.10838324
18	0x3de2ae4b	0.110684
19	0x3ce5f58d	0.02807119
20	0xbe820ecc	-0.25401914
21	0x3ec8dfdd	0.39233294
22	0x3e067f80	0.13134575
23	0xbcfc001d	-0.030761773
24	0xbe948627	-0.290086
25	0xbe9f18f0	-0.31073713
26	0x3e88c2f8	0.2671125
27	0x3db3298b	0.08748158
28	0xbd176cb3	-0.036968898
29	0xbe3860b4	-0.1800564
30	0xbdc538ed	-0.09629998
31	0x3e6345d4	0.22194606
32	0x3de8e610	0.11372006
33	0x3cf9bf51	0.030486735
34	0x3e51e893	0.20498876
35	0xbeb51a46	-0.35371608
36	0xbe018594	-0.12648612
37	0x3e1b7be4	0.1518398
38	0xbed31b54	-0.41231787
39	0x3e748fd9	0.23882999
40	0x3e20d8c5	0.15707691
41	0x3d2bbf1f	0.041930314
42	0xbe9cbde7	-0.30613634
43	0x3e299af9	0.16563024
44	0xbdac987b	-0.08427521
45	0x3d4f203f	0.05056786
46	0x3e42e47a	0.1903247
47	0xbdd5109c	-0.104035586
48	0x3eb196f0	0.3468547
49	0xbbe17274	-0.006880099
50	0xbe6ee801	-0.2333069
51	0xbd15f1dc	-0.03660761
52	0xbe6957ae	-0.22787353
53	0x3e36b88e	0.1784384
54	0x3e0fab7a	0.14030257
55	0x3d09a642	0.03360582
56	0xbb8b443f	-0.004250079
57	0x3dcb5a46	0.09929328
58	0x3dcdaca0	0.10042691
59	0x3e8ef2d0	0.27919626
60	0xbce30c17	-0.027715726
61	0x3e024ffa	0.12725821
62	0x3dd507d3	0.10401883
63	0xbd8907b1	-0.0669092
64	0xbdb7d956	-0.089770004
65	0x3ea6edef	0.32603404
66	0xbce01f23	-0.027358597
67	0xbde44cd8	-0.11147469
68	0x3e0be8b5	0.1366299
69	0x3d032d0f	0.032025393
70	0xbd83f231	-0.06442679
71	0x3d2eb036	0.042648517
72	0x3de0f229	0.109836884
73	0x3eba0909	0.36335018
74	0xbd9de033	-0.07708778
75	0x3e88b5b4	0.26701128
76	0x3e956618	0.29179454
77	0x3e52f8e3	0.20602755
78	0x3db2cf01	0.08730889
79	0xbe6fb1de	-0.23407695
80	0xbe094a22	-0.13407186
81	0xbc8675a8	-0.016413525
82	0x3ec0a0da	0.3762272
83	0x3d810f8a	0.06301792
84	0xbe802ce8	-0.2503426
85	0xbeb7750b	-0.35831484
86	0xbe843c1e	-0.25827116
87	0xbe9fd0b4	-0.31213915
88	0xbe86bc2d	-0.26315442
89	0xbe496417	-0.19667087
90	0x3e93d0fe	0.28870386
91	0xbe5f9fda	-0.21838322
92	0x3e7e5cef	0.24840139
93	0xbd4f4155	-0.050599415
94	0xbe2e0f4c	-0.16998023
95	0xbe2ad798	-0.16683805
96	0xbe066067	-0.13122712
97	0xbe29ac95	-0.16569741
98	0xbeb9b9d6	-0.36274594
99	0x3d09985e	0.033592574
100	0xbe979823	-0.2960826
101	0x3c8eed56	0.017447155
102	0xbe15d0da	-0.14630452
103	0xbddd5377	-0.10806935
104	0xbde49647	-0.11161476
105	0xbe50e3c8	-0.20399392
106	0xbdd922d5	-0.10602347
107	0x3e8a947f	0.2706642
108	0x3e9ddca3	0.30832395
109	0xbad288fb	-0.0016062552
110	0x3e145949	0.14487185
111	0x3e880350	0.26565027
112	0x3e9e93b9	0.30972078
113	0xbe45fcce	-0.19334719
114	0x3d2923fc	0.041294083
115	0xbdf64a88	-0.120259345
116	0xbecc980d	-0.39959756
117	0x3e5e29e8	0.21695673
118	0x3e87e88f	0.26544616
119	0xbd176938	-0.03696558
120	0x3e53572a	0.20638719
121	0x3c3d0bc3	0.011538449
122	0x3e605497	0.21907268
123	0x3dbe07c9	0.09278829
124	0x3e004f1b	0.12530176
125	0x3e5605d7	0.20900665
126	0x3e2d39aa	0.16916528
127	0x3e9cc8c0	0.3062191
128	0x3e2c0715	0.16799577
129	0xbe786392	-0.24256733
130	0x3e0622d7	0.13099228
131	0x3ea477e1	0.3212271
132	0x3e74194d	0.23837776
133	0x3e4e5e58	0.20153177
134	0xbe343c85	-0.17601211
135	0x3eb12bdb	0.34603772
136	0x3e1e6f96	0.15472254
137	0xbe039bb6	-0.12852368
138	0x3b86f4db	0.0041185445
139	0x3ea1fc9f	0.31638047
140	0xbe94ae81	-0.29039386
141	0xbdbb5518	-0.0914709
142	0x3e8ade54	0.27122748
143	0xbdf341b3	-0.118777655
144	0xbd99a799	-0.0750267
145	0xbd232ee8	-0.039839655
146	0x3e070e6d	0.13189097
147	0xbe7494d7	-0.23884903
148	0x3d110f77	0.03541514
149	0x3e314f6a	0.1731545
150	0x3de65475	0.11246578
151	0x3da7120c	0.08157739
152	0x3e14c4a3	0.14528136
153	0xbd762141	-0.060090307
154	0x3e9e5835	0.30926672
155	0x3e37da97	0.17954479
156	0xbe39e718	-0.18154562
157	0xbdf0bc95	-0.11754719
158	0x3e6ce3da	0.23133793
159	0xbcd2f61c	-0.02575212
160	0xbd51a5fe	-0.051183693
161	0x3d36a4bd	0.0445907
162	0xbc84a95b	-0.016194036
163	0xbe094f1d	-0.13409086
164	0x3d3e68aa	0.046486534
165	0x3ebd66df	0.36992547
166	0x3d335ad9	0.04378781
167	0x3e1be54f	0.15224193
168	0x3e19865b	0.14992659
169	0xbe53c574	-0.20680791
170	0xbe897f39	-0.26854876
171	0x3d4c2b0f	0.04984575
172	0x3e1d6ff9	0.15374745
173	0xbd496250	-0.049166024
174	0xbe25db06	-0.16196832
175	0xbeb0f84a	-0.3456443
176	0xbb7c1fdd	-0.003847114
177	0x3e378131	0.17920376
178	0xbbfe3978	-0.0077583157
179	0x3e3e11e6	0.18561515
180	0xbe708327	-0.2348753
181	0x3e776652	0.24160126
182	0xbe5b06af	-0.21389268
183	0x3e554849	0.20828356
184	0x3ddf8e7b	0.10915848
185	0x3e934821	0.28765967
186	0x3eaa8f54	0.33312476
187	0xbe1b488f	-0.15164398
188	0xbb6b443b	-0.0035898823
189	0xbc9fb2e4	-0.019494481
190	0xbc8fc73e	-0.01755106
191	0xbe3441cd	-0.17603226
192	0xbe025ba1	-0.12730266
193	0xbdd855c9	-0.10563237
194	0x3e3ea6d1	0.18618323
195	0x3ee159a2	0.44013697
196	0x3dcc1028	0.09964019
197	0xbc25c3bc	-0.0101174675
198	0xbeaf932a	-0.34291965
199	0xbeaa3a2a	-0.332475
200	0xbe46c984	-0.1941281
201	0xbe191bb7	-0.14951979
202	0xbe4899cb	-0.19589917
203	0x3df47e40	0.11938143
204	0xbe914b70	-0.28377867
205	0x3e53b2af	0.20673631
206	0x3e39be1f	0.18138932
207	0x3db3834a	0.08765276
208	0x3e163317	0.14667927
209	0x3e1e5589	0.15462317
210	0xbe4e64a0	-0.20155573
211	0x3e9f9d8a	0.3117488
212	0x3ebc4530	0.36771536
213	0x3e392d43	0.18083672
214	0xbdebd021	-0.11514307
215	0x3e22ccd3	0.15898447
216	0xbdc9c547	-0.09852081
217	0x3cf8496c	0.030308448
218	0x3ecee346	0.4040777
219	0x3ca70fd2	0.020393286
220	0x3df999e6	0.12187557
221	0xbe107798	-0.14108121
222	0xbe2a68b3	-0.16641502
223	0x3ebc7761	0.3680983
224	0xbe83974e	-0.25701374
225	0x3db75199	0.089511104
226	0xbdde76be	-0.10862492
227	0xbdc23889	-0.094834395
228	0xbeb635d4	-0.35587943
229	0xbe61f536	-0.22066197
230	0xbe3d0d94	-0.18462211
231	0x3e018a32	0.12650374
232	0x3e094f01	0.13409044
233	0xbf04ca33	-0.5187103
234	0xbe0312c9	-0.12800135
235	0xbe9ca6a6	-0.30595893
236	0x3e80a428	0.2512524
237	0xbeac5f88	-0.33666635
238	0x38ea1cb4	0.00011163336
239	0xbbb862a7	-0.0056269947
240	0xbe127668	-0.14302981
241	0x3e89160d	0.26774636
242	0x3db8aac4	0.09016946
243	0x3e0993e5	0.13435324
244	0x3eaf6320	0.34255314
245	0xbe73cfd7	-0.23809753
246	0x3df57b4b	0.11986407
247	0x3e8835be	0.26603502
248	0xbe001de0	-0.12511396
249	0xbd55e1ee	-0.052217416
250	0x3ddc4611	0.107555516
251	0xbe869588	-0.26285958
252	0xbd832453	-0.06403413
253	0xbde17c6d	-0.110100605
254	0xbe38e14e	-0.18054697
255	0x3e09f1f4	0.13471204

fcs.0.1.weight f4 [10, 512]
0	0x3abd0598	0.0014421223
1	0xbce25eeb	-0.027633151
2	0xbc74c5cf	-0.014939739
3	0xbd44097a	-0.0478606
4	0xbc4318e7	-0.011907793
5	0xbae5c03f	-0.0017528607
6	0xbc947c36	-0.018125635
7	0x3d13753d	0.03600048
8	0xbb061092	-0.0020456654
9	0x3ca10ce6	0.01965947
10	0x3d301af0	0.04299444
11	0xbd2d543d	-0.042316664
12	0x3cd00580	0.025393248
13	0xbd87a132	-0.066225424
14	0x3ca59b8d	0.020215774
15	0xbac99b8e	-0.0015381442
16	0xbd1dd14a	-0.03852967
17	0xbc1d2c82	-0.009593131
18	0xbca30769	-0.019900994
19	0xbd20ccfa	-0.03925798
20	0x3bba82ac	0.005691847
21	0xbd456c89	-0.04819921
22	0xbb7b2408	-0.0038321037
23	0xbc721159	-0.014774644
24	0xbc0997e8	-0.008398034
25	0xbca8a557	-0.020586653
26	0x3decea5d	0.11568139
27	0x3cad7298	0.021172807
28	0xbd18a8ee	-0.03727048
29	0x3b8bbb4d	0.0042642714
30	0xbc4ba4c2	-0.012429418
31	0x3d048710	0.03235537
32	0xbd00aee0	-0.031416774
33	0xbd54c918	-0.05194959
34	0xbc2b4545	-0.010453527
35	0x3db24815	0.08705155
36	0x3d013317	0.031542864
37	0x3bd639f1	0.006537669
38	0x3d4757d6	0.04866775
39	0x3cce0682	0.025149588
40	0x3c2852cb	0.010273646
41	0x3aa81326	0.001282309
42	0x3c31fed0	0.010863975
43	0xbba53651	-0.0050418754
44	0xbcb56ff6	-0.022148114
45	0x3ca4839f	0.020082293
46	0xbcabffa9	-0.020995932
47	0xbd1e1107	-0.038590457
48	0x3c06ecf8	0.008235209
49	0x3c6ad178	0.014332168
50	0xbce1fd2b	-0.02758654
51	0xbce0b170	-0.027428359
52	0xbc9dda4b	-0.01926913
53	0xbd167e78	-0.036741704
54	0xbc832073	-0.016006684
55	0xbd66166a	-0.05617372
56	0x3de18d70	0.11013305
57	0xbd1fc30c	-0.03900437
58	0xbc5be399	-0.013420963
59	0x3e1719f6	0.14755997
60	0xbce81099	-0.028328227
61	0x3c0642f0	0.00819467
62	0x3c590e6a	0.0132480655
63	0x3a4d950c	0.0007842339
64	0x3c3e94ab	0.011632125
65	0xbe0825be	-0.13295648
66	0xbcf9ef4f	-0.030509619
67	0x3b74c8e9	0.0037351197
68	0x3cd60018	0.026123092
69	0x3c927602	0.017878536
70	0x3bb32537	0.005467083
71	0x3d9ba763	0.07600286
72	0xbc69544d	-0.01424129
73	0x3d3cf4c2	0.046131857
74	0x3ae7e6e8	0.0017692717
75	0xbcec9829	-0.02888115
76	0x3d49adeb	0.049238127
77	0x3c5f2abc	0.0136210285
78	0xbc5fa57e	-0.013650296
79	0xbd1baa8d	-0.038004447
80	0x3d304ee7	0.043043997
81	0x3c6fa520	0.014626771
82	0x3cdd7f79	0.027038323
83	0xbc13cf10	-0.0090215355
84	0x3c8bf028	0.017082289
85	0xbb9395b4	-0.00450393
86	0xbd053780	-0.032523632
87	0x3bd9a3f8	0.006641861
88	0x3d16d842	0.036827333
89	0xbd34db9b	-0.044154745
90	0x3cdec4bd	0.027193421
91	0x3adc0944	0.0016787429
92	0x3cd2ac55	0.02571694
93	0xbcd1b693	-0.025599753
94	0xbd46f180	-0.048570156
95	0xbc99c0bb	-0.018768659
96	0x3d9d0774	0.07667437
97	0xbc8c771e	-0.017146643
98	0x3c2e53c1	0.010640086
99	0x3bfdb938	0.007743027
100	0xbd03866d	-0.03211062
101	0xbe34ebf1	-0.1766813
102	0x3c07135b	0.008244361
103	0xbde5fe57	-0.11230152
104	0xbb72131e	-0.0036937664
105	0x3e0d5bf1	0.13804604
106	0x3d1b8a41	0.037973646
107	0xbc07798f	-0.008268728
108	0xbbd1d8d8	-0.0064040236
109	0xbd6cd4ab	-0.057820003
110	0xbb2e425d	-0.0026589849
111	0xbcb3c5eb	-0.02194496
112	0x3ca54960	0.02017659
113	0x3ce09cc1	0.027418496
114	0x3d8fa4b2	0.07013835
115	0xbd10f941	-0.035393957
116	0xbce27295	-0.027642528
117	0x3d02b0c9	0.031906877
118	0xbc8c6996	-0.017140191
119	0xbda3697f	-0.07979106
120	0x3d0a4a6f	0.03376239
121	0xbc74a051	-0.014930801
122	0x3c743937	0.014906219
123	0xbbdb2ec3	-0.006688924
124	0xbb7e6295	-0.0038816084
125	0xbb4b23cd	-0.003099668
126	0xbccc4e67	-0.024939729
127	0x3d7b8f48	0.06141594
128	0x3d77b46a	0.06047479
129	0xbbd55bed	-0.0065112025
130	0xbcf8a3ef	-0.030351607
131	0xbbb8a219	-0.005634558
132	0x3a84f2b6	0.0010143134
133	0x3c3b65a2	0.011437805
134	0x3c94edf4	0.018179871
135	0x3d8ed12e	0.069734916
136	0x3c5b7aed	0.013396007
137	0x3caf562c	0.021403395
138	0xbcebac40	-0.028768659
139	0x3d4c1fc7	0.049834993
140	0x3d2e7f5d	0.04260193
141	0xbb5290af	-0.0032129695
142	0x3cd08b76	0.025457125
143	0x3d11fa40	0.035639048
144	0x3d225814	0.03963478
145	0x3b192f22	0.002337404
146	0x3d2cdb3f	0.042201277
147	0x3c4f3fcb	0.012649487
148	0xbd017ad9	-0.031611297
149	0x3d2e94e4	0.042622462
150	0xbdb11c9e	-0.086480364
151	0x3ce4ce02	0.027930263
152	0xbd22f622	-0.03978551
153	0x3af304ee	0.0018540898
154	0xbca188fb	-0.019718638
155	0xbd228b75	-0.039683778
156	0x3c808e68	0.015692905
157	0xbcdddd9b	-0.027083209
158	0xbd3deffb	-0.04637144
159	0x3d719bde	0.058986537
160	0x3cb98196	0.0226448
161	0x3c9dbca7	0.019254996
162	0x3d4a7f48	0.04943779
163	0xbc03740b	-0.008023272
164	0xbd3083f8	-0.043094605
165	0xbdf595ed	-0.11991487
166	0x3c151ca3	0.009101066
167	0xbcc26b00	-0.023732662
168	0xbd298aa5	-0.041391987
169	0xbc1fe4e7	-0.009759164
170	0xbc212ef7	-0.009837857
171	0x3d00ce1f	0.031446572
172	0xbd0f1938	-0.03493616
173	0xbd1452d6	-0.03621181
174	0xbcf538ff	-0.029934404
175	0xbcc84862	-0.024448577
176	0x3d13d52d	0.036091972
177	0x3938d4bc	0.00017626857
178	0xbcb03986	-0.021511804
179	0x3c5a084f	0.013307645
180	0xbc4e7bc8	-0.012602754
181	0xbcdb0bc5	-0.02673901
182	0x3c5c21d8	0.013435803
183	0x3ca62f5c	0.020286255
184	0x3cd30781	0.025760414
185	0x3c0493c4	0.008091871
186	0x3c408153	0.011749583
187	0x3c4ce315	0.012505312
188	0xbcfab340	-0.030603051
189	0x3d0a1513	0.033711504
190	0xbca4fec6	-0.020141017
191	0xbc750c35	-0.014956524
192	0x3c3ed392	0.011647122
193	0x3d2d0183	0.04223777
194	0x3c9e3d7b	0.019316426
195	0xbcfd63fa	-0.030931462
196	0xbc97441a	-0.01846509
197	0xbc9a65d9	-0.018847393
198	0x3bbf89a2	0.0058452645
199	0xbb8c7cd2	-0.0042873407
200	0xbd2c0da3	-0.042005192
201	0x3d9cd3dc	0.076575965
202	0x3d3efeb4	0.046629623
203	0xbc8eea46	-0.017445695
204	0x3c2a77ad	0.0104045095
205	0xbcde18a1	-0.027111353
206	0xbc81f11c	-0.01586204
207	0x3da618fc	0.08110234
208	0x3ccfa79a	0.025348473
209	0xbbcf1c83	-0.0063205375
210	0x3d61c1e3	0.055116545
211	0x3cc7ece9	0.02440496
212	0xbd1de453	-0.038547825
213	0xb9dabf95	-0.0004172294
214	0xbd94b6ae	-0.07261406
215	0x3ca1efe3	0.019767707
216	0x3cb4bc92	0.022062574
217	0x3ccd2d36	0.025045972
218	0x3b28e1fe	0.0025769467
219	0x3d651f5b	0.055938106
220	0x3c549638	0.012975268
221	0xba865c52	-0.0010250902
222	0xbc864501	-0.016390326
223	0x3e01826a	0.12647405
224	0xbd24c232	-0.04022426
225	0xbc9eec42	-0.019399766
226	0xbd2e818b	-0.04260401
227	0x3d3df4c6	0.046376012
228	0x3cb22ddc	0.021750383
229	0x3d1fccff	0.03901386
230	0xb9968293	-0.00028707515
231	0xbd04e61c	-0.032446012
232	0x3c9f90d6	0.019478243
233	0x3d01086c	0.031502172
234	0xbb46c9b7	-0.0030332634
235	0xbd07e70d	-0.03317933
236	0xbd142b7e	-0.03617429
237	0x3cbe7776	0.023250323
238	0x3c96bcc2	0.018400554
239	0x3d6347ae	0.05548828
240	0x3c915adb	0.017743519
241	0xbc855419	-0.016275452
242	0xbcde8c3e	-0.027166482
243	0xbc34fae1	-0.011046142
244	0xbd12d3e0	-0.03584659
245	0xbd982b37	-0.074301176
246	0x3c82f481	0.01598573
247	0xbcfade56	-0.030623596
248	0x3c8258b9	0.015911447
249	0x3d0d437d	0.03448819
250	0x3c0e5729	0.008687773
251	0xbb5df8db	-0.0033870253
252	0xbcd47c42	-0.025938157
253	0x3c964147	0.018341674
254	0x3ca07c59	0.019590544
255	0x3d68aa0d	0.056802798

fcs.0.1.bias f4 [10]
0	0x3cf45c77	0.029829247
1	0x3bdd0ab1	0.0067456593
2	0xbd0bb601	-0.03410912
3	0xbd863439	-0.065529294
4	0xbc3872f5	-0.011257877
5	0x3d2d286b	0.042274874
6	0xbdaa4381	-0.083136566
7	0xbda96df6	-0.082729265
8	0x3d090bbf	0.033458468
9	0xbd9429e1	-0.0723455
