cache/2d_gm/dsmcusum/model_2/iter_3.pth (torch, 43016 bytes, 4 tensors)

fcs.0.0.linear.weight f4 [2048, 2]
00000000: b739 40bc a6f1 1dbf 0b40 933d 643d 32bf
00000010: c873 ce3e b7ba 243f 7a69 4fbe 5151 75be
00000020: 5223 363e 95b1 b6be 2ced 2c3f 5180 ad3d
00000030: 851d 47bc 7c0e 17bf 524b 063f 426f 0cbf
00000040: 1b5e 28bf fe3d 22bf 0deb 03be 7142 e0be
00000050: ce28 ec3e c90d 043f a3b7 1bbf b56f bebe
00000060: 4b44 a63d e843 c7bd 79c0 66be 9576 22bf
00000070: ccc6 da3e 4928 60be 198d d13e 6ce6 31be
00000080: 6cb3 f8be 2ab9 31bf 22ad 08bf 3ca5 15be
00000090: a19e 353b ac9d a63d 8349 f43e da38 ff3e
000000a0: 82be ef3e 0b89 3bbe cfe2 efbe b4d5 bbbe
000000b0: 6472 443e f976 373e c78b 86be cdfc 96be
000000c0: 3102 4dbe 91f4 99be f9cc b4be e3f2 7e3e
000000d0: f0ab 093f a3b2 08be a017 46be 4ad9 04bf
000000e0: 7a36 ccbe 72cd 4b3e ae83 c43e c6e6 24bf
000000f0: 936e bd3e 258f 2a3f 27f0 863e 1411 2cbf
00000100: 1e34 bdbd d401 b93d b3ac b83e 3f77 b3be
00000110: 4fd5 303f 1cae f03e 1f9f 183f 60ce 82bd
00000120: c788 a7be 35ef d9be 63d2 b4be 8ca6 153f
00000130: d31b 193e 96b9 a63e 9ccd bebe 2d0c 97be
00000140: 2c7a 233e 9ba9 e2be 717b fcbe 7603 b63d
00000150: 8840 da3e 947d dd3e 778b b9bc 8d08 febe
00000160: 17ea bfbe 47c3 cf3e 5408 2cbe 5c23 f4be
00000170: 1b73 41bd 2e11 b2be 08aa 903e 5754 13bf
00000180: e92c 09bf 649f 2cbf 01f4 56be babc e7be
00000190: 5f67 be3d ac28 9d3d c912 e9be 2cc5 25be
000001a0: 0baf 6b3e cabc 093f 0bc6 e73e 452c 2dbf
000001b0: 0604 d43e 0e8a 143e 0087 11bf 624c e0be
000001c0: 0e33 1b3f 9e72 e03e cac6 2f3c 60da cd3e
000001d0: dee0 473e ee81 14bf 0243 2bbf f3ed 333f
000001e0: 8bcb 08bf fb68 703e 6fd2 31bf 5245 1fbf
000001f0: 4466 c2bc 0b59 13bf 9130 ec3e 7d08 573e
00000200: 3b32 083f 0456 28be 134c 7e3e bf34 c8be
00000210: 35e2 20bf 25ed 283f 2d4d 283f a1d2 23bf
00000220: 534d 373e 0f3e 03bc e541 48be 307c cebd
00000230: 3a06 e2be d258 93be 870e 80be bf42 d6be
00000240: e4af 1f3f b600 e83e 4289 2cbf 3787 cd3e
00000250: b33c 1a3e 4839 2b3f a667 bf3c e185 0e3e
00000260: 58be c63e 7965 763e 89cb d93e 5c5f 2ebf
00000270: 6f4f e7be 3c34 1fbf 4260 043f ed4e 06bd
00000280: 6760 6cbe 822e 6bbe 413d 0dbe ad45 16bf
00000290: 9294 283f 955e 18bf e6c7 acbe 4039 ad3d
000002a0: 8a10 bbbe 5e49 58be 2717 a13e 8526 ab3e
000002b0: 2578 e5be c291 3dbe 0e76 b83e efef 1c3f
000002c0: 29b4 063f 1d85 04bf 3884 8cbd 4baf cfbe
000002d0: 739d a5bd fdc9 323f 2cd7 1cbf 76a7 923e
000002e0: 1daa 0c3e 998f 08be a5c3 e63e 5863 0ebe
000002f0: 5288 2f3f cf93 153f e636 493b e35f 0b3e
00000300: c8d2 043f 1abd 50be 3d49 28bf 1c3b a63d
00000310: b7ff dc3e a71d 1c3e cba4 1f3f 7785 033f
00000320: 6e64 e3bc 6edb 1c3e 41df 333f 4b02 113f
00000330: c9d1 a83e 3844 e0be 4b8d 8abe b57d 16bf
00000340: d063 8c3e 2e9a 7dbe 5b5e 12be 0ec6 2bbf
00000350: 870b 5d3e 8780 f83e 0e8f 953d 8d21 19bf
00000360: 55e7 a7be 9805 e1be d5a2 073f c7bd 013f
00000370: 274e 2cbe 8506 9bbe d3b8 23bf 6f01 d63e
00000380: 47bc 15bf c3e6 9d3e 8b70 1a3f f56a 083f
00000390: 4e55 0a3f 583e 763d acca 1f3e ef91 183f
000003a0: 1af1 7a3e d051 25bf 6f27 76bd 908d 053e
000003b0: 28fa ffbe ec98 0cbf 4f51 33bf 123e 0abf
000003c0: 28b0 943e 82d8 a0be db4d c4bd f0ed e6be
000003d0: 598b debe a01d 8dbd 9d55 13be 3965 5f3e
000003e0: 41a1 8d3e c9ac 42bd bd77 dbbe 1e78 cabe
000003f0: bef4 19bf f5fe fa3d d84f 74be 5d62 2dbf
-0.01173251 -0.6169685 0.071899496 -0.69624925 0.4032271 0.64347404 -0.2025508 -0.23956801
0.17786911 -0.3568236 0.67549396 0.0847174 -0.012153034 -0.59006476 0.5245868 -0.54857266
-0.65768594 -0.6337584 -0.12882634 -0.4380069 0.46124882 0.51583534 -0.6082708 -0.371946
0.081184946 -0.09729749 -0.2253436 -0.6346219 0.42729795 -0.21890368 0.4092796 -0.17373055
-0.48574388 -0.6942316 -0.5338918 -0.14613813 0.0027712958 0.08135542 0.47712335 0.49848062
0.46825033 -0.18313996 -0.4685273 -0.3668648 0.19184262 0.17916478 -0.26278517 -0.29489747
-0.20020367 -0.30069402 -0.35312632 0.24897341 0.5377798 -0.13349395 -0.1934495 -0.51894057
-0.39885312 0.1990259 0.38381714 -0.6441463 0.36998424 0.6662467 0.26355097 -0.6721356
-0.09238456 0.09033552 0.3606926 -0.35051915 0.69075483 0.47007835 0.596178 -0.06387019
-0.3272154 -0.42565313 -0.35316762 0.58457255 0.1495202 0.32563466 -0.37266243 -0.29501477
0.15964574 -0.44270024 -0.49312928 0.08887379 0.42627358 0.4325987 -0.02264951 -0.496159
-0.37483284 0.40578672 -0.16800052 -0.47683227 -0.047228914 -0.34778732 0.28254724 -0.5755057
-0.5358415 -0.6743071 -0.20991518 -0.45261174 0.0929706 0.07673773 -0.45522144 -0.16188496
0.23015992 0.53803694 0.45268282 -0.67645675 0.4140932 0.14505789 -0.5684662 -0.43808275
0.6062478 0.43837446 0.010728547 0.4020567 0.19519374 -0.58010757 -0.6689912 0.70284957
-0.5343558 0.23477547 -0.6946172 -0.6221515 -0.023730405 -0.57557744 0.46130803 0.20999332
0.53201646 -0.16439062 0.24833708 -0.39102742 -0.62845165 0.65986854 0.6574276 -0.6399327
0.1790059 -0.008010401 -0.19556387 -0.10082281 -0.44145375 -0.28778702 -0.25011083 -0.41847798
0.6237776 0.45313042 -0.6739694 0.40142223 0.15062217 0.6688428 0.023364853 0.13918258
0.38817096 0.24062146 0.42538098 -0.68114257 -0.4517779 -0.6218908 0.5170938 -0.032790113
-0.2308365 -0.2296696 -0.13792898 -0.58700067 0.658517 -0.5951932 -0.3374626 0.08458185
-0.36536056 -0.21121737 0.31462976 0.33427826 -0.44818226 -0.18512633 0.3602757 0.6130361
0.5261865 -0.51765615 -0.06861156 -0.40563425 -0.08086672 0.6983946 -0.61265826 0.28643388
0.13736768 -0.13336028 0.4507114 -0.13905084 0.68567383 0.58428663 0.0030702888 0.13610797
0.51884127 -0.20384637 -0.6573675 0.08116743 0.43163845 0.15245686 0.6236083 0.51375526
-0.02775785 0.15318081 0.70262533 0.56644124 0.32972553 -0.43802047 -0.27060923 -0.58785564
0.274199 -0.24765846 -0.14293806 -0.6709908 0.21586429 0.4853556 0.07302676 -0.5981682
-0.3279368 -0.4394958 0.52982837 0.506802 -0.16826688 -0.30278412 -0.63953894 0.4179797
-0.58490413 0.3084012 0.60327977 0.53288203 0.54036415 0.06011805 0.15604657 0.59597677
0.24506035 -0.6457796 -0.0600962 0.13042283 -0.49995542 -0.5492084 -0.7004594 -0.5400096
0.29040647 -0.31415182 -0.09585162 -0.45103407 -0.4346569 -0.06890416 -0.14388128 0.21815957
0.2766209 -0.047528062 -0.4286479 -0.39544767 -0.6013907 0.122556604 -0.23858583 -0.67728215

fcs.0.0.linear.bias f4 [2048]
00000000: 96fa cfbe 0238 ccbe dfb4 b8be cd6b 2bbf
00000010: d995 193f 78e7 283f ab23 72be 6af3 38bd
00000020: 0fb5 1a3f fb83 85be f82f e7be 6d73 eebe
00000030: ef0d 8abe 3242 b93e 4be1 ad3b f572 f7bc
00000040: ef62 4ebe ef3d d33e 4845 703e 622d 2b3f
00000050: 2227 4e3e 6585 15be 1255 92be e4b5 2cbf
00000060: b65d 9a3e e499 173f cbbd 963e a8ca 683e
00000070: 8dc1 4a3e 3e90 a73e 7d69 193f 1d35 0abf
00000080: fa0e 3ebe 98e6 08bc 990f 98be 019b 753e
00000090: daba 22bf 3ea6 183e b5c6 b0bd 8925 d43e
000000a0: 4682 10bd c572 fe3e 4f82 0cbf 1ab2 03bf
000000b0: 046d 3bbd 1096 193f 808d 1dbf 8653 103f
000000c0: 17e2 823e 1d1a be3e 84ac 97be 6f26 bd3e
000000d0: 9c19 753e 5f23 8a3d 1c18 25bf ef47 c03e
000000e0: 2730 793e a03f f3be 5f31 0d3f 569e 733e
000000f0: 6eb2 b93e 4ac1 9abe 1f35 09bf dc06 0ebf
00000100: d50d 41be a527 91be b31e 5bbe 0a69 6c3e
00000110: dff4 c3be 2e83 d1be 4d08 dabe f9fe b8be
00000120: e1a9 a53c c760 21bf 7d94 313f 2feb d4be
00000130: 4187 193f 86e6 283f 5770 d53e f560 823e
00000140: aece 37bf ab85 d03e e36d b83e 2d48 9abe
00000150: 0a4f 20bf 28fa 0ebf 3997 03be 936d fc3e
00000160: 2082 8b3d c8ec b03e c9c2 073f 446e abbe
00000170: e7b1 abbd 6ebf 133e 12c5 c23e bf3c de3e
00000180: fe24 23bf 8b2c 873e 9309 8a3c 70ca 62be
00000190: 32b9 f3be a9b7 5a3c 76d1 cb3e 8640 ddbc
000001a0: d3eb f5be cd3b 8f3e bd8a 27bf 4eed 063d
000001b0: 7e46 2b3d 0fd8 de3e ada4 043f 0ea6 303f
000001c0: b4f5 02bf ca98 7dbe 3328 973e bce0 97be
000001d0: af48 fabe b7dc 17bf 33d0 4c3e 1dc7 86be
000001e0: 27c6 edbe 0216 6d3e ac33 0bbf fe43 ca3e
000001f0: 0968 debe 3221 603e 6649 04be 22d0 303f
00000200: cd19 ba3d 4900 cbbe 9aa1 dabe 5060 25be
00000210: 26b9 8bbb e8f4 b0be 534b 2e3f b0d9 94be
00000220: 4dff b6be ee71 193f 0dbd debe 515a c3be
00000230: dd7d f0bd a63d 06be a6c7 013f 9ba6 393e
00000240: 86c2 b3be ded0 8a3d 96d0 babe 0342 09bf
00000250: f940 c33e aa51 95bd 4b5b 4d3e d722 17bf
00000260: 3a9d cb3b 7b04 cebe c140 81bd ab1d a33e
00000270: b10b 1e3f 930d 283d 6121 303f 0da8 163f
00000280: 3dc8 77be 2772 2f3f 03d2 e8be 007d 19bf
00000290: da4b 0abf 22a0 de3e 6b38 88bd 6ffa e23e
000002a0: 54ec 05bf 7830 8fbe 01ff b73d f8d6 c9bd
000002b0: ef2b aa3e 4f0a d13e 9e41 df3e 956b 213b
000002c0: b962 ecbd cb88 cdbe c5cd 37bf c2b1 fd3e
000002d0: 9958 85bd fdec bcbe e2f2 cfbe fb59 93bd
000002e0: 8cc0 1c3e 5a0a 223e 428e 64be 1630 853e
000002f0: a613 41be 14cd 113e 1f4e 99bb 6dba 61be
00000300: 3cf6 0a3f 11f6 dbbe 9ce9 8b3e d7dc 283f
00000310: 9b05 a73e 0a93 f63e 0865 babe c134 9f3e
00000320: 2b1f 063e e2a2 41be 5e41 8d3d a2a5 f83e
00000330: 5069 c0bd f0fd 103f 72b5 0e3f 429d ff3e
00000340: 0589 e5be 84fb 0cbf 4ea0 cd3d 654f b8be
00000350: 1406 ec3c caa2 153f 3c48 bfbd 3ab4 e8be
00000360: 719d 803e 65b2 d3be 4769 b53e 920b 13bf
00000370: d77e 02bf 6bf1 33bf cf5f 1c3f 0a81 093f
00000380: 2c7a 683d f2ea 33bf 26dd 723e 7584 c3bd
00000390: 66d8 bebe 1544 aebe 993d e9be bfa1 64be
000003a0: b6b7 2abf 6411 943e 3779 16be d50a 43be
000003b0: ab43 cb3e 76a3 2cbe 5c44 ac3e c407 133e
000003c0: 329e 42be 774a 0bbe 8b5a 883e 3a63 a73d
000003d0: bee2 493e 0078 773e 614f b4be 5d04 e7be
000003e0: cbb4 ec3d 5687 23bf 1c84 dabe 23e2 31be
000003f0: 2493 823e 645b 2f3f 7796 5f3e b6f7 88be
-0.4062087 -0.3988648 -0.36075494 -0.66961366 0.59994274 0.65978193 -0.23646419 -0.045154013
0.60432523 -0.26077256 -0.45153785 -0.46572438 -0.26963755 0.36183316 0.005306398 -0.030206183
-0.20154928 0.4125819 0.23463929 0.66866124 0.20132115 -0.14601667 -0.28580528 -0.67465043
0.3014962 0.59219193 0.29441676 0.22733557 0.19800396 0.32727236 0.5992659 -0.53987294
-0.185604 -0.008355759 -0.296994 0.2398491 -0.6356636 0.14907166 -0.0863165 0.41434887
-0.03528049 0.49696937 -0.54886335 -0.51443636 -0.045758262 0.599946 -0.61544037 0.56377447
0.25563118 0.37129298 -0.29623806 0.36943385 0.2393555 0.06745028 -0.64489913 0.3755488
0.24334775 -0.4750948 0.5515346 0.23790869 0.36268944 -0.30225593 -0.5359668 -0.55479217
-0.18852933 -0.2835056 -0.2139843 0.23086944 -0.3827276 -0.40920395 -0.42584458 -0.3613203
0.020222606 -0.63038296 0.693672 -0.4158568 0.59972006 0.6597675 0.4168727 0.25464597
-0.71799743 0.4072698 0.36021337 -0.3013319 -0.62620604 -0.5585046 -0.12850656 0.49302348
0.06811929 0.3455565 0.53031594 -0.33482563 -0.083835416 0.14428493 0.38040978 0.4340572
-0.6372832 0.2640117 0.016850268 -0.22147536 -0.4760223 0.013349452 0.39808244 -0.027008306
-0.48031482 0.27975312 -0.6544607 0.032941155 0.041815273 0.43524215 0.51813775 0.6900338
-0.51156163 -0.24765316 0.29522857 -0.29663646 -0.48883578 -0.5932116 0.20001297 -0.26323786
-0.4644024 0.23152927 -0.5437572 0.39505 -0.43438748 0.21887663 -0.12918624 0.69067585
0.09086952 -0.39648655 -0.42701417 -0.16150022 -0.004264015 -0.3456185 0.68083686 -0.29072332
-0.35741654 0.5993947 -0.4350361 -0.38154843 -0.117427565 -0.13109455 0.50695264 0.18129961
-0.35109347 0.067781195 -0.36487263 -0.5361635 0.38135508 -0.07290967 0.20054357 -0.59037536
0.006213811 -0.40237793 -0.06311179 0.31858572 0.6173659 0.04102857 0.6880093 0.58850175
-0.24197479 0.6853356 -0.45472726 -0.5995636 -0.5402199 0.43481547 -0.06651386 0.4433169
-0.52313733 -0.27966666 0.08984185 -0.09855455 0.33236644 0.40828177 0.4360475 0.0024630774
-0.11542267 -0.40143427 -0.71798354 0.4954968 -0.06511039 -0.36899558 -0.40614992 -0.07194897
0.15307826 0.15824261 -0.22319892 0.2601325 -0.18855152 0.14238387 -0.004678502 -0.22043772
0.54281974 -0.4296117 0.27326667 0.65961975 0.32621464 0.48159057 -0.36405206 0.31094936
0.13097827 -0.18909791 0.068972334 0.48563868 -0.09395087 0.5663748 0.55745614 0.49924666
-0.448311 -0.5507128 0.10040341 -0.35998073 0.028811492 0.5845152 -0.093399495 -0.45450002
0.25120118 -0.41347042 0.35431883 -0.5743953 -0.5097479 -0.7029025 0.6108369 0.53712523
0.056757137 -0.70280373 0.23717174 -0.095467485 -0.37274474 -0.34036317 -0.45554808 -0.22327326
-0.6668657 0.28919518 -0.14694677 -0.19047101 0.39700064 -0.1685923 0.33645904 0.14358431
-0.19005659 -0.13602625 0.2663158 0.08173223 0.19715402 0.2416687 -0.3521681 -0.45120516
0.11557921 -0.6387838 -0.42678916 -0.1737142 0.25502884 0.68498826 0.21834742 -0.26751488

fcs.0.1.weight f4 [2, 2048]
00000000: 89f9 193c bb4f 313c 5273 ebbb 4e98 f6bb
00000010: 76b1 d2bb 3fc2 093d 7f26 3d3c 67bd 653c
00000020: cab7 aebc 18a5 adbc ffb4 123c b788 373c
00000030: 4a9e cbbc 319e a03c 05e5 e3bc 9590 7dbc
00000040: 676d 40ba 347e efbb 15c6 363c 7f90 8d39
00000050: 8de6 96bc 0b18 5b3c 0945 413c 780c d8bb
00000060: 7fc7 833c 69fd cabc 345a 4b3b 5bf2 05bc
00000070: 65bc 0fbc b518 a6bb bb26 3abc cbf8 6a3c
00000080: fa16 0f3d 0e66 c63b aecf 5fbc a72d 983c
00000090: abec 313c cffe 9fbc a9d2 7bbc c15d 15bc
000000a0: 4f7d 433b 5e5f cfbc 698d 60ba 4fa8 adbc
000000b0: 41b2 f6b9 92a8 9bbc 865f 1abc 0495 ba3b
000000c0: b317 26bc 75e2 a83c 29e2 18bd eb9f ebba
000000d0: 1c2f 2c3c ea8f ae3c 819c d5bc ccd9 aebb
000000e0: 09b2 993b f502 80bb 3ac2 9d3c d256 7b3c
000000f0: da38 9ebc a5b8 813c 176b 043c 24b0 83bc
00000100: d9c1 9abc 0b11 42bc fb0b 9e3b 80da d939
00000110: d504 18bd d20f 253d 346f 513c eac7 fabb
00000120: 5e93 6f3c f521 4dbc 216b 673c 7d40 0bbc
00000130: e14d aabb 3341 9fba efaa 543c 1156 7b3b
00000140: 7574 de3a 7b48 b3bb 2486 b23a 74e1 803c
00000150: c6d7 083d c549 e7bb ea0d 853b e3e8 933c
00000160: 9ec6 89bb d65e 59bc 8d7a a5bc 4cea 87bc
00000170: f7e7 833c 6617 6dbc 076a a43c 6840 91bc
00000180: cad3 423a fffb 86bb 988f 53bc e0a7 373a
00000190: 653d 76b8 887e 60bb 9eb4 d43c 5130 6b3c
000001a0: 905b 6abc 2792 6cbc d6c3 3c3c 4ca3 9b3c
000001b0: 61ae 933c 3071 a13c d7ec 45bc 3088 debc
000001c0: 3392 3dbc 0c03 01bb 1030 923b 6df3 20b9
000001d0: 5f1b 2bbc eb83 e33c 3cf6 b43c c075 a2bc
000001e0: a760 bfbb b5b4 623b d969 b63c f43b 10bc
000001f0: dee0 13bc 2296 313c 9f69 a13b b9ee 8a3c
00000200: 4a03 70bc c40a 663b 160f 6b3b 1947 6bbc
00000210: 6050 7e3c de6f 67bc 7b32 f73b 576e b33c
00000220: bb25 fc3a 2154 d63c bd7c 843c 3e7f 593c
00000230: 7ade 99bc d264 933c 01ce ee3b 6282 57bc
00000240: f022 103c e2e3 c6bb 0753 84bc becd 913c
00000250: 6cd7 913b 7111 93bc 7e92 b6ba 8407 97bc
00000260: ea23 563c 3e7c 94bc c59a 8e3b 375e d7bb
00000270: f03a 0ebc 0bd9 b4bc 4387 b6b9 97a3 583c
00000280: 520f debb 8331 fe3b a5ab 943b 59c4 073d
00000290: eb6e 9a3c 5557 97bc 053a 3bbb d147 a4bc
000002a0: 2f6e 13bd f140 95bc d229 29bc 1c45 5c3c
000002b0: ff02 d7ba c554 c0bc 26d9 84bc 7159 a9bc
000002c0: 8a14 563c e299 893c e01d 013c 6fd7 033c
000002d0: 250f e13c 8d99 1b3c 908c 073c 96b3 7abc
000002e0: a2ee d8bb cfdd 06bb a25b b7bc e1ed 663c
000002f0: 59b5 823b 5bc9 d43b c32f 74bc e1fe 14bc
00000300: ac92 27bb 2df6 2e3c 57c1 2a3c de26 adbc
00000310: 13a6 eebc 659b b5bc 0f30 95bc c133 71bc
00000320: 4b50 c23c cfd5 5e3c 86b3 f83b f32a e33b
00000330: 7d6d 89bc acf9 9f3a 5795 b4bc 926a cc3b
00000340: 9cfd 72bc db4e 963c b64c f73c 2d54 7e3b
00000350: 8170 493c 446a ddbb fb8e 203c b06d c8bc
00000360: 22f6 d7bc 97c3 44bc 9a28 e73b 41df 5d3a
00000370: b148 d83b cdc8 c0bc 90ec 88bc 094e 81bc
00000380: 9e7f 503c 6619 5abc c3da 13bc 696c 19bc
00000390: 0657 053d f25e 0bbd ec29 fbbb 8d4d 1e3c
000003a0: 12f1 a0bc b5a1 133c 9a77 9f3b 17f2 95bc
000003b0: 4af8 92bb 9de2 87bc 7aeb 35bc 1561 36bb
000003c0: 22ae 6fbc fdaa b03c 1366 daba 1604 3f3c
000003d0: cfe9 303c 4e3d 9e3b 89f4 cabc caff 5f3c
000003e0: b770 a53a 2bc0 083d 2ffa 50bc 6528 d4bb
000003f0: b20e 093a 9f29 8cbc 74ec cc3c 5a26 913c
0.009397873 0.010822232 -0.007185378 -0.0075254804 -0.0064298464 0.033632513 0.011544823 0.014022208
-0.021327872 -0.021196887 0.008954286 0.011202029 -0.024855752 0.019606682 -0.027819166 -0.015476366
-0.0007340521 -0.0073087458 0.011155625 0.00027001274 -0.018420482 0.0133724315 0.011796244 -0.0065932833
0.016086338 -0.024779039 0.0031029107 -0.008175458 -0.008772944 -0.0050688633 -0.011361773 0.014341543
0.03493402 0.0060546463 -0.013660355 0.018576456 0.010859649 -0.019530682 -0.0153700495 -0.009116591
0.0029829328 -0.02531403 -0.00085659936 -0.02119842 -0.00047053586 -0.019001279 -0.009422189 0.0056940336
-0.010137486 0.020615796 -0.037325058 -0.0017976736 0.010509279 0.021308858 -0.026075603 -0.005336022
0.004690413 -0.0039066025 0.019257654 0.015340524 -0.019314218 0.015835116 0.008082173 -0.016075201
-0.018891262 -0.011844884 0.0048232055 0.0004155226 -0.037113983 0.04029829 0.012782861 -0.007653226
0.014622537 -0.012520303 0.014124663 -0.008499262 -0.005197272 -0.0012150168 0.012980207 0.003835086
0.0016971963 -0.005471287 0.0013620299 0.015732504 0.033408903 -0.0070583546 0.0040604966 0.018055385
-0.004204585 -0.01326724 -0.020200038 -0.016591214 0.01610182 -0.014470911 0.020070089 -0.017730907
0.0007432072 -0.0041193957 -0.012912653 0.00070059113 -5.870815e-05 -0.0034255106 0.025965031 0.014354781
-0.014304057 -0.014439142 0.0115213 0.018998764 0.018027486 0.019707292 -0.012080393 -0.027164549
-0.011570501 -0.0019685654 0.004461296 -0.00015349472 -0.0104435375 0.027772864 0.02209007 -0.019831538
-0.0058403793 0.0034592573 0.022267269 -0.008803356 -0.0090257805 0.010839017 0.004925921 0.016959535
-0.014649222 0.0035101632 0.0035867146 -0.014360213 0.015522093 -0.014125792 0.0075438595 0.0219032
0.0019237319 0.026163163 0.016172761 0.013274966 -0.018782843 0.01799241 0.007287741 -0.013153644
0.008797392 -0.006069646 -0.016152872 0.0177983 0.004450729 -0.017952653 -0.0013929156 -0.0184362
0.013070086 -0.01812565 0.004351946 -0.0065725106 -0.008681044 -0.02207615 -0.00034814523 0.013222597
-0.0067767287 0.007757367 0.004537063 0.033146236 0.018851718 -0.01847426 -0.0028568518 -0.020053776
-0.03599375 -0.018219443 -0.010324912 0.013444211 -0.0016404091 -0.023477921 -0.016216826 -0.020672532
0.01306642 0.01679701 0.007880658 0.008046969 0.027473042 0.009497059 0.008273259 -0.015301606
-0.006620244 -0.0020578986 -0.022382561 0.014094801 0.0039889035 0.00649373 -0.014903965 -0.009093971
-0.00255696 0.01067881 0.010422072 -0.021136697 -0.029131925 -0.022168824 -0.018211393 -0.014721812
0.023719927 0.013600781 0.0075897602 0.00693261 -0.01677584 0.0012205145 -0.022043867 0.00623829
-0.014830973 0.018348148 0.030187946 0.0038807497 0.012294889 -0.0067570526 0.009799714 -0.024466366
-0.026362482 -0.012009523 0.0070544006 0.00084637484 0.0066004624 -0.02353325 -0.016714364 -0.01578428
0.012725739 -0.0133117195 -0.009024325 -0.009364226 0.032553695 -0.034026094 -0.0076649096 0.009662044
-0.019646201 0.009010722 0.0048665525 -0.018303914 -0.004485165 -0.01658755 -0.011103505 -0.0027828861
-0.014628919 0.021565909 -0.00166625 0.011658689 0.010797932 0.0048290854 -0.024774807 0.013671825
0.0012622093 0.03338639 -0.012754961 -0.006474542 0.0005228325 -0.01710969 0.025015093 0.017718483

fcs.0.1.bias f4 [2]
00000000: abbb 8abc 71df 32bc
-0.01693519 -0.01091753
