cache/2d_gm/dsmcusum/model_2/state_dict.pth (torch, 43240 bytes, 4 tensors)

fcs.0.0.linear.weight f4 [2048, 2]
000000 51 71 84 b9 42 d8 1e bf fd 4e 74 3d b9 52 33 bf
       -0.0002526143 -0.62048733 0.05964564 -0.700481
000010 74 f3 c2 3e 76 fe 25 3f 5b 0b 52 be 31 91 66 be
       0.38076365 0.648414 -0.20512144 -0.22516324
000020 ae 1f 32 3e 10 ca bb be 4f 5f 2e 3f 60 03 bd 3d
       0.17394897 -0.366776 0.6811418 0.09229159
000030 69 49 35 bb 07 10 17 bf 63 2b 01 3f c1 20 12 bf
       -0.0027662164 -0.5900883 0.5045683 -0.5708123
000040 65 f3 2d bf bf 97 1a bf c2 47 e6 bd f7 ce e3 be
       -0.67949516 -0.60387796 -0.112441555 -0.4449384
000050 38 ee e5 3e 5d ff 06 3f 38 cb 1b bf 79 e4 bd be
       0.4490831 0.52733403 -0.6085696 -0.37088373
000060 4c 87 c6 3d 1c 4d e0 bd 17 10 5f be 4e 85 23 bf
       0.096937746 -0.109522074 -0.21783482 -0.6387528
000070 b0 ae e0 3e 51 ff 4e be f4 3f d5 3e 82 22 2c be
       0.43883276 -0.20214583 0.41650355 -0.16810039
000080 e9 71 fb be 37 6f 2f bf c2 3d 09 bf 94 b8 1f be
       -0.49110344 -0.68529075 -0.5360986 -0.15597755
000090 b7 35 08 3c 7c 3f c0 3d 1b 05 fb 3e 1d 51 fa 3e
       0.008313588 0.09387109 0.49027333 0.4889001
0000a0 1a 43 ef 3e e4 8d 49 be 66 d3 eb be b8 e4 c1 be
       0.46730882 -0.19683033 -0.46059722 -0.3786981
0000b0 4d ad 4d 3e fd cc 2e 3e 7e de 89 be bd a6 8e be
       0.2008564 0.17070384 -0.2692756 -0.27861586
0000c0 3e 76 48 be 67 7c 9b be 74 69 b0 be 41 83 86 3e
       -0.19576356 -0.3036835 -0.34455454 0.26272014
0000d0 d6 85 0b 3f 4f 95 d7 bd 24 95 2d be 66 6c 08 bf
       0.5450109 -0.10526525 -0.16951424 -0.532904
0000e0 38 de cc be d6 f0 4e 3e ec 28 ca 3e 67 61 23 bf
       -0.4001329 0.20209059 0.39484346 -0.638205
0000f0 73 da ba 3e ea 6a 2b 3f f7 82 8a 3e d3 ac 2c bf
       0.3649479 0.6696001 0.27053043 -0.6745121
000100 ba 99 cb bd d3 81 b6 3d 3b db bd 3e 7a 78 ac be
       -0.099414304 0.08911481 0.37081322 -0.33685666
000110 97 5b 34 3f 33 f1 e9 3e 6d 38 1a 3f bf f9 85 bd
       0.70452255 0.45691833 0.6024235 -0.06541776
000120 f0 49 a8 be 98 a2 d9 be a9 3a ba be a6 9a 14 3f
       -0.3286891 -0.42506862 -0.3637288 0.58048475
000130 7e 73 e8 3d 34 2e ac 3e 3a 75 c3 be 3d cd 91 be
       0.113501534 0.33629 -0.38175374 -0.28476897
000140 20 9e 1d 3e ec c6 e6 be 73 ef fd be 64 b8 be 3d
       0.15392351 -0.4507364 -0.49596748 0.093125135
000150 8a bf e4 3e 8b 2e d2 3e 7a ee f8 bc e9 d1 ff be
       0.44677383 0.41051134 -0.030387152 -0.49964836
000160 3e 62 c6 be a9 8c c9 3e a0 19 3d be ef 8c f2 be
       -0.38746828 0.39365128 -0.18466806 -0.4737315
000170 bc 1f 94 bd f1 e1 b5 be 96 ae 9d 3e 97 2b 10 bf
       -0.07232615 -0.35523942 0.3079726 -0.5631651
000180 d2 a5 08 bf 50 fc 2c bf 0b b1 58 be 31 f4 e7 be
       -0.5337802 -0.675725 -0.21161287 -0.4530349
000190 bc 52 9b 3d 62 95 c3 3d af ab e9 be 40 c2 1d be
       0.0758414 0.09549977 -0.45638797 -0.15406132
0001a0 fb 6f 7c 3e 75 c7 08 3f 2d 05 f3 3e 12 44 2a bf
       0.24652092 0.5342935 0.47464886 -0.6651012
0001b0 53 b9 da 3e 04 9f 0a 3e 86 21 15 bf 58 8d d5 be
       0.42719516 0.13537222 -0.5825428 -0.417094
0001c0 6c 1b 1a 3f 1d 3c e2 3e 1b eb ab 3c d7 5c d0 3e
       0.6019809 0.44186488 0.02098613 0.4069583
0001d0 1f 56 6b 3e a8 bf 0e bf 8e 64 2b bf e2 64 33 3f
       0.22982071 -0.55761194 -0.6695031 0.7007581
0001e0 c2 e0 0b bf 3c 80 5f 3e 05 8f 32 bf 94 aa 1e bf
       -0.5463983 0.21826261 -0.6974948 -0.6197903
0001f0 1a c6 c6 bc 36 95 14 bf bc 87 f0 3e da 0e 4b 3e
       -0.024264384 -0.5804018 0.46978557 0.19829884
000200 ad db 09 3f 18 69 22 be 8b 74 66 3e cc b5 cf be
       0.53850824 -0.15860403 0.22505395 -0.40568388
000210 5f 27 1c bf 79 77 2d 3f f9 78 21 3f a0 39 2c bf
       -0.60997576 0.67760426 0.63075215 -0.6727543
000220 80 65 40 3e ee ae 8b 3a 0a 96 56 be da 2e ba bd
       0.18788719 0.0010656992 -0.20955673 -0.090909675
000230 b0 7f de be 3f 3f 97 be 0e 33 82 be ae c1 d2 be
       -0.43456793 -0.2954044 -0.25429577 -0.4116339
000240 eb 43 1e 3f 9c 33 eb 3e 6c d5 32 bf cf 1c bf 3e
       0.61822385 0.45937812 -0.69856906 0.37326667
000250 ce ce 11 3e f5 67 2a 3f 54 79 20 3c 8f ac 06 3e
       0.14239046 0.66564876 0.009794552 0.13151763
000260 ab bd c6 3e d3 8d 71 3e ab 9b d9 3e 31 b1 30 bf
       0.3881658 0.23589258 0.42501578 -0.6902037
000270 06 0c ed be ba 4a 1e bf a6 1c 05 3f ff 9d ec bc
       -0.46298236 -0.61832774 0.5199684 -0.028883932
000280 7b a6 7a be d5 22 49 be 00 48 0b be 4e 14 19 bf
       -0.2447757 -0.19642194 -0.13601685 -0.5979661
000290 8b c8 2a 3f 20 87 15 bf f6 0e af be 18 dc 8f 3d
       0.66712254 -0.5840931 -0.34191102 0.070244014
0002a0 89 84 c2 be 91 c1 33 be 80 6e 9f 3e 39 ff ac 3e
       -0.3799174 -0.17554308 0.31138992 0.3378847
0002b0 c5 c5 e4 be 83 d8 44 be 04 77 b9 3e 3e a0 1c 3f
       -0.44682136 -0.19223218 0.36223614 0.6118201
0002c0 af 6f 0b 3f 1a 70 fd be 14 00 95 bd fd 1a d4 be
       0.5446729 -0.4949959 -0.072754055 -0.4142684
0002d0 44 44 8c bd 6e d7 33 3f 50 16 1e bf 57 06 93 3e
       -0.06848958 0.70250595 -0.61752796 0.28715774
0002e0 2a 06 04 3e 6d 22 10 be 4c 3b e2 3e 3f 15 2d be
       0.12892976 -0.14075632 0.44185865 -0.16902636
0002f0 6c 2b 30 3f 9e 97 15 3f a4 68 b4 3c 7c 08 0c 3e
       0.68816257 0.58434474 0.022022553 0.13675112
000300 2a f8 04 3f 7b 6e 46 be a6 f5 27 bf 52 a9 b8 3d
       0.5194117 -0.19378082 -0.65609205 0.0901667
000310 15 8b db 3e 44 4a 24 3e 26 42 23 3f 2c ba ff 3e
       0.4287955 0.16043955 0.6377281 0.49946725
000320 ba f5 02 bd 73 d3 34 3e 5b 80 37 3f 69 e2 0c 3f
       -0.031972624 0.17658786 0.7168023 0.55032974
000330 d8 da a8 3e 58 22 e5 be 8c 6e 95 be c7 63 14 bf
       0.32979465 -0.44752765 -0.29185903 -0.5796475
000340 e4 74 89 3e 3f 22 84 be 7d c5 15 be e2 bf 2d bf
       0.26846993 -0.25807378 -0.14626117 -0.67870915
000350 66 ab 53 3e 9d b5 fa 3e c7 3a 8f 3d af 1f 1a bf
       0.20670852 0.48966685 0.06993633 -0.60204595
000360 a8 ae a6 be db bc e2 be cd 7e 0a 3f 4b 2c 00 3f
       -0.32555127 -0.4428471 0.5409973 0.50067586
000370 8f a0 23 be 7f 31 9c be 07 c4 21 bf 03 e8 db 3e
       -0.15979217 -0.30506513 -0.6318974 0.42950448
000380 44 05 19 bf 50 ca 97 3e 4e cb 15 3f 45 c1 0b 3f
       -0.5977366 0.2964654 0.58513343 0.5459178
000390 19 42 0b 3f a2 35 38 3d 3e 60 15 3e 67 4a 1a 3f
       0.5439773 0.044973023 0.14587495 0.6026978
0003a0 55 dc 82 3e fc a5 24 bf 97 7d 92 bd 1f d1 03 3e
       0.25558725 -0.6431577 -0.071528606 0.12872742
0003b0 86 86 00 bf f3 6a 0c bf 3c fc 36 bf 69 9e 04 bf
       -0.50205266 -0.5485069 -0.7147863 -0.51804215
0003c0 10 f6 93 3e 06 2d a0 be a2 fa b8 bd d4 38 ec be
       0.28898668 -0.3128435 -0.090321794 -0.46137106
0003d0 30 c8 df be 81 21 bc bd 81 fe 25 be cf 6b 59 3e
       -0.43707418 -0.09186078 -0.16210367 0.21232532
0003e0 ac cc 8f 3e e8 5a 90 bc 4b 6c d9 be ef 6a cd be
       0.2808584 -0.017621472 -0.42465433 -0.40120646
0003f0 49 36 1b bf d1 12 b9 3d 72 cf 6f be f0 79 2e bf
       -0.6062971 0.09036792 -0.23418978 -0.6815481

fcs.0.0.linear.bias f4 [2048]
000000 09 5d d2 be ec 57 ca be 55 d2 c2 be b4 6d 31 bf
       -0.41086605 -0.39520204 -0.38051096 -0.6930802
000010 52 00 19 3f 4c cb 26 3f 91 bc 6f be f0 81 e1 bc
       0.59766114 0.65153956 -0.23411776 -0.02752778
000020 76 3a 20 3f bd 89 6e be f6 ae e1 be 14 f1 eb be
       0.62589204 -0.2329473 -0.44078797 -0.46082366
000030 e6 97 85 be e8 46 bb 3e c8 56 c7 3c 4a ba 0c bc
       -0.26092452 0.36577535 0.024333373 -0.008589337
000040 a6 86 5e be f4 46 d1 3e 84 d6 69 3e 72 32 2c 3f
       -0.21731052 0.40874445 0.22835737 0.67264473
000050 05 da 49 3e ff 90 1a be ae 61 97 be e3 52 30 bf
       0.19712074 -0.15094374 -0.2956671 -0.68876475
000060 05 97 97 3e 87 af 17 3f 41 c2 9e 3e d5 94 7b 3e
       0.29607406 0.5925221 0.3100758 0.24568494
000070 62 a2 42 3e 23 a2 ad 3e f3 9a 1a 3f 70 30 09 bf
       0.19007257 0.33912763 0.60392684 -0.53589535
000080 7c b5 3e be c8 a0 ea bb 31 8f a1 be de c4 7e 3e
       -0.18623918 -0.00716028 -0.3155456 0.24879786
000090 be a3 1e bf 91 01 09 3e 38 42 ec bd df b2 d7 3e
       -0.619686 0.13379504 -0.11536068 0.42128655
0000a0 bd 1b 05 bd 95 ed 00 3f a0 9c 12 bf 28 6a 04 bf
       -0.032497156 0.5036252 -0.5727024 -0.5172448
0000b0 03 48 25 bd e1 26 1b 3f 0d db 1e bf 2e e1 14 3f
       -0.04035188 0.606062 -0.62052995 0.58156097
0000c0 a2 13 85 3e 97 2a b9 3e f4 49 a3 be 6e 8e c0 3e
       0.2599154 0.36165306 -0.3189236 0.37608665
0000d0 96 6d 7b 3e ea 13 a9 3d 0f bd 20 bf b5 e0 c9 3e
       0.24553522 0.082557514 -0.6278848 0.3942925
0000e0 53 8d 67 3e 8c 20 fc be 17 8f 15 3f 67 ee 72 3e
       0.22612505 -0.4924358 0.5842146 0.23723756
0000f0 19 3a af 3e 9a 9f 98 be 5f df 0a bf ce 59 0c bf
       0.34224012 -0.29809266 -0.5424709 -0.5482453
000100 57 ae 3f be 22 b1 9a be 73 5e 66 be e7 81 6e 3e
       -0.18718849 -0.30213267 -0.22496967 0.23291741
000110 af dd c5 be d2 9a d2 be f7 ba e1 be 0c c1 c1 be
       -0.38645694 -0.41133744 -0.44087955 -0.37842596
000120 d1 1e 15 3c e4 d6 1c bf b2 64 3a 3f bf a2 e5 be
       0.0091015855 -0.612654 0.728099 -0.44850728
000130 dc b3 1f 3f 48 d3 28 3f 22 1f d4 3e 9f 8b 7b 3e
       0.6238382 0.6594739 0.41430002 0.2456498
000140 06 2b 3d bf 3c f8 d0 3e d6 a9 b6 3e 47 1e a1 be
       -0.73893774 0.40814388 0.3567645 -0.31468412
000150 47 73 26 bf 0d a9 0c bf bd c1 01 be 75 39 f6 3e
       -0.6501965 -0.5494545 -0.12671562 0.4809071
000160 5d 4b 62 3d 84 ca af 3e b1 ff 07 3f 85 76 a8 be
       0.055247653 0.34334195 0.5312453 -0.32902923
000170 07 43 8f bd f8 fb 0a 3e a4 fe c2 3e d5 3a df 3e
       -0.06995206 0.13572681 0.380849 0.43599573
000180 2e f1 25 bf 92 ff 7d 3e 8f 50 2f 3c bc 2e 77 be
       -0.64821136 0.24804524 0.010700359 -0.24138921
000190 67 b0 ff be 45 88 04 bc dc 3c c8 3e b0 a8 30 bd
       -0.49939272 -0.00808913 0.39108932 -0.043129623
0001a0 2d a5 f3 be e1 c3 91 3e 40 85 29 bf 0e 5b e6 3c
       -0.47586957 0.28469756 -0.6621895 0.02811959
0001b0 a1 4b 61 3d f0 ae d8 3e 96 0f 0a 3f 4b 4f 2e 3f
       0.055003766 0.42320967 0.5393003 0.6808974
0001c0 e2 66 fc be 01 c5 73 be f4 81 90 3e 37 32 9d be
       -0.49297243 -0.2380562 0.28224146 -0.30702373
0001d0 76 9b f3 be ff 0a 1d bf d7 7c 4d 3e 5d 30 84 be
       -0.47579545 -0.61344904 0.20067154 -0.25818148
0001e0 d4 9b f4 be fc 78 71 3e f0 cc 09 bf a3 78 cf 3e
       -0.47775137 0.23581308 -0.53828335 0.40521726
0001f0 6e 98 e7 be c9 29 53 3e c5 11 18 be 7d dd 31 3f
       -0.45233482 0.20621409 -0.14850529 0.6947859
000200 ff 0b a7 3d 2b 13 ce be e6 b1 d7 be 66 01 04 be
       0.08156585 -0.40249 -0.42127913 -0.12891158
000210 17 4b 1a bc 03 1a b3 be 45 b1 2f 3f c1 27 8a be
       -0.009417317 -0.34980783 0.68629867 -0.26983455
000220 2b 32 b3 be 01 2d 1b 3f 18 0c d8 be 5b 84 c1 be
       -0.34999213 0.60615546 -0.42196727 -0.37796292
000230 b2 76 e4 bd e7 61 13 be 92 53 02 3f d1 6b 37 3e
       -0.11155452 -0.14392816 0.5090877 0.17912222
000240 db 42 c1 be d3 67 8f 3d 7e 53 ad be dd 64 0a bf
       -0.3774632 0.07002225 -0.33852762 -0.54060155
000250 4e 83 c7 3e db ec 93 bd 5b 61 32 3e a5 f4 13 bf
       0.38967365 -0.07222911 0.1741995 -0.5779517
000260 3f 68 6b 3b 4c 90 cd be fe b9 20 bd eb 10 a3 3e
       0.003592029 -0.40149152 -0.039239876 0.31848845
000270 af 76 13 3f af 9d fb 3c d6 6a 2b 3f 65 6d 1b 3f
       0.5760297 0.030714838 0.66959894 0.607138
000280 27 28 7b be ae b7 33 3f 28 7b f4 be ea 0f 18 bf
       -0.24527036 0.7020215 -0.4775021 -0.5939928
000290 d1 e7 0b bf 5a 1d db 3e cc 2f 99 bd a0 ee e6 3e
       -0.546506 0.4279583 -0.0747982 0.4510393
0002a0 39 29 09 bf 00 08 8f be df b7 dc 3d 6d 34 fe bd
       -0.53578526 -0.2793579 0.10777258 -0.12412343
0002b0 1d 95 b0 3e 80 d2 ca 3e 3f 37 e7 3e 44 12 ce 3a
       0.34488764 0.39613724 0.45159337 0.0015721996
0002c0 45 62 d4 bd fa 71 c0 be 12 f0 3b bf 67 90 01 3f
       -0.10370306 -0.37586957 -0.73413193 0.50610965
0002d0 2c 2c 6e bd f6 92 c0 be 3b e5 de be ab b6 ba bd
       -0.058147594 -0.37612122 -0.43534264 -0.091168724
0002e0 8d da 1b 3e 52 9c 0c 3e e0 b8 54 be 02 fc 89 3e
       0.1522009 0.13731506 -0.20773649 0.2695008
0002f0 33 10 45 be 54 a3 19 3e fb c8 af bc 37 25 5c be
       -0.19244461 0.15003711 -0.02145814 -0.21498571
000300 00 3c 0b 3f 04 78 dd be 30 27 88 3e e8 97 29 3f
       0.5438843 -0.43255627 0.26592398 0.66247416
000310 09 0d b4 3e 8e fc f1 3e 1f d5 b6 be 2f ea 9f 3e
       0.35166195 0.47262996 -0.35709473 0.31233355
000320 29 e0 e4 3d c1 bb 45 be a8 d6 7d 3d ed e7 f3 3e
       0.11175568 -0.19309904 0.06197229 0.47637883
000330 0a e7 ba bd 81 a0 10 3f 1a 53 13 3f b5 da 09 3f
       -0.091260985 0.5649491 0.5754868 0.53849345
000340 0e a0 f0 be 8a 4e 0f bf fb d5 c8 3d 8a 9f b3 be
       -0.46997112 -0.55979216 0.098064385 -0.35082656
000350 0a a5 00 3d e4 fa 1d 3f a5 df a9 bd 29 c4 e7 be
       0.031407394 0.61710954 -0.0829461 -0.45266846
000360 9f 30 6f 3e fd bf d1 be c1 0c b7 3e 36 4e 19 bf
       0.23358391 -0.40966788 0.35751918 -0.59884965
000370 2a 52 0a bf 13 b8 32 bf 9e 01 20 3f 01 e6 0c 3f
       -0.5403162 -0.69812125 0.6250247 0.5503846
000380 f0 b3 b9 3d da 25 42 bf 80 ed 88 3e b2 c0 98 bd
       0.090675235 -0.75839007 0.26743698 -0.07458629
000390 38 fc bb be 7f 58 b5 be af 86 e1 be 8e d0 5f be
       -0.36715865 -0.3541908 -0.44048068 -0.21856901
0003a0 71 e9 29 bf 1a 6e 97 3e 99 77 fa bd 83 a3 36 be
       -0.6637183 0.29576188 -0.12229843 -0.17835812
0003b0 1c 5b cb 3e 14 55 27 be cc 08 ac 3e c8 1f 21 3e
       0.39717948 -0.16341048 0.3360046 0.1573478
0003c0 11 35 2d be 0a 09 fb bd cb 46 78 3e 67 86 5d 3d
       -0.16914774 -0.122575834 0.24245755 0.054083254
0003d0 7c e3 3b 3e cb 97 61 3e 41 62 bf be 43 8f ef be
       0.18348497 0.2203056 -0.3737965 -0.46788988
0003e0 45 cc f9 3d bd f1 24 bf 27 48 d9 be 82 b2 3b be
       0.121971644 -0.64431363 -0.4243786 -0.18329814
0003f0 35 17 83 3e fd 96 2d 3f 50 56 58 3e 74 fd 86 be
       0.25603643 0.67808515 0.21126676 -0.26365244

fcs.0.1.weight f4 [2, 2048]
000000 c5 ff 21 3c b3 e8 3f 3c 82 74 bb bb 14 de 8b bc
       0.00988764 0.011713195 -0.005720676 -0.017073669
000010 63 f0 9d bb 56 c4 19 3d 0c dd 44 3c a5 3b 82 3c
       -0.004819916 0.037540756 0.012015592 0.015897581
000020 4c 45 af bc 77 cc a9 bc d1 64 33 3c c0 34 2c 3c
       -0.021395348 -0.02072738 0.0109493295 0.010510623
000030 e3 f8 01 bd bf 13 93 3c a4 4e 03 bd e8 90 a5 bc
       -0.031731497 0.017953752 -0.03205742 -0.020210698
000040 ca 32 64 39 92 c0 44 bc e6 94 34 3c d9 93 6f b9
       0.00021762695 -0.012008803 0.011021828 -0.00022847894
000050 ca 16 bf bc 6e f8 7b 3c d1 75 11 3c 59 68 46 bc
       -0.023326296 0.0153790545 0.008878187 -0.012109839
000060 a7 35 87 3c 5c 1f d9 bc ba 0f e5 3b e5 90 1e bc
       0.016505076 -0.026504211 0.0069904 -0.0096781
000070 98 b6 2a bc 8c d4 6e bb 54 0a 3d bc 60 94 5c 3c
       -0.01041951 -0.0036442606 -0.011538107 0.01346311
000080 02 a7 29 3d 9a 28 df 3b e4 32 7a bc 22 9a ca 3c
       0.041419037 0.00681026 -0.015270922 0.0247317
000090 ff 16 07 3c b2 c8 a3 bc f0 59 81 bc 42 27 41 bc
       0.008245229 -0.01999316 -0.015789956 -0.011789145
0000a0 4d b8 f1 39 16 ee f1 bc c9 2d b9 ba e3 ef aa bc
       0.00046104417 -0.029532474 -0.0014128025 -0.02086634
0000b0 8d d2 a7 3a ec 27 ae bc 9c 38 09 bc 06 18 da 3b
       0.0012803838 -0.02125927 -0.008375313 0.006655696
0000c0 44 ed 07 bc 8f 81 9e 3c 5e aa 66 bd e4 b6 d5 bb
       -0.008296315 0.019348888 -0.05631482 -0.0065220464
0000d0 d8 9e 3c 3c 73 0b bd 3c f7 58 f4 bc d3 e3 dc bb
       0.011512481 0.023076748 -0.029827578 -0.006741026
0000e0 49 14 b5 3b 01 8d 55 bb c6 40 96 3c d3 cf 7f 3c
       0.0055261 -0.0032585266 0.018341433 0.015613514
0000f0 36 f1 ad bc dc c6 93 3c 40 07 09 3c bc fb 9d bc
       -0.021233182 0.01803916 0.008363545 -0.019285075
000100 b0 36 c6 bc fd 3c 61 bc d3 c5 ef 3b a0 de 3e 3b
       -0.024195999 -0.013747451 0.0073172837 0.0029124394
000110 81 df 62 bd 56 df 56 3d c3 88 57 3c a8 63 03 bc
       -0.05538893 0.052459083 0.013155165 -0.008019365
000120 d7 46 7a 3c 3a 8b 81 bc 29 e3 6b 3c 0e 2e 24 bc
       0.015275679 -0.015813459 0.014397421 -0.010020746
000130 c8 29 84 bb b6 20 62 3a f7 45 71 3c ee 61 1f 3c
       -0.004033301 0.000862609 0.014726154 0.009727938
000140 a9 10 a2 bb f2 27 df bb ba 35 6c 3b 72 c2 c2 3c
       -0.0049458337 -0.006810182 0.0036042766 0.02377436
000150 c1 fa 29 3d 73 7b 09 bc 5e 79 14 b8 43 9b 93 3c
       0.041498903 -0.008391249 -3.539898e-05 0.01801837
000160 34 70 3b bb 6a e5 63 bc 3a d2 a2 bc 57 ec b7 bc
       -0.0028600814 -0.013909677 -0.019875634 -0.022451563
000170 e1 49 80 3c 51 ca 94 bc 81 57 b0 3c aa f8 95 bc
       0.015660228 -0.018162878 0.0215261 -0.018307049
000180 16 94 29 39 41 da 63 bb 41 79 85 bc a5 64 c5 3a
       0.00016172262 -0.003476754 -0.01629317 0.0015059902
000190 97 11 86 3b 69 90 04 bb a8 7b eb 3c 2f fb 82 3c
       0.0040914523 -0.0020227677 0.028745487 0.015988914
0001a0 8d e3 9c bc 28 b3 80 bc ef 5d 0a 3c 46 08 9e 3c
       -0.019151473 -0.015710428 0.008445247 0.019291054
0001b0 d6 76 a0 3c 40 81 a8 3c c5 74 7d bc 5d 52 ec bc
       0.019587915 0.020569444 -0.015469735 -0.028847868
0001c0 a1 d1 85 bc 04 1c 0a ba 02 6b 14 3c 91 54 c1 ba
       -0.01633531 -0.0005268457 0.009058716 -0.0014749934
0001d0 5e 02 3c bc 74 59 27 3d 16 40 c3 3c d9 b7 96 bc
       -0.011475174 0.040856794 0.02383427 -0.018398212
0001e0 34 6d 2b bc 69 7a 14 3b d5 af f4 3c 21 64 3b bc
       -0.010463048 0.002265597 0.029869 -0.011437447
0001f0 2b 1f 95 bc 86 f9 45 3c 45 5b 0a 3c c4 47 75 3c
       -0.018203339 0.012083417 0.008444612 0.014970724
000200 ec a6 bc bc 7a 54 27 3b c2 89 9b ba 9b 50 73 bc
       -0.023028813 0.002553253 -0.0011866617 -0.014850761
000210 4f 37 8c 3c 95 78 5b bc aa 56 d8 3b 68 ef ba 3c
       0.017116217 -0.013395448 0.006602128 0.022819236
000220 bd 24 31 3b d1 62 fa 3c 63 26 8f 3c 39 f0 f8 3b
       0.0027029954 0.030564697 0.017474359 0.007596996
000230 aa 4d 94 bc 13 40 a7 3c 6a 53 da 3b 01 ec 40 bc
       -0.01810344 0.020416295 0.0066627758 -0.011775018
000240 32 be 18 3c 03 ac 92 bb 2b e1 90 bc ec 16 af 3c
       0.00932269 -0.004476072 -0.017685493 0.021373235
000250 0a 49 04 b9 ff b0 bc bc 38 ce 8c ba aa 32 a4 bc
       -0.0001261571 -0.023033617 -0.001074261 -0.02004369
000260 1c bb 30 3c 95 3f 91 bc 83 a2 9a 3b 72 93 04 bc
       0.010786798 -0.017730514 0.00471908 -0.008091794
000270 95 c4 1d bc d6 95 d6 bc 63 24 18 3b a5 5b d7 3b
       -0.009629388 -0.026194494 0.0023215048 0.006572204
000280 e4 15 a8 ba 5a 0f 00 3c 4e c4 a6 3b 05 f4 23 3d
       -0.0012823907 0.00781616 0.0050893193 0.040027637
000290 43 58 a3 3c 34 79 a1 bc 37 25 10 bb fa 6b a1 bc
       0.019939547 -0.019711114 -0.0021994838 -0.019704808
0002a0 e3 20 31 bd 77 7a 85 bc f3 6d 1e bc 14 29 50 3c
       -0.043244254 -0.016293747 -0.009669769 0.012705106
0002b0 33 d5 61 ba 56 17 bc bc 79 07 9e bc 1c 69 c2 bc
       -0.0008614838 -0.022960346 -0.019290673 -0.02373176
0002c0 20 3c 67 3c 9e 7b 8b 3c 72 63 46 3c 8b c0 22 3c
       0.014113456 0.017026719 0.012108671 0.009933601
0002d0 be 43 0b 3d 07 48 81 3c 40 4c 09 3c 31 a7 9f bc
       0.03400015 0.015781416 0.008379996 -0.019488903
0002e0 d2 cd a6 bb c7 d0 82 ba fb 60 db bc 5a b3 60 3c
       -0.0050904537 -0.0009980433 -0.026779642 0.013714636
0002f0 35 b1 1a ba 76 bb 05 3c 91 99 79 bc 37 89 16 bc
       -0.00059010397 0.00816237 -0.015234367 -0.009187988
000300 ff 4c a5 bb d9 8e 3d 3c b6 2a 6d 3c e7 e3 e0 bc
       -0.005044579 0.011569702 0.014475515 -0.027452422
000310 a5 26 04 bd 02 da f2 bc 25 b3 97 bc 40 23 85 bc
       -0.032263417 -0.02964497 -0.01851804 -0.01625216
000320 61 4b f2 3c c0 f5 29 3c c0 de 16 3c 76 ce ff 3b
       0.02957696 0.010373533 0.009208381 0.0078065945
000330 27 23 65 bc db de ca bb e5 b3 d9 bc 67 2e e2 3b
       -0.013985432 -0.006191117 -0.026575038 0.0069025042
000340 19 83 8b bc 44 2c 9b 3c 38 85 16 3d 4b 14 83 3b
       -0.017030286 0.018942006 0.03674814 0.004000222
000350 e3 34 3e 3c 84 05 cc bb bd e2 31 3c 52 f4 eb bc
       0.011609289 -0.0062262435 0.010857281 -0.028803024
000360 21 53 f4 bc 08 8a 90 bc f6 b6 cc 3b 75 d6 2b 3a
       -0.029824795 -0.017643943 0.0062473966 0.0006555089
000370 99 3d 27 3c 6b 23 d8 bc eb 96 8c bc 9f df 99 bc
       0.010207557 -0.026384076 -0.017161807 -0.018783389
000380 c8 96 79 3c f4 92 9a bc 70 07 a4 bb ed a7 2f bc
       0.015233703 -0.0188689 -0.0050057694 -0.010721189
000390 71 b9 21 3d e4 02 48 bd f9 0a c0 bb be 55 29 3c
       0.03948349 -0.04883088 -0.005860683 0.010335384
0003a0 79 37 ba bc bb 41 e7 3b cd 2e c0 3b 72 a2 a5 bc
       -0.02273153 0.007057396 0.005864954 -0.020219062
0003b0 5e bc 83 bb 34 33 8e bc 78 51 7d bc 66 ba 88 ba
       -0.004020258 -0.0173584 -0.015461318 -0.0010431528
0003c0 b7 fc 99 bc 9c e9 b8 3c 4b 61 bb ba 57 38 35 3c
       -0.018797262 0.022572331 -0.0014295963 0.011060796
0003d0 26 dd 41 3c 9f f1 a5 3b 7f b3 e0 bc fd 8c 64 3c
       0.011832511 0.005064204 -0.02742934 0.01394963
0003e0 27 2b c4 3a 45 c1 1b 3d d7 55 65 bc 21 1b 98 bb
       0.0014966474 0.038026113 -0.013997517 -0.004641906
0003f0 8e 0a 01 3b d6 a9 9b bc a6 6c d0 3c 06 91 8d 3c
       0.001969013 -0.019001883 0.025442433 0.017281067

fcs.0.1.bias f4 [2]
000000 81 6b 93 bc 2e 48 8e bb
       -0.017995598 -0.0043421006
