cache/tradeoff_exp/trial_0/iter_10.pth (torch, 586354 bytes, 600 tensors)

fcs.0.0.linear.weight f4 [128, 1]
0	0xbf04b564	-0.5183928
1	0xbe91a96c	-0.2844957
2	0xbf26ba57	-0.6512808
3	0x3ed9658c	0.42460287
4	0x3ddb08f9	0.10695071
5	0xbeb122e6	-0.34596938
6	0xbdcd1f52	-0.100157395
7	0xbca26e00	-0.019827843
8	0x3f5a1d6e	0.85201156
9	0x3f65f6da	0.8982979
10	0xbf461195	-0.7737058
11	0x3eb8bf8f	0.36083648
12	0x3ec866e5	0.39141002
13	0x3ec10206	0.37696856
14	0xbdff1e79	-0.12456984
15	0x3e7b3117	0.24530445
16	0x3e7c759d	0.24654241
17	0x3f7a8bd8	0.97869635
18	0xbf767003	-0.96264666
19	0xbec04653	-0.37553653
20	0xbf2b1fa4	-0.66845155
21	0xbef6e9b2	-0.4822517
22	0x3e4d8178	0.2006892
23	0x3f1d6c21	0.61493117
24	0xbf4212b3	-0.7580978
25	0x3f27c119	0.6552902
26	0x3f57272d	0.8404415
27	0xbefa8727	-0.48931238
28	0x3e36278a	0.1778852
29	0xbf02d938	-0.511127
30	0x3e5e61ee	0.21717045
31	0xbeef5609	-0.46745327
32	0xbec5ff4a	-0.38671333
33	0xbf2c3592	-0.6726924
34	0xbf5470af	-0.8298444
35	0x3f4ad854	0.7923634
36	0xbdffa23c	-0.124821156
37	0xbce34380	-0.027742147
38	0xbefd7ccb	-0.49509272
39	0x3f33f570	0.7029638
40	0xbf11bf18	-0.5693221
41	0xbed13e2c	-0.40867746
42	0xbf48bc26	-0.7841209
43	0xbf5619c6	-0.8363308
44	0x3f64c937	0.8936953
45	0xbf449843	-0.7679483
46	0xbe0fdc6d	-0.1404893
47	0xbe960e01	-0.2930756
48	0x3ebe728c	0.37196767
49	0x3e8f5d8b	0.28001055
50	0xbf44d5f6	-0.7688898
51	0x3f648f3b	0.8928105
52	0xbf80032f	-1.0000972
53	0x3dbf05ca	0.09327276
54	0xbdb643b9	-0.08899636
55	0xbe7176ab	-0.23580424
56	0x3f2d1190	0.67604923
57	0x3f572994	0.8404782
58	0x3e0563c8	0.13026345
59	0xbeb56910	-0.3543172
60	0x3f3cac90	0.7370081
61	0x3f2214ef	0.6331319
62	0x3e3568f0	0.17715812
63	0xbe8d2053	-0.27563724
64	0x3d405587	0.046956565
65	0x3f6330c1	0.8874627
66	0x3dde1830	0.10844457
67	0xbe3994f0	-0.18123221
68	0xbf59d29c	-0.8508699
69	0xbf086dac	-0.53292346
70	0x3f378ea4	0.7170203
71	0xbd224abf	-0.039622065
72	0xbd8ef70e	-0.06980716
73	0x3ec4e101	0.38452914
74	0xbf298101	-0.6621247
75	0xbd87cb1d	-0.06630538
76	0xbe8b358d	-0.27189294
77	0x3f07ee0d	0.5309761
78	0x3f4ef1b4	0.8083756
79	0x3f1f5b8a	0.6224905
80	0x3f405ae7	0.75138706
81	0xbf63c218	-0.8896804
82	0xbeb79d3c	-0.35862148
83	0x3defe3f9	0.11713404
84	0xbf585651	-0.8450671
85	0x3e8b3054	0.2718531
86	0xbf27150f	-0.6526651
87	0x3ed88a08	0.4229281
88	0x3f4db35f	0.80351824
89	0xbf5c2459	-0.8599296
90	0x3f553557	0.83284515
91	0x3eeb236d	0.45925465
92	0xbf2a058c	-0.66414714
93	0x3f766180	0.96242523
94	0xbf5cbca1	-0.86225325
95	0xbf2b2e64	-0.6686766
96	0xbf006d95	-0.5016721
97	0xbd438a26	-0.04773917
98	0x3e321244	0.1738978
99	0xbe9604f4	-0.29300654
100	0xbf719ca3	-0.94379634
101	0xbdf1bb6f	-0.11803328
102	0x3f40c004	0.7529299
103	0x3f43a15c	0.7641809
104	0x3efd3c85	0.49460235
105	0x3e105aaf	0.14097093
106	0x3e78e342	0.24305442
107	0xbf467010	-0.77514744
108	0x3ed0dd30	0.40793753
109	0xbf7da534	-0.99080205
110	0xbed8f853	-0.42376956
111	0xbe84f561	-0.2596846
112	0x3f3a7f17	0.72850174
113	0xbd198c29	-0.037487183
114	0xbee729ad	-0.45148984
115	0x3e38ce94	0.18047553
116	0xbf552952	-0.83266175
117	0xbe8574a8	-0.26065564
118	0x3e8aac75	0.270847
119	0xbd8fb6ad	-0.070172645
120	0xbddd00d5	-0.10791174
121	0x3f1b2a10	0.6061106
122	0xbf41a118	-0.75636435
123	0xbeff0259	-0.4980648
124	0x3f78f712	0.97252
125	0x3e4adaf1	0.19810082
126	0xbe2e6810	-0.17031884
127	0x3f062279	0.5239635

fcs.0.0.linear.bias f4 [128]
0	0x3f1ae9e2	0.60513127
1	0xbe26305a	-0.16229382
2	0xbed7de27	-0.42161676
3	0xbe3416af	-0.17586778
4	0x3eba626f	0.36403224
5	0xbe078e51	-0.13237883
6	0x3f16be56	0.5888418
7	0xbf50c3a4	-0.81548524
8	0xbf010c71	-0.5040961
9	0x3f472791	0.7779475
10	0x3e0164f4	0.12636167
11	0x3e3f0cc3	0.18657212
12	0x3eaf272a	0.34209567
13	0xbe7e63bb	-0.24842732
14	0xbed0b20c	-0.4076084
15	0x3e90b500	0.28263092
16	0xbe8e1a7d	-0.27754584
17	0xbecce664	-0.40019524
18	0x3e01da57	0.12680946
19	0x3e796679	0.24355496
20	0xbdaf0a75	-0.085469164
21	0xbf2dbd99	-0.6786743
22	0xbe11b349	-0.14228548
23	0xbf0dd186	-0.5539783
24	0x3f05ed46	0.52315176
25	0xbf26b30f	-0.6511697
26	0x3f4fa5ec	0.8111255
27	0x3eccbe9d	0.39989176
28	0xbf5ac9a7	-0.8546395
29	0x3f3dcf6c	0.74144626
30	0xbf7d0062	-0.9882871
31	0xbd80b550	-0.062845826
32	0xbf2068e0	-0.62660027
33	0xbf5debc3	-0.8668787
34	0x3dd0e75c	0.10200378
35	0xbeff9065	-0.49914852
36	0x3f3aa8e4	0.72913957
37	0xbf493e7e	-0.7861098
38	0x3f5470d0	0.8298464
39	0x3f1e4d35	0.6183656
40	0x3f5feec4	0.874737
41	0xbe986e5e	-0.29771703
42	0xbf1dd327	-0.6165032
43	0xbf2982b0	-0.6621504
44	0x3f589fa4	0.8461859
45	0xbefc7483	-0.4930764
46	0xbe0114e0	-0.1260562
47	0xbe228da2	-0.15874341
48	0x3e3e98c0	0.18612957
49	0xbf4f89ba	-0.8106953
50	0x3f4da518	0.8033004
51	0xbf4069c0	-0.7516136
52	0x3f7ad4dd	0.97981054
53	0xbec991f5	-0.3936917
54	0xbee36de5	-0.4441978
55	0xbe11f8e6	-0.14255103
56	0x3e92e1ea	0.28687984
57	0xbe3febe3	-0.18742327
58	0xbf7f801a	-0.9980484
59	0x3f32ad7f	0.69795984
60	0x3f7a7a93	0.97843283
61	0x3f036811	0.5133067
62	0x3f78c87f	0.9718093
63	0x3e8a46e7	0.2700722
64	0xbd8637bc	-0.06553599
65	0xbf4d758b	-0.8025748
66	0xbf5fbeca	-0.87400496
67	0xbf333362	-0.7000028
68	0xbe848b61	-0.25887588
69	0x3f151f79	0.5825115
70	0xbed9581a	-0.4245003
71	0xbd2d6dca	-0.04234103
72	0xbc92e64e	-0.017932083
73	0xbf2ab4b5	-0.6668199
74	0xbd03eff1	-0.032211248
75	0x3f792e47	0.9733624
76	0x3f5003a4	0.81255555
77	0x3f455f01	0.7709809
78	0xbde4644b	-0.11151942
79	0x3ba9b384	0.0051788706
80	0x3f0f8064	0.56055284
81	0xbea8f892	-0.33002144
82	0xbed1a6df	-0.40947625
83	0x3f58f3f5	0.8474725
84	0x3d7c34a0	0.061573625
85	0xbf2b9220	-0.67019844
86	0x3f577582	0.8416368
87	0x3e1bc455	0.15211613
88	0x3f0528a6	0.5201515
89	0xbf5f4b39	-0.87224156
90	0x3e33d96b	0.17563407
91	0x3f19c9c8	0.6007352
92	0xbe18ffca	-0.14941326
93	0xbf0e461a	-0.55575716
94	0x3f4d7311	0.802537
95	0x3ef0bd5f	0.4701948
96	0x3e8f696c	0.28010118
97	0x3e751ece	0.23937532
98	0x3bf33f27	0.0074233
99	0x3f13c796	0.5772642
100	0xbe5cf34f	-0.2157719
101	0xbf1687f7	-0.58801216
102	0x3ebcdd04	0.36887372
103	0x3e80bcd1	0.25144055
104	0x3ebc2248	0.36744905
105	0xbdf11071	-0.11770714
106	0xbe15869e	-0.14602134
107	0xbdad6b3f	-0.08467721
108	0x3e8a8d05	0.27060714
109	0xbf43c24f	-0.76468366
110	0xbf6d111c	-0.9260423
111	0x3ec02063	0.3752471
112	0xbf0ff6f8	-0.5623622
113	0xbda67307	-0.081274085
114	0x3e8f5300	0.2799301
115	0x3e1e0f48	0.15435517
116	0x3f24144f	0.6409349
117	0x3e096b44	0.13419825
118	0x3e6f1966	0.23349532
119	0xbdbf8a9d	-0.0935261
120	0x3e15c4f4	0.14625913
121	0x3eb6c481	0.35696796
122	0x3f2ed2eb	0.68290585
123	0xbf72f3e6	-0.9490341
124	0xbed066d1	-0.40703443
125	0xbf65cb1d	-0.8976305
126	0xbecac261	-0.39601424
127	0x3f1ea5f6	0.61971986

fcs.0.1.weight f4 [1, 128]
0	0xbda73328	-0.08164054
1	0xbd94dbf1	-0.07268513
2	0x3d6d6af3	0.057963323
3	0xbd445df7	-0.047941174
4	0x3d95694f	0.07295477
5	0x3d07fa65	0.03319778
6	0x3cf148d3	0.02945367
7	0x3d8fcdd5	0.07021681
8	0xbda0b512	-0.078470364
9	0x3d95ddab	0.073176704
10	0x3d058ef3	0.03260703
11	0xbd535adc	-0.051600322
12	0x3cf53c96	0.029936116
13	0xbcb0762b	-0.021540722
14	0xbc973b0c	-0.018460773
15	0xba2e24fb	-0.0006643084
16	0xbd298678	-0.041388005
17	0x3da6f4af	0.081521384
18	0x3da41409	0.08011634
19	0xbbd62a87	-0.0065358314
20	0xbd968783	-0.073500656
21	0x3bac64a3	0.0052610203
22	0x3c0968a7	0.0083867675
23	0x3d783df1	0.060605947
24	0x3bb875b7	0.005629267
25	0x3cda9954	0.02668444
26	0x3d037be5	0.032100577
27	0xbd42e987	-0.04758599
28	0xbd7c5b8b	-0.06161074
29	0xbd9df935	-0.07713548
30	0xbc21936b	-0.009861807
31	0x3d03dee7	0.032194998
32	0x3bb8428a	0.0056231664
33	0x3dc3fafc	0.09569356
34	0xbc511293	-0.012760776
35	0xbd5efccf	-0.054440316
36	0x3cb45516	0.022013228
37	0xbccbe880	-0.024891138
38	0xbc2a95b4	-0.010411669
39	0x3dc0c0e8	0.09411794
40	0xba44d12a	-0.00075079745
41	0x3dac99cf	0.08427774
42	0x3c9d3d3f	0.019194243
43	0xbcd0458a	-0.025423784
44	0x3d9659af	0.073413245
45	0xbd323b0d	-0.043513346
46	0x3c2cfac3	0.010557833
47	0x3cd5cbc4	0.02609814
48	0x3d4153b4	0.047198966
49	0xbdc751db	-0.097324096
50	0x3bd6ed23	0.0065590306
51	0xbcab4f6c	-0.020911895
52	0x3d743dd6	0.059629284
53	0x3c8b7258	0.017022297
54	0x3d1d1adc	0.038355693
55	0x3d741baa	0.059596695
56	0xbc4b2558	-0.01239904
57	0xba1a12e9	-0.00058774516
58	0x3d913931	0.070909865
59	0xbd8e3e52	-0.069454804
60	0xbd548a3d	-0.051889647
61	0x3c72356a	0.014783243
62	0xbcdbd9a0	-0.02683717
63	0x3bf0e334	0.0073513035
64	0x3d99cf1a	0.075102046
65	0xbc0df445	-0.008664195
66	0xbd9a57e5	-0.07536296
67	0xbcd230fd	-0.025658125
68	0x3db15dab	0.08660444
69	0xbc8d2fa4	-0.01723463
70	0xbd10d0b6	-0.035355292
71	0x3d417e88	0.04723981
72	0x3c810857	0.015751047
73	0xbda99ccd	-0.082818605
74	0x3da016c5	0.07816843
75	0x3d6e1d00	0.058133125
76	0x3da3b68c	0.079938024
77	0x3d44c516	0.04803952
78	0xbcc75996	-0.02433471
79	0xbcbaf4c3	-0.02282179
80	0x3d50fe87	0.051023986
81	0xbc3aea66	-0.011408424
82	0x3cd839c3	0.02639473
83	0xbd9e0f67	-0.077177815
84	0xbd218855	-0.039436657
85	0x3caac664	0.020846553
86	0xbb1f7aef	-0.0024334749
87	0xbd108a70	-0.035288274
88	0xbd8d8614	-0.06910339
89	0x3d8485ec	0.06470856
90	0xbc34dafa	-0.011038536
91	0xbd9f12f7	-0.07767289
92	0x3db92871	0.09040917
93	0x3d3e25f8	0.04642293
94	0xbd4eb5b8	-0.05046627
95	0xbd7ccad8	-0.061716884
96	0x3db5137b	0.08841606
97	0x3be3c47e	0.006950914
98	0xbd40775c	-0.04698883
99	0x3d5766bb	0.052588206
100	0xbc5868db	-0.013208593
101	0x3c2ac807	0.010423667
102	0xbd1d9b53	-0.038478207
103	0xbd8abe05	-0.067745246
104	0xbd4ee591	-0.0505119
105	0xbbfa2263	-0.0076334937
106	0xbd7825e3	-0.060583007
107	0x3dbc2b3d	0.091879345
108	0x3c12708b	0.008937965
109	0xbcd8c9d2	-0.026463423
110	0x3d4f153b	0.050557356
111	0xbd9ca6d6	-0.07649009
112	0xbd2f5f26	-0.04281535
113	0x3d405914	0.04695995
114	0xbd93bc97	-0.07213705
115	0x3d566d7c	0.052350506
116	0x3c247a2f	0.010038896
117	0xbd907ea2	-0.07055403
118	0xbda26651	-0.079296716
119	0x3d18477f	0.03717756
120	0x3d3297ec	0.043601915
121	0xbc214033	-0.009841966
122	0xbd9b13af	-0.07572114
123	0xbd17c724	-0.03705515
124	0x3c5eac02	0.013590815
125	0xbbb4c815	-0.0055170157
126	0x3d1f68eb	0.038918417
127	0x3cc9d9c7	0.024639977

fcs.1.0.linear.weight f4 [128, 1]
0	0x3f07f65a	0.5311028
1	0x3f78f8c2	0.97254574
2	0x3f54edb6	0.8317522
3	0x3f681981	0.90663916
4	0xbeb2f71f	-0.34954163
5	0xbeb93a8f	-0.3617749
6	0xbdf750a8	-0.12075931
7	0x3e9ce4a7	0.30643198
8	0x3ecf87ca	0.40533286
9	0xbda6678b	-0.08125218
10	0xbf28aef3	-0.6589195
11	0xbf4487c5	-0.7676967
12	0x3f768472	0.96295846
13	0xbe8fafc5	-0.2806379
14	0xbdfb2fe0	-0.12264991
15	0xbf18a523	-0.5962698
16	0xbefcd91d	-0.49384394
17	0x3e557b87	0.20847903
18	0x3ed83e7b	0.4223517
19	0xbed82cd4	-0.422217
20	0xbebd6add	-0.36995593
21	0x3f4a4d9c	0.7902467
22	0xbf00b820	-0.5028095
23	0xbf3bc949	-0.7335401
24	0xbe173d0c	-0.14769381
25	0x3f72e9be	0.9488791
26	0x3e503a63	0.20334773
27	0x3e178270	0.14795852
28	0xbdf094e3	-0.11747148
29	0x3f1f5540	0.62239456
30	0xbef7640a	-0.4831851
31	0x3f2d0d31	0.67598253
32	0x3e6b336b	0.22968833
33	0x3de3b400	0.11118317
34	0x3e089230	0.13337016
35	0xbf1fe6b2	-0.6246139
36	0x3f3d6950	0.7398882
37	0x3f05f4a5	0.5232642
38	0xbf450ad0	-0.76969624
39	0xbf6b159c	-0.9182985
40	0xbe8e0cf4	-0.27744257
41	0x3f29bdb8	0.6630511
42	0xbef28462	-0.47366625
43	0x3f6dc3ea	0.92877066
44	0xbf03cd7f	-0.5148544
45	0xbf641302	-0.89091504
46	0x3ee2a61b	0.44267353
47	0xbf177c76	-0.5917429
48	0xbe150364	-0.14552075
49	0xbeaddd23	-0.33957776
50	0xbdb84c18	-0.08998889
51	0xbf62da3d	-0.88614255
52	0xbf6799da	-0.90469134
53	0x3ee11f4c	0.4396919
54	0xbde38e88	-0.1111117
55	0xbf1dc207	-0.6162419
56	0xbcd0b040	-0.025474668
57	0xbf670133	-0.90236205
58	0x3e7de0ac	0.24792737
59	0x3ef3bb66	0.4760391
60	0x3f78bddb	0.97164696
61	0xbf53bc86	-0.8270954
62	0xbdfafd26	-0.122553155
63	0x3f0a671e	0.54063594
64	0x3f6a3395	0.9148496
65	0xbf32dee4	-0.69871354
66	0x3ed4ce9e	0.41563886
67	0x3ed285cf	0.41117713
68	0x3f1acf37	0.60472435
69	0xbf2d59ee	-0.67715347
70	0x3f3677bb	0.71276444
71	0xbeea71e9	-0.45790032
72	0xbf1a57b2	-0.6029006
73	0x3e4cc1fc	0.19995874
74	0x3f582bd7	0.84441894
75	0xbf2ce75d	-0.6754053
76	0x3f06ed62	0.5270597
77	0xbe025089	-0.12726034
78	0x3ea2f98f	0.31831023
79	0x3f481a2e	0.7816495
80	0x3e89caab	0.26912436
81	0xbf516445	-0.81793624
82	0xbea0ca6a	-0.3140443
83	0x3e450a8b	0.19242303
84	0xbf5b105a	-0.85571826
85	0x3e27de46	0.16393384
86	0xbf0cc59d	-0.54989034
87	0xbe431dee	-0.19054386
88	0x3eb819e9	0.35957268
89	0xbf50d6d2	-0.8157779
90	0xbf275f7c	-0.6538007
91	0x3ee36022	0.4440928
92	0xbf805a71	-1.00276
93	0x3f2f9ddf	0.6860027
94	0xbf48b79f	-0.78405184
95	0xbc83e800	-0.016101837
96	0x3e583ab5	0.21116145
97	0x3ec7a2d7	0.38991424
98	0xbf216349	-0.6304212
99	0x3e0a928a	0.13532463
100	0x3eda55ff	0.42643735
101	0x3f5c1a89	0.8597799
102	0xbf43e745	-0.76524764
103	0xbef81cef	-0.48459575
104	0x3e8ad892	0.27118355
105	0xbcb6b8df	-0.02230495
106	0xbf301684	-0.68784356
107	0xbf5445ac	-0.8291881
108	0xbf66a235	-0.9009126
109	0xbf367654	-0.71274304
110	0xbed3da88	-0.41377664
111	0xbf2eada1	-0.68233687
112	0xbf5d64ae	-0.8648175
113	0x3d9fdd60	0.07805896
114	0x3f158448	0.5840497
115	0xbef5e68a	-0.4802745
116	0x3dd499de	0.1038091
117	0xbc49fa00	-0.012327671
118	0x3eecd11f	0.46253297
119	0xbf35f458	-0.71075964
120	0x3d4276c0	0.04747653
121	0x3f6ef280	0.93338776
122	0x3f380e33	0.71896666
123	0xbf7aca36	-0.979648
124	0xbe26fcc4	-0.1630736
125	0x3c18ba00	0.00932169
126	0xbea5462e	-0.32280105
127	0xbf251681	-0.64487463

fcs.1.0.linear.bias f4 [128]
0	0xbf34fd2b	-0.70698804
1	0x3f2fe728	0.6871209
2	0xbea452d0	-0.3209443
3	0xbdb5f5db	-0.08884784
4	0x3e93c356	0.28859967
5	0xbf1b9a71	-0.60782534
6	0x3da6d173	0.08145418
7	0x3f19dae1	0.6009961
8	0xbf1a51fa	-0.60281336
9	0x3ea1038e	0.31448025
10	0xbd338e14	-0.043836668
11	0x3f0a7592	0.5408565
12	0x3f2cfe16	0.67575204
13	0x3e85d787	0.26140997
14	0x3d1cbc36	0.03826543
15	0xbf5d57e6	-0.8646225
16	0x3ec8d87d	0.39227667
17	0x3f1c00ef	0.60938925
18	0xbeaf844e	-0.34280628
19	0xbf7a3092	-0.9773036
20	0x3f52c535	0.82332164
21	0xbe840453	-0.2578455
22	0x3e527414	0.20552093
23	0xbe8b6cbc	-0.27231395
24	0x3f290444	0.66022134
25	0x3f73f81f	0.9530048
26	0x3f208e79	0.62717396
27	0xbea4b03d	-0.3216571
28	0x3f304265	0.6885131
29	0x3eef3f9e	0.46728224
30	0x3dd98164	0.106203824
31	0xbf54494b	-0.82924336
32	0xbed8f9ae	-0.4237799
33	0xbf7d4872	-0.9893867
34	0x3f2dce80	0.6789322
35	0x3f7d29ea	0.9889208
36	0x3f11a2f5	0.5688928
37	0x3e985683	0.29753503
38	0x3e797975	0.24362738
39	0x3f783c87	0.9696736
40	0xbf006af4	-0.501632
41	0xbeb5904e	-0.35461658
42	0xbf67a74c	-0.9048965
43	0xbd964bef	-0.07338702
44	0x3d721a88	0.059107333
45	0x3e8fd88c	0.280949
46	0xbf35b8b5	-0.70984966
47	0xbddd9a99	-0.10820503
48	0xbf550063	-0.83203715
49	0xbf4bedc2	-0.79659665
50	0x3e04ceb5	0.12969477
51	0xbf7b8889	-0.9825521
52	0x3e8c2e7b	0.27379212
53	0xbf6cb935	-0.92470104
54	0xbf3254d2	-0.69660676
55	0xbe5e862c	-0.2173087
56	0xbf744bc8	-0.95428133
57	0x3f4f1cd2	0.8090335
58	0x3f52f5b6	0.82406175
59	0xbf00c4d7	-0.50300354
60	0x3e6fd0b6	0.2341946
61	0x3f0173e4	0.5056746
62	0x3e9cca30	0.30623007
63	0xbe1a2c67	-0.15056
64	0xbf74efe7	-0.9567856
65	0x3f3bee50	0.7341051
66	0xbf6047e8	-0.8760972
67	0xbe53dfe2	-0.20690873
68	0x3db20274	0.08691874
69	0xbea51458	-0.32242084
70	0xbeba6dd7	-0.36411926
71	0xbf5b2ece	-0.85618293
72	0x3d83876b	0.06422313
73	0xbdbeace2	-0.093103185
74	0x3f5998d3	0.84998816
75	0xbead1633	-0.33806
76	0x3f43d504	0.7649691
77	0x3d2373b7	0.039905276
78	0xbeddf4b8	-0.43350768
79	0xbe5e5a9f	-0.21714257
80	0xbdf9ea19	-0.12202854
81	0x3c8c45c2	0.017123107
82	0xbe3303e0	-0.17481947
83	0x3e918345	0.28420463
84	0x3f5198ca	0.8187376
85	0x3e0ae59d	0.13564153
86	0x3eb57e63	0.35447988
87	0x3f244a76	0.6417612
88	0x3e7657e4	0.24056965
89	0x3ee9019f	0.4550905
90	0x3f055b07	0.5209202
91	0x3f6e9c17	0.93206924
92	0xbf6b801c	-0.91992354
93	0x3ea4c766	0.3218338
94	0xbd60ebdd	-0.054912437
95	0xbe37e688	-0.17959034
96	0xbeca29b7	-0.3948495
97	0x3f160611	0.58603007
98	0x3f6a6929	0.9156671
99	0xbf50e441	-0.8159829
100	0x3f072edb	0.5280587
101	0x3f3689c1	0.71303946
102	0x3e29b1a8	0.16571677
103	0x3c9e285f	0.01930636
104	0x3f46a28e	0.7759179
105	0x3cf34918	0.02969794
106	0xbe84c4ca	-0.25931388
107	0xbd85be84	-0.065304786
108	0x3e9f69db	0.3113545
109	0x3e76a6f8	0.24087131
110	0xbd3f2ae5	-0.046671767
111	0x3ea4c482	0.32181174
112	0x3e8da55c	0.27665222
113	0xbf4f6006	-0.81005895
114	0x3e6e786b	0.23288123
115	0x3f1cb764	0.6121733
116	0x3e086a46	0.1332179
117	0xbdbaef50	-0.091276765
118	0x3f40a6b6	0.7525438
119	0xbf5ffc75	-0.87494594
120	0xbee9b20c	-0.4564365
121	0xbee434d9	-0.4457157
122	0x3f60d30c	0.8782203
123	0xbf764a64	-0.9620726
124	0x3dbf2123	0.09332492
125	0xbf77fc02	-0.9686891
126	0xbd13a9eb	-0.03605072
127	0x3ec13f1d	0.37743464

fcs.1.1.weight f4 [1, 128]
0	0xbd0a0361	-0.03369463
1	0x3dbd0978	0.09230322
2	0xba964e23	-0.0011467378
3	0xbd33298d	-0.043740798
4	0x3d00d800	0.031455994
5	0x3da02250	0.078190446
6	0x3c11271b	0.008859421
7	0x3daea777	0.08528035
8	0xbd917c81	-0.07103825
9	0x3d4a4075	0.049377877
10	0x3d824459	0.063606925
11	0x3d59701b	0.053085428
12	0x3bd3bde0	0.006461844
13	0x3d097753	0.033561062
14	0xbd6e0849	-0.05811337
15	0xbd2a1eed	-0.0415334
16	0x3b58377b	0.0032992053
17	0xbb3c10f7	-0.0028696635
18	0x3d7376f5	0.05943962
19	0x3dd95a31	0.10612906
20	0x3d89de36	0.067318365
21	0xbd28b544	-0.041188493
22	0xbd70fdea	-0.0588359
23	0xbd89183c	-0.066940755
24	0x3d3b6fad	0.0457608
25	0xbd92ceee	-0.07168375
26	0xbda41848	-0.08012444
27	0xbd94cf60	-0.07266116
28	0xbd7599ce	-0.059961133
29	0xbce5739c	-0.028009228
30	0xbd343e44	-0.044004694
31	0xbd67daf8	-0.05660531
32	0x3d81db8e	0.06340705
33	0xbc887334	-0.016656496
34	0x3da37944	0.07982114
35	0x3c1123bf	0.00885862
36	0xbb93320a	-0.004492049
37	0xbca39285	-0.019967327
38	0xbd5585d2	-0.052129574
39	0xbd80ff41	-0.06298686
40	0x3dc38d81	0.09548474
41	0xbcf5191f	-0.029919205
42	0xbd56cc76	-0.052441083
43	0x3da8b16b	0.08236965
44	0x3c6217e5	0.013799642
45	0xbd44f9df	-0.04808986
46	0xbdb1f378	-0.08689016
47	0xbd750970	-0.059823453
48	0xbd909da1	-0.07061315
49	0x3dfbe159	0.12298841
50	0x3d8b1d94	0.06792751
51	0x3cfdc307	0.030976785
52	0xbd837dfd	-0.06420515
53	0xbd4807c3	-0.048835527
54	0xbda9f1a1	-0.0829804
55	0x3d3cf85d	0.046135295
56	0xbcc041b8	-0.023468837
57	0xbc2a4ec6	-0.010394758
58	0xbca5df1f	-0.020247994
59	0x3d038e96	0.032118402
60	0x3d530c92	0.05152566
61	0x3ced7ff6	0.02899168
62	0xbb32b201	-0.0027266743
63	0xbc135fce	-0.00899501
64	0xbc2833ee	-0.010266287
65	0xbd6c97ce	-0.05776196
66	0x3d7d5b1c	0.061854467
67	0xbd256f00	-0.04038906
68	0x3d5eb202	0.05436898
69	0xbd05eefb	-0.032698613
70	0xbb02e561	-0.0019973146
71	0x3d85b45b	0.06528541
72	0xbd8ce128	-0.06878883
73	0x3d1b3013	0.037887644
74	0xbd7476f5	-0.05968376
75	0x3cf03d8a	0.02932622
76	0xbc090627	-0.008363283
77	0x3d7b21a5	0.061311383
78	0x3d93e122	0.07220675
79	0x3c9eed3c	0.019400232
80	0xbb8ec61c	-0.0043571126
81	0xbcfcf6d8	-0.030879423
82	0x3d4e36c7	0.05034521
83	0xbd08cce3	-0.03339852
84	0x3d379768	0.044822127
85	0xbcfda5d0	-0.030962855
86	0x3d8e2106	0.069398925
87	0x3da13345	0.07871107
88	0x3d775977	0.060388055
89	0x3c2fad98	0.01072254
90	0x3d4bf280	0.049791813
91	0xbd917040	-0.07101488
92	0x3dbeb24e	0.09311353
93	0xbc90bc12	-0.017667804
94	0x3d3b1c94	0.04568155
95	0xbc753a80	-0.014967561
96	0xbd53ec38	-0.051738948
97	0xbd042b60	-0.032267928
98	0x3d8357f2	0.064132586
99	0xbd54d71a	-0.05196295
100	0xbbe3a835	-0.006947542
101	0x3d539016	0.051651083
102	0x3ca77794	0.020442761
103	0xbd7c281a	-0.06156168
104	0xbda2a0b8	-0.07940811
105	0xbd122bde	-0.035686366
106	0x3dc7849f	0.09742092
107	0xbd4999c5	-0.04921891
108	0x3d73c3cb	0.059512895
109	0x3d97bfc5	0.07409624
110	0xbcba5a4e	-0.022748139
111	0xbcebba1b	-0.028775265
112	0xbd574704	-0.05255796
113	0x3c61e2b8	0.013786964
114	0xbbf4ae22	-0.0074670473
115	0x3c3e5ecb	0.01161928
116	0x3d400618	0.04688081
117	0x3d17ff8e	0.03710895
118	0xbc9700e4	-0.018433042
119	0x3d00b169	0.03141919
120	0x3cac0084	0.02099634
121	0xb9de8dfe	-0.00042448932
122	0x3cd75864	0.026287265
123	0xbc5e2ba7	-0.013560212
124	0x3da80e9f	0.08205914
125	0xbc1489a0	-0.0090660155
126	0x3b1ddd0a	0.0024088048
127	0xbd8e6f89	-0.069548674

fcs.2.0.linear.weight f4 [128, 1]
0	0x3d1a86ed	0.03772633
1	0xbe2c54ac	-0.16829175
2	0xbf018373	-0.505912
3	0x3f077f45	0.5292857
4	0xbde79886	-0.113083884
5	0x3eb72000	0.35766602
6	0x3f5645b8	0.8370013
7	0xbef308e8	-0.47467732
8	0xbef76326	-0.48317832
9	0xbe3a9e83	-0.1822453
10	0xbda72fe4	-0.08163431
11	0xbf00d9b0	-0.50332165
12	0xbe777d41	-0.24168874
13	0xbcec2040	-0.028823972
14	0x3ee49232	0.44642788
15	0x3f6b2953	0.9185993
16	0x3f3f0b66	0.7462677
17	0x3dd8c000	0.10583496
18	0xbd8e790e	-0.06956683
19	0x3e7204f5	0.23634703
20	0xbd0c146d	-0.034199167
21	0xbe07116c	-0.1319024
22	0x3eadc279	0.33937433
23	0xbf50bbdb	-0.81536645
24	0xbf594a35	-0.84878856
25	0xbb25a787	-0.0025276856
26	0xbe88c872	-0.26715428
27	0xbefbd8ce	-0.49188846
28	0xbf6ee4e7	-0.9331803
29	0x3f2a5189	0.6653066
30	0xbd3e2717	-0.046423998
31	0xbf08d83b	-0.5345494
32	0xbecf6524	-0.40506852
33	0x3e8b837b	0.2724875
34	0xbf39c8d9	-0.72572094
35	0x3d6c2446	0.05765178
36	0xbc4a0b80	-0.012331843
37	0x3ebf137b	0.3731955
38	0x3ed95b06	0.42452258
39	0xbf277cb5	-0.6542466
40	0x3eda0e4e	0.4258904
41	0x3f431d65	0.7621673
42	0x3d9060b8	0.07049698
43	0x3f018d03	0.5060579
44	0xbec149b2	-0.37751538
45	0x3e517d54	0.20457965
46	0x3e929df2	0.28636128
47	0xbee965ff	-0.4558563
48	0x3f1f55ee	0.62240493
49	0xbf712cc6	-0.94208944
50	0xbebb7751	-0.3661447
51	0xbf15ba00	-0.5848694
52	0xbf18d601	-0.59701544
53	0xbf19bfff	-0.6005859
54	0xbf71dc23	-0.94476527
55	0x3e29a29f	0.16565941
56	0xbe2b56ea	-0.16732374
57	0xbf57c461	-0.84284025
58	0xbbd3e86e	-0.0064669168
59	0xbe205ac4	-0.15659624
60	0x3ed03e97	0.40672752
61	0xbf490a98	-0.7853179
62	0xbe868596	-0.26273793
63	0x3e598325	0.21241434
64	0x3ed8007d	0.42187873
65	0x3d8f22cf	0.06989061
66	0x3e900c36	0.28134316
67	0x3f7e616d	0.9936741
68	0xbec09f9e	-0.37621778
69	0x3f2e1fe6	0.68017423
70	0x3f5d6a05	0.864899
71	0xbf61cbd7	-0.8820166
72	0x3e77ac18	0.24186742
73	0x3f1210ff	0.57057184
74	0xbe2a6a82	-0.16642192
75	0x3f0e988f	0.55701536
76	0x3d24dc00	0.04024887
77	0x3f413ffb	0.7548825
78	0x3ce69e9d	0.028151805
79	0xbf230a82	-0.6368791
80	0x3f4253d4	0.7590916
81	0x3e9d5629	0.30729797
82	0x3f5841d8	0.8447547
83	0x3e77ed1e	0.24211547
84	0x3f092da7	0.53585285
85	0x3f212260	0.6294308
86	0x3e41de11	0.18932368
87	0xbe6ab288	-0.22919667
88	0x3e782309	0.24232115
89	0xbf32e179	-0.69875294
90	0x3d0beec0	0.034163237
91	0xbeb32288	-0.34987283
92	0x3d68b8de	0.056816928
93	0xbf49ceee	-0.78831375
94	0x3f1e0af7	0.6173548
95	0xbf6ccdf0	-0.92501736
96	0x3ede415e	0.43409246
97	0x3f2a3f2d	0.6650265
98	0xbf6b3c03	-0.91888446
99	0x3f68d8b0	0.9095564
100	0xbf3e75ab	-0.743983
101	0xbe4b4225	-0.19849451
102	0x3f02f04b	0.5114791
103	0xbeafc8c7	-0.34332868
104	0x3f62a0bb	0.88526505
105	0xbee09a21	-0.4386759
106	0xbe0ac4cf	-0.13551639
107	0xbf2799f5	-0.65469295
108	0xbef3a0a5	-0.475835
109	0x3f784967	0.96987003
110	0x3f40fd8f	0.753869
111	0x3d8949fe	0.06703566
112	0x3e05ae45	0.1305476
113	0xbf58c9a1	-0.8468266
114	0x3f41ee6a	0.75754416
115	0xbe2398d4	-0.15976268
116	0xbed6b9de	-0.4193868
117	0xbf4afa9b	-0.79288644
118	0x3f509583	0.81478137
119	0x3ef0d675	0.47038618
120	0x3f19acea	0.6002947
121	0x3dc203a6	0.09473352
122	0xbf2d31f9	-0.6765438
123	0x3ecf148b	0.4044536
124	0x3df88f99	0.12136764
125	0x3eabc1f4	0.33546412
126	0xbe8a12b5	-0.26967397
127	0xbef3d861	-0.47626022

fcs.2.0.linear.bias f4 [128]
0	0x3f532d04	0.82490563
1	0x3eaae18d	0.33375207
2	0xbee026a3	-0.43779477
3	0x3d8320bd	0.06402729
4	0xbe5b6a87	-0.21427356
5	0xbde1a7cc	-0.11018333
6	0x3f1469a6	0.57973707
7	0xbf4dd077	-0.8039622
8	0x3f6688a8	0.9005227
9	0x3f2f3cba	0.68452036
10	0x3cd8d836	0.026470285
11	0xbee1beaf	-0.44090793
12	0x3e358767	0.17727433
13	0xbf2972d4	-0.6619084
14	0x3f255f32	0.6459838
15	0xbf02635d	-0.50932866
16	0x3e2a1701	0.16610338
17	0xbf7bdc58	-0.9838309
18	0x3ef312ae	0.4747519
19	0x3f3195b7	0.6936907
20	0x3f4128ab	0.7545268
21	0x3d804dde	0.06264852
22	0x3f173af1	0.5907431
23	0x3ea09fc8	0.31371903
24	0x3f32a47f	0.6978225
25	0x3f0f6995	0.5602048
26	0xbf677418	-0.9041152
27	0x3e0afb3f	0.13572405
28	0xbebf124d	-0.3731865
29	0xbef93791	-0.48675206
30	0x3f3222f3	0.6958458
31	0xbde74c48	-0.11293846
32	0x3e3e1c23	0.18565421
33	0x3f1f27c7	0.6217007
34	0x3f26a172	0.65090096
35	0x3f07942f	0.52960485
36	0xbe32c778	-0.17458904
37	0xbf5edb44	-0.8705332
38	0xbf724799	-0.946405
39	0x3e96979d	0.29412547
40	0x3c253942	0.010084452
41	0xbf271aed	-0.6527546
42	0x3ee157c4	0.44012272
43	0x3f681edb	0.9067208
44	0x3f0eedff	0.55831903
45	0xbe2a01c8	-0.16602242
46	0x3e232f0c	0.15935916
47	0xbf1e9a70	-0.619544
48	0x3ee7081e	0.4512338
49	0xbf3f26ad	-0.7466839
50	0x3f2f7f8d	0.68554
51	0xbedbacde	-0.42905325
52	0xbedaab29	-0.4270871
53	0xbf52bc00	-0.82318115
54	0xbe8dc408	-0.27688622
55	0xbdb9f209	-0.09079368
56	0xbef6fb2c	-0.48238504
57	0x3f309f6b	0.6899325
58	0x3f11e25e	0.56986034
59	0xbf63e020	-0.8901386
60	0xbda802b5	-0.08203641
61	0x3e9cde08	0.30638146
62	0x3f79cf13	0.97581595
63	0xbe8698f2	-0.26288563
64	0x3f1c58db	0.6107308
65	0xbd23d91e	-0.04000198
66	0xbecb8429	-0.39749268
67	0x3f231961	0.637106
68	0xbf605818	-0.8763442
69	0x3f5928b4	0.84827733
70	0x3f7ba6c0	0.98301315
71	0xbe74d0c0	-0.23907757
72	0x3ec6543d	0.38736144
73	0x3f7f6b70	0.9977331
74	0x3e9c6f2b	0.30553564
75	0x3ebd1e96	0.36937398
76	0x3ebd91a0	0.37025166
77	0xbec95996	-0.3932616
78	0x3e7e0e9b	0.24810259
79	0xbf00ff17	-0.50389236
80	0x3f59cd21	0.85078627
81	0xbee34aa4	-0.44392884
82	0x3e820c47	0.25399992
83	0xbe8ec099	-0.27881315
84	0x3ef57571	0.47941163
85	0xbc150f6d	-0.009097916
86	0x3f072828	0.5279565
87	0xbe88b8e2	-0.26703554
88	0xbf1001da	-0.56252825
89	0x3eb70fa3	0.35754117
90	0xbf10126e	-0.5627812
91	0xbf4f388e	-0.8094567
92	0x3ec3caf9	0.38240793
93	0xbf1354cf	-0.5755128
94	0xbecc157d	-0.39860144
95	0xbe918c47	-0.28427336
96	0x3d3a58cb	0.045494836
97	0xbebc11d2	-0.36732346
98	0xbec8133e	-0.3907718
99	0xbe8d3032	-0.27575833
100	0x3f2d442a	0.67682135
101	0x3ea2cb8b	0.31795916
102	0xbef1b61b	-0.47209248
103	0xbf2f6d9e	-0.6852664
104	0x3d3df0ca	0.046372212
105	0x3eb42f42	0.35192305
106	0xbd4ab909	-0.04949287
107	0x3f0f6acb	0.5602233
108	0x3f57c703	0.8428804
109	0x3ea1a292	0.31569344
110	0x3ea1b993	0.31586894
111	0x3f137a42	0.57608426
112	0xbe9c529f	-0.30531785
113	0x3e2954f7	0.16536318
114	0x3f4b7ba1	0.7948552
115	0xbef2613c	-0.4733981
116	0x3d3afdc6	0.045652173
117	0xbeb8329d	-0.35976115
118	0xbf40afeb	-0.7526843
119	0x3f0bf37f	0.5466842
120	0x3f4fa0d8	0.81104803
121	0xbf0bf041	-0.54663473
122	0x3ecda8a6	0.4016773
123	0x3ea6d60c	0.3258518
124	0x3ec3a1a7	0.38209268
125	0x3f0afa2c	0.5428798
126	0x3f6b7c4c	0.91986537
127	0x3f45e95b	0.773092

fcs.2.1.weight f4 [1, 128]
0	0xbda82901	-0.08210946
1	0xbd2e612c	-0.04257314
2	0x3d800e15	0.06252686
3	0xbd611d43	-0.054959547
4	0x3d7f5424	0.062336102
5	0xbd3fe1f8	-0.04684636
6	0x3c8d8a15	0.017277757
7	0x3d9ea856	0.07746951
8	0x3c9f6d33	0.01946125
9	0x3d7c18fb	0.06154726
10	0xbc200ef8	-0.009769194
11	0x3d829dbf	0.06377744
12	0x3cc2f238	0.02379714
13	0xbce431c2	-0.027855758
14	0xbd745d1d	-0.059659112
15	0x3d8bb981	0.068224914
16	0xbcf5e767	-0.030017568
17	0x3d88592b	0.066576324
18	0x3d5df0cc	0.05418472
19	0xbb7a37b5	-0.0038180177
20	0xbd9c07b9	-0.076186605
21	0x3b8b4a80	0.0042508245
22	0xbd22bf3b	-0.039733153
23	0x3cae51d9	0.021279262
24	0xbd23e0a4	-0.040009156
25	0x3d82f670	0.063946605
26	0xbcff79a6	-0.031185936
27	0xbcc43dbd	-0.02395522
28	0x3cb2d86f	0.02183172
29	0xbbcfa3c0	-0.006336659
30	0x3d8e8967	0.06959801
31	0xbcb54309	-0.022126691
32	0xbd944583	-0.07239821
33	0x3d77b182	0.06047202
34	0x3c9d344d	0.019189978
35	0x3d56e166	0.05246105
36	0xbd56464b	-0.05231313
37	0xbdca3dcc	-0.09875068
38	0xbda31d29	-0.07964546
39	0x3b8437bb	0.004034964
40	0x3cc3b1f9	0.023888575
41	0xbd8a3dea	-0.067500904
42	0xbc6bc101	-0.014389277
43	0xbc499d58	-0.01230558
44	0x3d94ddba	0.072688535
45	0xbd407c4f	-0.04699355
46	0x3dac4670	0.084118724
47	0xbce174b8	-0.027521476
48	0xbd14ae72	-0.036299177
49	0xbd5218b4	-0.05129309
50	0x3d68ad7a	0.056806065
51	0xbd3e8849	-0.04651669
52	0x3d4b1e3a	0.049589373
53	0xbbb9973f	-0.005663782
54	0x3dc13071	0.094330676
55	0x37053777	7.940332e-06
56	0xbcfbf0d3	-0.030754482
57	0x3c26abf6	0.010172835
58	0x3bdba69e	0.006703212
59	0xbda3f422	-0.08005549
60	0x3c1770bf	0.009243189
61	0x3da90beb	0.08254226
62	0x3cbb96a8	0.022898987
63	0xbcb9e6c1	-0.02269304
64	0xbc7ee3b0	-0.015557215
65	0x3c17fd50	0.009276703
66	0xbd8676f0	-0.06565654
67	0x3db0fb67	0.08641701
68	0x3e033ce4	0.12816197
69	0x3d327a10	0.04357344
70	0xbcfcdbce	-0.03086653
71	0xbd9c92fc	-0.076452225
72	0xbd445e17	-0.047941294
73	0x3db61dbf	0.08892392
74	0xbdb74829	-0.0894931
75	0xbdad4930	-0.08461225
76	0xbc42ac54	-0.011881907
77	0x3c82550a	0.01590969
78	0xbdbf6121	-0.09344698
79	0xbd88b3ad	-0.066748954
80	0x3b1f1a82	0.0024277274
81	0xbd67714d	-0.056504536
82	0x3d6eac4a	0.058269776
83	0x3b59cfdf	0.0033235473
84	0xbd9ae765	-0.07563666
85	0xbdaf3774	-0.08555499
86	0x3d737c01	0.05944443
87	0x3bd27dd8	0.006423693
88	0xbdb3df68	-0.08782846
89	0x3ccd51e1	0.025063457
90	0xbc8e4e80	-0.017371416
91	0x3dbf928e	0.09354125
92	0x3c852332	0.016252134
93	0xbcc64876	-0.024204474
94	0xbdac754e	-0.084208116
95	0x3d5e70dd	0.054306854
96	0xbd6c5060	-0.05769384
97	0xbcb42aa6	-0.021992993
98	0x3ca6ec75	0.020376423
99	0xbd7864b2	-0.060642906
100	0x3d2e5860	0.04256475
101	0xbd9011b7	-0.07034629
102	0x3b70f8b8	0.0036769342
103	0x3d5867ed	0.052833486
104	0x3cdb9f28	0.02680929
105	0xbdbb0ddb	-0.09133502
106	0x3c32e4ba	0.0109187905
107	0x3d1ac3c3	0.03778435
108	0xbd8522ed	-0.06500802
109	0x3c9a265f	0.018817125
110	0xbae2fa17	-0.0017316964
111	0x3d8d9cf5	0.06914703
112	0xbda0dcd8	-0.078546226
113	0x3a65b552	0.00087626756
114	0xbd164a12	-0.036691733
115	0x3cdbbb73	0.026822781
116	0x3cd63eaa	0.026152927
117	0xbd9b74b7	-0.07590621
118	0x3d4873c7	0.04893854
119	0x3d864f46	0.06558089
120	0x3d23cfa0	0.03999293
121	0x3d71c447	0.059025075
122	0xbcfa9941	-0.030590655
123	0x3ca74108	0.020416752
124	0x3ad9d16f	0.0016618202
125	0xbd6e3a2b	-0.058160942
126	0xbd153c6d	-0.03643458
127	0xbd227821	-0.039665345

fcs.3.0.linear.weight f4 [128, 1]
0	0xbf5df4ec	-0.86701846
1	0xbf2dedcf	-0.6794099
2	0xbdc27bd0	-0.094962716
3	0xbe1bc628	-0.1521231
4	0xbf6234c0	-0.8836174
5	0x3e3594e3	0.17732577
6	0x3f0a84fe	0.5410918
7	0x3f52dd9f	0.82369417
8	0x3f54fc75	0.8319772
9	0xbf314bdf	-0.69256395
10	0xbeb3c3e1	-0.3511038
11	0xbee6b0f5	-0.45056883
12	0x3e80511f	0.2506189
13	0x3ea58f37	0.32335827
14	0x3e5a5953	0.21323137
15	0x3f135849	0.5755659
16	0x3f0467ea	0.5172106
17	0xbf155eae	-0.58347595
18	0x3f2d56fd	0.6771086
19	0x3f2f38bc	0.68445945
20	0x3de87033	0.11349525
21	0xbf65ee85	-0.89817077
22	0xbf17a6bd	-0.592388
23	0x3e98667a	0.29765683
24	0x3ea819a4	0.32832062
25	0x3f7123da	0.9419533
26	0x3effcf70	0.4996295
27	0x3eb4f06e	0.35339683
28	0xbc56c3d3	-0.013108212
29	0x3f2c92f1	0.67411715
30	0xbed303f4	-0.41213953
31	0x3ed99fde	0.4250478
32	0xbf0332ff	-0.5124969
33	0xbc18ec00	-0.009333611
34	0x3f18d1a7	0.59694904
35	0x3ee6b4cd	0.45059815
36	0xbe4a174e	-0.19735453
37	0xb89f2c12	-7.5899196e-05
38	0xbf15827a	-0.58402216
39	0x3ee6ce9c	0.45079505
40	0x3f2b5a82	0.6693498
41	0x3eb47f01	0.35253146
42	0xbf74c0b5	-0.9560655
43	0xbf33abb4	-0.70183873
44	0x3f28fdfb	0.66012543
45	0xbdf43950	-0.11924994
46	0x3f215393	0.6301815
47	0x3f3aad44	0.7292063
48	0xbea4a9d4	-0.3216082
49	0xbf1edec6	-0.62058675
50	0xbf7a09fc	-0.97671485
51	0x3eb5c97d	0.35505286
52	0x3f05fc61	0.52338225
53	0xbe3e3469	-0.1857468
54	0xbf72c932	-0.9483825
55	0xbf218150	-0.6308794
56	0xbdb78750	-0.08961356
57	0x3ee2cf81	0.44298938
58	0xbeaf25bb	-0.34208474
59	0xbf2cb578	-0.674644
60	0xbf3a33ac	-0.72735095
61	0x3f672624	0.9029257
62	0x3ebed49d	0.37271586
63	0xbf4a0f71	-0.7892981
64	0xbf190d51	-0.59785944
65	0xbf55fa7d	-0.8358534
66	0x3e30f539	0.17281045
67	0xbee1344b	-0.4398521
68	0xbcdf4bbb	-0.02725779
69	0xbe4234cc	-0.18965453
70	0xbf59e5ae	-0.8511609
71	0xbf602384	-0.8755419
72	0xbf3ff8b7	-0.74988884
73	0xbece6acc	-0.40315855
74	0x3e40afd1	0.18817069
75	0xbf020771	-0.50792605
76	0xbc6e07b7	-0.014528207
77	0xbdad6ac1	-0.08467627
78	0x3f6c9ece	0.92429817
79	0xbee5179f	-0.44744584
80	0x3f6e1941	0.93007284
81	0xbf3ebca3	-0.74506587
82	0xbf5c49e7	-0.86050266
83	0x3eaac962	0.33356768
84	0xbf0fb5ce	-0.56136787
85	0x3eff6732	0.4988342
86	0xbf159a81	-0.5843888
87	0x3f47f603	0.7810976
88	0x3f7a6bec	0.97820926
89	0x3d7060bc	0.058686003
90	0x3e5faab3	0.2184246
91	0x3f7127de	0.9420146
92	0x3f1a1c79	0.60199696
93	0xbf67ae0b	-0.90499943
94	0xbd878784	-0.066176444
95	0xbf610eb9	-0.8791309
96	0x3f40e329	0.7534662
97	0xbe53b84a	-0.2067577
98	0x3c5f7df8	0.013640873
99	0xbf176acf	-0.5914735
100	0xbf07d471	-0.53058535
101	0x3e1d2b47	0.1534854
102	0x3f508829	0.81457764
103	0xbef62d1d	-0.48081294
104	0x3d915aae	0.07097374
105	0x3f6a72fd	0.9158171
106	0x3f67b71f	0.90513796
107	0xbe87c365	-0.26516262
108	0x3f6e05e5	0.92977744
109	0x3ead7fb7	0.338865
110	0x3f6687b7	0.90050834
111	0x3cf30dc0	0.029669642
112	0xbf608fb8	-0.877193
113	0xbe8304db	-0.25589642
114	0x3ea442ea	0.320823
115	0x3f06111e	0.5236987
116	0xbf78ebd8	-0.9723487
117	0x3f4984d5	0.7871831
118	0xbf5fc2d8	-0.8740668
119	0x3f18306b	0.5944888
120	0x3f7ea7f7	0.99475044
121	0x3e7e3460	0.24824667
122	0xbe5c91bd	-0.2153997
123	0x3f0a9c01	0.54144293
124	0xbe8f9c2f	-0.28048846
125	0xbf3786f8	-0.7169032
126	0xbf2f9fb3	-0.68603057
127	0x3ef4f515	0.47843233

fcs.3.0.linear.bias f4 [128]
0	0x3f436342	0.7632333
1	0x3d3e12d4	0.046404675
2	0xbf78370c	-0.96958995
3	0xbf7b8c32	-0.98260796
4	0xbe60a455	-0.21937688
5	0x3f0ad3ef	0.54229635
6	0xbf33a33b	-0.70170945
7	0x3e655bd2	0.22398308
8	0xbf1899e9	-0.5960985
9	0x3f4afcfd	0.7929228
10	0xbe88ea87	-0.2674143
11	0xbe51d886	-0.20492753
12	0xbf532fa0	-0.82494545
13	0xbf5a12fa	-0.85185206
14	0x3cad41e8	0.02114959
15	0x3e0076ca	0.12545314
16	0x3f00a774	0.50255513
17	0xbf5c285a	-0.8599907
18	0x3e027a44	0.12741953
19	0xbdc2010c	-0.09472856
20	0x3f1bfc13	0.6093151
21	0xbeecc940	-0.46247292
22	0x3e98a7cb	0.29815516
23	0x3edd814a	0.43262702
24	0x3ef37d00	0.47556305
25	0xbe9699e7	-0.29414293
26	0x3e8bd532	0.27311093
27	0xbe78e37a	-0.24305525
28	0x3e7d9e7b	0.24767487
29	0xbf2897f7	-0.6585688
30	0xbf45ce1a	-0.7726761
31	0xbf52db1a	-0.8236557
32	0xbf1f730c	-0.6228492
33	0xbed8b14c	-0.42322767
34	0x3e4666a9	0.19375099
35	0xbe85daa2	-0.26143366
36	0xbf17c39e	-0.59282863
37	0xbb5df302	-0.0033866768
38	0xbea64919	-0.32477644
39	0x3f1538df	0.58289903
40	0xbf5c85d7	-0.86141723
41	0xbea8418c	-0.32862508
42	0xbf2bfa5c	-0.67178893
43	0x3dd8258e	0.10554038
44	0x3bc876f0	0.006117694
45	0xbd57fced	-0.052731443
46	0x3f835c46	1.0262535
47	0xbed82080	-0.42212296
48	0xbe1ade4b	-0.1512386
49	0x3e82d1a6	0.25550574
50	0x3f563d64	0.83687425
51	0x3f3f74d2	0.7478763
52	0x3e28a472	0.16468981
53	0xbec4372d	-0.38323346
54	0x3eaa28bb	0.332342
55	0x3f1dac36	0.615909
56	0xbcf0da04	-0.029400833
57	0x3f03bd64	0.5146086
58	0x3f5b3367	0.8562531
59	0xbf0a8f34	-0.5412476
60	0xbe6c4b54	-0.2307561
61	0xbf5bab70	-0.8580847
62	0x3e8e46d8	0.27788424
63	0x3f367fec	0.71288943
64	0xbe4aab87	-0.19791995
65	0x3e0e9443	0.13923745
66	0x3eaae7a6	0.3337986
67	0xbd08c988	-0.03339532
68	0x3f4d5f54	0.80223584
69	0x3e159fcb	0.14611737
70	0xbf7d7d8d	-0.990197
71	0xbf5753ac	-0.8411205
72	0xbf7f3db4	-0.99703526
73	0x3ce12b9f	0.02748662
74	0x3f0a1277	0.53934425
75	0xbe0f992b	-0.14023273
76	0x3f609ad5	0.87736255
77	0xbe510851	-0.20413329
78	0x3e83258c	0.25614583
79	0x3f6044e3	0.8760511
80	0x3eeb05cf	0.4590287
81	0xbce0eb90	-0.027456075
82	0x3f768fa7	0.96312946
83	0xbf1e1b83	-0.6176073
84	0x3ebf0c66	0.37314147
85	0x3f1976a8	0.5994668
86	0xbf1e859b	-0.61922616
87	0xbf7bc570	-0.9834814
88	0x3ebe52fe	0.37172693
89	0xbec3390f	-0.3812947
90	0xbeff2047	-0.49829313
91	0x3e804592	0.25053078
92	0xbf36ab2d	-0.71354944
93	0x3f662784	0.89904046
94	0xbdc1adee	-0.094570026
95	0xbea17663	-0.31535634
96	0x3f508d49	0.81465584
97	0x3e9219be	0.28535265
98	0x3e2d600f	0.16931175
99	0xbef516e7	-0.47869036
100	0x3f6efea2	0.9335729
101	0xbe9989d1	-0.29987958
102	0x3f49ce01	0.7882996
103	0xbd9284b7	-0.071542196
104	0x3f06afb0	0.5261183
105	0x3f406cd1	0.7516604
106	0xbf3354f7	-0.7005152
107	0xbf1d233b	-0.6138188
108	0xbf842374	-1.032332
109	0x3f361e94	0.7114041
110	0x3f510ea6	0.81662977
111	0xbebb1ed4	-0.36546957
112	0xbeffbaf2	-0.49947315
113	0x3e22ae7c	0.15886873
114	0x3f1018bf	0.5628776
115	0x3e4d4524	0.20045906
116	0xbe4fb452	-0.2028363
117	0xbf16d4d2	-0.5891849
118	0x3f5b2714	0.85606503
119	0xbf1ac2a0	-0.60453224
120	0xbf6dd900	-0.9290924
121	0xbeda947a	-0.42691404
122	0x3e4afa0e	0.19821951
123	0x3eac365f	0.33635232
124	0x3ec0d532	0.37662655
125	0xbf1403b2	-0.5781814
126	0xbec1d22b	-0.37855658
127	0xbed09881	-0.4074135

fcs.3.1.weight f4 [1, 128]
0	0xbcbf171c	-0.02332645
1	0xbd485367	-0.048907664
2	0x3c9437e8	0.018093064
3	0xbcd29304	-0.025704868
4	0xbd65ca6e	-0.056101255
5	0xbd036d56	-0.032086693
6	0xbd8e4f0e	-0.06948672
7	0xbcca668e	-0.024707105
8	0xbd680106	-0.0566416
9	0x3b391a78	0.0028244536
10	0x3d8b8700	0.068128586
11	0xbd2447ce	-0.04010754
12	0xbda28867	-0.07936173
13	0xbdbe10ac	-0.09280524
14	0xbd07c7f6	-0.033149682
15	0xbbe07685	-0.006850066
16	0xbc901b05	-0.017591009
17	0x3d584f7e	0.052810185
18	0xbd5244fe	-0.051335327
19	0x3cc34909	0.023838537
20	0x3dc7dc28	0.09758788
21	0x3dd88a67	0.10573273
22	0xbc920357	-0.017823858
23	0x3d4a1b20	0.049342275
24	0xbd7cf2db	-0.061755043
25	0x3da14c2a	0.07875855
26	0xbd929288	-0.07156855
27	0xbda3467f	-0.079724304
28	0xbd6214c7	-0.055195596
29	0xbdb7ef2a	-0.08981164
30	0x3d94dbd1	0.07268489
31	0xbd7b5224	-0.061357632
32	0x3d868d72	0.06569947
33	0xbbb334f0	-0.005468957
34	0x3c3cb905	0.0115187215
35	0xbcfe8cfe	-0.03107309
36	0x3c21be3c	0.009872016
37	0xbd86dbb3	-0.06584873
38	0x3d9f2282	0.07770254
39	0xbcc6475e	-0.024203952
40	0xbd0bb482	-0.034107693
41	0x3d0c8ed8	0.034315914
42	0x3c534049	0.012893745
43	0x3b150e9f	0.002274431
44	0xbd47c75f	-0.04877412
45	0xbd3759e9	-0.04476348
46	0x3d84d677	0.064862184
47	0xbc9e93cd	-0.019357586
48	0x3db379c4	0.08763459
49	0x3ce92d27	0.028463913
50	0x3ca0c758	0.019626305
51	0xbd6b7bee	-0.057491235
52	0x3c791da6	0.015204823
53	0x3d31d02f	0.04341143
54	0xbce0fcac	-0.027464233
55	0xbac4648e	-0.0014983581
56	0x3d141153	0.036149334
57	0xbd3b6f02	-0.045760162
58	0x3d07385e	0.03301274
59	0x3dc96742	0.09834148
60	0x3d4227fc	0.047401413
61	0x3d9bb550	0.07602942
62	0x3d716a24	0.058939114
63	0xbd4e3b6a	-0.05034963
64	0xbba1a9cf	-0.004933573
65	0x3b4eb943	0.003154353
66	0x3d4a08d2	0.049324818
67	0x3cca898a	0.024723787
68	0x3dc3995c	0.09550735
69	0x3cfbd64a	0.03074183
70	0xbc61881a	-0.013765359
71	0x3bd351a0	0.0064489394
72	0xbcea6bde	-0.028615888
73	0x3a667dbc	0.00087925396
74	0x3d7ee3ac	0.062228844
75	0x3cf944ba	0.03042828
76	0xbd778588	-0.06043008
77	0xbcdda481	-0.02705598
78	0x3d386b59	0.04502425
79	0xbd785fd1	-0.060638253
80	0xbd6001f9	-0.05468938
81	0xbcd5d08c	-0.02610042
82	0x3dd24c67	0.10268479
83	0xbd72b75c	-0.059256896
84	0xbc80285c	-0.015644245
85	0xbd1e8627	-0.038702156
86	0x3dc8a876	0.097977564
87	0xbcf12697	-0.029437346
88	0x3d001ca2	0.031277306
89	0x3c8d74b4	0.017267562
90	0xbca50d12	-0.020147834
91	0x3d8e2d3a	0.0694222
92	0xbc157f55	-0.009124597
93	0x3ce6e92e	0.02818736
94	0x3d723484	0.059132114
95	0xbd1d1672	-0.038351484
96	0x393f74a9	0.00018258639
97	0x3dd0f5d8	0.10203141
98	0xbd289d00	-0.041165352
99	0xbc9e5a48	-0.019330159
100	0xbd9168da	-0.07100077
101	0xbd18bd06	-0.03728964
102	0xbd80b0fe	-0.062837586
103	0xbc8f8b72	-0.017522547
104	0x3dcc818e	0.09985648
105	0x3d61ba29	0.055109177
106	0x3d2e9600	0.04262352
107	0x3dcf735e	0.101294264
108	0xbdb0e6da	-0.086377814
109	0xbc9a2171	-0.018814774
110	0xbd55b444	-0.052173868
111	0xbd5fdeac	-0.054655716
112	0x3d81c62c	0.063366264
113	0xbb6ed107	-0.0036440508
114	0x3ddf7817	0.10911577
115	0xbd4b3d13	-0.04961879
116	0xbd40349a	-0.046925165
117	0x3daa78bd	0.0832381
118	0xbd6ae110	-0.057343543
119	0x3d84d8f5	0.06486694
120	0x3c82ddf3	0.015974974
121	0xbde0d7c0	-0.10978651
122	0x3dc5bd28	0.09655219
123	0xbbe40040	-0.0069580376
124	0xbc9c8995	-0.019108573
125	0xbd0506a9	-0.032477055
126	0xbd2bbf78	-0.041930646
127	0x3c5a2d36	0.013316443

fcs.4.0.linear.weight f4 [128, 1]
0	0x3ecde42c	0.40213144
1	0xbe57742d	-0.21040411
2	0x3ec698f7	0.38788578
3	0xbe80e119	-0.25171736
4	0x3eb17347	0.34658262
5	0xbd0b7227	-0.03404441
6	0x3e9add56	0.3024699
7	0xbed770b3	-0.4207817
8	0xbf31f014	-0.69506955
9	0x3dfd6178	0.12372106
10	0xbf240b01	-0.6407929
11	0xbf1ea1d6	-0.6196569
12	0xbf76a4a1	-0.96344954
13	0xbea1f24b	-0.31630167
14	0xbf295230	-0.66141033
15	0x3f467794	0.7752621
16	0x3f369428	0.7131982
17	0x3e854da6	0.26035804
18	0x3f51d5cc	0.81966853
19	0x3ef36ebe	0.47545427
20	0xbf71b230	-0.9441252
21	0xbda975fc	-0.08274457
22	0xbe175ef7	-0.1478232
23	0xbf1bf6fe	-0.60923755
24	0x3e949b54	0.29024756
25	0xbe9f062d	-0.310594
26	0xbef5da1f	-0.48017976
27	0xbc97dcf0	-0.018537968
28	0xbf2adc92	-0.66742814
29	0x3f51d716	0.8196882
30	0x3f23be3d	0.63962156
31	0x3f7087bc	0.93957114
32	0xbe0eb902	-0.13937762
33	0x3eb5626b	0.3542665
34	0xbd042a38	-0.032266825
35	0xbf537b38	-0.8260989
36	0x3eebdf56	0.4606883
37	0xbf3307e6	-0.6993393
38	0xbebaa1e2	-0.36451632
39	0xbee48bb1	-0.44637826
40	0xbf793419	-0.9734512
41	0x3d596b20	0.053080678
42	0x3e25f26e	0.16205761
43	0xbd92f69b	-0.071759425
44	0x3f3a62d7	0.7280707
45	0x3d27d78a	0.04097704
46	0xbe525afc	-0.2054252
47	0xbf0ba6ca	-0.54551375
48	0xbf17ffec	-0.5937488
49	0xbe3cc12c	-0.18433064
50	0xbf15956c	-0.58431125
51	0xbf284332	-0.6572753
52	0xbe00c8cc	-0.12576598
53	0xbe8088e0	-0.25104427
54	0xbf1b7563	-0.6072599
55	0x3f17928e	0.59208
56	0x3f56f3a0	0.8396549
57	0xbf30797c	-0.6893537
58	0x3ee000ba	0.43750554
59	0xbeeeb4a6	-0.466222
60	0xbdd4a6f0	-0.10383403
61	0x3f6d2460	0.9263363
62	0x3df7a352	0.12091698
63	0xbf737c1c	-0.9511125
64	0x3f6dc0ec	0.928725
65	0xbd46a3ce	-0.04849606
66	0xbefe51f2	-0.49671894
67	0xbf035c5b	-0.513128
68	0x3f59427d	0.8486708
69	0x3c8a4240	0.016877294
70	0x3f0b8438	0.54498625
71	0x3f26106d	0.64868814
72	0xbecfcb2b	-0.40584692
73	0x3dbcb930	0.09215009
74	0xbf26a4f7	-0.65095466
75	0x3f5402bd	0.8281668
76	0xbf091a2d	-0.53555566
77	0x3f2b6050	0.66943836
78	0x3e75971c	0.23983425
79	0x3f1fc118	0.6240401
80	0xbf34dd60	-0.7065029
81	0xbcc2bf6a	-0.023772914
82	0x3f07b839	0.53015476
83	0xbd3c043a	-0.04590247
84	0xbc6b1580	-0.014348388
85	0x3ef66da0	0.48130512
86	0xbf402048	-0.7504926
87	0xbe2d9acb	-0.1695358
88	0x3ee3ecc3	0.44516572
89	0x3efa5c9e	0.48898786
90	0x3f700ced	0.93769723
91	0xbe70bc7d	-0.23509403
92	0x3e712538	0.23549354
93	0xbefcdafb	-0.4938582
94	0xbe258c0c	-0.16166705
95	0xbeffdb0d	-0.4997181
96	0x3f3f9b2a	0.74846137
97	0x3bc79b00	0.0060914755
98	0x3ecb0ec1	0.39659694
99	0x3f0ea723	0.5572378
100	0x3e123378	0.14277446
101	0x3dd9f220	0.10641885
102	0xbd93a9dc	-0.072101325
103	0xbf5ae958	-0.85512304
104	0x3e2c5ed5	0.1683305
105	0xbe841600	-0.25798035
106	0xbf580679	-0.84384876
107	0x3f6ce0f8	0.92530775
108	0xbd9623db	-0.07331058
109	0xbf023359	-0.508596
110	0xbf7a99a6	-0.978907
111	0xbf6b7954	-0.9198201
112	0x3ebcd17e	0.3687858
113	0xbeea0899	-0.45709684
114	0xbedc2b9a	-0.43002015
115	0xbf140757	-0.578237
116	0x3f510046	0.8164104
117	0xbe564fe3	-0.20928912
118	0x3f2526bc	0.6451223
119	0x3f490139	0.7851749
120	0xbf461c40	-0.77386856
121	0x3f3d339a	0.7390686
122	0xbe743abf	-0.23850535
123	0x3f770a5b	0.96500176
124	0x3f07ff84	0.5312426
125	0xbf78ca41	-0.97183615
126	0x3e36294c	0.17789191
127	0x3eaefd46	0.34177607

fcs.4.0.linear.bias f4 [128]
0	0xbeb1b53d	-0.34708586
1	0x3f494c92	0.7863246
2	0xbf51c40e	-0.8193978
3	0xbeb2a7bf	-0.34893605
4	0x3f7567b4	0.95861363
5	0x3f7a82c0	0.9785576
6	0x3f01bdf7	0.5068049
7	0xbf1e5026	-0.61841047
8	0xbf649cbd	-0.89301664
9	0xbf5094e5	-0.81477195
10	0xbe958a13	-0.29206905
11	0x3f0b0582	0.5430528
12	0x3e8dd5f2	0.2770229
13	0xbdaafcce	-0.08349
14	0x3f626b6d	0.8844517
15	0x3f51c528	0.8194146
16	0xbedce71a	-0.43145066
17	0xbee5faf7	-0.44918033
18	0xbd634fb2	-0.055495925
19	0x3e7c589f	0.24643181
20	0xbd4cd7e3	-0.050010573
21	0x3ece892e	0.40339035
22	0x3f348470	0.70514584
23	0xbe6626cf	-0.22475742
24	0x3f014e29	0.5050989
25	0x3e2f3cba	0.17113009
26	0x3eb0db0a	0.34542114
27	0x3ed3bfcf	0.41357276
28	0xbe9e4c85	-0.30917755
29	0xbed3396c	-0.41254747
30	0x3ec6253f	0.38700292
31	0xbf1ad642	-0.6048318
32	0x3f0e5e72	0.5561286
33	0xbf24bad2	-0.64347565
34	0x3f2f5c02	0.6849977
35	0x3edf8470	0.4365573
36	0xbe912886	-0.2835123
37	0x3f0af35a	0.54277575
38	0xbebd493e	-0.36969942
39	0x3e7d589b	0.24740832
40	0x3eaba00e	0.3352055
41	0x3dcbe472	0.09955682
42	0x3e6b09ec	0.22953004
43	0x3c87f338	0.016595468
44	0xbe803e6e	-0.2504763
45	0x3f0f4c3b	0.55975693
46	0x3ec54f50	0.38537073
47	0x3eb820bb	0.3596247
48	0x3f2678b2	0.65027916
49	0xbefc575b	-0.49285397
50	0xbe49d636	-0.19710621
51	0x3c4d1738	0.012517743
52	0x3f4e10cd	0.80494386
53	0xbf3af03b	-0.7302281
54	0xbf0c254e	-0.5474442
55	0xbe8e6681	-0.2781258
56	0xbf52711c	-0.8220384
57	0xbf52b5af	-0.8230848
58	0x3f35c095	0.7099698
59	0x3b65c37c	0.0035059145
60	0xbf4df22e	-0.8044766
61	0xbe13a9e7	-0.14420281
62	0x3c1d0449	0.009583541
63	0xbea0c6ad	-0.31401578
64	0xbf5fb080	-0.8737869
65	0x3f0bd911	0.5462809
66	0xbde4ff36	-0.1118149
67	0x3f7a1eaf	0.9770307
68	0xbf3d27ae	-0.7388867
69	0xbf0c8a72	-0.5489875
70	0xbda618d4	-0.08110204
71	0xbf2a1f29	-0.66453797
72	0x3f3a2bf0	0.72723293
73	0x3f458569	0.7715669
74	0x3f6d928e	0.9280175
75	0xbf183ae9	-0.5946489
76	0x3f3a5e6f	0.72800344
77	0x3f296a54	0.6617787
78	0xbec50bf6	-0.38485688
79	0x3d88031b	0.06641217
80	0x3ee09664	0.4386474
81	0x3f36c3e6	0.7139267
82	0xbf72d31e	-0.9485339
83	0x3f7f608e	0.99756706
84	0xbe80ba64	-0.25142205
85	0x3ee50725	0.44732013
86	0xbf297c34	-0.66205144
87	0xbf4bd5b0	-0.79622936
88	0xbf28f8f2	-0.6600486
89	0x3f1e5d71	0.6186133
90	0xbf089132	-0.5334655
91	0x3f0dab79	0.5533977
92	0x3ea9d0fb	0.33167252
93	0x3eb86da3	0.36021146
94	0xbe48c01d	-0.19604535
95	0xbe8ccbf2	-0.27499348
96	0xbf0258eb	-0.5091693
97	0xbf0f188c	-0.5589683
98	0x3f6c1402	0.9221803
99	0xbdcab69c	-0.09898111
100	0xbeed4a60	-0.46345806
101	0xbf6e2f04	-0.9304049
102	0x3da195df	0.07889914
103	0xbf834bdd	-1.0257527
104	0xbd646c12	-0.055767126
105	0x3f1ae5b0	0.60506725
106	0xbf1db622	-0.6160604
107	0x3f176e27	0.59152454
108	0xbeb1dfd9	-0.34741095
109	0xbf4b8d56	-0.79512537
110	0xbf834253	-1.0254616
111	0x3f080a9e	0.531412
112	0xbf46359b	-0.77425545
113	0x3eea09c4	0.45710576
114	0x3e3ac95c	0.18240875
115	0x3f1394e8	0.5764909
116	0xbf49af67	-0.7878327
117	0x3f669013	0.9006359
118	0xbf83a482	-1.0284579
119	0xbf3c42e1	-0.7353955
120	0x3f22cecd	0.635968
121	0x3d9ea940	0.077471256
122	0xbf09c232	-0.53811944
123	0xbe81d829	-0.2536023
124	0xbf68ad7e	-0.9088973
125	0xbf696539	-0.9117008
126	0xbe6ad2bb	-0.2293195
127	0x3f43f579	0.76546437

fcs.4.1.weight f4 [1, 128]
0	0x3ad1d74f	0.0016009602
1	0x3c80c46c	0.015718661
2	0xbdafb01f	-0.08578514
3	0x3de555d0	0.11198008
4	0x3bca8798	0.006180715
5	0x3d044418	0.0322915
6	0x3c1f6af5	0.00973009
7	0x3d49f0ba	0.04930184
8	0x3d722cd4	0.059124783
9	0x3d8aabe3	0.06771066
10	0x3d77d96c	0.060510084
11	0x3b789714	0.0037931846
12	0x3d0879f7	0.03331944
13	0xbc992e4b	-0.018698832
14	0x3d4dd064	0.050247565
15	0x3cf6e256	0.030137222
16	0x3d437a75	0.047724206
17	0xbd81b5dd	-0.06333516
18	0xbda3a3c3	-0.079902194
19	0x3c8c0b22	0.017095152
20	0x3d1e6c2c	0.03867738
21	0x3d9a8070	0.07544029
22	0x3d1e2f40	0.03861928
23	0x3d26195b	0.040551525
24	0x3da18fad	0.07888732
25	0xbd0cbdd2	-0.034360714
26	0x3d927c16	0.07152574
27	0x3d43e1db	0.047822814
28	0x3d8cf9ae	0.0688356
29	0x3d3d4f63	0.046218287
30	0xbd9094fe	-0.07059668
31	0x3cd7e2a8	0.026353195
32	0x3da7bd06	0.0819035
33	0xbdec1a84	-0.11528495
34	0xbb97bfce	-0.004631019
35	0xbd6ddd11	-0.058072153
36	0xbd1f3680	-0.038870335
37	0x3bd02cae	0.0063529825
38	0x3d8d31af	0.06894242
39	0xbcf49670	-0.02985689
40	0xbdafdd62	-0.08587147
41	0x3d66eb68	0.056376845
42	0x3d68b67e	0.056814663
43	0xbc55bd08	-0.013045557
44	0x3d7d00ff	0.061768528
45	0x3d8c0d63	0.06838491
46	0xbcf3eae0	-0.029775083
47	0xbb0c5527	-0.002141306
48	0x3bd303df	0.0064396705
49	0x3d7a384f	0.061088856
50	0xbc56ae83	-0.01310313
51	0xbd192291	-0.03738648
52	0xbd3a4c6d	-0.04548304
53	0x3e044463	0.12916712
54	0xbbb14737	-0.005410101
55	0xbd6ad86b	-0.0573353
56	0x3d4d2ebd	0.0500934
57	0x3d29b1ab	0.041429203
58	0x3d933f6b	0.071898304
59	0x3da7e86a	0.08198626
60	0xbc4c0078	-0.012451284
61	0x3b4e85a6	0.0031512766
62	0x3d94f978	0.07274145
63	0xbd56c4b5	-0.05243369
64	0xbd5598ec	-0.05214779
65	0x3c82f238	0.01598464
66	0x38b4a836	8.6144006e-05
67	0x3c51e873	0.012811768
68	0x3cafe6cf	0.021472363
69	0xbd14f30e	-0.036364608
70	0xbb11f9c9	-0.0022274128
71	0x3d50289c	0.050819978
72	0xbd7976e0	-0.060904384
73	0xbd77399e	-0.060357682
74	0xbda00c0d	-0.078147985
75	0x3cfff53f	0.031244872
76	0xbdbafaad	-0.09129844
77	0xbd1b0fde	-0.03785693
78	0x3c7067ee	0.014673216
79	0xbd6cd3d0	-0.057819188
80	0x3d8822ac	0.06647238
81	0xbd1e65ab	-0.038671177
82	0xbd19127a	-0.037371136
83	0x3c69797c	0.014250156
84	0xbb0e1560	-0.002168022
85	0x3d720f5a	0.05909667
86	0x3dc0d1cb	0.09415015
87	0xbcc5c0f3	-0.024139857
88	0x3c03e7e9	0.008050897
89	0x3cf73ee2	0.030181352
90	0xbc99cd25	-0.018774578
91	0xbd8d0351	-0.06885398
92	0x3d0925c0	0.033483267
93	0x3d6bcf00	0.057570457
94	0xbd3bede2	-0.04588116
95	0xbd8c037d	-0.06836603
96	0xbdd958db	-0.10612651
97	0x3ca74e64	0.020423122
98	0xbc8ea4cf	-0.017412571
99	0xbd16d6a7	-0.036825802
100	0x3cc819e7	0.024426414
101	0xbcb8afe8	-0.022544816
102	0xbd81978d	-0.06327734
103	0x3d11744a	0.035511293
104	0xbd70bd10	-0.058774054
105	0xbd081b12	-0.03322894
106	0x3d7f6176	0.062348805
107	0x3cb22131	0.021744343
108	0xbd00842e	-0.031376056
109	0x3df99bbc	0.12187907
110	0x3daaf6af	0.083478324
111	0xbd84cfad	-0.064849235
112	0xbc94ac0c	-0.018148445
113	0x3ce453b1	0.027871938
114	0xbd87a07a	-0.06622405
115	0xbd8fa4bf	-0.07013845
116	0xbdcb755a	-0.099344924
117	0x3d2b17dd	0.041770805
118	0xbce750cc	-0.02823677
119	0x3c314dda	0.010821784
120	0xbd3b07fc	-0.04566191
121	0x3d77ca09	0.06049541
122	0x3dad9b87	0.0847693
123	0xbda78ecb	-0.081815325
124	0xbd909f62	-0.0706165
125	0x3d86b1e8	0.06576902
126	0xbc60fe8c	-0.013732564
127	0xbbb00435	-0.0053715953
