cache/tradeoff_exp/trial_0/iter_4.pth (torch, 581966 bytes, 600 tensors)

fcs.0.0.linear.weight f4 [128, 1]
000000 33 ce 04 bf b7 f9 91 be fa 9c 26 bf 56 5f d9 3e
       -0.51877135 -0.2851083 -0.6508328 0.42455548
000010 11 ff c9 3d 74 f2 b0 be 81 9a cc bd 00 6e a2 bc
       0.09863103 -0.34559977 -0.09990407 -0.019827843
000020 87 17 5a 3f b9 f0 65 3f e0 f8 45 bf 38 de b8 3e
       0.8519215 0.8982044 -0.7733288 0.3610704
000030 7a 5d c8 3e 82 23 c1 3e 41 d0 06 be 8c 2f 7c 3e
       0.39133817 0.37722403 -0.1316538 0.24627513
000040 d6 41 7c 3e 36 95 7a 3f 14 4f 76 bf b0 cd c0 be
       0.2463449 0.9788393 -0.96214414 -0.37656927
000050 4f 49 2b bf b5 4a f7 be e7 82 4d 3e d7 8e 1d 3f
       -0.66908735 -0.48299184 0.20069467 0.6154608
000060 cf 23 42 bf e5 dd 27 3f 5f 27 57 3f 6d 9e fa be
       -0.7583589 0.6557296 0.8404445 -0.48948994
000070 64 14 32 3e 34 8d 02 bf 39 f5 5b 3e fc 25 ef be
       0.17390591 -0.5099671 0.21480264 -0.46708667
000080 86 13 c6 be 60 41 2c bf cd a7 54 bf ea e5 4a 3f
       -0.3868677 -0.67287254 -0.83068544 0.7925707
000090 78 44 ff bd 80 43 e3 bc 1f 4f fd be 1a e0 33 3f
       -0.12464231 -0.027742147 -0.49474427 0.70263827
0000a0 71 2e 12 bf e3 00 d1 be c0 a4 48 bf ca 55 56 bf
       -0.57102114 -0.4082099 -0.7837639 -0.83724654
0000b0 5d b6 64 3f b6 c2 44 bf 22 af 0f be c2 e6 95 be
       0.89340764 -0.76859605 -0.14031652 -0.29277617
0000c0 33 55 be 3e 24 89 88 3e 44 e5 44 bf 19 9d 64 3f
       0.37174377 0.2666713 -0.7691233 0.8930221
0000d0 c3 f7 7f bf a7 a5 cc 3d ea ff a9 bd 4a 01 71 be
       -0.9998743 0.09992533 -0.08300765 -0.23535648
0000e0 9c 33 2d 3f 15 71 57 3f c8 63 05 3e 9c 88 b3 be
       0.67656875 0.84156924 0.13026345 -0.35065162
0000f0 ae d8 3c 3f 0d 06 22 3f 36 08 36 3e c2 4f 8d be
       0.73768127 0.6329048 0.1777657 -0.27599913
000100 c8 1e 44 3d 03 26 63 3f 30 18 de 3d 33 00 44 be
       0.047880918 0.88729876 0.10844457 -0.19140701
000110 0e b2 59 bf 7c 65 08 bf b7 8b 37 3f 91 d6 1e bd
       -0.85037315 -0.5327985 0.7169756 -0.038778845
000120 4e 9e 8e bd 8d 55 c4 3e d7 60 29 bf 95 59 87 bd
       -0.06963788 0.3834652 -0.6616339 -0.06608883
000130 8d 53 90 be 1d 98 07 3f 13 05 4f 3f f9 6e 1f 3f
       -0.28188744 0.5296648 0.8086712 0.62278706
000140 85 49 40 3f 06 f8 63 bf ec 5d b7 be 35 82 ef 3d
       0.7511218 -0.8905033 -0.35813844 0.11694757
000150 47 83 58 bf fd da 8c 3e 4f 4c 27 bf 4a ac d8 3e
       -0.84575313 0.27510825 -0.6535081 0.42318946
000160 43 c4 4d 3f 95 f3 5b bf 38 4f 55 3f ca b8 eb 3e
       0.80377597 -0.8591855 0.83324003 0.4603942
000170 c7 e4 29 bf a2 68 76 3f d3 c7 5c bf 93 5e 2b bf
       -0.6636471 0.96253407 -0.8624241 -0.66941184
000180 a8 4b 00 bf 96 08 48 bd a9 52 32 3e ca a4 97 be
       -0.5011544 -0.048836313 0.17414345 -0.29617912
000190 6c d1 71 bf 82 dc ec bd fc d8 40 3f 63 b0 43 3f
       -0.9446018 -0.11565496 0.7533109 0.7644102
0001a0 15 74 fd 3e 89 8c 10 3e 3e d0 78 3e eb 4e 46 bf
       0.49502626 0.1411611 0.24298188 -0.7746417
0001b0 f4 ed d0 3e 74 dc 7d bf 4c fb d5 be 25 97 84 be
       0.40806544 -0.9916451 -0.41793287 -0.25896564
0001c0 22 94 3a 3f eb 92 0b bd 6f 61 e7 be 27 af 38 3e
       0.7288228 -0.03407566 -0.45191523 0.18035565
0001d0 8d 25 55 bf 69 a5 85 be 3e e5 8a 3e f8 e6 8e bd
       -0.8326042 -0.2610276 0.27128023 -0.069776475
0001e0 15 40 de bd ea 44 1b 3f c1 94 41 bf 88 12 00 bf
       -0.108520664 0.6065203 -0.75617605 -0.50028276
0001f0 91 00 79 3f 25 6e 4b 3e 50 f5 2a be b6 f1 05 3f
       0.9726649 0.19866236 -0.16695142 0.52321947

fcs.0.0.linear.bias f4 [128]
000000 ee e3 19 3f ca d8 2b be a5 f5 d4 be b3 11 2e be
       0.6011342 -0.16781917 -0.41593662 -0.16998939
000010 86 33 bc 3e 81 24 02 be 2a 40 16 3f a4 c3 50 bf
       0.3675806 -0.12709238 0.58691657 -0.81548524
000020 d1 b0 fe be 7f f9 44 3f 8f d6 06 3e 5c 33 47 3e
       -0.49744275 0.769432 0.13167785 0.19453186
000030 b1 6a ab 3e ab fd 77 be 78 62 ce be 53 67 91 3e
       0.33479837 -0.2421786 -0.403095 0.28399143
000040 a8 f8 8a be 9e 1b d0 be 39 fa 07 3e f5 6c 77 3e
       -0.27142835 -0.4064607 0.13279046 0.24162658
000050 07 a3 ba bd c5 4f 2d bf 7f 9e 16 be 7a 3d 0f bf
       -0.09113126 -0.67699844 -0.14708899 -0.5595318
000060 fd aa 06 3f 29 02 28 bf bd b5 4d 3f 69 2d cb 3e
       0.5260466 -0.65628296 0.80355436 0.39683083
000070 30 5a 5b bf 9c a8 3d 3f 85 21 7d bf f1 bf 6b bd
       -0.8568449 0.740854 -0.9887927 -0.057556096
000080 70 26 20 bf fa 20 5c bf 42 d2 c9 3d e1 a1 fb be
       -0.6255865 -0.8598782 0.098545566 -0.4914694
000090 03 34 3a 3f 7e 3e 49 bf 8c 58 54 3f 80 44 1c 3f
       0.72735614 -0.7861098 0.8294761 0.6104202
0000a0 50 1b 60 3f bb 6b 95 be 96 c6 1c bf a2 68 2a bf
       0.87541676 -0.29183754 -0.6124052 -0.66565907
0000b0 c6 9e 56 3f 2b 07 ff be 8a db fb bd 4c 6c 1d be
       0.8383602 -0.49810156 -0.12297733 -0.15373343
0000c0 29 f0 36 3e 4f 6d 52 bf 17 57 4e 3f 59 db 3e bf
       0.17865051 -0.8219804 0.8060164 -0.7455345
0000d0 86 e4 7b 3f f4 b8 c7 be 5d ad e4 be 02 20 0c be
       0.98395574 -0.39008296 -0.44663516 -0.13684085
0000e0 4d 4b 95 3e 6a 81 3f be 1a 80 7f bf 73 74 33 3f
       0.29159012 -0.18701711 -0.9980484 0.7009956
0000f0 7f 1a 7c 3f ba 17 02 3f bf 3b 79 3f d5 8c 8b 3e
       0.9847793 0.50817454 0.9735679 0.27255884
000100 56 5e 90 bd 28 bb 4c bf ca be 5f bf 2e 60 31 bf
       -0.07049243 -0.7997308 -0.87400496 -0.69287384
000110 67 80 81 be ba ce 14 3f aa 51 d6 be 62 22 1c bd
       -0.25293276 0.5812794 -0.4185918 -0.038118728
000120 52 62 5e bc 0e 6a 29 bf e6 3d d7 bc 2c 9b 78 3f
       -0.013573246 -0.6617745 -0.026274633 0.97111773
000130 f6 a9 4d 3f 1a 11 44 3f c6 02 d6 bd eb 1a 45 3c
       0.80337465 0.76588595 -0.10449748 0.0120303435
000140 cc 91 0d 3f cc 9e aa be 09 6b cf be 3a 8f 59 3f
       0.55300593 -0.33324277 -0.4051135 0.8498417
000150 f8 2f 67 3d 98 a9 2b bf 69 90 57 3f 15 7e 23 3e
       0.05644223 -0.67055655 0.8420473 0.15966065
000160 8d 3d 07 3f 1c 13 5e bf 2f 34 39 3e 3c 3d 1b 3f
       0.52828294 -0.8674791 0.18086313 0.6064031
000170 b9 e5 12 be 5f f1 0f bf 29 a5 4c 3f de 04 ee 3e
       -0.14345445 -0.5622768 0.79939514 0.46488088
000180 f2 43 92 3e 48 fe 73 3e b2 58 7d 3c 13 4b 13 3f
       0.28567463 0.2382747 0.015463041 0.5753643
000190 4d 7e 60 be 98 ac 16 bf 1e 61 c0 3e 2c 08 85 3e
       -0.2192318 -0.5885711 0.37574095 0.25982797
0001a0 40 c9 bf 3e 2e 64 ea bd 3c e1 0e be 06 18 a1 bd
       0.3745823 -0.11444889 -0.13953108 -0.0786591
0001b0 5f 3e 88 3e b1 ba 44 bf b5 c1 6d bf 1c 63 bf 3e
       0.26610085 -0.7684737 -0.928737 0.37380302
0001c0 96 f4 0d bf 37 77 a5 bd 9b 3a 8d 3e b3 d2 15 3e
       -0.55451334 -0.08079379 0.27583775 0.14631157
0001d0 e0 02 25 3f ef 8e 05 3e 5a c8 76 3e 08 7b b5 bd
       0.6445751 0.13042806 0.24099866 -0.08861357
0001e0 43 dd 17 3e 30 4e b9 3e 8b 3a 2e 3f f5 58 73 bf
       0.14830498 0.36192465 0.6805808 -0.9505761
0001f0 89 ee d2 be 89 bc 65 bf 1c 7e ca be f7 50 1d 3f
       -0.41197613 -0.89740807 -0.3954934 0.6145167

fcs.0.1.weight f4 [1, 128]
000000 74 24 a5 bd d1 32 99 bd 2a 00 64 3d 90 cb 3f bd
       -0.080635935 -0.074803956 0.05566422 -0.04682499
000010 2a 71 90 3d 34 e0 01 3d 0d de dd 3c d5 cd 8f 3d
       0.07052834 0.031707957 0.027083421 0.07021681
000020 ac 0e 9d bd 37 7a 91 3d b8 a4 04 3d 09 8c 59 bd
       -0.07668814 0.07103389 0.03238365 -0.053112064
000030 91 b0 e3 3c bd 16 a0 bc 26 c8 f0 bc 03 2d 52 bb
       0.027794154 -0.019542092 -0.029392313 -0.0032070286
000040 5c 14 19 bd 1e 51 a9 3d 56 7b a3 3d b9 9b c5 bb
       -0.03737293 0.08267425 0.07982509 -0.0060305265
000050 8d 61 98 bd 04 35 1e 38 17 8c 2f 3c 33 90 82 3d
       -0.07440481 3.771951e-05 0.010714552 0.0637516
000060 12 ac cb 3b c0 ac f7 3c 04 20 f4 3c 00 f0 3f bd
       0.0062155807 0.03023374 0.029800422 -0.04685974
000070 3e cc 65 bd 7e b3 9b bd 1b 7e 39 bb 69 51 00 3d
       -0.056102984 -0.07602595 -0.0028303924 0.03132764
000080 f4 d6 28 ba a0 86 ba 3d 8f 8f 56 bc 7c 29 57 bd
       -0.0006440722 0.09107709 -0.0130957505 -0.052529797
000090 f8 d8 a0 3c 80 e8 cb bc 37 7f 17 bc 3c 52 bc 3d
       0.019634709 -0.024891138 -0.009246639 0.091953725
0000a0 d0 83 d0 39 6c 70 a7 3d 9d ba 86 3c 3f 33 e7 bc
       0.0003977106 0.0817574 0.016446406 -0.028222678
0000b0 8f b3 91 3d 07 c8 3b bd 66 c5 f7 3b 7c 16 c6 3c
       0.07114326 -0.045845058 0.0075613735 0.024180643
0000c0 c4 79 3b 3d f2 1b aa bd 48 dc f5 3b dd 0b 94 bc
       0.04577042 -0.083061114 0.007503066 -0.018072063
0000d0 ac e0 77 3d 62 0a dd 3c de dc 0f 3d 49 8d 6b 3d
       0.060517 0.02698249 0.035122745 0.057507787
0000e0 2a 92 60 bc 67 15 b2 b8 31 39 91 3d 43 24 8c bd
       -0.013706723 -8.491688e-05 0.070909865 -0.06842854
0000f0 99 db 5f bd f7 c3 50 3c f8 86 ec bc 6b 13 07 3c
       -0.054652784 0.012742034 -0.028872952 0.008244376
000100 bc 13 a5 3d 2a 99 b5 bb e5 57 9a bd 5d fe 12 bd
       0.08060405 -0.00554194 -0.07536296 -0.03588711
000110 74 b0 ae 3d 75 51 85 bc d9 85 09 bd b4 cf 34 3d
       0.085297495 -0.016274193 -0.033574913 0.044143394
000120 52 0e 72 3c ea 2b 9a bd 4b b6 9e 3d 1b ae 63 3d
       0.014773922 -0.07527907 0.077496134 0.05558596
000130 b6 bf a3 3d 5b e1 38 3d 3f ae c5 bc bb f0 bc bc
       0.0799555 0.04513679 -0.024130939 -0.023064008
000140 f7 12 49 3d d8 d5 53 bc 69 6d b7 3c b2 86 a2 bd
       0.049090352 -0.012929402 0.022391038 -0.07935847
000150 f6 5b 23 bd a6 74 06 3d e8 4a ad ba 81 56 15 bd
       -0.039882623 0.03282609 -0.0013221176 -0.03645945
000160 3c 2a 91 bd 53 59 7a 3d bf c1 41 bc f3 b0 a4 bd
       -0.07088134 0.061120342 -0.011825978 -0.08041563
000170 92 eb b6 3d 20 6a 45 3d e4 46 4b bd b2 68 7a bd
       0.0893165 0.04819691 -0.049628153 -0.061135
000180 cb f6 b5 3d 57 e4 9d 3b 0a 1b 42 bd 9f d2 5b 3d
       0.08884963 0.00481848 -0.047389068 0.05366766
000190 d0 0c 6b bc b9 4e b0 3b 10 87 23 bd de f9 8c bd
       -0.014346316 0.005380478 -0.039923728 -0.06883596
0001a0 3a df 56 bd 6c 7a a2 bb 22 01 71 bd 13 7e ba 3d
       -0.05245898 -0.0049584415 -0.05883897 0.09106078
0001b0 cf 8f ea 3b eb 2d ef bc a8 0a 28 3d fc 68 9a bd
       0.0071582566 -0.0291967 0.041025788 -0.075395554
0001c0 e7 02 25 bd a2 c7 1c 3d 07 cb 92 bd bf f5 4d 3d
       -0.04028597 0.038276322 -0.07167631 0.05028319
0001d0 f3 05 30 3c 04 d6 8f bd 1c d1 a6 bd ec 9d 06 3d
       0.010743606 -0.07023242 -0.08145353 0.03286545
0001e0 19 30 37 3d 98 55 3c bc 9b 68 99 bd 84 1b 38 bd
       0.044723604 -0.0114950165 -0.07490655 -0.044948116
0001f0 97 fc 71 3c 68 79 9f 3a 27 10 ec 3c 2d a0 b4 3c
       0.014769695 0.0012166919 0.028816296 0.022049034

fcs.1.0.linear.weight f4 [128, 1]
000000 d7 4c 07 3f 18 a3 78 3f a3 17 55 3f b8 5a 68 3f
       0.52851623 0.9712386 0.8323919 0.90763426
000010 a4 3f b1 be 7e 5b b4 be 0a 90 f0 bd fb 68 99 3e
       -0.34618866 -0.35226053 -0.11746223 0.29962906
000020 c1 53 cf 3e e3 39 bb bd 19 a5 27 bf 53 78 43 bf
       0.40493587 -0.091419004 -0.65486294 -0.76355475
000030 f8 56 76 3f 34 24 8e be ae a0 01 be 70 6a 1a bf
       0.96226454 -0.27761996 -0.1265895 -0.6031866
000040 0b 64 fc be 2c 8c 5b 3e 54 16 d8 3e f0 a7 d1 be
       -0.49295077 0.2144019 0.42204535 -0.4094844
000050 c5 a7 bf be b1 89 4a 3f cc aa 01 bf 0a cb 3c bf
       -0.37432685 0.7911635 -0.5065124 -0.73747313
000060 88 64 1e be 81 43 73 3f ea 9f 5b 3e da 6c 10 3e
       -0.15468037 0.9502488 0.21447721 0.14104024
000070 0d 7c f4 bd 38 aa 1f 3f a1 6d f9 be 21 4d 2d 3f
       -0.11937723 0.6236911 -0.48716453 0.67695814
000080 5c e6 6f 3e 00 b4 e3 3d dd 2f 08 3e 5f a3 1f bf
       0.23427719 0.11118317 0.13299508 -0.6235866
000090 89 d0 3d 3f 4b 33 06 3f ba 0b 46 bf c3 21 6c bf
       0.74146324 0.52422017 -0.77361643 -0.92239016
0000a0 39 5b 89 be eb de 29 3f 1f f1 f6 be 63 87 6d 3f
       -0.2682741 0.6635577 -0.48230836 0.9278471
0000b0 c4 da 02 bf 53 13 65 bf 23 8b e1 3e 9b 82 18 bf
       -0.5111506 -0.8948261 0.44051465 -0.5957429
0000c0 59 2e 1c be 11 1c a6 be 3c 08 b3 bd 66 7f 61 bf
       -0.15252055 -0.32443288 -0.08741805 -0.8808502
0000d0 03 9c 68 bf 7a 53 dd 3e 13 90 e5 bd 55 b7 1c bf
       -0.90863055 0.4322775 -0.112091206 -0.6121724
0000e0 40 b0 d0 bc 16 c9 67 bf 0b 36 84 3e 70 79 f3 3e
       -0.025474668 -0.9054121 0.25822482 0.47553587
0000f0 74 85 78 3f 5c d2 52 bf 30 5c f3 bd 90 ab 0a 3f
       0.97078633 -0.8235223 -0.11882818 0.54168034
000100 36 67 6a 3f 86 ee 33 bf 7f f5 d7 3e 86 e2 d2 3e
       0.9156374 -0.7028583 0.42179486 0.4118845
000110 8a 95 1a 3f 58 56 2e bf 8c 9b 36 3f 21 a8 e4 be
       0.6038443 -0.681005 0.71331096 -0.44659522
000120 29 5f 1b bf 4a 24 4c 3e 1a 87 58 3f 01 d3 2b bf
       -0.6069208 0.19935718 0.8458115 -0.6711884
000130 be f8 07 3f 08 94 fc bd 77 79 a3 3e a6 ea 47 3f
       0.53113925 -0.12332922 0.31928608 0.7809242
000140 d0 6b 8a 3e 32 62 52 bf 02 b9 9e be cf 13 49 3e
       0.2703538 -0.82181084 -0.31000525 0.19636463
000150 00 35 5a bf 51 fe 28 3e 21 c1 0b bf 44 a7 4d be
       -0.8523712 0.16503264 -0.54591566 -0.20083338
000160 2c a1 b7 3e 75 0b 50 bf 9f 8e 26 bf c3 69 e7 3e
       0.35865152 -0.8126748 -0.6506137 0.45197877
000170 e2 8b 7f bf ff e6 2f 3f 32 af 47 bf 00 e8 83 bc
       -0.9982282 0.6871185 -0.780017 -0.016101837
000180 f6 b8 53 3e 4e f0 c8 3e 73 ec 20 bf a4 5b 0c 3e
       0.20676026 0.39245838 -0.6286079 0.13706833
000190 e0 9a db 3e 3a db 5b 3f 2b ec 42 bf 59 27 fa be
       0.42891598 0.8588139 -0.76141614 -0.48858145
0001a0 81 c4 91 3e ad 7b c3 bc c5 0a 2f bf d9 47 55 bf
       0.28470233 -0.023862684 -0.6837581 -0.83312756
0001b0 4b 99 65 bf d8 6c 35 bf ab c8 d5 be ec a6 2f bf
       -0.8968703 -0.7086921 -0.4175466 -0.6861408
0001c0 d2 65 5e bf 60 dd 9f 3d a9 d7 15 3f 36 36 f5 be
       -0.86874115 0.07805896 0.58532196 -0.47892922
0001d0 5b db cf 3d 00 fa 49 bc ac 3d ee 3e a8 1a 34 bf
       0.101492606 -0.012327671 0.46531427 -0.70353174
0001e0 c0 76 42 3d 48 fd 6e 3f 49 47 37 3f 93 a2 7b bf
       0.04747653 0.93355227 0.7159315 -0.98294944
0001f0 c8 4d 23 be 00 ba 18 3c 72 d5 a5 be 28 04 26 bf
       -0.1594764 0.00932169 -0.32389408 -0.6485009

fcs.1.0.linear.bias f4 [128]
000000 23 0a 33 bf 24 06 2c 3f fa 1a a5 be 86 d5 94 bd
       -0.6993734 0.6719687 -0.32247144 -0.07267289
000010 1f 75 97 3e d7 83 1b bf ca 37 b6 3d 6a be 18 3f
       0.29581544 -0.60748047 0.0889736 0.5966555
000020 fb 13 17 bf 2f 5d 9a 3e f2 38 06 bd da 0d 0d 3f
       -0.5901486 0.30149218 -0.03276915 0.5509926
000030 7a 95 2a 3f 49 f8 88 3e ec f4 eb 3c 16 a7 5d bf
       0.66634333 0.26751927 0.028803311 -0.8658308
000040 65 9e ca 3e 8b 22 1c 3f 40 1f b6 be c1 5a 7b bf
       0.3957397 0.6099021 -0.35570717 -0.98185354
000050 2a 39 51 3f 6f 57 78 be e1 aa 4a 3e bd ba 90 be
       0.8172785 -0.24252103 0.19791748 -0.2826747
000060 77 48 26 3f 50 c0 77 3f 8a e7 1f 3f d2 6f a3 be
       0.6495432 0.9677782 0.62462676 -0.3192125
000070 5f 89 31 3f c1 23 f6 3e d5 ed c4 3d bd 43 50 bf
       0.69350237 0.48074153 0.09615675 -0.8135336
000080 d6 b4 da be 72 48 7d bf 3e e1 2c 3f 0f db 7d 3f
       -0.42716092 -0.9893867 0.6753119 0.9916238
000090 b5 b5 13 3f d7 9f 9f 3e cb 0f 70 3e d1 01 76 3f
       0.5769914 0.31176636 0.23443525 0.9609652
0000a0 2a 30 00 bf 0f 28 af be 5a 52 67 bf bc 0a b9 bd
       -0.5007349 -0.3421025 -0.90360034 -0.090352505
0000b0 62 3e 8c 3d 5d 2f 8b 3e c6 51 33 bf 72 e0 f0 bd
       0.06847836 0.27184573 -0.7004665 -0.117615595
0000c0 3f e4 53 bf 99 fd 4d bf cf ec 09 3e 41 55 79 bf
       -0.8277015 -0.80465084 0.13469242 -0.9739571
0000d0 e5 61 87 3e bd 3e 6c bf bd 44 32 bf e9 2a 53 be
       0.26441875 -0.9228323 -0.69636136 -0.20621838
0000e0 c8 4b 74 bf 87 12 4e 3f a6 47 52 3f af fd 03 bf
       -0.95428133 0.8049702 0.82140577 -0.51558965
0000f0 16 db 5e 3e 10 6f 03 3f d8 5e 9f 3e 7c 00 0f be
       0.21763262 0.5134134 0.31127048 -0.13965029
000100 fe 22 72 bf 44 ae 39 3f 34 7f 60 bf d0 7b 45 be
       -0.94584644 0.72531533 -0.87694097 -0.19285512
000110 e0 14 90 3d 86 89 a9 be 8c a1 ba be 82 ac 5b bf
       0.070352316 -0.33112735 -0.36451375 -0.858101
000120 f5 ef 5b 3d f6 61 da bd 74 4e 5d 3f c8 f3 a7 be
       0.053695638 -0.10663216 0.86447835 -0.32803178
000130 8e 16 45 3f 9c 0b 4c 3d b2 13 e3 be 65 55 6c be
       0.7698754 0.04981576 -0.44350964 -0.2307945
000140 5b 86 ed bd 8f c3 0b 3c 61 66 27 be ac 69 95 3e
       -0.11597892 0.0085305115 -0.16347648 0.29182184
000150 74 67 53 3f 03 96 19 3e 11 52 ba 3e a9 e1 20 3f
       0.8257973 0.14998631 0.36390737 0.6284433
000160 bb 7d 65 3e 60 60 ec 3e 1f 0a 07 3f 09 29 6f 3f
       0.22411244 0.46167278 0.5274982 0.9342199
000170 03 00 69 bf 90 87 ab 3e 25 46 34 bd 88 e6 37 be
       -0.9101564 0.33501863 -0.044012208 -0.17959034
000180 34 00 c7 be 74 a3 18 3f ba 50 6b 3f 2d a4 50 bf
       -0.38867342 0.5962441 0.91920054 -0.8150051
000190 6c 0b 09 3f 05 73 32 3f 51 d3 33 3e 93 a1 21 3c
       0.53533053 0.69706756 0.1756108 0.009865182
0001a0 96 5f 45 3f c5 44 df 3c ec ec 7d be e8 65 9a bd
       0.7709898 0.027254472 -0.2479741 -0.07538968
0001b0 a5 f1 a4 3e 25 db 80 3e 0b 7a 63 bd 00 a9 a0 3e
       0.3221561 0.25167194 -0.05553631 0.31378937
0001c0 fb ec 88 3e 06 60 4f bf 1b 10 79 3e fc 81 1d 3f
       0.26743302 -0.81005895 0.2432255 0.61526465
0001d0 d3 d5 f7 3d 50 ef ba bd 9f e4 42 3f 55 d0 5e bf
       0.121013306 -0.091276765 0.761301 -0.8703664
0001e0 0c b2 e9 be 3b 08 e6 be 13 4a 5e 3f 35 1c 78 bf
       -0.4564365 -0.44928154 0.8683178 -0.9691804
0001f0 0d bc ce 3d 02 fc 77 bf 06 e2 0f bd a6 84 bd 3e
       0.100944616 -0.9686891 -0.035127662 0.37015265

fcs.1.1.weight f4 [1, 128]
000000 29 72 c9 bc c5 d0 b4 3d 55 d8 56 39 42 17 35 bd
       -0.024590569 0.08828882 0.0002048922 -0.044211634
000010 e0 83 f8 3c 6f f3 77 3d 7b 81 f3 3b df ff a1 3d
       0.03033632 0.06053489 0.0074312068 0.07910132
000020 da cb 77 bd 0f 3d 3b 3d aa 91 72 3d e4 69 53 3d
       -0.060497142 0.045712527 0.059220947 0.051614657
000030 4a 1f 21 3b 56 ca 05 3d b1 ee 79 bd cb 1a 66 bd
       0.00245853 0.032663666 -0.06101865 -0.056177896
000040 a4 72 08 3b ba f8 00 bc ba e6 82 3d 05 63 a7 3d
       0.0020820284 -0.007871801 0.06391664 0.08173183
000050 bf 38 89 3d 60 06 25 bd a9 de 7a bd ab be 95 bd
       0.067002766 -0.040289283 -0.0612475 -0.07311758
000060 d8 73 26 3d 22 06 9d bd ce 2a ae bd fa d9 5a bd
       0.04063782 -0.07667185 -0.08504258 -0.053430535
000070 9b 7d 86 bd 86 f2 03 bd 82 2c 41 bd 85 2e 47 bd
       -0.06566926 -0.03221371 -0.047161587 -0.04862835
000080 ec fd 9e 3d 34 73 88 bc 97 ae 9c 3d 8e 4b 12 3c
       0.077632755 -0.016656496 0.07650488 0.008929146
000090 fa 2c 0f bc bf db c0 bc 6a c8 60 bd f1 68 82 bd
       -0.008738751 -0.023542283 -0.05487863 -0.06367672
0000a0 21 7e 9c 3d 5f db e2 bc 42 34 92 bd 8c b7 a7 3d
       0.07641245 -0.027692495 -0.07138874 0.08189306
0000b0 dc 71 28 3c 0f 3d 50 bd fa 25 99 bd fd ed 84 bd
       0.010281052 -0.05083948 -0.074779466 -0.06490705
0000c0 51 87 9a bd 0f 48 c8 3d 97 1c 8b 3d dc 4d 9e 3c
       -0.07545341 0.09779369 0.067925625 0.019324236
0000d0 09 39 89 bd 21 ad fe bc 78 f3 a9 bd 59 8a 24 3d
       -0.06700332 -0.031088414 -0.08298391 0.040171
0000e0 b8 41 c0 bc 2d 0d 3b bc cb 08 c9 bc 21 6e 1e 3d
       -0.023468837 -0.011416716 -0.024540326 0.038679246
0000f0 d7 63 4a 3d cc 01 df 3c 1a 90 75 bb eb 89 09 bc
       0.04941162 0.027222537 -0.0037469924 -0.008394699
000100 ce 9b 83 bb f3 80 6f bd 26 2c a1 3d e9 54 1d bd
       -0.004016376 -0.058472585 0.07869749 -0.038411055
000110 0b 06 58 3d 55 ca 21 bd 79 77 0e 39 1d e7 3a 3d
       0.052740138 -0.0394996 0.00013586682 0.045630563
000120 69 5f 94 bd 98 ad 23 3d 54 76 84 bd b3 db b7 3c
       -0.072447605 0.039960474 -0.06467882 0.022443628
000130 d1 74 68 bc cd e9 70 3d 23 3d a7 3d 8e ce a4 3c
       -0.014188007 0.05881672 0.08165958 0.020118024
000140 d1 eb 30 bb 45 04 0f bd 1e da 30 3d 45 92 20 bd
       -0.0026996026 -0.03491618 0.043176763 -0.039201993
000150 15 fd 33 3d 02 54 11 bd 1a c1 8a 3d 0c 0b 9b 3d
       0.04394253 -0.035480507 0.067751125 0.075704664
000160 4d a0 67 3d 78 5a 10 3c 05 01 47 3d e5 d5 9d bd
       0.05654936 0.008810632 0.048584957 -0.07706813
000170 35 33 aa 3d 6a b1 aa bc 4c 08 29 3d 80 3a 75 bc
       0.08310548 -0.02083655 0.04126768 -0.014967561
000180 ef 6b 15 bd 2c 3a 1c bd b6 2c 83 3d 64 14 4e bd
       -0.036479887 -0.038141415 0.06405012 -0.050312415
000190 44 5d 4b bc 34 8a 41 3d a8 3a 8e 3c 00 36 86 bd
       -0.012412373 0.04725094 0.017361954 -0.065532684
0001a0 d7 2c ad bd c9 eb 13 bd 99 fb ba 3d ee 2b 5c bd
       -0.08455818 -0.036113534 0.0913002 -0.053752832
0001b0 84 39 69 3d 9b 6f 92 3d 1f 15 e1 bc 76 c8 fd bc
       0.056939617 0.07150193 -0.027475892 -0.030979376
0001c0 67 79 62 bd b8 e2 61 3c 91 c3 29 bc 7a cf 3a 3c
       -0.05529156 0.013786964 -0.010361568 0.011402005
0001d0 12 a7 29 3d 8e ff 17 3d 33 62 c8 bc d4 8c 98 3c
       0.041419096 0.03710895 -0.024460888 0.01862184
0001e0 84 00 ac 3c d3 51 c6 3a 60 b5 aa 3c 91 09 c6 bc
       0.02099634 0.0015130587 0.02083844 -0.024174483
0001f0 90 6b a4 3d a0 89 14 bc 8b 88 11 bb 46 49 92 bd
       0.080283284 -0.0090660155 -0.002220663 -0.07142882

fcs.2.0.linear.weight f4 [128, 1]
000000 72 ea 14 3d 51 dc 1f be 38 70 01 bf d8 06 07 3f
       0.036356397 -0.15611388 -0.5056186 0.5274482
000010 f3 1d cf bd f3 1f b6 3e 73 aa 56 3f 34 1f ef be
       -0.10113134 0.3557125 0.83853835 -0.46703494
000020 61 28 fb be 25 0a 4b be 9a 4d a8 bd 02 c3 00 bf
       -0.49054244 -0.19828089 -0.08217926 -0.5029756
000030 dc 05 78 be 40 20 ec bc ad 62 e6 3e 48 c3 6b 3f
       -0.24220985 -0.028823972 0.4499716 0.9209485
000040 53 96 3e 3f 00 c0 d8 3d 6f b5 8b bd ce 8f 7e 3e
       0.74448127 0.10583496 -0.06821715 0.24859545
000050 4e ba 11 bd 05 5e 08 be 17 41 b0 3e 22 e1 50 bf
       -0.035578065 -0.13317116 0.3442466 -0.81593525
000060 ef 19 59 bf f2 55 97 ba fa 02 95 be 19 eb fb be
       -0.84805197 -0.0011546 -0.29103833 -0.49202803
000070 ea f6 6e bf 65 9a 2a 3f e3 8d 38 bd 38 e3 08 bf
       -0.9334551 0.6664184 -0.04505719 -0.5347171
000080 9c 44 cf be 10 ed 87 3e 89 2a 3a bf de d2 71 3d
       -0.40482032 0.26548052 -0.72721153 0.05903899
000090 80 0b 4a bc 1b d7 b4 3e c4 bb d0 3e ab c7 27 bf
       -0.012331843 0.35320362 0.40768254 -0.65539044
0000a0 88 0d db 3e 46 6b 42 3f a2 46 8e 3d 32 94 02 3f
       0.4278376 0.75944936 0.06947066 0.5100738
0000b0 70 99 c2 be 84 59 4f 3e f5 95 93 3e 24 90 ea be
       -0.3800769 0.20248991 0.28825346 -0.45813096
0000c0 14 05 1f 3f 29 55 71 bf 2f 78 bf be a0 e4 15 bf
       0.62117124 -0.9427057 -0.3739638 -0.5855198
0000d0 fe b3 18 bf e1 32 1a bf 9f e5 71 bf fc c1 2b 3e
       -0.59649646 -0.60233885 -0.94491 0.16773218
0000e0 a4 1b 3f be 9a 12 58 bf eb cd aa bb 1d b0 21 be
       -0.18662888 -0.84403384 -0.0052125356 -0.15789838
0000f0 61 3b d1 3e 94 26 49 bf a7 db 8e be ae 6f 56 3e
       0.40865615 -0.7857449 -0.27901956 0.2094104
000100 dc b8 d9 3e db fd 92 3d 3f 69 8d 3e 8e de 7e 3f
       0.4252385 0.07177325 0.2761936 0.9955834
000110 18 fe b7 be 1d da 2d 3f 7f 51 5d 3f e2 ca 61 bf
       -0.35936046 0.6791094 0.8645248 -0.882002
000120 c5 89 79 3e d6 db 10 3f 05 ca 21 be cf 40 0e 3f
       0.24368961 0.56585443 -0.1579972 0.5556764
000130 29 ec 1f 3d 18 d6 41 3f 9c 6d db 3c b8 2f 23 bf
       0.03904358 0.75717306 0.026785664 -0.6374469
000140 b9 91 42 3f 43 cb 9a 3e 21 c4 58 3f 97 36 7a 3e
       0.76003605 0.302332 0.8467427 0.24434887
000150 bd e7 08 3f 1b a7 20 3f 62 1e 34 3e 26 cc 6a be
       0.53478605 0.6275498 0.17589715 -0.22929439
000160 8e 44 63 3e 30 14 33 bf c0 ee 0b 3d 46 6b ab be
       0.2219412 -0.6995268 0.034163237 -0.3348028
000170 a1 75 6e 3d 68 f9 49 bf 34 7d 1d 3f 5d da 6c bf
       0.05821765 -0.7889619 0.6151917 -0.92520696
000180 37 4f dd 3e 32 a3 29 3f 2d 46 6b bf fd 56 68 3f
       0.432245 0.6626464 -0.91903955 0.90757734
000190 d3 d4 3e bf d9 94 47 be a9 93 03 3f 7a b2 a7 be
       -0.74543494 -0.19490375 0.51397187 -0.32753354
0001a0 d8 20 63 3f b3 6c e0 be d8 69 0b be cb e0 27 bf
       0.8872199 -0.4383293 -0.13614595 -0.6557738
0001b0 80 8f ee be 64 cf 78 3f 97 ed 40 3f 9a 21 8c 3d
       -0.46593857 0.9719145 0.75362533 0.068423465
0001c0 8e 3d ca 3d 4f 6f 59 bf e7 03 42 3f d2 a7 0a be
       0.09875022 -0.8493547 0.75787205 -0.13540581
0001d0 ed d8 d6 be c0 09 4b bf be 59 51 3f b5 16 f1 3e
       -0.41962376 -0.7931175 0.8177756 0.47087637
0001e0 6e 7b 19 3f c3 4c c6 3d da 18 2d bf 53 d5 cf 3e
       0.59953964 0.0968261 -0.67616045 0.4059244
0001f0 bd f5 ed 3d fb b9 ac 3e d9 3a 82 be 3b 5e f1 be
       0.116191365 0.33735642 -0.25435522 -0.47142205

fcs.2.0.linear.bias f4 [128]
000000 bd bd 52 3f 54 24 ac 3e 70 e5 d4 be 2d 8d aa 3d
       0.8232077 0.33621466 -0.41581297 0.083277084
000010 54 28 59 be 55 84 bb bd d1 ac 10 3f cf ed 4b bf
       -0.2120679 -0.091561 0.56513697 -0.7965974
000020 3d 5e 67 3f 4c d6 2c 3f 18 70 10 3c 24 94 d6 be
       0.9037817 0.6751449 0.008815788 -0.41909897
000030 68 3c 48 3e d4 72 29 bf cc 83 26 3f 5c 3a 06 bf
       0.19554293 -0.6619084 0.65044856 -0.524328
000040 60 58 3d 3e 58 dc 7b bf ab 01 f4 3e 56 b1 2f 3f
       0.18490744 -0.9838309 0.47657523 0.6862997
000050 a7 ba 40 3f d5 c8 98 3d c7 cd 17 3f fc 09 aa 3e
       0.7528481 0.07460181 0.59298366 0.33210742
000060 1a f5 2d 3f b3 df 0f 3f 7c 13 62 bf 03 cf eb 3d
       0.6795212 0.5620071 -0.8831098 0.11514094
000070 2d b7 b3 be 9c 7a f3 be 92 99 32 3f d5 75 08 be
       -0.3510069 -0.4755448 0.6976558 -0.133262
000080 e9 02 29 3e 7b 84 1f 3f 6c 54 2a 3f de 08 08 3f
       0.16505016 0.62311524 0.6653507 0.5313853
000090 78 c7 32 be f7 f2 61 bf 99 19 74 bf a0 23 9d 3e
       -0.17458904 -0.8826136 -0.9535156 0.30691242
0000a0 21 2d d7 bb f3 f4 22 bf fd 99 e0 3e c3 da 68 3f
       -0.006566659 -0.6365501 0.43867484 0.90958804
0000b0 25 4f 12 3f 03 1a 17 be b2 06 10 3e 75 b1 21 bf
       0.57152015 -0.14756016 0.14065054 -0.631614
0000c0 e6 26 ef 3e 49 f5 43 bf ba 6b 30 3f 82 2d e5 be
       0.46709365 -0.7654615 0.6891438 -0.44761282
0000d0 c3 06 d0 be b7 fa 54 bf 12 84 81 be 7a 9f c0 bd
       -0.4063016 -0.8319506 -0.25296074 -0.09405418
0000e0 bf 6f ef be 27 3d 34 3f 81 5f 12 3f 6d a0 63 bf
       -0.46764943 0.7040581 0.5717698 -0.88916665
0000f0 b8 52 c3 bd 20 3b a7 3e d8 69 77 3f 0c 58 7a be
       -0.09537262 0.32662296 0.9664588 -0.2444765
000100 2e 60 1d 3f b2 79 52 bd 72 ca c5 be 24 40 1e 3f
       0.61474884 -0.05138559 -0.38631016 0.6181662
000110 a5 09 62 bf 50 bb 56 3f 13 f2 7e 3f e5 37 86 be
       -0.88295966 0.83879566 0.99588126 -0.2621452
000120 86 49 ca 3e c0 b0 7e 3f cf b9 9a 3e 1f ad c5 3e
       0.3950922 0.9948845 0.30219886 0.38608643
000130 ff f0 bc 3e 6a 75 cf be 49 4c 7c 3e 44 f4 05 bf
       0.36902615 -0.40519267 0.24638475 -0.52325845
000140 2e 00 5a 3f ca 29 dd be 89 6b 70 3e d7 38 92 be
       0.85156524 -0.43195945 0.23478521 -0.2855899
000150 b9 7c fd 3e 77 ba 24 3c 1b cb 09 3f 01 4d 88 be
       0.49509218 0.010054222 0.5382554 -0.2662125
000160 74 0f 13 bf 9f e4 bf 3e 6e 12 10 bf 76 09 50 bf
       -0.57445455 0.37479112 -0.5627812 -0.81264436
000170 92 af c4 3e fa b7 17 bf 3a 18 c3 be b1 74 85 be
       0.384152 -0.592651 -0.3810442 -0.2606559
000180 77 f6 84 3d a8 ba b3 be 51 38 bd be ab a4 83 be
       0.06492322 -0.35103345 -0.36957029 -0.2571157
000190 eb 4d 31 3f 96 b5 9c 3e a4 f9 f4 be 2e 31 30 bf
       0.6925952 0.3060729 -0.4784671 -0.6882504
0001a0 fc 09 ed 3c e6 ac a9 3e 45 2e f0 bc ef bb 13 3f
       0.028935425 0.33139724 -0.029318938 0.5770864
0001b0 45 7c 57 3f 37 dc 98 3e 40 d5 a6 3e 10 ef 13 3f
       0.84173995 0.2985551 0.32584572 0.57786655
0001c0 b6 f3 a8 be f8 ed 30 3e 66 5b 4e 3f 87 13 fb be
       -0.32998437 0.17278278 0.8060821 -0.49038336
0001d0 23 0e 8a 3d c7 fe c2 be 37 d8 43 bf 2a 72 08 3f
       0.067409776 -0.38085005 -0.7650179 0.532992
0001e0 17 07 4d 3f fa 94 0b bf 2d 3e c4 3e 19 36 9f 3e
       0.80088943 -0.54524195 0.38328686 0.3109596
0001f0 b6 ec c5 3e 3d f2 0c 3f eb d4 6d 3f 12 7d 43 3f
       0.3865716 0.55057126 0.9290301 0.7636272

fcs.2.1.weight f4 [1, 128]
000000 44 3a a4 bd 68 e7 13 bd fd cc 5d 3d dc 31 5d bd
       -0.08018926 -0.036109358 0.05415057 -0.054002628
000010 0d e6 13 3d 99 55 2f bd 37 4c 7a 3c 51 65 6a 3d
       0.036108065 -0.04280624 0.01527696 0.05722553
000020 0e 98 d6 3c 08 1b 83 3d 81 b9 06 bc f3 5c 62 3d
       0.026195552 0.0640164 -0.0082229385 0.055264425
000030 8c b9 e8 3c c2 31 e4 bc 53 75 82 bd 68 f3 98 3d
       0.028408788 -0.027855758 -0.06370034 0.07468301
000040 3b e4 f2 bc 2b 59 88 3d 86 93 62 3d 64 f1 bb bb
       -0.029649844 0.066576324 0.05531647 -0.005735563
000050 d2 d5 98 bd 6f a4 f9 3b 1c 03 34 bd e0 f6 c4 3c
       -0.07462658 0.007618479 -0.043948278 0.0240435
000060 39 37 10 bd ab a8 86 3d f9 b0 70 bd 96 c6 b4 bc
       -0.035208914 0.065751396 -0.058762524 -0.02206735
000070 4c 0a 97 3c 16 a8 d2 3a 0b a8 91 3d 86 dc c4 bc
       0.018437527 0.0016071822 0.0711213 -0.024030935
000080 21 39 8e bd 47 cd 68 3d b3 49 c7 3c c6 8e 5f 3d
       -0.0694449 0.056836393 0.024327135 0.05457952
000090 4b 46 56 bd 14 72 8e bd af 95 56 bd 8f b5 e9 3b
       -0.05231313 -0.069553524 -0.052388843 0.007132239
0000a0 c1 6e d3 3c 6b 70 6e bd 80 02 49 bc e8 47 87 bc
       0.025809648 -0.05821268 -0.012268662 -0.01651378
0000b0 17 4f a2 3d 52 47 1e bd 44 d3 a9 3d de 56 2f bd
       0.079252414 -0.038642235 0.08292249 -0.042807452
0000c0 26 cf 1d bd db a3 72 bd dd 1b 82 3d e3 8f 5c bd
       -0.03852763 -0.059238296 0.06352971 -0.05384816
0000d0 e9 af 2f 3d d6 76 ac bc b0 64 bc 3d 0d 38 cf 3b
       0.04289237 -0.02105276 0.09198892 0.0063238204
0000e0 41 84 6f bd f4 28 76 3c 68 d2 0a 3c 88 ea a3 bd
       -0.058475737 0.015024412 0.008473016 -0.08003718
0000f0 59 54 52 3c 3c c9 ae 3d 32 14 cf 3c 16 e3 1c bc
       0.012837493 0.08534476 0.025278185 -0.009575626
000100 5c 8b a0 bc 2c 72 87 3c aa 91 4c bd cb 5b ad 3d
       -0.019597702 0.016533934 -0.049943604 0.08464774
000110 8e db c5 3d 13 39 23 3d ed fd 0c bd 5b 7f a1 bd
       0.09661017 0.039849352 -0.03442185 -0.07885619
000120 40 6c 55 bd 1d 79 ad 3d 15 67 a9 bd 2b 5e b1 bd
       -0.05210519 0.08470366 -0.082716145 -0.08660539
000130 3a 41 21 bc f7 d7 b4 3c 32 3d bb bd ad 13 99 bd
       -0.009842211 0.022075636 -0.091425315 -0.07474456
000140 67 b1 8a ba cb 75 25 bd a6 e9 6e 3d d9 26 84 3c
       -0.0010581434 -0.04039554 0.058328293 0.016131805
000150 50 cb a0 bd 37 53 ab bd 41 24 6c 3d 17 44 c3 bb
       -0.07851279 -0.08365481 0.057651762 -0.0059590447
000160 a0 ec 69 bd 46 62 e9 3c 80 4e 8e bc b9 67 7f 3d
       -0.05711043 0.028489243 -0.017371416 0.062354777
000170 19 f0 96 3c 4c bf 00 bd e5 14 9e bd be 4c 54 3d
       0.018425034 -0.031432435 -0.07718829 0.051831
000180 9b 18 68 bd 45 2b 81 bc c0 0c 89 3c a6 59 67 bd
       -0.05666409 -0.015767703 0.016729712 -0.05648198
000190 d0 90 43 3d 95 3e 82 bd 50 4b 62 3c b1 21 dc 3c
       0.047745526 -0.06359593 0.013811901 0.026871534
0001a0 d4 15 e9 3c e7 7e b1 bd 23 9b 0c 3c 3c 45 2f 3d
       0.028452791 -0.08666783 0.008581909 0.042790636
0001b0 23 47 6e bd 2f 42 99 3c 75 dd 21 bb 16 f9 91 3d
       -0.05817331 0.018708317 -0.002469865 0.071275875
0001c0 0c 86 1c bd ab b1 1c 3b c6 00 24 bd 20 ba 86 bb
       -0.038213775 0.002390961 -0.0400398 -0.0041115433
0001d0 16 f1 de 3c 48 0d a4 bd d8 2e 72 3d 18 0b 7e 3d
       0.027214568 -0.08010346 0.059126705 0.0620223
0001e0 82 c7 13 3d 91 f4 79 3d 61 68 dc bc a4 9e 93 3c
       0.036078937 0.061024252 -0.02690524 0.018019982
0001f0 67 31 9b 3a bd 59 7f bd 72 bf 0a bd f0 af 06 bd
       0.0011840285 -0.06234144 -0.033873983 -0.03288263

fcs.3.0.linear.weight f4 [128, 1]
000000 eb 13 5e bf 41 35 2e bf d0 7b c2 bd 28 c6 1b be
       -0.8674914 -0.6805001 -0.094962716 -0.1521231
000010 cd 78 62 bf c2 04 4b 3e dd 84 09 3f 91 06 53 3f
       -0.8846558 0.19826034 0.5371836 0.82431895
000020 1e 3c 55 3f b0 6e 31 bf 27 cd b2 be 2c 49 e7 be
       0.83294857 -0.6930952 -0.34922144 -0.45173013
000030 09 09 44 3e 0a ac 8e 3e a2 03 5b 3e f5 95 13 3f
       0.19144072 0.2786563 0.21388105 0.5765069
000040 b7 c1 04 3f 96 17 13 bf 74 7f 2d 3f af 24 2f 3f
       0.51858085 -0.57457864 0.67772603 0.6841535
000050 55 08 e4 3d 9c 9d 65 bf eb dd 17 bf 90 cb 94 3e
       0.11134402 -0.8969362 -0.59322995 0.29061556
000060 29 52 ab 3e 0d 0e 71 3f 24 07 00 3f 50 34 b5 3e
       0.3346112 0.94162065 0.50010896 0.35391474
000070 34 ea 5d bc ef 72 2c 3f 27 81 cc be 8c a4 d0 3e
       -0.013544608 0.67362875 -0.39942285 0.4075054
000080 19 ca 01 bf 00 ec 18 bc 8e d6 18 3f 40 c3 e6 3e
       -0.50699 -0.009333611 0.59702384 0.4507084
000090 4c 85 4d be 12 2c 9f b8 b5 39 15 bf 58 53 e8 3e
       -0.2007038 -7.5899196e-05 -0.5829118 0.45376086
0000a0 49 83 2a 3f 94 c6 b4 3e e1 62 74 bf 42 b6 33 bf
       0.66606575 0.35307753 -0.9546338 -0.7019998
0000b0 81 25 29 3f 4a 65 f6 bd 31 13 20 3f 6a bd 3a 3f
       0.6607285 -0.12031038 0.62529284 0.7294527
0000c0 d2 fd a3 be 8b b7 1e bf a7 19 7a bf 94 25 bd 3e
       -0.32029587 -0.61998814 -0.9769539 0.36942732
0000d0 e1 f6 05 3f 5c e2 27 be 80 0c 73 bf 29 ae 21 bf
       0.5232983 -0.16394943 -0.9494095 -0.6315637
0000e0 de 7d b5 bd fc 8c e4 3e b8 b8 b7 be ac 3f 2c bf
       -0.08861898 0.44638813 -0.35883117 -0.67284656
0000f0 1e f0 39 bf 06 49 67 3f aa 40 be 3e 0e 1e 4a bf
       -0.72632015 0.903458 0.3715871 -0.7895211
000100 df 38 19 bf 77 fc 55 bf 31 6d 22 3e 91 bc e0 be
       -0.59852403 -0.83588356 0.15861966 -0.43893865
000110 63 f6 db bc b4 0a 42 be ed 73 5a bf 1e 1b 60 bf
       -0.026850885 -0.18949395 -0.8533314 -0.8754138
000120 ff aa 40 bf 9d 98 ce be b6 27 27 3e 15 c7 01 bf
       -0.7526092 -0.4035081 0.16323742 -0.506944
000130 fc 07 75 bc 5d e8 c1 bd c3 86 6c 3f 9e 71 df be
       -0.014955517 -0.09468148 0.9239313 -0.4364137
000140 10 45 6e 3f 77 00 3f bf 09 4d 5c bf fe 14 a5 3e
       0.9307413 -0.74610084 -0.86055046 0.32242578
000150 71 fd 0f bf f8 c1 00 3f a7 be 14 bf ed ca 47 3f
       -0.56246096 0.5029597 -0.5810341 0.78044015
000160 06 56 7a 3f d7 13 7a 3d c5 4a 5d 3e 8d 0c 71 3f
       0.9778751 0.061054077 0.21610554 0.94159776
000170 75 36 1a 3f 9a 97 67 bf 61 36 72 bd b4 51 61 bf
       0.60239345 -0.904657 -0.05913389 -0.88015294
000180 f5 5e 41 3f 5b d5 55 be c2 09 59 3c af b6 17 bf
       0.7553552 -0.2088217 0.013246955 -0.5926313
000190 94 dd 05 bf df f6 0a 3e f6 da 50 3f a3 ad f6 be
       -0.52291226 0.13570736 0.8158411 -0.4817935
0001a0 fa 3f 92 3d 75 2f 6a 3f 4c b3 67 3f 57 22 74 be
       0.07141109 0.91478664 0.9050796 -0.23841225
0001b0 84 d7 6d 3f 69 11 b4 3e 4a da 66 3f c0 0d f3 3c
       0.92906976 0.35169533 0.9017683 0.029669642
0001c0 08 4b 60 bf f5 64 83 be 2c d1 9f 3e 15 40 06 3f
       -0.8761449 -0.25662962 0.31214273 0.5244153
0001d0 9b 31 79 bf 05 68 49 3f 53 dc 5f bf 04 34 18 3f
       -0.97341317 0.78674346 -0.87445563 0.5945437
0001e0 60 d9 7e 3f e1 cf 76 3e d3 63 5c be c6 d9 0a 3f
       0.9955044 0.24102737 -0.21522455 0.54238546
0001f0 a9 4c 8e be 92 dc 37 bf 53 dc 2f bf b4 46 f5 3e
       -0.27792862 -0.7182094 -0.68695563 0.47905505

fcs.3.0.linear.bias f4 [128]
000000 7f 53 3f 3f 0d 9d c7 3c 0c 37 78 bf 32 8c 7b bf
       0.7473678 0.02436688 -0.96958995 -0.98260796
000010 2b c9 77 be d8 2a 08 3f d8 02 2f bf f9 7b 7f 3e
       -0.24197833 0.53190374 -0.68363714 0.24949636
000020 68 24 11 bf 69 2c 4e 3f b6 53 78 be cf 1a 66 be
       -0.56696177 0.80536515 -0.24250683 -0.22471164
000030 d5 67 5f bf 81 83 63 bf 72 f4 40 3d d1 8d 14 3e
       -0.8726781 -0.88872534 0.04710812 0.14507224
000040 1c b7 05 3f 6c d0 58 bf 73 be 1d 3e 2c b5 f8 bd
       0.5223253 -0.84693027 0.15404682 -0.12143931
000050 d7 01 1c 3f 1d 62 df be 3c a0 90 3e c6 23 d7 3e
       0.6094031 -0.43629542 0.2824725 0.4201948
000060 c6 2e f9 3e 08 41 a4 be 75 c7 99 3e dd f6 5c be
       0.48668498 -0.32080865 0.30034986 -0.21578546
000070 77 c5 7e 3e 6c 52 22 bf 46 f9 43 bf 76 f0 52 bf
       0.24880014 -0.63407016 -0.76552236 -0.82398164
000080 f6 26 1b bf 4c b1 d8 be 32 e1 2a 3e 17 b6 72 be
       -0.60606325 -0.42322767 0.16687468 -0.23702274
000090 7e 48 17 bf 02 f3 5d bb a2 32 98 be e5 54 19 3f
       -0.5909499 -0.0033866768 -0.2972613 0.59895164
0000a0 2d e7 56 bf 9e b3 b2 be db b1 27 bf 2b 7f e3 3d
       -0.83946496 -0.34902662 -0.6550576 0.1110824
0000b0 ed c2 08 3d b6 e2 96 bd ee 49 81 3f c8 b8 cb be
       0.03338902 -0.073674604 1.0100687 -0.39789414
0000c0 c9 54 00 be 7d 58 8f 3e 65 a5 5b 3f 7b fc 3e 3f
       -0.12532343 0.279972 0.8579925 0.74604005
0000d0 81 68 0c 3e a8 85 c6 be 34 41 a0 3e f2 02 1e 3f
       0.1371174 -0.38773847 0.31299746 0.61723244
0000e0 a4 8b d5 b9 20 12 08 3f 6c 6e 59 3f b7 51 04 bf
       -0.00040730566 0.53152657 0.84934115 -0.51687187
0000f0 88 e2 4e be 82 53 61 bf a7 0b 81 3e a0 ee 31 3f
       -0.20203602 -0.8801805 0.25204203 0.6950474
000100 16 98 55 be 81 15 17 3e 22 5a aa 3e 59 8b 94 bb
       -0.20858797 0.14754297 0.3327189 -0.004533213
000110 9d 12 4d 3f a6 58 2c 3e 85 06 80 bf 07 1d 57 bf
       0.80106527 0.16830692 -1.000199 -0.8402867
000120 56 1e 81 bf 89 df e7 3c 8c 88 0d 3f 5e 37 e3 bd
       -1.0087383 0.028304832 0.5528648 -0.11094545
000130 32 e5 60 3f d5 ad 4e be 54 fc 68 3e d3 db 60 3f
       0.87849724 -0.20183499 0.22752506 0.87835425
000140 93 50 f8 3e 54 ba 41 bd b2 bd 7b 3f 92 a6 1b bf
       0.48498973 -0.047296837 0.9833633 -0.6080104
000150 f6 dd b6 3e e2 3c 1d 3f ee 58 19 bf 70 8f 74 bf
       0.35716218 0.61421025 -0.5990132 -0.9553137
000160 5a b7 af 3e bf d6 c2 be 5c 6b fe be ba 2b 63 3e
       0.34319574 -0.38054463 -0.49691284 0.22184649
000170 33 15 35 bf ca e2 6b 3f 39 55 9b bd d4 32 ac be
       -0.7073547 0.9214293 -0.07584614 -0.3363253
000180 71 68 52 3f 17 b4 99 3e 39 87 2e 3e fa 02 fd be
       0.82190615 0.3002021 0.17043771 -0.49416333
000190 5c 47 6e 3f 0f 04 98 be d4 cb 4f 3f b3 c6 b5 bd
       0.93077636 -0.29690596 0.8117039 -0.088757895
0001a0 af 63 06 3f 0a b2 39 3f ea 5e 39 bf 34 7c 20 bf
       0.52495855 0.7253729 -0.7241045 -0.6268952
0001b0 60 04 81 bf 10 c2 35 3f 27 f7 56 3f d4 1e bb be
       -1.007946 0.7099924 0.83970875 -0.36546957
0001c0 83 36 f1 be 4d ac 1d 3e 87 c7 0d 3f f4 bd 67 3e
       -0.47111902 0.15397759 0.5538258 0.22631055
0001d0 ca e1 65 be ee 7f 1d bf 63 5f 56 3f 88 b2 20 bf
       -0.22449413 -0.6152333 0.837393 -0.6277242
0001e0 7c 60 72 bf ec e0 d3 be 1b 71 60 3e d7 8c b5 3e
       -0.94678473 -0.4138254 0.21918146 0.35459015
0001f0 ca fb bc 3e 3a 82 18 bf 16 bb cc be af b0 d9 be
       0.3691085 -0.5957371 -0.39986485 -0.4251761

fcs.3.1.weight f4 [1, 128]
000000 88 5a 9c bc cc 2b 4b bd e8 37 94 3c 04 93 d2 bc
       -0.019086137 -0.049602315 0.018093064 -0.025704868
000010 6b d3 73 bd b5 5a 1c bd c4 71 58 bd 8d e6 e2 bc
       -0.059527796 -0.038172442 -0.05284287 -0.027697826
000020 69 53 4a bd 44 cb 05 3c 91 4d 73 3d 8e 22 3b bd
       -0.049395952 0.008166138 0.059400145 -0.04568725
000030 f1 7a a4 bc 7f 12 32 bd 5e c0 0f bd 65 35 1a bc
       -0.020078154 -0.04347467 -0.035095565 -0.009412144
000040 5d be cb bc 91 a5 08 3d 01 df 5b bd 35 07 cc 3c
       -0.024871046 0.03336102 -0.05367947 0.02490578
000050 20 03 c6 3d 55 64 cc 3d 21 6b 7e bc 14 9e 26 3d
       0.09668565 0.09980074 -0.015528471 0.0406781
000060 38 ea 8f bd 0b 37 a7 3d 56 e0 9c bd 47 03 96 bd
       -0.070270956 0.081647955 -0.07659976 -0.07324844
000070 68 41 67 bd 19 6c a1 bd 38 96 38 3d de f1 ff bc
       -0.05645886 -0.07881946 0.045065135 -0.031243261
000080 34 a1 4e 3d f0 34 b3 bb 22 ab 09 3c 6d a9 d2 bc
       0.050446704 -0.005468957 0.008402618 -0.025715554
000090 99 16 bd bc b3 db 86 bd c7 33 92 3d 14 e4 04 bd
       -0.023082064 -0.06584873 0.07138782 -0.032444075
0000a0 6d 8b 90 bc ba 7f 3a 3d 33 9b 9c 3b 9d 03 1d 3b
       -0.017644608 0.045531966 0.0047792434 0.0023958453
0000b0 eb 0b 4b bd 92 a8 4f bd 63 4e 65 3d 72 2c 63 bc
       -0.049571913 -0.05069787 0.05598296 -0.013865577
0000c0 27 be a8 3d 44 c8 f9 3c f8 ed c3 3c d4 79 87 bd
       0.08239394 0.030491002 0.023917183 -0.06615034
0000d0 fd d5 47 3c c1 96 28 3c 9b 5e d5 bc 35 95 4e 3b
       0.012197015 0.010289849 -0.026046088 0.003152204
0000e0 da 38 09 3d ee de 5b bd b9 1b 1e 3d 20 47 b6 3d
       0.033501484 -0.0536794 0.038600657 0.08900285
0000f0 9f 7b 32 3d 04 9f b2 3d 4f 14 59 3d c9 8a 3c bd
       0.043574926 0.08721736 0.052997883 -0.046030793
000100 57 aa 15 bc 8a 62 5f 3b ec 10 25 3d 31 73 be 3c
       -0.00913485 0.0034085833 0.04029934 0.023248287
000110 2e 23 c1 3d 98 58 0f 3d 34 31 e5 bc dc d4 a3 bb
       0.09430538 0.0349966 -0.027977563 -0.00499974
000120 50 9c 38 bd bb 5f af 39 0c ec 68 3d 90 da dd 3c
       -0.045070946 0.00033449926 0.056865737 0.027081758
000130 c0 7c 7c bd e0 b6 4b bd a7 fc 2c 3d 9c a7 5e bd
       -0.06164241 -0.04973495 0.042233136 -0.054359064
000140 52 cf 72 bd 98 53 e2 bc 22 28 dd 3d 36 f9 00 bd
       -0.059279747 -0.027627751 0.1079867 -0.031487666
000150 8b 5c 4d bc c7 52 3f bd f3 2e ae 3d aa 69 5e bc
       -0.012534271 -0.046709802 0.085050486 -0.013574997
000160 10 95 e2 3c 56 fe 9b 3c 3a 72 6b 3c a8 a4 88 3d
       0.02765897 0.019042175 0.014370495 0.06672031
000170 6c 6f b6 3b 91 3d 07 3d ca 97 16 3d 5a a3 2f bd
       0.0055674817 0.0330177 0.03676585 -0.042880394
000180 d1 b9 f4 bb c9 78 dd 3d a7 34 2d bd 96 04 ed bc
       -0.00746844 0.108140536 -0.04228654 -0.02893285
000190 d9 32 84 bd 97 9f 92 bb 0a 8d 8f bd 03 69 a4 bc
       -0.06455011 -0.004474591 -0.07009323 -0.020069605
0001a0 e0 9b ca 3d c9 68 47 3d 76 1a 52 3d 7d 94 67 3d
       0.09893012 0.048683915 0.051294766 0.056538094
0001b0 ab b3 95 bd 4e 24 e1 bc 5a 35 72 bd ac de 5f bd
       -0.073096596 -0.027483132 -0.05913291 -0.054655716
0001c0 1b c3 68 3d 53 4a 48 ba 25 fd cc 3d 11 3c 5b bd
       0.056826692 -0.00076404697 0.10009221 -0.05352408
0001d0 b4 a2 4c bd 0c 9a bb 3d 8b fc 57 bd 86 4b 9e 3d
       -0.049959853 0.091602415 -0.052731078 0.07729249
0001e0 07 f6 db 3c 12 ea ad bd 3d 7f cf 3d 93 64 4b bc
       0.026850713 -0.08491911 0.10131691 -0.0124141155
0001f0 3c 56 5a bc fa 3e 2c bd 4b d3 46 bd aa d3 bd 3c
       -0.013326224 -0.042052247 -0.04854135 0.023172218

fcs.4.0.linear.weight f4 [128, 1]
000000 f1 f6 cd 3e 04 83 71 be 55 5b bd 3e da c1 7d be
       0.40227464 -0.23585135 0.36983743 -0.2478098
000010 df 02 ad 3e 51 b4 10 bd 02 16 98 3e c5 d4 d2 be
       0.33791253 -0.035328213 0.2970429 -0.41177955
000020 16 f1 30 bf 78 61 fd 3d db d9 23 bf da e5 1e bf
       -0.6911787 0.12372106 -0.64004296 -0.62069476
000030 98 90 76 bf 23 4d a2 be 20 ae 2a bf 22 50 45 3f
       -0.9631438 -0.31699476 -0.66671944 0.770754
000040 b8 35 36 3f c7 ba 80 3e b4 60 52 3f 06 6d f2 3e
       0.7117572 0.251425 0.8217881 0.47348803
000050 1a 95 71 bf ef 9e c1 bd fa b6 22 be 3f da 1b bf
       -0.94368136 -0.09454142 -0.15890113 -0.6087989
000060 e1 09 8f 3e b6 06 9f be 84 93 f5 be 42 09 a2 bc
       0.27937225 -0.31059808 -0.47964108 -0.019779805
000070 db a9 2a bf ec 8a 51 3f 52 4f 24 3f 8e 1e 70 3f
       -0.6666543 0.818526 0.64183533 0.9379662
000080 37 ec 27 be ae d3 ae 3e d4 33 02 bd 1c 76 53 bf
       -0.16398703 0.34145874 -0.03178771 -0.82602096
000090 f9 b1 ec 3e c2 19 33 bf fd cd b9 be ac 85 e4 be
       0.46229532 -0.6996118 -0.3628997 -0.44633234
0000a0 8d 51 79 bf b1 ea 1a 3d 96 de 1f 3e 36 a5 94 bd
       -0.9739006 0.037821475 0.15612254 -0.07258074
0000b0 ae f5 39 3f 49 02 23 3d 11 fc 40 be 5f e3 0b bf
       0.726405 0.0397971 -0.18846156 -0.54643816
0000c0 dd 42 18 bf 3d 25 07 be cd c9 15 bf 12 6e 28 bf
       -0.59477025 -0.13197799 -0.5851105 -0.65792954
0000d0 e4 86 fe bd f1 e0 4c be fa c7 1b bf 8c 05 18 3f
       -0.12428072 -0.20007683 -0.60852015 0.59383464
0000e0 e4 c1 56 3f 50 50 2f bf b3 89 dc 3e 2f 72 ee be
       0.83889604 -0.6848192 0.43073806 -0.4657149
0000f0 f0 a6 d4 bd 15 1a 6d 3f 95 aa f3 3d 1b a4 73 bf
       -0.10383403 0.92617923 0.1189777 -0.9517228
000100 a6 f1 6d 3f fc c5 4c bd 6b 6e ff be 52 23 06 bf
       0.9294685 -0.0499935 -0.4988893 -0.52397645
000110 00 2e 59 3f 40 42 8a 3c ba 5a 0c 3f 2b dc 25 3f
       0.84835815 0.016877294 0.5482594 0.64789075
000120 cb f1 c8 be 54 02 bf 3d c8 c1 25 bf 84 89 53 3f
       -0.39246973 0.09326616 -0.6474881 0.8263171
000130 16 ba 07 bf e2 38 2c 3f 1b 56 78 3e 26 4c 20 3f
       -0.5301832 0.67274296 0.24251597 0.62616193
000140 66 cd 34 bf f8 4e ba bc 9c 44 03 3f 78 26 42 bd
       -0.70625913 -0.022742733 0.51276565 -0.047399968
000150 80 15 6b bc 31 0b f5 3e 15 d5 3f bf e3 a0 39 be
       -0.014348388 0.478601 -0.7493451 -0.1812778
000160 70 3e e4 3e 85 6d f7 3e d9 85 70 3f 6a 0d 59 be
       0.44578886 0.48325744 0.93954235 -0.21196523
000170 a9 dd 6a 3e 50 a5 fc be a5 e6 28 be 6a 12 00 bf
       0.22936119 -0.49344873 -0.16494234 -0.500281
000180 d1 22 40 3f 00 9b c7 3b b2 4b d1 3e b3 39 0f 3f
       0.75053126 0.0060914755 0.40878063 0.5594742
000190 8b 80 2b 3e 20 f2 d9 3d 91 61 92 bd 4a aa 59 bf
       0.16748254 0.10641885 -0.071475156 -0.85025465
0001a0 cb 89 2e 3e 9f a3 70 be 05 b1 57 bf cd 5e 6c 3f
       0.17044751 -0.23499916 -0.84254485 0.92332155
0001b0 6a b1 b0 bd 4c c3 00 bf 1b db 79 bf 5a 6f 6b bf
       -0.08627589 -0.50298 -0.97599953 -0.91966784
0001c0 b3 d9 bb 3e 66 4d ea be be 52 dc be b7 dc 13 bf
       0.3668953 -0.45762175 -0.43031877 -0.5775866
0001d0 85 30 51 3f c6 30 6c be 00 31 24 3f f9 f2 48 3f
       0.8171466 -0.2306548 0.6413727 0.78495747
0001e0 2c 12 46 bf dd b4 3c 3f 14 b1 5a be 4c 92 77 3f
       -0.7737148 0.73713475 -0.21356612 0.96707606
0001f0 8f 23 06 3f 74 78 78 bf 13 38 36 3e 7b 29 b5 3e
       0.5239801 -0.97058797 0.17794828 0.3538321

fcs.4.0.linear.bias f4 [128]
000000 9f 51 b8 be 26 70 44 3f d6 4a 51 bf c7 fb a7 be
       -0.35999772 0.76733625 -0.81754816 -0.32809278
000010 88 9a 76 3f 05 13 79 3f 11 8d fe 3e 34 b3 1a bf
       0.96329546 0.97294647 0.49717 -0.6042969
000020 df dd 5e bf e5 94 50 bf b0 32 87 be 64 a4 0e 3f
       -0.870573 -0.81477195 -0.2640586 0.5571959
000030 f9 46 9b 3e 99 ce dd bd 8c fb 64 3f f8 40 4a 3f
       0.30327585 -0.10830421 0.8944633 0.79005384
000040 7e 0a ec be f4 d9 dc be 62 89 a3 bc eb e9 59 3e
       -0.46101755 -0.43135035 -0.01996297 0.21280639
000050 6b e8 ae bc d1 75 c8 3e 8d a6 31 3f 87 a4 47 be
       -0.02135106 0.39152387 0.6939476 -0.19496356
000060 66 bc fa 3e 2d 50 17 3e 1b 2f be 3e bb db d0 3e
       0.48971862 0.14776678 0.37145314 0.4079264
000070 a8 05 90 be c4 c1 e1 be 6b 44 d7 3e 50 3b 22 bf
       -0.28129315 -0.44093144 0.42044386 -0.63371754
000080 82 5c 09 3f 9a d3 22 bf d7 7e 30 3f 77 80 d3 3e
       0.5365678 -0.6360413 0.6894354 0.41308948
000090 3b 90 80 be a8 9f 0f 3f f7 99 af be 2a e7 65 3e
       -0.2511004 0.5610299 -0.34297153 0.22451463
0000a0 99 af 9d 3e d0 36 bc 3d 67 0c 51 3e a9 07 f8 bb
       0.30798033 0.09190142 0.20414887 -0.0075692725
0000b0 f6 b9 90 be 87 db 0d 3f 36 94 c8 3e af 57 ba 3e
       -0.28266877 0.554131 0.39175576 0.36395022
0000c0 a8 60 2a 3f 57 f9 07 bf c8 22 61 be 1c 29 70 bc
       0.66553736 -0.5311484 -0.21985924 -0.014658239
0000d0 d6 82 4f 3f 6d 66 46 bf 75 ea 0f bf 61 ff 7a be
       0.81059015 -0.7750004 -0.5621713 -0.24511482
0000e0 4c 5a 59 bf f4 12 4d bf aa ea 2f 3f 86 90 03 3d
       -0.8490341 -0.80107045 0.68717444 0.03212025
0000f0 2e f2 4d bf b7 e3 25 be 02 f8 d0 bc 3f db ae be
       -0.8044766 -0.16200148 -0.025508884 -0.34151646
000100 1e 83 57 bf 55 6c 0a 3f 3a c3 eb bd 09 d4 79 3f
       -0.84184444 0.5407155 -0.11511846 0.97589165
000110 f3 11 43 bf 72 8a 0c bf 94 bc 70 bd e2 12 31 bf
       -0.76199263 -0.5489875 -0.058773592 -0.6916944
000120 df a4 3a 3f df f1 46 3f e6 9e 69 3f a3 f7 1f bf
       0.72907823 0.77712816 0.91258085 -0.6248724
000130 8a 72 37 3f de 78 30 3f 85 e0 cb be a8 ec cf 3d
       0.7165915 0.6893443 -0.39819732 0.101525605
000140 cd 3a ed 3e 21 27 38 3f c7 82 70 bf 1f fa 7d 3f
       0.46333924 0.71934706 -0.9394955 0.9920978
000150 64 ba 80 be 31 f1 d3 3e a5 79 22 bf 96 6b 49 bf
       -0.25142205 0.41394952 -0.63466865 -0.7867979
000160 60 ea 2c bf 84 81 17 3f f4 23 00 bf fe ab 11 3f
       -0.6754513 0.59182 -0.5005486 0.56903064
000170 a4 85 9c 3e 05 67 c5 3e 06 98 59 be 9c c1 9a be
       0.3057071 0.3855516 -0.21249399 -0.30225837
000180 1e e7 f2 be 8c 18 0f bf 2b ac 6d 3f 1b 27 81 bd
       -0.47441953 -0.5589683 0.9284083 -0.06306287
000190 12 e4 e2 be 04 2f 6e bf ca 7d 67 3d 5e 6c 80 bf
       -0.4431463 -0.9304049 0.056516446 -1.0033071
0001a0 ae 19 a6 bc 56 ba 1e 3f 94 d7 16 bf 9a 5c 0e 3f
       -0.020275917 0.62003076 -0.58922696 0.5561005
0001b0 f7 9f ac be 68 22 47 bf d8 51 80 bf 2c 1e 02 3f
       -0.33715793 -0.77786875 -1.0024977 0.5082729
0001c0 95 0f 46 bf 69 7c f4 3e bb 46 20 3e fe db 0d 3f
       -0.77367526 0.47751167 0.15651982 0.55413806
0001d0 d2 b7 41 bf d0 0c 62 3f 32 e1 7f bf f7 59 41 bf
       -0.7567111 0.883008 -0.99952996 -0.755279
0001e0 39 ae 1c 3f da 7c 2b 3d c1 91 0b bf 4a 5b 5f be
       0.6120334 0.041867115 -0.5451928 -0.21812168
0001f0 16 a4 63 bf 9f 4c 62 bf c2 73 5a be 1e c8 44 3f
       -0.8892225 -0.88398165 -0.2133322 0.76867855
