cache/tradeoff_exp/trial_0/iter_3.pth (torch, 581966 bytes, 600 tensors)

fcs.0.0.linear.weight f4 [128, 1]
000000 53 51 05 bf fd fa 92 be 4a 1e 26 bf bb 2c da 3e
       -0.52077216 -0.28707114 -0.6488997 0.42612252
000010 99 0c c8 3d bb fe af be eb 12 cc bd 00 6e a2 bc
       0.09768028 -0.3437403 -0.09964546 -0.019827843
000020 39 7e 5a 3f 78 85 65 3f 6f 7f 45 bf b9 ae b9 3e
       0.8534885 0.8965678 -0.77147573 0.36266115
000030 07 8e c7 3e 14 e1 c1 3e e6 25 0a be c4 15 7d 3e
       0.38975546 0.37867033 -0.1349102 0.24715334
000040 60 c4 7d 3e 50 29 7a 3f 26 ce 75 bf b0 94 c1 be
       0.24781942 0.9771929 -0.9601768 -0.37808752
000050 c4 ca 2b bf 4e b4 f7 be 23 0c 4c 3e 93 24 1d 3f
       -0.6710627 -0.4837975 0.19926505 0.6138393
000060 28 d6 41 bf 54 74 27 3f 94 c0 56 3f 59 8f fb be
       -0.757174 0.6541188 0.838876 -0.49132803
000070 fd 94 31 3e 2f fc 02 bf 3e 91 5b 3e 7c 33 ee be
       0.17341991 -0.5116605 0.21442124 -0.46523654
000080 7b a4 c6 be 63 c2 2b bf 47 19 55 bf 91 4c 4b 3f
       -0.38797364 -0.67093486 -0.83241695 0.79413706
000090 2c bd fe bd 80 43 e3 bc cc 14 fe be 3f 73 33 3f
       -0.124384254 -0.027742147 -0.49625242 0.70097727
0000a0 1d 4d 12 bf 59 fc cf be 08 35 48 bf 23 d1 56 bf
       -0.57148916 -0.40622213 -0.7820592 -0.8391287
0000b0 f3 48 64 3f cf 40 45 bf 7c 49 0e be 15 fb 94 be
       0.8917381 -0.77052015 -0.1389522 -0.2909781
0000c0 c2 7a bd 3e 1a ce 88 3e eb 8c 44 bf 05 fb 64 3f
       0.3700772 0.26719743 -0.76777524 0.89445525
0000d0 fd 76 7f bf 17 62 cc 3d 35 ba aa bd f8 05 6f be
       -0.99790937 0.09979647 -0.083362974 -0.2334212
0000e0 1f 8d 2d 3f fb 8b 57 3f c8 63 05 3e 4d 3a b4 be
       0.6779346 0.8419797 0.13026345 -0.3520073
0000f0 d1 48 3d 3f a5 9f 21 3f f6 b9 35 3e 06 9c 8c be
       0.73939234 0.63134223 0.1774672 -0.27462786
000100 78 7f 3d 3d b8 69 63 3f 30 18 de 3d 8d 6c 46 be
       0.04626414 0.8883319 0.10844457 -0.19377346
000110 91 30 59 bf d3 d4 08 bf b5 ec 37 3f 82 38 17 bd
       -0.8483973 -0.53449744 0.7184556 -0.036919124
000120 57 38 8b bd 70 2e c5 3e 14 e0 28 bf 25 fa 86 bd
       -0.06797855 0.38511992 -0.65966916 -0.0659068
000130 7c bd 8f be 8e 10 07 3f 59 66 4f 3f 63 cf 1f 3f
       -0.28074253 0.52759635 0.81015545 0.6242582
000140 07 db 3f 3f 3c 68 64 bf e3 7b b6 be e2 2e ef 3d
       0.74943584 -0.8922155 -0.35641393 0.11678864
000150 68 01 59 bf 00 89 8c 3e ad 8d 27 bf 72 77 d9 3e
       -0.8476777 0.27448273 -0.65450555 0.42473942
000160 ca 2f 4e 3f d9 73 5b bf ab a4 55 3f 15 af ec 3e
       0.8054167 -0.85723644 0.8345439 0.46227327
000170 1c 63 29 bf 23 01 76 3f a4 46 5d bf ad de 2b bf
       -0.66166854 0.96095484 -0.86435914 -0.6713665
000180 87 9a ff be 32 0a 48 bd b7 f2 33 3e a5 e2 96 be
       -0.49922583 -0.048837848 0.17573057 -0.2946979
000190 a4 43 72 bf ba 6d ec bd 40 40 41 3f ff 1a 44 3f
       -0.9463446 -0.11544366 0.7548866 0.7660369
0001a0 08 49 fe 3e 9c 8f 11 3e 6a 6f 7a 3e 59 cd 45 bf
       0.49665093 0.14214939 0.24456564 -0.7726646
0001b0 23 3c d0 3e 7a 57 7e bf 2f 6b d4 be 3b 83 85 be
       0.4067088 -0.9935223 -0.41488025 -0.26076683
0001c0 05 fb 3a 3f 66 eb fa bc 66 59 e8 be b9 f2 36 3e
       0.73039275 -0.030629825 -0.45380706 0.17866029
0001d0 9c c4 54 bf c9 a7 86 be 22 bc 8b 3e e3 f5 8a bd
       -0.831125 -0.26299885 0.2729197 -0.067851804
0001e0 03 ab da bd 0a 99 1b 3f f5 0e 42 bf 5b ae 00 bf
       -0.10677149 0.60780394 -0.7580407 -0.50266045
0001f0 cd 9c 78 3f 82 a5 4b 3e d8 01 28 be 50 86 05 3f
       0.9711426 0.19887355 -0.16406953 0.5215807

fcs.0.0.linear.bias f4 [128]
000000 d9 fe 19 3f 38 84 2b be df 1a d5 be 29 f3 2b be
       0.6015449 -0.16749656 -0.41622064 -0.16791977
000010 54 79 bb 3e 32 6e 02 be ff cd 15 3f a4 c3 50 bf
       0.36616004 -0.12737349 0.5851745 -0.81548524
000020 78 ab fd be 34 51 44 3f a0 9e 06 3e 70 83 49 3e
       -0.49544883 0.76686406 0.13146448 0.19679046
000030 f5 45 aa 3e 17 32 76 be 8f 18 cd be dd cc 91 3e
       0.33256498 -0.24042545 -0.400578 0.2847661
000040 05 0a 8a be 55 38 d1 be d6 b4 07 3e c9 b1 77 3e
       -0.2696077 -0.4086329 0.13252577 0.24188913
000050 6a fa b9 bd 2b 42 2d bf 79 14 18 be 8b ca 0f bf
       -0.09080966 -0.6767909 -0.1485156 -0.5616843
000060 01 a4 06 3f 0b 88 28 bf 9b 1e 4d 3f 49 93 cb 3e
       0.52594 -0.65832585 0.80124825 0.39760807
000070 0a 6d 5b bf 91 ec 3d 3f 52 27 7d bf 90 bd 6c bd
       -0.85713255 0.74189097 -0.98888123 -0.05779797
000080 e2 0b 20 bf 38 32 5c bf 68 4c ca 3d d8 96 fa be
       -0.6251813 -0.8601413 0.098778546 -0.4894321
000090 0f cb 39 3f 7e 3e 49 bf 47 7c 54 3f 59 9c 1b 3f
       0.7257547 -0.7861098 0.8300213 0.6078544
0000a0 47 23 60 3f d3 a0 95 be fd d3 1c bf bd 4c 2a bf
       0.8755383 -0.29224262 -0.6126097 -0.66523343
0000b0 60 fe 55 3f 23 db fe be 05 0f fc bd b6 a5 1d be
       0.8359127 -0.49776563 -0.12307552 -0.15395245
0000c0 50 95 34 3e 4d 41 52 bf 01 54 4e 3f 63 6c 3e bf
       0.17635083 -0.8213089 0.8059693 -0.74384135
0000d0 c3 d0 7b 3f 0a d9 c7 be bf 9c e4 be e5 6a 0c be
       0.9836542 -0.39032775 -0.44650838 -0.13712652
0000e0 54 05 96 3e e4 39 3f be 1a 80 7f bf 24 d0 33 3f
       0.2930094 -0.18674427 -0.9980484 0.7023947
0000f0 55 97 7c 3f 65 b4 01 3f 85 b5 79 3f fe 7c 8b 3e
       0.98668414 0.50665885 0.975426 0.272438
000100 3d f3 94 bd f3 81 4c bf ca be 5f bf 51 ed 30 bf
       -0.072729565 -0.79885787 -0.87400496 -0.69112116
000110 ef ad 81 be 64 f4 14 3f 9d 6d d5 be 75 b3 1c bd
       -0.25328013 0.5818541 -0.4168519 -0.03825708
000120 f1 4f 62 bc 46 d5 28 bf c3 b0 d9 bc 5b 17 78 3f
       -0.013813005 -0.6595043 -0.026573544 0.9691064
000130 0d 48 4d 3f e7 b4 43 3f b6 04 d2 bd 7e 20 64 3c
       0.80188066 0.7644791 -0.10254805 0.013923762
000140 4e fe 0c 3f d2 79 aa be a7 73 cf be 1a 15 5a 3f
       0.5507554 -0.33296067 -0.40517923 0.8518845
000150 26 4e 68 3d 4d d5 2b bf e5 9f 57 3f 62 9f 25 3e
       0.056715153 -0.67122346 0.84228355 0.16174081
000160 74 d1 07 3f d8 26 5e bf f5 b5 3a 3e 65 ae 1b 3f
       0.53053975 -0.8677802 0.18233474 0.6081298
000170 46 41 13 be dc 6d 10 bf 48 c4 4c 3f 50 3e ee 3e
       -0.14380369 -0.5641763 0.79987 0.46531916
000180 80 fb 91 3e 89 35 73 3e 0c f3 90 3c 40 04 13 3f
       0.28512192 0.23750891 0.017694019 0.5742836
000190 8f 32 60 be a5 b0 16 bf 7e 6b c1 3e 75 37 86 3e
       -0.21894287 -0.5886329 0.37777323 0.26214185
0001a0 50 db c0 3e 43 c0 e8 bd 6e b5 0c be 3d b8 a1 bd
       0.37667322 -0.11364796 -0.13741085 -0.07896469
0001b0 e1 a4 87 3e 31 a1 44 bf 7f 51 6e bf e7 ce bf 3e
       0.2649298 -0.7680846 -0.93093103 0.3746254
0001c0 ae 6b 0d bf b4 d7 aa bd 73 a2 8d 3e a0 8c 13 3e
       -0.5524243 -0.08341923 0.27663 0.14409113
0001d0 20 f5 24 3f 34 ed 05 3e 09 2b 79 3e b3 48 b6 bd
       0.6443653 0.13078767 0.24332823 -0.08900585
0001e0 52 2e 17 3e f9 0e ba 3e 32 70 2e 3f a1 00 73 bf
       0.14763764 0.36339548 0.68139946 -0.94922835
0001f0 70 cb d3 be 84 b9 65 bf 6b 72 cb be ac d4 1c 3f
       -0.41366148 -0.897362 -0.3973573 0.6126201

fcs.0.1.weight f4 [1, 128]
000000 13 83 a8 bd aa 0a 9e bd 51 1f 5a 3d 23 24 46 bd
       -0.082281254 -0.07716878 0.053252522 -0.048374306
000010 01 10 8d 3d 87 88 f1 3c e3 1f cd 3c d5 cd 8f 3d
       0.06887818 0.029484047 0.025039619 0.07021681
000020 a6 17 a0 bd 8c 83 8d 3d 98 42 f9 3c 38 21 61 bd
       -0.078170106 0.06909856 0.030427262 -0.05496332
000030 a0 dc d3 3c 33 f7 ab bc 07 dd 04 bd 05 9b a9 bb
       0.025862038 -0.020991897 -0.03243735 -0.0051759505
000040 64 f7 1d bd 65 1f a6 3d c8 70 9f 3d 33 e6 ff bb
       -0.03856601 0.08111457 0.07785183 -0.0078094243
000050 10 b4 9c bd 99 bb 46 bb b8 7b 18 3c 15 a8 7f 3d
       -0.07651532 -0.003032422 0.009306841 0.062416155
000060 f4 c7 91 3b c3 2f ed 3c ce 1a e4 3c 77 0a 47 bd
       0.004448885 0.028953439 0.027844813 -0.048593964
000070 03 ca 63 bd b7 f4 9e bd eb 51 e7 ba 5d 79 ef 3c
       -0.055612575 -0.077615194 -0.0017648315 0.029232675
000080 c8 e2 7c bb e7 77 b4 3d 07 11 77 bc 97 2e 5d bd
       -0.003858732 0.08811932 -0.015079743 -0.05399951
000090 c1 14 90 3c 80 e8 cb bc fb 03 31 bc 42 5a b8 3d
       0.017588021 -0.024891138 -0.010804172 0.0900159
0000a0 6b 56 9a ba 4d 6a a2 3d f5 45 64 3c a3 e4 fb bc
       -0.0011775022 0.079304315 0.013932695 -0.03074867
0000b0 1f b4 8d 3d 22 b5 45 bd 08 d5 a4 3b 58 20 b3 3c
       0.06919121 -0.048268445 0.005030278 0.021866009
0000c0 ff e2 33 3d 90 a3 a9 bd 28 1b bf 3b 5d 42 9f bc
       0.043917652 -0.0828315 0.0058320947 -0.019440824
0000d0 6e f3 70 3d 11 d6 e5 3c 05 2a 11 3d d6 f2 61 3d
       0.058825903 0.028056176 0.035440464 0.055163227
0000e0 38 a7 7e bc 01 2f e1 ba 31 39 91 3d 75 49 8f bd
       -0.015542798 -0.0017180146 0.070909865 -0.06996433
0000f0 29 0d 68 bd d6 48 31 3c 3e 49 fb bc d5 2a d7 3b
       -0.056653176 0.010820588 -0.030674573 0.0065663853
000100 92 51 a3 3d 29 65 e1 bb e5 57 9a bd 07 ea 1b bd
       0.07974543 -0.0068785143 -0.07536296 -0.038064983
000110 88 30 aa 3d 5a ec 92 bc 41 96 0f bd 9d ec 2a 3d
       0.08310038 -0.017934967 -0.035055403 0.04172956
000120 94 97 50 3c 3b ab 9b bd 5c 80 9a 3d 24 93 5a 3d
       0.012731452 -0.07601019 0.07544014 0.05336298
000130 66 6d a0 3d be a3 30 3d eb 58 d3 bc 37 03 cb bc
       0.07833366 0.043124907 -0.025799235 -0.024781806
000140 53 3f 41 3d 07 9e 78 bc cb 71 a0 3c 44 80 a6 bd
       0.04717953 -0.015174395 0.01958551 -0.081299335
000150 40 97 2b bd 46 80 05 3d e8 31 40 bb e9 c6 1c bd
       -0.04189229 0.032593034 -0.0029326621 -0.038275633
000160 3b 09 95 bd 6f 39 6f 3d 30 f3 5e bc 80 c6 a8 bd
       -0.07277151 0.058404382 -0.013607785 -0.08240986
000170 ec 84 b2 3d d5 51 3f 3d 6f 46 52 bd a4 d3 80 bd
       0.08716759 0.0467089 -0.051336702 -0.06290367
000180 30 49 b2 3d 15 20 3e 3b 83 1c 49 bd 52 90 55 3d
       0.08705366 0.0029010822 -0.049099457 0.052139588
000190 9d 3f 87 bc fe fb ba 3b 31 1d 2b bd e8 b0 90 bd
       -0.016509825 0.0057063093 -0.041775886 -0.07064992
0001a0 e3 a9 5e bd fc 70 ce bb 22 00 77 bd 6f 36 b6 3d
       -0.054361235 -0.00630009 -0.06030286 0.08897101
0001b0 de 9a ac 3b a4 e1 01 bd ee 55 19 3d 8b a8 9d bd
       0.005267485 -0.03170933 0.037435465 -0.07698163
0001c0 1a c0 2a bd 64 78 10 3d f4 75 96 bd 31 1b 46 3d
       -0.04168711 0.035271063 -0.073467165 0.048365775
0001d0 f1 78 13 3c da 8d 93 bd 9d be aa bd e7 7a f6 3c
       0.009001003 -0.072047904 -0.08337138 0.030087901
0001e0 3a c6 30 3d de 09 5b bc 7f eb 9c bd 25 4a 46 bd
       0.043157794 -0.013369052 -0.07662105 -0.048410553
0001f0 82 7e 58 3c e3 ad 16 3b b4 73 ce 3c d0 4b a4 3c
       0.013213756 0.0022991828 0.025201656 0.020055681

fcs.1.0.linear.weight f4 [128, 1]
000000 99 ea 06 3f 9e da 78 3f 1a 47 55 3f f5 20 68 3f
       0.5270172 0.97208583 0.8331162 0.9067529
000010 59 af b0 be 67 38 b3 be af 58 ee bd a2 48 99 3e
       -0.3450878 -0.3500397 -0.11638009 0.29938227
000020 ff b0 ce 3e c8 03 bc bd cf 56 27 bf b4 28 43 bf
       0.40369412 -0.09180409 -0.65366834 -0.76233983
000030 04 91 76 3f 5f 92 8d be 3d ce 02 be 12 ce 1a bf
       0.96315026 -0.27650735 -0.12773986 -0.6047069
000040 16 39 fc be d8 3a 5d 3e 04 97 d8 3e 6f da cf be
       -0.49262303 0.21604478 0.42302716 -0.4059634
000050 2d 51 bf be ef 4e 4a 3f 56 f4 01 bf 73 16 3d bf
       -0.3736662 0.79026693 -0.5076345 -0.7386238
000060 57 4f 1f be cd 0e 73 3f fd a2 5c 3e 95 65 0e 3e
       -0.1555761 0.9494446 0.2154655 0.13905938
000070 9a 43 f7 bd b2 75 1f 3f a9 02 fa be 94 12 2d 3f
       -0.12073441 0.62288964 -0.48830155 0.6760647
000080 cd ac 71 3e 00 b4 e3 3d db 19 09 3e 12 7d 1f bf
       0.23601075 0.11118317 0.1338877 -0.6230022
000090 64 a8 3d 3f f5 fc 05 3f b9 55 46 bf c9 6e 6c bf
       0.7408507 0.52339107 -0.7747455 -0.92356545
0000a0 96 46 88 be e1 a0 29 3f 87 eb f7 be 12 c4 6d 3f
       -0.26616353 0.66261107 -0.4842188 0.92877305
0000b0 0f 90 02 bf 30 5d 65 bf c6 ca e0 3e 5d ce 18 bf
       -0.51001066 -0.8959532 0.43904704 -0.59689885
0000c0 c6 7f 1d be ab a8 a4 be 4a 24 b1 bd e4 1f 61 bf
       -0.15380773 -0.32159933 -0.086495 -0.87939286
0000d0 d4 e6 68 bf cf 5d dc 3e 13 90 e5 bd e4 68 1c bf
       -0.90977216 0.4304032 -0.112091206 -0.6109755
0000e0 40 b0 d0 bc 03 03 68 bf 8f 1b 85 3e c4 fe f3 3e
       -0.025474668 -0.90629596 0.25997588 0.47655308
0000f0 48 c2 78 3f e7 87 52 bf 4c de f2 bd 78 7d 0a 3f
       0.9717145 -0.8223862 -0.11858806 0.540977
000100 97 47 6a 3f 2d 3b 34 bf 8a fa d8 3e eb 6b d2 3e
       0.9151549 -0.70402795 0.42378646 0.4109796
000110 6d d2 1a 3f 6c a0 2e bf 58 ca 36 3f f4 83 e3 be
       0.60477334 -0.68213534 0.714025 -0.4443661
000120 02 ab 1b bf 29 26 4d 3e b0 53 58 3f 58 83 2b bf
       -0.6080781 0.20034088 0.84502697 -0.6699729
000130 98 ec 07 3f 75 40 fa bd b6 11 a4 3e d0 26 48 3f
       0.5309539 -0.122193255 0.32044762 0.78184223
000140 50 47 8a 3e 16 ab 52 bf f0 1a 9e be 51 a8 48 3e
       0.27007532 -0.82292306 -0.30879927 0.19595458
000150 ae eb 59 bf 71 32 28 3e d4 73 0b bf 45 54 4e be
       -0.85125244 0.16425492 -0.54473615 -0.20149334
000160 15 1c b8 3e 3a c7 4f bf d6 49 26 bf 78 99 e7 3e
       0.35958925 -0.8116337 -0.64956415 0.45234275
000170 4b 37 7f bf a5 b2 2f 3f 0a 61 47 bf 00 e8 83 bc
       -0.99693745 0.68631965 -0.77882445 -0.016101837
000180 51 24 52 3e bc ae c8 3e 6e b1 20 bf 86 a7 0b 3e
       0.20521666 0.39195812 -0.62770736 0.13638124
000190 da 58 db 3e 1b 16 5c 3f 46 9f 42 bf 13 be fa be
       0.42841226 0.8597123 -0.7602428 -0.4897314
0001a0 0e bc 92 3e dd f1 cb bc 4e bc 2e bf 82 92 55 bf
       0.286591 -0.024895603 -0.6825608 -0.8342668
0001b0 99 4a 65 bf e1 1d 35 bf 95 57 d6 be b1 ee 2f bf
       -0.8956695 -0.70748717 -0.41863695 -0.6872359
0001c0 f9 af 5e bf 60 dd 9f 3d b1 aa 15 3f 69 ce f4 be
       -0.8698726 0.07805896 0.5846358 -0.47813728
0001d0 d3 37 d1 3d 00 fa 49 bc dc 0e ee 3e 75 ac 33 bf
       0.10215726 -0.012327671 0.46495712 -0.70185024
0001e0 c0 76 42 3d 0b 31 6f 3f 3b 6c 37 3f 30 e9 7b bf
       0.04747653 0.9343421 0.7164952 -0.9840269
0001f0 41 19 22 be 00 ba 18 3c 49 2b a6 be a6 4b 26 bf
       -0.15829946 0.00932169 -0.324549 -0.6495918

fcs.1.0.linear.bias f4 [128]
000000 af 03 33 bf 5e bb 2b 3f a2 09 a5 be 64 80 91 bd
       -0.69927496 0.67082775 -0.32233912 -0.07104567
000010 5b 11 98 3e fc a2 1b bf 5a cc b8 3d d6 f2 18 3f
       0.2970074 -0.6079557 0.09023352 0.5974554
000020 59 e5 16 bf ef c6 99 3e c6 eb fd bc 15 7a 0d 3f
       -0.58943707 0.30034587 -0.030996215 0.5526441
000030 5c 86 2a 3f ae 97 89 3e 96 90 de 3c 2b c2 5d bf
       0.66611266 0.26873535 0.027168553 -0.866244
000040 c4 eb ca 3e 13 b6 1b 3f 8b b3 b6 be 9e f5 7b bf
       0.39633 0.608247 -0.35683855 -0.9842166
000050 6e 41 51 3f e2 d9 76 be c9 45 49 3e 7a 8d 91 be
       0.8174046 -0.24106553 0.19655527 -0.2842825
000060 0c e8 25 3f 4b 10 78 3f 9b 77 1f 3f 0c af a3 be
       0.648072 0.9689986 0.6229188 -0.31969488
000070 62 8d 31 3f 70 c7 f6 3e 72 ab c1 3d b8 e3 4f bf
       0.6935636 0.48199034 0.09456529 -0.81206846
000080 9d 84 da be 72 48 7d bf 50 fa 2c 3f 9d ec 7d 3f
       -0.426793 -0.9893867 0.67569447 0.9918917
000090 2b f7 13 3f e5 5b a0 3e a9 99 6e 3e c3 a3 75 3f
       0.57799023 0.3132011 0.23300804 0.95953006
0000a0 0d 44 00 bf d6 9d ae be b5 3e 67 bf 8b 5e bc bd
       -0.5010384 -0.34104794 -0.9033006 -0.0919772
0000b0 96 61 8f 3d 58 74 8a 3e e7 3e 33 bf 8c e5 f3 bd
       0.07001035 0.27041888 -0.70017856 -0.11909017
0000c0 5f a8 53 bf 73 59 4e bf 37 b2 0a 3e 1c 14 79 bf
       -0.8267879 -0.8060524 0.13544546 -0.9729631
0000d0 33 9e 86 3e f1 4f 6c bf bd 44 32 bf e3 68 51 be
       0.2629257 -0.9230948 -0.69636136 -0.20450167
0000e0 c8 4b 74 bf b4 ea 4d 3f b9 b4 51 3f f1 39 04 bf
       -0.95428133 0.80436254 0.81916386 -0.5165091
0000f0 04 58 5d 3e 79 c3 03 3f a0 ba 9f 3e 9a bd 0d be
       0.21615607 0.5147014 0.3119707 -0.13841859
000100 0b df 71 bf 67 51 39 3f 48 4c 60 bf f8 09 44 be
       -0.9448096 0.72389835 -0.87616396 -0.19144428
000110 d8 e2 8c 3d c5 39 aa be 39 8a ba be 6c c7 5b bf
       0.068792045 -0.332472 -0.3643358 -0.8585117
000120 89 19 55 3d 92 6d dc bd 2a 9b 5d 3f 3e 2a a7 be
       0.052026305 -0.107630864 0.86564887 -0.32649416
000130 fc 1c 45 3f 95 45 51 3d c5 72 e3 be 12 8d 6d be
       0.7699735 0.05109175 -0.444235 -0.23198345
000140 1e ed eb bd 2f 3d ea 3b 11 b6 25 be 08 99 95 3e
       -0.11519836 0.007148407 -0.16182734 0.29218316
000150 e5 b8 53 3f ab ca 1a 3e fd 16 bb 3e 71 84 20 3f
       0.82704 0.15116374 0.36540976 0.6270209
000160 a1 f4 63 3e 8c e9 ec 3e 21 4c 07 3f ad ef 6e 3f
       0.22261287 0.46271932 0.5285054 0.93334466
000170 1e a7 68 bf 16 34 ac 3e d4 1a 2d bd 88 e6 37 be
       -0.9088 0.33633488 -0.042261913 -0.17959034
000180 70 e6 c6 be b7 c6 18 3f f7 7e 6b 3f d7 b7 50 bf
       -0.38847685 0.59678215 0.9199061 -0.8153052
000190 08 37 09 3f fb 1e 32 3f 1e 7e 35 3e 53 39 09 3c
       0.53599596 0.6957852 0.17723891 0.008375484
0001a0 78 b4 44 3f 22 eb d6 3c 43 21 7c be 03 ad 9d bd
       0.76837873 0.026235167 -0.24622063 -0.07699015
0001b0 f6 dc a5 3e f4 ca 81 3e 0a 4d 69 bd 54 fd 9f 3e
       0.32395142 0.25350153 -0.056958236 0.31247962
0001c0 c5 2e 88 3e 06 60 4f bf 10 3a 7a 3e 87 a6 1d 3f
       0.26598182 -0.81005895 0.24436212 0.61582226
0001d0 0f 80 f6 3d 50 ef ba bd 45 fa 42 3f d6 ac 5e bf
       0.12036144 -0.091276765 0.7616313 -0.86982477
0001e0 0c b2 e9 be 7f 1a e6 be a2 35 5e 3f ed 67 78 bf
       -0.4564365 -0.4494209 0.8680059 -0.9703358
0001f0 89 ca d1 3d 02 fc 77 bf 9c e5 10 bd 1d ee bc 3e
       0.10243709 -0.9686891 -0.035375223 0.36900416

fcs.1.1.weight f4 [1, 128]
000000 51 44 b5 bc fe c7 b5 3d e1 6c c4 3a 39 03 31 bd
       -0.022127302 0.08876036 0.0014986062 -0.043215964
000010 6f 79 f3 3c 6a cd 68 3d 74 0d de 3b a7 62 a2 3d
       0.02972099 0.056836523 0.006776506 0.07928973
000020 d6 e6 6c bd 55 04 39 3d e5 7c 6d 3d e8 9b 50 3d
       -0.05783733 0.045170147 0.057980437 0.050929934
000030 07 f0 3f 3b 67 75 03 3d f8 ff 7d bd 62 d9 72 bd
       0.0029287355 0.032094385 -0.06201169 -0.059289344
000040 10 48 bd 3a 51 d8 f3 bb 92 91 86 3d 5c 29 9d 3d
       0.0014441032 -0.0074415584 0.06570734 0.07673904
000050 d2 80 88 3d 6e 14 20 bd cc 75 7e bd ac fc 98 bd
       0.066651955 -0.039081983 -0.06212406 -0.07470068
000060 ca 98 23 3d 0b 60 9c bd e7 3c ad bd 1e ae 4a bd
       0.039940633 -0.07635506 -0.08458882 -0.049482457
000070 88 f1 87 bd fe 30 02 bd a2 5d 45 bd 0e e0 3d bd
       -0.06637865 -0.031785004 -0.048185 -0.046356253
000080 63 84 a5 3d 34 73 88 bc 71 4b 9e 3d 61 6b 0c 3c
       0.080818914 -0.016656496 0.07729233 0.008570523
000090 cc 30 08 bc 36 a0 bc bc 0a a4 64 bd e9 81 83 bd
       -0.008312415 -0.023025613 -0.055820502 -0.06421263
0000a0 7c 60 94 3d 80 44 d7 bc a7 1f 9a bd 41 cd a9 3d
       0.072449654 -0.02627778 -0.075255685 0.08291102
0000b0 27 cf 16 3c 4d 18 54 bd 74 39 93 bd cd c2 87 bd
       0.009204662 -0.051780988 -0.07188693 -0.06628952
0000c0 08 e1 9a bd 2a da bd 3d c4 5e 8a 3d fc 48 89 3c
       -0.075624526 0.09270127 0.06756356 0.016758434
0000d0 8c 2b 8b bd 75 4b e0 bc 78 f3 a9 bd e2 43 1e 3d
       -0.06795415 -0.02737973 -0.08298391 0.038638957
0000e0 b8 41 c0 bc cd eb 44 bc e1 51 c4 bc 5b 0e 27 3d
       -0.023468837 -0.01201911 -0.023964824 0.040785175
0000f0 f8 81 4d 3d 17 eb d8 3c 45 eb 87 bb e2 17 ed bb
       0.050172776 0.026479287 -0.0041479194 -0.007235513
000100 78 7a 02 bb 30 b8 71 bd f2 76 a8 3d e7 c0 17 bd
       -0.0019909423 -0.059013546 0.08225812 -0.0370492
000110 32 78 5b 3d 2f bd 28 bd d2 2d cb 3a 2f 4c 2a 3d
       0.053581424 -0.041196045 0.0015501326 0.04157656
000120 eb a8 96 bd 26 95 29 3d 09 d1 83 bd 03 e8 a9 3c
       -0.07356437 0.041402005 -0.06436355 0.020740515
000130 4d 3c 65 bc 39 63 6d 3d 05 75 ac 3d 1f ac ae 3c
       -0.013991428 0.057955954 0.08420757 0.021322308
000140 b5 01 b5 ba f0 de 13 bd 8c b3 29 3d c1 ca 1f bd
       -0.0013809713 -0.03610128 0.041430995 -0.03901172
000150 06 a8 31 3d 1e e1 0f bd ff 48 89 3d be f8 99 3d
       0.04337313 -0.035126798 0.06703376 0.07518147
000160 ea b5 69 3d e2 b7 03 3c 93 65 44 3d d2 6f 9d bd
       0.057058252 0.008039447 0.04794843 -0.07687344
000170 47 8d a5 3d ec ec a5 bc a9 ec 23 3d 80 3a 75 bc
       0.08083587 -0.020254575 0.04002062 -0.014967561
000180 86 d1 07 bd d8 74 1b bd d2 5f 82 3d 08 1d 4b bd
       -0.0331588 -0.037953228 0.063659325 -0.049588233
000190 25 3c 47 bc af 3d 43 3d 3b 11 86 3c 2a 9e 88 bd
       -0.012160336 0.047666248 0.016365638 -0.066707924
0001a0 e7 72 ac bd 6c ef 15 bd 0e c9 b7 3d bc 69 61 bd
       -0.084203534 -0.036605284 0.08973895 -0.055032477
0001b0 a2 8a 65 3d c8 96 90 3d 5c e2 eb bc 01 50 02 bd
       0.056040414 0.07060009 -0.02879446 -0.03181458
0001c0 8d 51 66 bd b8 e2 61 3c 6f 8e 1f bc 5d ba 33 3c
       -0.056230117 0.013786964 -0.009738549 0.010969725
0001d0 25 c9 2a 3d 8e ff 17 3d 50 f3 c6 bc 2b d0 81 3c
       0.041695733 0.03710895 -0.024285942 0.015846333
0001e0 84 00 ac 3c 18 0e 3e 3b aa dc ac 3c c6 84 d9 bc
       0.02099634 0.00290001 0.021101315 -0.02655257
0001f0 2b ec a2 3d a0 89 14 bc 42 16 66 bb e5 dc 93 bd
       0.07955202 -0.0090660155 -0.0035108482 -0.07219867

fcs.2.0.linear.weight f4 [128, 1]
000000 cb 19 11 3d e6 4d 20 be be f5 00 bf 0f 1e 07 3f
       0.03542499 -0.15654716 -0.5037497 0.5278024
000010 ad e1 c4 bd ac 4d b6 3e 2e 95 56 3f 70 55 ed be
       -0.09613357 0.35606134 0.8382138 -0.46354246
000020 19 09 fb be 68 f6 4b be e2 af ab bd 89 49 00 bf
       -0.49030378 -0.19918215 -0.08383156 -0.50112206
000030 ab 6a 76 be 40 20 ec bc 66 09 e7 3e 5f b2 6b 3f
       -0.24064128 -0.028823972 0.45124358 0.9206905
000040 8c ad 3e 3f 00 c0 d8 3d 39 d7 89 bd 80 3a 81 3e
       0.7448356 0.10583496 -0.067305036 0.25239944
000050 5f 8a 15 bd 10 fc 06 be f0 13 b1 3e 32 76 50 bf
       -0.036508914 -0.13182092 0.34585524 -0.8143035
000060 d5 89 59 bf ba 9c 7c b9 73 c1 97 be b0 d0 fc be
       -0.8497594 -0.00024090978 -0.29639778 -0.49377966
000070 61 84 6e bf 9c 97 2a 3f ec cd 34 bd 02 53 09 bf
       -0.93170744 0.6663759 -0.044141695 -0.53642285
000080 5a 29 d0 be e7 df 86 3e ac c9 39 bf 0f 8d 75 3d
       -0.4065655 0.263427 -0.7257335 0.059948977
000090 80 0b 4a bc 8a ae b3 3e cb 07 d0 3e 94 6d 27 bf
       -0.012331843 0.350941 0.40630946 -0.6540158
0000a0 d4 e7 da 3e e6 7b 42 3f 24 61 8c 3d 37 f0 02 3f
       0.42754996 0.75970304 0.068544656 0.5114779
0000b0 a7 ec c1 be 99 c9 4f 3e f8 67 93 3e 60 95 eb be
       -0.37875864 0.20291747 0.2879026 -0.46012402
0000c0 13 21 1f 3f 19 ca 71 bf 40 55 bf be 63 5b 16 bf
       0.6215984 -0.94449 -0.37369728 -0.58733195
0000d0 d6 37 18 bf d1 ac 1a bf e7 70 71 bf 80 a0 2b 3e
       -0.594602 -0.60419947 -0.943129 0.16760445
0000e0 f2 83 43 be 7b b2 57 bf 2e 8b 90 bb 79 47 25 be
       -0.19093302 -0.84256715 -0.0044111228 -0.16140546
0000f0 29 1c d1 3e 1c b6 48 bf 30 4b 8f be 14 d4 56 3e
       0.40841797 -0.78402877 -0.2798705 0.20979339
000100 12 5d da 3e 73 5f 92 3d 69 5f 8d 3e e3 c9 7e 3f
       0.42649132 0.07147112 0.27611855 0.99526805
000110 dd 76 b5 be 17 a1 2d 3f cd 7a 5d 3f 76 3e 62 bf
       -0.35442248 0.6782393 0.86515504 -0.8837656
000120 16 b3 7a 3e 1a 79 10 3f f4 11 22 be 0e 5d 0e 3f
       0.24482378 0.56434786 -0.15827161 0.5561074
000130 e3 21 1c 3d 7e c8 41 3f 80 cc d3 3c 84 a5 23 bf
       0.038118254 0.7569655 0.02585435 -0.6392443
000140 47 bc 42 3f 93 cf 9a 3e c5 af 58 3f a7 01 7a 3e
       0.7606854 0.30236492 0.84643203 0.24414693
000150 00 03 09 3f ab bd 20 3f e2 07 30 3e 06 5b 6c be
       0.535202 0.6278941 0.17190507 -0.23081598
000160 0a 4b 60 3e ba aa 32 bf c0 ee 0b 3d b1 8d a8 be
       0.21903625 -0.6979176 0.034163237 -0.32920602
000170 92 06 72 3d e8 6c 4a bf c8 91 1d 3f 3f 66 6c bf
       0.059088297 -0.7907243 0.6155057 -0.92343515
000180 65 7d dd 3e 58 b8 29 3f 9f d2 6a bf 0e 6d 68 3f
       0.4325973 0.6629691 -0.9172763 0.90791404
000190 f6 6f 3e bf ef e4 48 be f9 8c 03 3f b2 36 a5 be
       -0.7438959 -0.19618581 0.5138698 -0.32268292
0001a0 b4 0d 63 3f 9b 5f e1 be 8d c4 09 be 6d 79 27 bf
       0.88692784 -0.44018254 -0.13453884 -0.65419656
0001b0 46 a0 ee be b8 bd 78 3f ca 10 41 3f 58 01 8e 3d
       -0.46606654 0.9716449 0.75416243 0.0693385
0001c0 07 6e c0 3d 5b 3a 59 bf 33 31 42 3f 6c ce 0d be
       0.09395986 -0.8485467 0.7585632 -0.13848275
0001d0 4c f8 d5 be 47 7f 4b bf d4 4f 51 3f 33 d1 f0 3e
       -0.41790998 -0.79491085 0.81762433 0.47034606
0001e0 46 4b 19 3f 44 48 c8 3d f4 89 2d bf 3a a7 cf 3e
       0.59880483 0.097794086 -0.67788625 0.4055727
0001f0 ea 6b ec 3d eb 51 ad 3e bf ec 80 be 36 d7 f1 be
       0.115440205 0.3385156 -0.25180623 -0.47234505

fcs.2.0.linear.bias f4 [128]
000000 c5 09 53 3f 4c 7b ac 3e 6d bd d3 be 2a 19 b2 3d
       0.8243678 0.33687818 -0.41355458 0.08696206
000010 65 0a 5c be da 03 b4 bd bb ea 0f 3f ce 2d 4c bf
       -0.2148834 -0.08789797 0.56217545 -0.7975739
000020 1e 31 67 3f 7c 44 2c 3f 72 de e5 3b 12 64 d5 be
       0.9030932 0.67292 0.007015043 -0.4167791
000030 f0 08 4a 3e d4 72 29 bf 91 d8 26 3f 3e 0d 07 bf
       0.19729972 -0.6619084 0.65174204 -0.5275458
000040 75 1d 41 3e 58 dc 7b bf 08 71 f3 3e 89 38 2f 3f
       0.18858893 -0.9838309 0.47547174 0.6844564
000050 77 06 41 3f 20 ba 9b 3d b3 fa 17 3f 5e 03 ab 3e
       0.7540049 0.0760386 0.5936691 0.33401006
000060 c4 7a 2d 3f 33 97 0f 3f 73 ef 60 bf 65 5d e7 3d
       0.6776545 0.56090087 -0.8786537 0.112971105
000070 ab 81 b2 be 33 0e f4 be a5 50 32 3f 85 be 0a be
       -0.34864554 -0.47667083 0.69654304 -0.1354924
000080 5d e7 26 3e 03 8c 1f 3f a2 b6 2a 3f 5f c1 07 3f
       0.16299196 0.62323016 0.66684926 0.53029436
000090 78 c7 32 be d9 22 62 bf 6e f7 73 bf 26 f3 9d 3e
       -0.17458904 -0.88334423 -0.9529942 0.3084957
0000a0 4a a7 21 bc d1 1a 22 bf 02 2e e1 3e d2 15 69 3f
       -0.009866545 -0.6332217 0.43980414 0.9104892
0000b0 02 93 12 3f 7a 18 13 be 03 64 0c 3e 7d fc 21 bf
       0.57255566 -0.14364806 0.13710026 -0.6327589
0000c0 f1 d4 f0 3e 1c 7d 44 bf dc 39 30 3f a2 2c e6 be
       0.4703746 -0.767534 0.68838286 -0.44955927
0000d0 59 f3 ce be 49 3a 55 bf 42 32 80 be 15 ba c4 bd
       -0.40420035 -0.8329206 -0.25038344 -0.09605805
0000e0 90 e7 ed be 20 a6 34 3f 3d 2c 12 3f 50 f6 62 bf
       -0.4646573 0.70565987 0.5709875 -0.88657093
0000f0 21 48 c9 bd 53 48 a8 3e 7c e4 76 3f 88 fe 76 be
       -0.098282106 0.3286768 0.9644239 -0.24120533
000100 52 ae 1d 3f f5 27 5f bd 1d 74 c4 be a8 48 1d 3f
       0.61594117 -0.054481465 -0.38369837 0.6143899
000110 10 e2 62 bf 60 3a 56 3f 3b 9f 7f 3f 94 7e 87 be
       -0.88626194 0.83682823 0.9985234 -0.2646376
000120 16 14 cb 3e 1f 78 7e 3f b5 25 9b 3e 01 65 c7 3e
       0.39663762 0.9940204 0.30302206 0.38944247
000130 b1 83 bd 3e 92 df d0 be d2 7c 7d 3e 75 7e 06 bf
       0.37014535 -0.4079557 0.24754646 -0.5253671
000140 ae 4c 5a 3f ca b1 db be 5c 97 6c 3e 3b 8f 93 be
       0.85273254 -0.4290908 0.23104614 -0.28820214
000150 18 3c ff 3e a5 27 63 3c e9 68 0a 3f 0e a1 88 be
       0.49850535 0.013864432 0.5406633 -0.26685375
000160 9f 71 13 bf e5 ca c0 3e 6e 12 10 bf dd 10 51 bf
       -0.5759525 0.37654796 -0.5627812 -0.81666356
000170 85 31 c4 3e 2f 30 18 bf db 4d c1 be f3 27 84 be
       0.3831903 -0.5944852 -0.37754712 -0.2581173
000180 6f 92 8c 3d 88 24 b2 be e4 12 bc be 9d ca 81 be
       0.068638675 -0.34793496 -0.36733162 -0.25349894
000190 8e b5 31 3f b1 44 9c 3e b0 25 f6 be 96 c7 30 bf
       0.69417655 0.30521157 -0.48075628 -0.69054544
0001a0 27 a2 d0 3c a8 62 a8 3e 1f cd df bc 31 2c 14 3f
       0.025467945 0.3288777 -0.027319489 0.5787993
0001b0 23 c3 57 3f ac 25 97 3e 0f da a7 3e 69 a6 13 3f
       0.8428213 0.2952093 0.32783553 0.57675797
0001c0 b0 ae aa be 0d 18 32 3e 22 00 4f 3f c1 de f9 be
       -0.333364 0.17391987 0.8085958 -0.4880276
0001d0 62 ed 8e 3d 37 1f c4 be d6 95 44 bf 1c b2 07 3f
       0.06978871 -0.38305065 -0.7679113 0.5300615
0001e0 d3 72 4c 3f fb 6b 0b bf 47 4c c3 3e fe ae 9d 3e
       0.7986271 -0.5446164 0.38144132 0.3079757
0001f0 c3 25 c6 3e 76 55 0d 3f 4a bd 6e 3f aa 71 43 3f
       0.38700685 0.5520853 0.9325758 0.7634531

fcs.2.1.weight f4 [1, 128]
000000 73 4e a6 bd a2 4a 16 bd 4b 98 50 3d 25 4e 5f bd
       -0.08120432 -0.03669227 0.050926488 -0.054517884
000010 f3 4a f1 3c 48 72 2f bd b2 6f 6a 3c 64 a9 54 3d
       0.029454684 -0.042833596 0.014308857 0.051919356
000020 fe 60 d2 3c 60 e8 80 3d 6a 35 22 bc df 0f 55 3d
       0.025681015 0.06294322 -0.00990043 0.05201709
000030 2b 2a e1 3c c2 31 e4 bc 68 2c 85 bd 76 ce 99 3d
       0.027485928 -0.027855758 -0.065026104 0.075100824
000040 7e d7 f7 bc 2b 59 88 3d 83 67 5c 3d e8 ed dc bb
       -0.030254122 0.066576324 0.053809654 -0.006742228
000050 64 89 9b bd ea 74 d4 3b 0c 81 39 bd fb 52 ba 3c
       -0.075945646 0.006483664 -0.045289084 0.022744646
000060 29 15 14 bd 9d 48 84 3d 14 2c 86 bd 93 13 c1 bc
       -0.036152992 0.064591624 -0.06551376 -0.023568904
000070 d2 8f 83 3c 73 18 14 3b f7 e2 8e 3d c9 b0 d6 bc
       0.01605979 0.002259758 0.06976884 -0.026207345
000080 b5 e7 90 bd e5 e4 63 3d 00 46 c0 3c 2c 7c 5c 3d
       -0.070754446 0.055638213 0.023470879 0.053829357
000090 4b 46 56 bd 25 c4 84 bd 94 30 45 bd c9 25 c1 3b
       -0.05231313 -0.06482724 -0.04814203 0.005894397
0000a0 70 e1 d0 3c 0c e0 6a bd 1d f5 52 bc 05 3a 92 bc
       0.025498122 -0.057342574 -0.012875822 -0.017849931
0000b0 73 2e a1 3d 36 9e 1b bd ea 2a a8 3d 16 d5 41 bd
       0.078701876 -0.03799268 0.0821131 -0.047322355
0000c0 74 01 22 bd ba d7 7f bd 9c 0e 81 3d 56 5c 69 bd
       -0.039552167 -0.062461592 0.06301615 -0.056972824
0000d0 10 a2 23 3d e1 86 d1 bc b2 e6 b7 3d d1 b9 dc 3b
       0.039949477 -0.02557701 0.089795485 0.006736018
0000e0 82 95 84 bd 86 32 67 3c 70 d0 ee 3b da dd a7 bd
       -0.06473829 0.014111167 0.0072880313 -0.08196612
0000f0 5d a6 51 3c ea 24 ac 3d e4 21 c6 3c 10 83 04 bc
       0.012796012 0.08405478 0.024186082 -0.008087888
000100 67 67 ab bc 85 35 8d 3c 4d 63 44 bd 3e 75 ab 3d
       -0.02092333 0.017237434 -0.047946263 0.083719715
000110 a6 b0 b7 3d 31 0a 1e 3d 8f 17 12 bd 72 1d a6 bd
       0.0896924 0.038583938 -0.035667 -0.08111085
000120 99 ea 5a bd 4c bc aa 3d 8f 79 aa bd c0 63 b3 bd
       -0.053446386 0.08336696 -0.08323967 -0.0875926
000130 8c 43 2e bc 30 dd b7 3c 57 db bc bd 39 b8 9f bd
       -0.010636222 0.022444338 -0.09221523 -0.077988096
000140 75 fb 15 bb 4a 00 1d bd f1 58 6c 3d c8 b4 90 3c
       -0.0022885476 -0.038330354 0.05770201 0.017664328
000150 0b 1f a3 bd 4e 0f ac bd 61 b8 68 3d 13 04 23 bc
       -0.07964905 -0.08401357 0.056816462 -0.009949702
000160 39 d4 54 bd b2 be df 3c 80 4e 8e bc a8 1f 63 3d
       -0.051960204 0.02731261 -0.017371416 0.05545011
000170 5e fb 91 3c b1 6e 0d bd 79 18 9d bd 95 38 4b 3d
       0.017820057 -0.03452939 -0.076706834 0.049614508
000180 c4 2d 6a bd e6 91 7c bc 59 66 6a 3c 8d 4c 67 bd
       -0.05717255 -0.015415644 0.014306628 -0.05646949
000190 9b 18 40 3d af 58 83 bd 94 64 73 3c 68 f3 a8 3c
       0.046898466 -0.064133994 0.014855523 0.020623878
0001a0 47 0f e6 3c f1 83 b3 bd e8 68 d5 3b e3 ab 2b 3d
       0.028083457 -0.087654 0.00651275 0.04191197
0001b0 c1 63 70 bd 81 e1 93 3c 59 af 54 bb fa 7c 90 3d
       -0.058688883 0.018051865 -0.0032453148 0.070550874
0001c0 f6 25 fc bc 39 ea 61 3a a0 f4 28 bd d8 82 14 bc
       -0.03077982 0.0008617971 -0.041248918 -0.009064399
0001d0 92 0c d2 3c ef 4f a9 bd ca 7d 76 3d 84 ff 78 3d
       0.02564076 -0.08267199 0.060178556 0.060790554
0001e0 33 76 0e 3d 4b 8c 7e 3d 71 e5 e5 bc db 36 8b 3c
       0.034780692 0.062145513 -0.028063508 0.01699393
0001f0 ca 0e f1 39 a7 6c 82 bd 5e b9 0f bd e2 d4 08 bd
       0.0004597812 -0.0636838 -0.03508889 -0.033406146

fcs.3.0.linear.weight f4 [128, 1]
000000 bd 71 5e bf eb b4 2e bf d0 7b c2 bd 28 c6 1b be
       -0.868923 -0.6824481 -0.094962716 -0.1521231
000010 df fb 62 bf 09 67 4e 3e dd 36 09 3f 87 ea 52 3f
       -0.88665575 0.20156492 0.5359934 0.8238911
000020 cb 1c 55 3f 26 f1 30 bf c2 39 b1 be 77 43 e8 be
       0.8324706 -0.69117963 -0.34614378 -0.45363972
000030 2a 71 3e 3e 7e 34 8b 3e f9 91 5a 3e 28 80 13 3f
       0.18597856 0.27188486 0.21344747 0.57617426
000040 03 b2 04 3f d3 bd 11 bf 10 62 2d 3f b5 44 2f 3f
       0.51834124 -0.56930274 0.67727757 0.68464214
000050 e0 e8 e8 3d 40 ea 64 bf 6a 37 18 bf 0f 72 94 3e
       0.113725424 -0.8941994 -0.59459555 0.2899327
000060 c3 a6 ab 3e d4 2e 71 3f 19 d2 ff 3e 44 e8 b4 3e
       0.33525667 0.9421208 0.4996498 0.35333455
000070 52 6a 81 bc 85 43 2c 3f 40 b3 c9 be 4c a3 ce 3e
       -0.015797768 0.67290527 -0.3939457 0.4035896
000080 6e d7 00 bf 00 ec 18 bc df fb 18 3f 7c 79 e6 3e
       -0.5032872 -0.009333611 0.59759325 0.4501456
000090 75 bd 4f be 12 2c 9f b8 18 7d 14 bf 81 54 e8 3e
       -0.20287116 -7.5899196e-05 -0.5800338 0.4537697
0000a0 29 3b 2a 3f ac 16 b5 3e b6 40 74 bf b1 aa 33 bf
       0.6649652 0.3536886 -0.9541124 -0.7018233
0000b0 00 08 29 3f ee 67 fa bd e4 e8 1f 3f 13 9a 3a 3f
       0.6602783 -0.12226854 0.6246474 0.7289135
0000c0 92 8d a2 be 75 d4 1d bf 3b 2f 79 bf 31 1b be 3e
       -0.31748635 -0.6165231 -0.9733769 0.3713012
0000d0 c7 1a 06 3f 76 15 25 be 47 79 73 bf cd 93 21 bf
       0.5238461 -0.16121468 -0.9510693 -0.6311615
0000e0 6a d8 ad bd 00 91 e4 3e 49 78 b7 be 70 85 2b bf
       -0.08488543 0.44641876 -0.35833958 -0.67000484
0000f0 04 1e 39 bf 82 73 67 3f 26 7a be 3e 53 95 4a bf
       -0.72311425 0.90410626 0.37202567 -0.791341
000100 24 80 19 bf e2 e2 55 bf a0 65 20 3e 3d aa de be
       -0.5996115 -0.8354932 0.15663767 -0.43489257
000110 ed 57 c5 bc 78 d2 3e be ff eb 5a bf 1e 51 60 bf
       -0.024089778 -0.18634975 -0.8551635 -0.87623775
000120 9c 34 41 bf 62 b1 ce be 20 3d 24 3e 65 ca 00 bf
       -0.754709 -0.40369707 0.16038942 -0.5030883
000130 3f 2e 8d bc 5a ce c8 bd 7f a7 6c 3f 24 a4 df be
       -0.017233966 -0.098049834 0.9244308 -0.43679917
000140 a0 27 6e 3f 2e 6f 3f bf 23 ab 5b bf 43 99 a3 3e
       0.9302921 -0.7477902 -0.8580801 0.31952867
000150 2e 4f 10 bf ec c5 00 3f 70 f7 13 bf 79 97 47 3f
       -0.5637082 0.50302005 -0.57799435 0.77965504
000160 f3 77 7a 3f 3d c4 7c 3d ab 35 5f 3e b3 2c 71 3f
       0.9783928 0.061710585 0.21797816 0.9420883
000170 46 55 1a 3f 94 c3 66 bf df 16 5a bd 13 cd 61 bf
       0.60286367 -0.9014218 -0.053244468 -0.88203543
000180 59 5c 41 3f c4 aa 53 be 63 d6 34 3c 8e 26 18 bf
       0.75531536 -0.2067061 0.011037442 -0.5943383
000190 14 16 06 bf cf 5f 0a 3e 61 c5 50 3f 9d 75 f7 be
       -0.5237744 0.1351311 0.81551176 -0.4833192
0001a0 3a c9 97 3d ab 4c 6a 3f 5a db 67 3f 48 de 6a be
       0.07411428 0.91523236 0.9056908 -0.22936356
0001b0 6c a8 6d 3f 13 f3 b4 3e 78 c1 66 3f c0 0d f3 3c
       0.92835116 0.353417 0.9013896 0.029669642
0001c0 0d 86 5f bf 8a 8d 83 be 7b 38 9f 3e 21 25 06 3f
       -0.8731392 -0.25693923 0.3109778 0.52400404
0001d0 e7 b0 79 bf b3 8d 49 3f 2c 56 60 bf 2f 5c 18 3f
       -0.97535557 0.7873184 -0.8763149 0.5951566
0001e0 23 05 7f 3f 2a ea 74 3e 7c bd 59 be 2b c5 0a 3f
       0.99617213 0.23917452 -0.21263689 0.54207104
0001f0 8c c4 8e be c2 57 38 bf ce 59 30 bf 4c 9d f5 3e
       -0.27884328 -0.7200891 -0.6888703 0.4797157

fcs.3.0.linear.bias f4 [128]
000000 49 46 3f 3f 2f 65 bf 3c 0c 37 78 bf 32 8c 7b bf
       0.7471662 0.023363678 -0.96958995 -0.98260796
000010 60 ef 78 be 0d b1 07 3f 85 5a 2e bf 64 d8 81 3e
       -0.24310064 0.53004533 -0.6810687 0.25360405
000020 8d 12 10 bf 49 47 4e 3f 46 14 77 be 15 11 67 be
       -0.56278306 0.8057752 -0.24128827 -0.2256511
000030 a1 36 60 bf 97 d7 64 bf 51 0a 52 3d 0f bf 17 3e
       -0.8758336 -0.89391464 0.05127937 0.14818977
000040 f4 92 06 3f 8a 4d 59 bf a3 33 22 3e 27 29 01 be
       0.5256798 -0.8488394 0.1584001 -0.12613355
000050 28 8c 1b 3f 23 b5 de be 3e 6e 90 3e 0d 15 d6 3e
       0.60760736 -0.4349757 0.28209108 0.41812935
000060 e6 12 fa 3e f5 89 a6 be d3 0c 9c 3e 0b 11 59 be
       0.48842543 -0.32527128 0.30478534 -0.21197908
000070 02 28 80 3e d9 6d 21 bf 3d c1 44 bf e3 41 53 bf
       0.25030524 -0.6305824 -0.7685736 -0.8252241
000080 f7 2a 1b bf 4c b1 d8 be 79 0f 26 3e 03 22 6f be
       -0.60612434 -0.42322767 0.1621684 -0.23352818
000090 99 ec 16 bf 02 f3 5d bb 1e 73 97 be 98 0d 1a 3f
       -0.5895477 -0.0033866768 -0.29580015 0.6017699
0000a0 26 2c 56 bf 39 89 b4 be ce 98 27 bf 1e 06 e4 3d
       -0.83661115 -0.35260943 -0.65467536 0.11133979
0000b0 66 c0 1a 3d 76 04 99 bd da 06 81 3f a1 18 ca be
       0.03778114 -0.07471554 1.0080216 -0.39471915
0000c0 f2 b8 fd bd eb e7 8f 3e 3e c1 5b 3f 79 ea 3e 3f
       -0.12388791 0.28106627 0.8584174 0.74576527
0000d0 39 7a 07 3e fe 77 c7 be a2 e2 9f 3e 97 0f 1e 3f
       0.13230218 -0.38958734 0.31227595 0.6174254
0000e0 ca 47 b4 3a ff d4 08 3f 58 77 58 3f d4 07 04 bf
       0.0013754305 0.53450006 0.84557104 -0.51574445
0000f0 91 1a 4d be 93 40 62 bf f3 70 7d 3e 23 de 31 3f
       -0.20029666 -0.8837978 0.24750118 0.6947958
000100 52 22 56 be e1 79 17 3e fa 65 aa 3e 2a 7f 2e bb
       -0.2091153 0.14792587 0.33280927 -0.0026626089
000110 02 8f 4c 3f 4f b5 2c 3e e2 0a 80 bf 0a 2e 57 bf
       0.7990571 0.16866039 -1.0003321 -0.84054625
000120 5e 20 81 bf c7 2e e8 3c fe db 0d 3f b1 7c df bd
       -1.0088003 0.028342618 0.55413806 -0.10912455
000130 68 49 61 3f 08 34 4c be 6b 14 64 3e 5e 80 61 3f
       0.88002634 -0.19941723 0.22273414 0.880865
000140 a9 89 fa 3e 75 7b 45 bd 7d d0 7b 3f 0e 94 1b bf
       0.4893315 -0.04821344 0.98365 -0.6077279
000150 4e b4 b6 3e 3d f8 1d 3f 99 33 19 bf c7 ac 73 bf
       0.35684437 0.61706907 -0.59844357 -0.9518551
000160 5d 38 ad 3e aa b6 c2 be 0f 6b fe be d3 4b 5e 3e
       0.33832064 -0.38029987 -0.49691054 0.21708612
000170 a6 ba 35 bf 4a 0e 6c 3f a9 42 9b bd 88 b1 ac be
       -0.7098793 0.92209303 -0.07581074 -0.33729196
000180 40 ee 52 3f e1 53 99 3e cc 05 30 3e 69 61 fd be
       0.8239479 0.29946807 0.17189711 -0.4948838
000190 0d c9 6e 3f a2 20 98 be a2 cf 50 3f e9 47 b7 bd
       0.9327553 -0.29712397 0.8156682 -0.08949263
0001a0 56 e4 05 3f f8 85 38 3f 17 53 3a bf 1a 94 22 bf
       0.5230154 0.7207942 -0.72783035 -0.63507235
0001b0 5e 8f 80 bf f7 b1 35 3f df ff 57 3f d4 1e bb be
       -1.0043752 0.7097468 0.84374803 -0.36546957
0001c0 64 63 f0 be 4e b3 1d 3e 85 82 0d 3f 01 f9 6b 3e
       -0.4695083 0.1540043 0.5527728 0.23044206
0001d0 7d f0 66 be 7b 82 1e bf 96 50 56 3f bc a5 21 bf
       -0.22552676 -0.6191785 0.83716714 -0.63143516
0001e0 45 37 73 bf ec 11 d3 be 78 0c 61 3e 83 2c b7 3e
       -0.9500621 -0.4122461 0.21977413 0.35776147
0001f0 19 5b bd 3e 95 b6 18 bf 23 46 cd be fa 5f db be
       0.36983564 -0.596536 -0.40092573 -0.42846662

fcs.3.1.weight f4 [1, 128]
000000 e7 9a aa bc 14 b8 54 bd e8 37 94 3c 04 93 d2 bc
       -0.020825816 -0.051933363 0.018093064 -0.025704868
000010 d9 c3 7e bd cd 07 20 bd ea f8 49 bd 3a 00 e3 bc
       -0.062198494 -0.03906994 -0.04930965 -0.027710069
000020 0b be 42 bd ca 85 d6 3b cc 25 65 3d 17 05 47 bd
       -0.04754452 0.0065467106 0.05594425 -0.04858884
000030 78 8c 63 bc dd e1 0f bd 15 5a 0f bd 1a 2b 19 bc
       -0.013888471 -0.03512751 -0.03499802 -0.009348655
000040 c0 81 d2 bc 9a 61 e9 3c d1 76 5b bd d0 bb d2 3c
       -0.025696635 0.028488923 -0.05358011 0.025724322
000050 bb 9c c4 3d 5a 2f c6 3d fc 45 8f bc e8 20 22 3d
       0.096002065 0.09677 -0.017489426 0.039582163
000060 24 1f 92 bd 38 8f a9 3d 01 b6 9d bd 76 9a 92 bd
       -0.07134846 0.0827927 -0.0770073 -0.07158367
000070 7d 0a 6f bd c0 40 9c bd ea 5c 20 3d 21 d2 cf bc
       -0.05835961 -0.076295376 0.03915111 -0.025368752
000080 19 06 3d 3d f0 34 b3 bb f1 36 0a 3c 12 66 c6 bc
       0.046148393 -0.005468957 0.008435951 -0.024218593
000090 89 8b e8 bc b3 db 86 bd 5f dc 8b 3d a8 16 09 bd
       -0.028386848 -0.06584873 0.06829142 -0.033468872
0000a0 f6 b0 67 bc 25 a7 45 3d 50 6a ca 3a d1 0b 2d 39
       -0.014141312 0.048255105 0.001544306 0.00016502968
0000b0 a7 7c 49 bd ed 29 5b bd d6 b0 60 3d ae cf 49 bc
       -0.049191143 -0.05350678 0.054856144 -0.012317581
0000c0 78 97 a2 3d 0c e7 e8 3c 6a 5c b5 3c 2f be 89 bd
       0.079390466 0.028430484 0.022138793 -0.06725728
0000d0 d8 d5 48 3c 4d 9b 98 3b 41 63 e6 bc 8b 6f bf 3a
       0.012258016 0.004657185 -0.0281235 0.0014605386
0000e0 d1 ad f9 3c 92 c5 5f bd 60 33 17 3d bd 2a af 3d
       0.03047839 -0.054631777 0.03691423 0.085530736
0000f0 ca 17 27 3d ad 0f b8 3d 79 10 57 3d b9 9d 43 bd
       0.04079417 0.08987365 0.052505944 -0.047757838
000100 3e c8 42 bc 46 10 9c 3a f0 89 20 3d aa ab a9 3c
       -0.011888562 0.0011906705 0.039194047 0.020711739
000110 96 03 bd 3d da a8 07 3d d0 d3 02 bd 83 83 0d bc
       0.092291996 0.033120014 -0.03194028 -0.008637312
000120 75 e8 49 bd 8f 87 00 bb 6f 82 66 3d 89 3e c7 3c
       -0.049293954 -0.001961205 0.056276735 0.024321811
000130 a7 09 82 bd 23 88 5c bd 02 52 2d 3d 0c 04 65 bd
       -0.06349497 -0.053840768 0.042314537 -0.055912063
000140 0f 0f 74 bd ec 49 f6 bc 16 c7 d9 3d 8b 2f d5 bc
       -0.059584673 -0.030064546 0.10633676 -0.026023647
000150 40 ec 6b bc 1c 4b 43 bd 59 17 a6 3d 9d ea 26 bc
       -0.014399588 -0.04767905 0.08109922 -0.010187772
000160 f7 f7 e1 3c e6 c9 9e 3c 58 59 ab 3c d2 d7 88 3d
       0.02758406 0.019383382 0.020916626 0.066817895
000170 91 db 10 3c 9e 3d 00 3d 0b 2a e7 3c b0 1e 3b bd
       0.008841411 0.031308763 0.02821829 -0.045683563
000180 e1 da 08 bc cc 1d da 3d 59 6d 32 bd de 6a 04 bd
       -0.008352966 0.106502146 -0.043561313 -0.03232848
000190 4b 48 87 bd 9a df f0 3a ce 38 91 bd 69 45 b9 bc
       -0.06605586 0.0018377185 -0.07090913 -0.022616105
0001a0 71 8d c8 3d f8 e2 44 3d 21 1b 5b 3d 82 81 42 3d
       0.09792603 0.048068017 0.05349267 0.04748679
0001b0 a3 a9 8f bd 4b 36 ea bc bd 4d 75 bd ac de 5f bd
       -0.070147775 -0.028590342 -0.05988859 -0.054655716
0001c0 2d 08 5c 3d 0d 65 2c bb 59 a6 ca 3d 66 06 5c bd
       0.053718735 -0.0026305348 0.098950095 -0.05371704
0001d0 2c 63 57 bd 75 03 c0 3d 83 ed 5e bd f4 40 a4 3d
       -0.052584812 0.093756594 -0.054425728 0.08020201
0001e0 ee 2c f1 3c ff d7 a3 bd 4e df cb 3d a3 15 53 bc
       0.02944037 -0.08000182 0.09954701 -0.012883577
0001f0 40 76 73 bc ce 2c 3a bd 53 4d 53 bd 58 c5 d1 3c
       -0.014859736 -0.045452885 -0.051587414 0.025606796

fcs.4.0.linear.weight f4 [128, 1]
000000 58 34 ce 3e bb 8d 75 be f5 5f bb 3e bd 2d 7d be
       0.4027431 -0.23979847 0.36596647 -0.24724479
000010 de 99 ae 3e 71 16 0f bd a0 78 98 3e 9b 1f d2 be
       0.34101766 -0.03493351 0.2977953 -0.41039738
000020 f7 bf 30 bf 78 61 fd 3d d0 ce 23 bf 4e ed 1e bf
       -0.69042915 0.12372106 -0.63987446 -0.6208085
000030 d6 89 76 bf ef 62 a2 be 64 e6 2a bf 6b 5f 45 3f
       -0.9630407 -0.31716105 -0.667578 0.7709872
000040 24 51 36 3f ad a0 7f 3e 84 47 52 3f f7 a4 f2 3e
       0.7121756 0.24963637 0.82140374 0.47391483
000050 77 8c 71 bf ff bf c8 bd af 8b 25 be 5a d2 1b bf
       -0.9435496 -0.09802245 -0.16166566 -0.60867846
000060 f8 92 8e 3e 50 10 9f be f6 87 f5 be 1a df 9e bc
       0.27846503 -0.31067133 -0.47955292 -0.019393492
000070 5e 9e 2a bf 27 ab 51 3f 6c 3b 24 3f 9f 36 70 3f
       -0.666479 0.8190178 0.6415317 0.93833345
000080 d0 fa 2b be c3 af ad 3e 49 63 03 bd a6 79 53 bf
       -0.16794896 0.33923158 -0.032077108 -0.82607496
000090 3e 6f ec 3e 15 1a 33 bf c1 b1 b9 be dc 8e e4 be
       0.4617862 -0.69961673 -0.36268428 -0.44640243
0000a0 4c 5a 79 bf 54 2a 0c 3d 47 e3 1f 3e 3c 08 95 bd
       -0.9740341 0.034220055 0.15614043 -0.07276961
0000b0 3b 13 3a 3f f9 94 24 3d 7e 3c 3e be bb e7 0b bf
       0.72685593 0.040181134 -0.18577763 -0.5465047
0000c0 90 46 18 bf e4 94 07 be 2f d6 15 bf ef 78 28 bf
       -0.5948267 -0.13240391 -0.58529943 -0.6580953
0000d0 3e 37 ff bd 3e be 45 be 0b d7 1b bf 4b e7 17 3f
       -0.124617085 -0.19310853 -0.60875005 0.593373
0000e0 0a e0 56 3f 07 27 2f bf 24 71 dc 3e 51 5f ee be
       0.83935606 -0.68418926 0.4305507 -0.46557096
0000f0 f0 a6 d4 bd 68 31 6d 3f d5 7c f4 3d 87 ae 73 bf
       -0.10383403 0.9265351 0.11937872 -0.9518818
000100 60 c8 6d 3f f8 0f 4b bd 04 92 ff be 8f 88 06 bf
       0.92883873 -0.049575776 -0.4991609 -0.5255212
000110 44 51 59 3f 40 42 8a 3c 9b 57 0c 3f db fc 25 3f
       0.84889627 0.016877294 0.54821175 0.6483895
000120 ee 12 c8 be eb 46 be 3d 1b 9e 25 bf 04 a2 53 3f
       -0.39076942 0.0929087 -0.64694375 0.8266909
000130 9a 83 07 bf fb 31 2c 3f 58 66 79 3e 92 33 20 3f
       -0.52935183 0.67263764 0.24355447 0.6257869
000140 d7 c5 34 bf 27 33 bd bc 25 c6 02 3f 81 5e 40 bd
       -0.7061438 -0.02309568 0.51083595 -0.046965126
000150 80 15 6b bc 06 37 f5 3e ab c5 3f bf 62 bb 3e be
       -0.014348388 0.47893542 -0.7491099 -0.18626168
000160 d3 95 e4 3e 59 62 f7 3e 4a 65 70 3f ea 9f 53 be
       0.44645557 0.4831722 0.93904555 -0.20666471
000170 78 f2 6a 3e 6c 9b fc be e6 78 29 be 5a 1c 00 bf
       0.22944057 -0.49337327 -0.16550025 -0.5004326
000180 00 05 40 3f 00 9b c7 3b ed 52 d2 3e 58 21 0f 3f
       0.7500763 0.0060914755 0.41078892 0.55910254
000190 0f be 2f 3e 20 f2 d9 3d 3c b7 92 bd 17 7b 59 bf
       0.17162345 0.10641885 -0.071638554 -0.84953445
0001a0 79 26 2e 3e 54 86 6b be 4d 9f 57 bf a3 7d 6c 3f
       0.17006864 -0.23000461 -0.8422745 0.92379206
0001b0 2e 2b ba bd 47 86 00 bf 64 bf 79 bf 0f 72 6b bf
       -0.09090267 -0.5020489 -0.97557664 -0.91970915
0001c0 16 d5 bc 3e 24 4d ea be 41 63 dc be b4 d9 13 bf
       0.36881322 -0.4576198 -0.43044475 -0.57754064
0001d0 7b 08 51 3f 21 12 71 be b6 14 24 3f e8 12 49 3f
       0.81653565 -0.23542072 0.640941 0.78544474
0001e0 9d 18 46 bf 38 cf 3c 3f a2 a1 52 be 89 78 77 3f
       -0.77381307 0.7375369 -0.2056947 0.966683
0001f0 10 b7 05 3f b1 69 78 bf 06 67 36 3e 51 3a b6 3e
       0.52232456 -0.9703627 0.17812738 0.35591367

fcs.4.0.linear.bias f4 [128]
000000 cc c4 b9 be 7f bf 43 3f 00 90 51 bf 9b fd a5 be
       -0.36282957 0.76464075 -0.8186035 -0.32420048
000010 17 48 76 3f 0c 08 79 3f 4a 5b ff 3e 8f fd 19 bf
       0.9620375 0.97277904 0.49874336 -0.60152525
000020 c8 ed 5d bf e5 94 50 bf 47 ae 84 be ec 74 0f 3f
       -0.8669095 -0.81477195 -0.25914213 0.56037784
000030 bd 9e 9d 3e 53 15 e7 bd 70 78 65 3f c2 44 49 3f
       0.3078517 -0.11283364 0.896369 0.7862054
000040 06 34 ee be b5 9e db be 12 de 74 bc 3e f0 55 3e
       -0.46524066 -0.4289452 -0.014945524 0.20892426
000050 50 76 86 bc f8 15 c7 3e 87 16 31 3f 59 55 42 be
       -0.016413838 0.38883948 0.69175 -0.1897787
000060 f9 d9 f9 3e a4 3b 13 3e f7 66 c0 3e 83 c3 d0 3e
       0.48799112 0.1437822 0.37578556 0.40774164
000070 81 85 8d be 05 bc e3 be 5c a6 d9 3e ae 4f 23 bf
       -0.27640918 -0.44479385 0.42509735 -0.63793457
000080 e4 9f 08 3f cf 8c 22 bf d0 91 30 3f 97 6f d1 3e
       0.53368974 -0.63496107 0.6897249 0.4090545
000090 fc b7 7c be 1e 8d 10 3f b2 20 ad be 75 e6 61 3e
       -0.2467956 0.5646533 -0.33814007 0.22060569
0000a0 b1 4a 9b 3e 81 77 c0 3d 52 69 4d 3e ca 5b 40 bc
       0.30330423 0.093977936 0.20059708 -0.011740634
0000b0 4b e8 92 be c8 ce 0d 3f e0 05 c9 3e 34 c0 bb 3e
       -0.2869285 0.5539365 0.39262295 0.36670077
0000c0 8e 3f 2b 3f 59 e6 07 bf 2f 75 65 be 39 f7 9e bc
       0.6689385 -0.5308586 -0.22407983 -0.019404994
0000d0 9e 92 4f 3f a4 01 48 bf 5f db 10 bf c0 60 76 be
       0.81083095 -0.78127503 -0.56584734 -0.24060345
0000e0 bb 62 5a bf 56 06 4c bf d1 22 2f 3f c5 0a 18 3d
       -0.853069 -0.7969717 0.684125 0.037119646
0000f0 2e f2 4d bf 9c 7f 28 be e7 28 f8 bc 2b 59 b1 be
       -0.8044766 -0.16454929 -0.030292941 -0.34638342
000100 95 70 56 bf 73 65 0a 3f 9c b0 f0 bd 5d fe 79 3f
       -0.83765537 0.5406105 -0.117524356 0.9765375
000110 f1 f4 43 bf 72 8a 0c bf 0a 0d 66 bd 1c 14 32 bf
       -0.76545626 -0.5489875 -0.05616478 -0.69561934
000120 81 7d 3a 3f e5 00 47 3f 7b f1 68 3f 23 0e 21 bf
       0.72847754 0.7773574 0.9099347 -0.62912196
000130 9f ec 36 3f 68 7f 31 3f 9a 02 cd be a9 3d da 3d
       0.71454805 0.6933503 -0.40041047 0.10656292
000140 df 7c ef 3e 85 36 38 3f 78 77 70 bf f7 f4 7d 3f
       0.46774957 0.7195819 -0.93932295 0.9920191
000150 64 ba 80 be 5a a6 d1 3e 4b 44 21 bf 30 44 48 bf
       -0.25142205 0.4094723 -0.6299483 -0.78229046
000160 c0 a3 2d bf 38 bc 16 3f 8c 09 fe be 13 b5 12 3f
       -0.6782799 0.5888095 -0.4961666 0.5730755
000170 e3 c0 9a 3e 73 96 c7 3e 0a 09 5d be a7 3c 9d be
       0.30225286 0.3898197 -0.2158548 -0.30710337
000180 a7 96 f0 be 8c 18 0f bf 65 ab 6d 3f fd 4b 6d bd
       -0.4698994 -0.5589683 0.9283965 -0.057933796
000190 fe 77 e1 be 04 2f 6e bf 27 e2 54 3d 66 cd 7f bf
       -0.4403686 -0.9304049 0.05197349 -0.9992279
0001a0 22 f7 77 bc c9 a7 1f 3f 5a ab 15 bf 4e 3b 0d 3f
       -0.015134605 0.62365395 -0.58464587 0.55168617
0001b0 03 93 aa be 28 55 46 bf 95 8d 7f bf b5 18 01 3f
       -0.33315286 -0.7747369 -0.9982541 0.50428325
0001c0 2e fa 45 bf 91 75 f6 3e 68 98 1b 3e 2a e0 0c 3f
       -0.7733487 0.4813657 0.15194857 0.5502955
0001d0 6d aa 40 bf e5 1c 61 3f c9 c2 7f bf d1 34 42 bf
       -0.7526005 0.87934715 -0.99906594 -0.7586184
0001e0 19 98 1b 3f 59 70 17 3d f7 0f 0d bf 94 30 5a be
       0.6077896 0.036972377 -0.55102485 -0.21307594
0001f0 44 03 63 bf 37 12 61 bf 08 5b 5c be b0 c2 44 3f
       -0.8867686 -0.8791842 -0.215191 0.7685957
