cache/tradeoff_exp/trial_0/iter_9.pth (torch, 581966 bytes, 600 tensors)

fcs.0.0.linear.weight f4 [128, 1]
00000000: b482 04bf ce47 91be ddef 26bf 4c22 da3e
00000010: a690 d63d 9b8f b1be 8a71 d0bd 006e a2bc
00000020: 4b7c 5a3f f795 653f c046 46bf 3a80 b93e
00000030: 9eab c73e d0c2 c13e e58e ffbd 4cc6 7b3e
00000040: edfe 7d3e d72f 7a3f caa5 76bf e013 c0be
00000050: 55ed 2abf 8860 f7be 798e 4c3e 3617 1d3f
00000060: c740 42bf 4772 273f afcb 563f 291e fabe
00000070: f91e 353e d68f 02bf dd41 5e3e 74c1 efbe
00000080: e05b c6be d775 2cbf 724c 54bf e53a 4b3f
00000090: e37c 01be 8043 e3bc 9b21 fdbe 2c90 333f
000000a0: 93d0 11bf 07aa d1be 51f2 48bf a7f1 55bf
000000b0: b467 643f 346a 44bf 5ab0 10be fa78 96be
000000c0: 5eb2 bd3e d275 8e3e 6104 45bf fef1 643f
000000d0: 031d 80bf aaa8 c03d 5b01 b4bd 394c 72be
000000e0: 7f67 2d3f 0454 573f c863 053e 588f b4be
000000f0: b912 3d3f 62bf 213f aa29 373e 017e 8dbe
00000100: d787 3b3d fc88 633f 3018 de3d c359 3abe
00000110: fe08 5abf 913b 08bf 35ec 373f 046c 25bd
00000120: 82a0 90bd 8ca6 c53e 00b7 29bf 7535 8bbd
00000130: 6ea2 8cbe 7a7f 073f 1d4f 4f3f bab7 1f3f
00000140: 04fa 3f3f 93a0 63bf a708 b8be 2a44 f33d
00000150: f626 58bf 76dd 8a3e 580b 27bf ca44 d93e
00000160: 7314 4e3f 1659 5cbf 5889 553f 3eee eb3e
00000170: de3b 2abf ac09 763f ca87 5cbf 3bfe 2abf
00000180: c2a2 00bf 4c77 4abd fb90 333e 9cdb 96be
00000190: 8a78 71bf 656f f1bd f41f 413f 9e01 443f
000001a0: 7ffe fd3e 4fc1 113e 6a5c 7a3e 29a6 46bf
000001b0: 654a d03e 707b 7dbf 2023 d9be 206d 84be
000001c0: 2ee3 3a3f f2fd 1abd 8ec1 e6be 3654 373e
000001d0: 7159 55bf ac08 85be fc6e 8b3e 7d48 91bd
000001e0: 710c dfbd 107b 1b3f 2b66 41bf 98d0 febe
000001f0: 4cae 783f 5be4 4a3e 8baa 2ebe bfbe 053f
-0.5176194 -0.28375095 -0.6520975 0.4260429 0.10476808 -0.34679875 -0.10177906 -0.019827843
0.85345906 0.89681953 -0.77451706 0.36230642 0.3899812 0.37843943 -0.12478427 0.24587363
0.24804278 0.9772925 -0.96346724 -0.37515163 -0.6676839 -0.48315835 0.19976224 0.6136354
-0.7588009 0.6540875 0.83904546 -0.48851135 0.17687596 -0.51000726 0.21704812 -0.4682728
-0.3874197 -0.6736731 -0.82929146 0.7938674 -0.12645297 -0.027742147 -0.494397 0.70141864
-0.56958884 -0.40950033 -0.78494745 -0.8357186 0.8922074 -0.76724553 -0.14129773 -0.29389173
0.37050146 0.27824265 -0.76959807 0.8943175 -1.0008854 0.0940717 -0.08789321 -0.23661889
0.6773605 0.8411257 0.13026345 -0.35265613 0.73856694 0.6318265 0.17886987 -0.27635196
0.045783844 0.88880897 0.10844457 -0.18198304 -0.8516997 -0.5321589 0.718448 -0.040386215
-0.070618644 0.38603628 -0.6629486 -0.067973055 -0.27467674 0.5292889 0.8098009 0.6238972
0.7499087 -0.8891689 -0.359441 0.11878236 -0.8443445 0.27122086 -0.65251684 0.42435294
0.80499953 -0.86073434 0.83412695 0.46080202 -0.664976 0.9610851 -0.861447 -0.66794175
-0.5024835 -0.049430177 0.17535774 -0.29464424 -0.94324553 -0.11788825 0.7543938 0.7656497
0.49608228 0.14233898 0.24449316 -0.7759729 0.4068176 -0.99016476 -0.4240961 -0.25864506
0.730029 -0.037839837 -0.45069546 0.17903218 -0.833396 -0.2598318 0.27233112 -0.07093904
-0.10891045 0.60734653 -0.7554652 -0.4976852 0.97140956 0.19813673 -0.17057244 0.5224418

fcs.0.0.linear.bias f4 [128]
00000000: 6791 1a3f 4a89 27be b52a d7be 63a7 31be
00000010: dded b93e b620 06be 9d84 163f a4c3 50bf
00000020: 0c67 00bf 1979 463f 9bc1 023e 4ca9 413e
00000030: 9305 ae3e 24fd 7bbe 33a6 d0be 83f5 903e
00000040: a6c7 8cbe fb25 cebe 0063 033e 83d1 783e
00000050: f006 b2bd 988e 2dbf 9407 13be 2a64 0ebf
00000060: 4d1e 063f 4834 27bf 920a 4f3f af2d cc3e
00000070: 14f4 5abf 26aa 3d3f 6201 7dbf 89d7 7bbd
00000080: 1747 20bf fc78 5dbf 9421 cf3d e82a febe
00000090: 4472 3a3f 7e3e 49bf 6454 543f b3a6 1d3f
000000a0: 27f5 5f3f 9fb2 97be 338a 1dbf 07c1 29bf
000000b0: bcf3 573f a911 fdbe 4734 00be 0c50 21be
000000c0: dd28 3c3e bfec 4fbf 3cd6 4d3f abcc 3fbf
000000d0: bf30 7b3f 2058 c9be 3aaf e3be b091 10be
000000e0: b8ca 933e 8567 3fbe 1a80 7fbf c6bc 323f
000000f0: 6b0b 7b3f c3f7 023f bbff 783f 6daf 8a3e
00000100: 9378 8abd 5f0f 4dbf cabe 5fbf db0f 33bf
00000110: 7bbe 83be edf4 143f 572a d8be 92a7 28bd
00000120: 4e64 89bc de02 2abf 355f fbbc e4ec 783f
00000130: cfa9 4f3f 4fdc 443f 7c86 dfbd fa9b f63b
00000140: b6df 0e3f 9564 a9be 3e0f d1be 4437 593f
00000150: 1fee 763d eed7 2bbf 7971 573f 0163 1e3e
00000160: fbd6 053f d4f4 5ebf cec4 353e 2368 1a3f
00000170: 0565 17be 90db 0ebf b129 4d3f c0fe ef3e
00000180: b42b 903e f190 743e 6593 253c 4bbf 133f
00000190: 74de 5dbe df89 16bf 0e12 be3e fc2c 823e
000001a0: e264 bd3e 36cd edbd 5d05 13be d33f aabd
000001b0: 3add 893e 8d05 44bf 8fee 6cbf b7c1 bf3e
000001c0: dc42 0fbf d94c a5bd c0ad 8e3e 6767 1b3e
000001d0: e952 243f ad4b 083e 6fd4 713e 153d bdbd
000001e0: 0c9b 163e a39f b73e 0593 2e3f b41b 73bf
000001f0: a037 d1be 4ec9 65bf 558b cabe 582c 1e3f
0.60378116 -0.16360965 -0.4202477 -0.17349009 0.36314288 -0.13098416 0.587961 -0.81548524
-0.5015724 0.7752853 0.12769167 0.18912238 0.33988628 -0.24608284 -0.407518 0.2831231
-0.2749607 -0.40263352 0.12830734 0.24298672 -0.086927295 -0.67795706 -0.1435836 -0.5562159
0.52389985 -0.6531415 0.80875504 0.39878604 -0.85528684 0.7408775 -0.98830235 -0.061484847
-0.62608474 -0.8651273 0.101138264 -0.4964211 0.72830606 -0.7861098 0.8294127 0.6158249
0.8748345 -0.29628465 -0.61539 -0.6631016 0.84356284 -0.49427536 -0.12519942 -0.15753192
0.18374963 -0.8122062 0.8040502 -0.74921674 0.98121256 -0.39325047 -0.44469625 -0.14118075
0.288656 -0.18691833 -0.9980484 0.69819295 0.980643 0.51159304 0.97265214 0.27086964
-0.06761279 -0.8010158 -0.87400496 -0.6994607 -0.25731263 0.5818623 -0.42219803 -0.041175433
-0.016771462 -0.66410625 -0.030685047 0.97236466 0.8111848 0.76898664 -0.10914323 0.007525918
0.55810106 -0.3308455 -0.4083194 0.84849954 0.060285684 -0.6712636 0.8415752 0.15467454
0.5228116 -0.8709233 0.17750856 0.6031515 -0.1478463 -0.55803776 0.8014174 0.46874046
0.28158343 0.23883416 0.010105942 0.57713765 -0.2166689 -0.58804125 0.3712315 0.25424945
0.3699103 -0.116114065 -0.14357515 -0.08312955 0.26926595 -0.7657097 -0.9255151 0.3745248
-0.55961394 -0.08071298 0.27866936 0.15176164 0.6418901 0.13310118 0.23616193 -0.09240166
0.14707583 0.3586398 0.68193084 -0.94964147 -0.4086275 -0.8976029 -0.39559427 0.61786413

fcs.0.1.weight f4 [1, 128]
00000000: 0a1c a5bd ee93 93bd e5ed 6f3d b593 49bd
00000010: 8a65 913d dadb 0a3d 9bc0 ef3c d5cd 8f3d
00000020: 2812 a3bd fd0e 923d d31d 093d f17d 5abd
00000030: d109 e63c 7f7d b9bc 2a58 9cbc a20e 29bb
00000040: 4456 2cbd 3858 a43d 7ed7 a53d 46fa b6bb
00000050: afec 94bd 06e8 b43b 25b2 f03b 8298 743d
00000060: c824 d83b 95fd d33c 9787 f73c cde2 3ebd
00000070: dede 79bd 32df 9bbd ef9a 13bc fd17 073d
00000080: c2e6 bc3b d1ab c43d f311 43bc b09b 63bd
00000090: 31d2 b23c 80e8 cbbc cfcd 19bc ddf0 bc3d
000000a0: f2fb 9039 f2cc ad3d d1d9 a13c bcb9 cbbc
000000b0: 2a80 923d 72bc 2fbd 007a 353c ab21 db3c
000000c0: d936 3a3d fc6d c3bd 8b2d f83b f817 b3bc
000000d0: 7c5e 783d 583f 933c 1f36 1b3d 97af 763d
000000e0: 9541 67bc 72ba 01bb 3139 913d de35 8cbd
000000f0: 4d95 5cbd 5e10 543c 563c eabc cde1 083c
00000100: af3b 993d 4ea3 1cbc e557 9abd e675 d5bc
00000110: bcdd b23d 07e1 84bc 148a 15bd bd67 433d
00000120: 141a 873c 1486 a9bd 36c1 a13d 421b 6b3d
00000130: 5f23 a53d 5d9f 3c3d 2e2c d3bc 7469 c7bc
00000140: 5587 493d da62 2fbc 9993 db3c 1971 a1bd
00000150: e115 1ebd 20b1 b33c fa33 b7ba 6c71 17bd
00000160: 6e32 91bd 2f7a 853d 9c6d 4fbc 1f15 a3bd
00000170: ccb6 ba3d ae65 393d d49d 4abd 23d6 78bd
00000180: 2904 b73d c118 e33b 1db5 46bd 0b7d 5b3d
00000190: bb0b 4cbc 84eb 213c 2bbb 24bd a02c 8ebd
000001a0: d158 56bd 819b 0cbc c4d3 7cbd 38cc bd3d
000001b0: b224 ea3b 162b d4bc 9453 4e3d ee8f 9abd
000001c0: 2180 33bd c815 403d bacb 91bd 91e6 4e3d
000001d0: a096 343c 5c98 8ebd c52e a6bd 2ea4 193d
000001e0: 91ca 363d 0d49 3ebc 6c09 99bd 05ed 17bd
000001f0: f2dd 493c 5e78 9abb 4f62 1e3d 4403 ba3c
-0.08061989 -0.0720595 0.058576483 -0.04921313 0.07099445 0.033901073 0.029266646 0.07021681
-0.079624474 0.07131765 0.03347571 -0.053342763 0.028080853 -0.022642849 -0.019085009 -0.0025796075
-0.042074457 0.08024639 0.080977425 -0.005584034 -0.07271706 0.0055208234 0.0073454552 0.059715755
0.0065961815 0.025877753 0.030216021 -0.046603013 -0.06100356 -0.076109305 -0.009009107 0.03298186
0.005764813 0.09603084 -0.011906135 -0.055568397 0.021828743 -0.024891138 -0.0093874475 0.092256285
0.00027653534 0.08486356 0.019757183 -0.024868838 0.071533516 -0.042904325 0.01107645 0.026749453
0.045462463 -0.09542462 0.0075737885 -0.021862015 0.060636982 0.01797454 0.03789341 0.06022605
-0.014114757 -0.0019794968 0.070909865 -0.06846212 -0.05385332 0.012943355 -0.028593224 0.008354616
0.07482087 -0.009560419 -0.07536296 -0.026057195 0.08733699 -0.016220583 -0.036508635 0.047706354
0.016491927 -0.082775265 0.0789818 0.057399042 0.08063387 0.04605042 -0.025777902 -0.024342276
0.04920133 -0.01070472 0.026803778 -0.078829 -0.038595084 0.021935046 -0.0013977282 -0.036973402
-0.07089697 0.06517445 -0.01266041 -0.07963013 0.09116897 0.045262985 -0.049466923 -0.06075109
0.0893634 0.006930441 -0.048512567 0.053586047 -0.012453969 0.009882811 -0.04021756 -0.06942105
-0.052330796 -0.008581997 -0.061725393 0.09267467 0.0071454877 -0.025899451 0.050372675 -0.07546984
-0.043823365 0.046895772 -0.07118936 0.050512854 0.01102224 -0.06962654 -0.08114389 0.03751009
0.044626776 -0.011614096 -0.074725 -0.037091274 0.012320982 -0.004714056 0.038667973 0.022706635

fcs.1.0.linear.weight f4 [128, 1]
00000000: 62c1 073f 5601 793f 2b01 553f 960f 683f
00000010: e0c7 b1be 9e63 b7be 1811 f3bd 0581 9c3e
00000020: 1060 cf3e ce71 a4bd ed09 28bf 48e2 43bf
00000030: 1f94 763f dc92 8ebe 0715 00be 6158 19bf
00000040: 7343 fcbe 9da4 553e 1b62 d83e 293f d6be
00000050: 7115 bdbe b342 4a3f 1955 01bf c066 3cbf
00000060: 2496 16be 0fe5 723f 101b 523e cb93 163e
00000070: d194 f4bd 8f4f 1f3f 07a1 f8be 4500 2d3f
00000080: f030 6c3e 00b4 e33d 67cc 093e f57b 1fbf
00000090: d86b 3d3f d5eb 053f d9a9 45bf 0eb7 6bbf
000000a0: a014 8cbe 73af 293f 471a f4be dccf 6d3f
000000b0: 3032 03bf 98b1 64bf ca52 e23e ca1a 18bf
000000c0: 570d 15be 9bf8 abbe 79e3 b3bd 3b18 62bf
000000d0: df39 68bf 803a e03e 888e e3bd 871a 1dbf
000000e0: 40b0 d0bc 7a8e 67bf 9e85 7e3e c9d7 f33e
000000f0: 6eca 783f 5821 53bf 94fa fcbd 8461 0a3f
00000100: 6e2c 6a3f b281 33bf 4c73 d53e 4269 d23e
00000110: a3db 1a3f e3ee 2dbf 2784 363f 375b e8be
00000120: 45f8 1abf 33f9 4c3e c727 583f 4c3b 2cbf
00000130: f90a 073f 3c95 ffbd 1a38 a33e f727 483f
00000140: c1cc 893e bffd 51bf c279 9fbe 2d8f 453e
00000150: 017c 5abf 0bb7 273e d920 0cbf bf13 43be
00000160: 912f b83e 464b 50bf 33c5 26bf 0ad3 e33e
00000170: 4b03 80bf ed96 2f3f f012 48bf 00e8 83bc
00000180: 133e 573e 3dc0 c73e 5dd7 20bf 9ea3 0a3e
00000190: e86b da3e 9927 5c3f 9449 43bf c55b f9be
000001a0: 3023 8b3e 11cf c5bc a26f 2fbf ade2 54bf
000001b0: 87ff 65bf 2ad3 35bf e501 d5be 2b49 2fbf
000001c0: d503 5ebf 60dd 9f3d e381 153f c102 f5be
000001d0: 4e05 d53d 00fa 49bc a6f3 ec3e d21e 35bf
000001e0: c076 423d ca05 6f3f 6d04 383f a141 7bbf
000001f0: ae7d 24be 00ba 183c 3506 a5be a4b5 25bf
0.53029454 0.97267663 0.8320491 0.9064878 -0.34722805 -0.3581819 -0.11868495 0.30567184
0.40502977 -0.08029519 -0.65640146 -0.7651715 0.96319765 -0.2784642 -0.12508021 -0.5990048
-0.4927021 0.20863576 0.4226235 -0.41845062 -0.3693042 0.79008025 -0.50520474 -0.73594284
-0.14705712 0.94880766 0.20518136 0.14704816 -0.11942447 0.6223077 -0.48560354 0.67578536
0.23065543 0.11118317 0.1345688 -0.6229852 0.7399268 0.52312976 -0.7721229 -0.92076194
-0.27359486 0.6628334 -0.47676298 0.92895293 -0.51248455 -0.89333487 0.44203788 -0.59415877
-0.1455587 -0.33588108 -0.08783621 -0.8831822 -0.90713304 0.43794632 -0.1111117 -0.613686
-0.025474668 -0.90451777 0.24855658 0.47625569 0.97183883 -0.82472754 -0.123524815 0.5405505
0.91474044 -0.70119774 0.41689527 0.4109593 0.6049139 -0.6794264 0.712954 -0.4538209
-0.6053508 0.20016937 0.84435695 -0.6727798 0.5275112 -0.12479636 0.3187874 0.7818598
0.26914027 -0.8202781 -0.3114758 0.19292898 -0.85345465 0.16378419 -0.5473762 -0.19050501
0.3597379 -0.8136486 -0.6514465 0.44496948 -1.0001005 0.6858967 -0.78153896 -0.016101837
0.21019773 0.39013854 -0.6282862 0.13538978 0.4266045 0.8599792 -0.76284146 -0.48702827
0.27175283 -0.024146589 -0.68529713 -0.8315838 -0.8984303 -0.71025336 -0.41603008 -0.6847102
-0.867246 0.07805896 0.58401316 -0.47853664 0.104014024 -0.012327671 0.4627964 -0.70750153
0.04747653 0.9336821 0.71881753 -0.98147017 -0.16063568 0.00932169 -0.32231298 -0.64730287

fcs.1.0.linear.bias f4 [128]
00000000: 9aca 34bf e564 2f3f 7506 a4be b45b b1bd
00000010: 23a6 933e 4214 1cbf a92f a73d 58d0 193f
00000020: d2d9 19bf 19d4 9f3e eef4 32bd eb88 0a3f
00000030: 58b0 2c3f 0d7f 853e 7022 1d3d f3fb 5cbf
00000040: 6cd8 c83e fa15 1c3f f15c b0be 2ec2 7abf
00000050: eb09 523f bbf1 82be 1ce4 523e 2a77 8bbe
00000060: 2164 283f 6671 743f a145 203f 194a a4be
00000070: d0a1 303f 4a27 f03e a446 d93d 15be 53bf
00000080: 0910 d9be 7248 7dbf fb7e 2d3f 4e08 7d3f
00000090: 19e6 113f f854 993e 648f 793e 694a 783f
000000a0: 3f05 01bf f8ab b4be 8923 67bf d3ee 9abd
000000b0: dbc1 723d ffe3 8f3e 556a 35bf 5688 ddbd
000000c0: 7900 55bf a77b 4cbf 3ff7 033e a9a1 7bbf
000000d0: ab39 8c3e e6d4 6cbf d254 32bf 9668 5ebe
000000e0: c84b 74bf ed3d 4f3f faf3 523f 442c 01bf
000000f0: 6697 6d3e 0e6b 013f 6669 9d3e ca6b 18be
00000100: e167 74bf d0f7 3b3f 5a32 60bf 4c07 52be
00000110: fe85 ad3d 2612 a5be 490d babe 4bd3 5bbf
00000120: 0342 833d 4851 c2bd fe0e 5a3f ff18 adbe
00000130: 1aec 433f bf30 233d ad85 debe b00e 60be
00000140: 2b05 f7bd 51bd 8c3c 7fd9 32be cbc0 913e
00000150: a775 513f 62f0 0c3e d692 b53e a27d 233f
00000160: 7738 743e 79f5 e83e 6947 053f fd98 6e3f
00000170: 2a8b 6bbf 65b3 a53e c451 60bd 88e6 37be
00000180: 99c6 c9be b347 163f 6131 6a3f 59e1 50bf
00000190: e262 073f 6dfc 353f 03d8 293e 6d38 9e3c
000001a0: f6aa 463f e712 003d bdb7 84be f0fb 85bd
000001b0: 0e77 9f3e 08ba 763e 2f8d 3fbd 7ed8 a43e
000001c0: a3af 8d3e 0660 4fbf 83f1 6f3e 178b 1c3f
000001d0: c556 063e 50ef babd 02dd 403f 463b 60bf
000001e0: 0cb2 e9be 1111 e4be 168b 603f 1246 76bf
000001f0: 8f99 be3d 02fc 77bf 9635 13bd 9167 c13e
-0.70621645 0.6851333 -0.32036176 -0.08660069 0.2883769 -0.6096841 0.08163387 0.6008353
-0.6009799 0.31216505 -0.043690614 0.5411517 0.6745658 0.26073495 0.03836292 -0.86321944
0.39227617 0.60971034 -0.3444591 -0.97952545 0.82046384 -0.2557505 0.2059483 -0.27239352
0.65777785 0.9548553 0.62606245 -0.32087782 0.68996906 0.46904975 0.10609177 -0.8271192
-0.42395046 -0.9893867 0.6777188 0.98840797 0.56991726 0.2994764 0.24371105 0.9698854
-0.5039863 -0.35287452 -0.902886 -0.07565083 0.059266906 0.28103635 -0.70865375 -0.1081702
-0.83203846 -0.7987618 0.12887286 -0.9829355 0.27387747 -0.9251236 -0.69660676 -0.21719584
-0.95428133 0.80953866 0.8240353 -0.5045817 0.23202285 0.5055398 0.30744475 -0.14884868
-0.95471007 0.73425007 -0.8757683 -0.20510596 0.084728226 -0.3224041 -0.3633826 -0.8586928
0.06409075 -0.094881594 0.85179126 -0.33808133 0.7653214 0.03984141 -0.43461362 -0.21880603
-0.120615326 0.017180117 -0.1746578 0.28467402 0.8182015 0.13763574 0.3546359 0.63863575
0.23849665 0.4549978 0.5206209 0.9320219 -0.9200922 0.3236343 -0.054765478 -0.17959034
-0.3940933 0.58703154 0.91481596 -0.81593853 0.5288526 0.71088296 0.16586308 0.019314015
0.77604616 0.031268027 -0.2592143 -0.06542194 0.3114552 0.24094403 -0.046765503 0.3219642
0.27673063 -0.81005895 0.23431973 0.61149734 0.13119037 -0.091276765 0.7533723 -0.87590444
-0.4564365 -0.4454427 0.8771223 -0.9620067 0.09306633 -0.9686891 -0.035939775 0.37774327

fcs.1.1.weight f4 [1, 128]
00000000: bc2c 03bd cc75 bc3d aee1 23ba d61e 32bd
00000010: 9335 f13c 539d 963d 7977 de3b 3181 ad3d
00000020: 349f 8dbd be0a 413d 62fb 793d 08ea 503d
00000030: 0695 ca3b 4664 013d ca69 77bd b351 3bbd
00000040: e1d2 a63a 93dc 56bb 788d 773d 7305 ce3d
00000050: 4419 863d 73d2 26bd 462a 7abd 3ef4 8ebd
00000060: e1a4 313d beab 93bd 4ee1 a4bd 1d9f 8ebd
00000070: 244d 7fbd d6f4 e7bc 44e9 3dbd c49c 61bd
00000080: 07c3 863d 3473 88bc 849b a23d bd26 e73b
00000090: 7577 9dbb e849 a5bc 91ee 5ebd 57f7 84bd
000000a0: e2a7 b93d c1ba efbc 393c 6abd 8531 a93d
000000b0: 9042 3a3c a363 4ebd bc9e adbd e002 80bd
000000c0: ad46 91bd f645 f03d 5369 873d f725 df3c
000000d0: 1537 88bd af56 3cbd a1f1 a9bd 615b 313d
000000e0: b841 c0bc ecf5 4abc 12ac a8bc 3ae3 083d
000000f0: a10b 533d c200 dc3c e1da 97bb f08f 0cbc
00000100: 1762 13bc fb89 74bd f448 843d 10e2 22bd
00000110: 9afa 5e3d 860f 12bd 2f5b b2ba 0453 773d
00000120: 87e3 91bd dfae 1d3d 7631 76bd cace d73c
00000130: 0cfc 11bc 15df 713d ea5f 973d fa66 a23c
00000140: 981c 78bb fac4 08bd 93ce 413d e107 0bbd
00000150: e282 2f3d c33b 00bd 98cc 893d a3cc 9c3d
00000160: 8947 763d 6041 0c3c 9fa3 433d 4d8c 92bd
00000170: 1a8f b73d 54f7 91bc 7e8a 303d 803a 75bc
00000180: 9794 49bd 416b 06bd 7a29 7f3d fe18 54bd
00000190: b2bc f3bb dc2b 523d 4225 943c b830 83bd
000001a0: 7278 a3bd c3ad 19bd cba8 c13d 3e39 54bd
000001b0: b972 6a3d 6b15 933d 65ce cfbc dbcc fdbc
000001c0: d4ad 60bd b8e2 613c 7e4e f8bb abe1 1f3c
000001d0: c3fe 3d3d 8eff 173d 90a1 9bbc 0c49 e13c
000001e0: 8400 ac3c 2760 4039 325a d33c 435b 8cbc
000001f0: fcaf a33d a089 14bc 4806 4bb9 72d7 92bd
-0.032025084 0.092021555 -0.00062515854 -0.04348644 0.029444491 0.07354226 0.0067891446 0.08471907
-0.06915131 0.047129385 0.061030753 0.05100444 0.0061823158 0.03158977 -0.060403623 -0.04573221
0.0012727642 -0.003278528 0.06043765 0.10059633 0.06547788 -0.040728044 -0.06107547 -0.06980179
0.04337013 -0.072104916 -0.08050786 -0.06963942 -0.062329426 -0.028314989 -0.046365038 -0.055081144
0.06580167 -0.016656496 0.079398185 0.0070541785 -0.0048055 -0.020176843 -0.054426733 -0.06492489
0.09065224 -0.029263856 -0.05718634 0.08261398 0.011368409 -0.05038799 -0.08477542 -0.06250548
-0.070935585 0.11732094 0.06611886 0.027239783 -0.06651131 -0.045981105 -0.0829804 0.043300036
-0.023468837 -0.012387734 -0.020589862 0.033419825 0.051524762 0.02685583 -0.0046342467 -0.008579239
-0.008995554 -0.0597019 0.06459227 -0.03976637 0.05443821 -0.035659336 -0.0013607497 0.060381904
-0.071234755 0.03849685 -0.060105763 0.026343722 -0.00891019 0.05905064 0.07391341 0.019824494
-0.003785884 -0.033390976 0.047316145 -0.03394306 0.04284943 -0.031306993 0.06728476 0.07656219
0.060126815 0.0085605085 0.047763463 -0.071556665 0.08962841 -0.01781813 0.043100826 -0.014967561
-0.049213972 -0.03281713 0.062295415 -0.051781647 -0.0074382657 0.05131136 0.018084172 -0.06405777
-0.079819575 -0.037519228 0.09456023 -0.051812403 0.057238314 0.071818195 -0.025366971 -0.030981472
-0.054853275 0.013786964 -0.0075777164 0.009758393 0.046385538 0.03710895 -0.018997937 0.027500652
0.02099634 0.00018346366 0.025799844 -0.01713336 0.07992551 -0.0090660155 -0.00019361929 -0.07169999

fcs.2.0.linear.weight f4 [128, 1]
00000000: 7d18 183d 887c 2bbe 9c23 01bf 42a0 073f
00000010: 3802 e1bd 2062 b73e 8720 563f 20aa f1be
00000020: 7465 f7be d801 3dbe d626 aabd 7277 00bf
00000030: 7b3e 76be 4020 ecbc de42 e53e 7f10 6b3f
00000040: 4c2c 3f3f 00c0 d83d f751 8dbd 0b54 743e
00000050: 0f85 0ebd 0073 06be 4483 ae3e 7b70 50bf
00000060: a0a0 59bf 9763 00bb 0efb 8abe c791 fcbe
00000070: de8b 6ebf 5d85 2a3f 46d2 3bbd 0730 09bf
00000080: ac17 d0be a758 8a3e 9a88 39bf 3278 6e3d
00000090: 800b 4abc e310 be3e f81a d83e 2c55 27bf
000000a0: 96d4 d93e 0338 433f ff62 8f3d 82dc 013f
000000b0: dbd4 c0be 14ee 513e af5e 923e 6e27 eabe
000000c0: a07a 1f3f 8a87 71bf eb71 bbbe 6514 16bf
000000d0: c672 18bf bb02 1abf e882 71bf 6bcb 293e
000000e0: c88e 2fbe 708c 57bf 813b c6bb 3a16 21be
000000f0: 1513 d03e b8b6 48bf f782 87be 9d2e 5a3e
00000100: fe9f d83e cbb1 8e3d 1d0e 903e 5340 7e3f
00000110: c377 bebe 2ae2 2d3f 6494 5d3f d124 62bf
00000120: 94b2 783e 39af 113f 1d4b 2abe fabc 0e3f
00000130: 745d 223d 6f2d 413f 5bc6 e13c 8a66 23bf
00000140: 783c 423f 9d5d 9d3e b222 583f cde0 773e
00000150: 0b55 093f 6443 213f 03b6 3d3e 550e 6abe
00000160: e10c 763e a798 32bf c0ee 0b3d eff2 b0be
00000170: 9ae5 6a3d 1a25 4abf 0a2c 1e3f 4675 6cbf
00000180: 3c83 de3e 0a5e 2a3f c5e0 6abf 4df9 683f
00000190: ee2d 3ebf 62e9 4bbe 1fed 023f 7a7c adbe
000001a0: 5883 623f 6444 e1be 2080 09be e650 27bf
000001b0: d888 f3be 492c 783f e91b 413f 9276 8a3d
000001c0: acc8 023e d7de 58bf be20 423f 60ac 15be
000001d0: 6814 d6be 7655 4bbf b182 503f 6e76 f03e
000001e0: a86f 193f a969 bf3d 658a 2dbf 2ecb ce3e
000001f0: 7a30 f33d 1e48 ac3e 7cd0 89be f615 f4be
0.03713273 -0.16746724 -0.5044496 0.5297891 -0.10986751 0.3581705 0.8364338 -0.47200108
-0.4831959 -0.18457735 -0.083081886 -0.5018226 -0.24047272 -0.028823972 0.44777578 0.91822046
0.74676967 0.10583496 -0.06900399 0.23860185 -0.034794863 -0.13129807 0.34084523 -0.8142163
-0.8501072 -0.001959061 -0.27144665 -0.4932997 -0.9318217 0.66609746 -0.04585483 -0.5358891
-0.4064306 0.2702076 -0.7247406 0.058220096 -0.012331843 0.3712226 0.42208076 -0.65364337
0.42545003 0.7625734 0.07001304 0.50727093 -0.37662396 0.20500976 0.28587863 -0.45733207
0.62296486 -0.9434744 -0.3661035 -0.5862487 -0.5955013 -0.60160416 -0.9434037 0.16581504
-0.1714431 -0.84198666 -0.006049574 -0.15731135 0.40639558 -0.78403807 -0.26467106 0.21306844
0.42309564 0.06967505 0.28135768 0.993169 -0.37200746 0.67923224 0.8655455 -0.8833743
0.24286872 0.56907994 -0.16630216 0.55757105 0.039639905 0.7545995 0.027560404 -0.6382834
0.7587352 0.30735484 0.8442794 0.24206848 0.5364539 0.62993455 0.18526463 -0.2285703
0.2402835 -0.6976418 0.034163237 -0.34560344 0.05734787 -0.7896286 0.6178595 -0.92366445
0.434595 0.6654974 -0.9174922 0.910054 -0.74288833 -0.19913247 0.5114307 -0.3388403
0.88481665 -0.4399749 -0.13427782 -0.65357816 -0.4756534 0.96942574 0.7543321 0.06760897
0.12771863 -0.84715027 0.7583121 -0.14616537 -0.41812444 -0.7942728 0.8144942 0.46965355
0.59936 0.09346325 -0.677893 0.4038939 0.118744805 0.3364877 -0.26916873 -0.47673005

fcs.2.0.linear.bias f4 [128]
00000000: 7a50 533f 3497 ab3e 1285 debe 01b5 8a3d
00000010: 71f7 5abe a64a dabd 7ea4 133f ba94 4dbf
00000020: 158e 663f cd8b 2e3f 7e2e c73c 662d e0be
00000030: 7d51 383e d472 29bf eab2 253f f21e 03bf
00000040: 64b7 2d3e 58dc 7bbf c7d1 f23e c55d 313f
00000050: 1b4c 413f 4fba 833d c97b 173f 6ae8 a13e
00000060: cc0b 323f df48 0f3f 418b 66bf 8345 083e
00000070: f367 bdbe d062 f7be 0202 323f ce92 ecbd
00000080: 9d57 3b3e b433 1f3f 8222 273f ee73 073f
00000090: 78c7 32be 5e14 5fbf 8eac 72bf cd7e 973e
000000a0: 29f9 de3b 1e47 26bf 9698 e13e 635d 683f
000000b0: 5557 0f3f 1aa6 26be b858 1f3e 5eee 1ebf
000000c0: cba1 e83e d9c5 3fbf c283 2f3f 3bea dcbe
000000d0: 332a d9be 95db 52bf 400e 8cbe 0895 b9bd
000000e0: 7d59 f5be 7118 313f 6ad1 113f bec1 63bf
000000f0: 520d adbd 313f 9e3e 7f3d 793f ee87 84be
00000100: 579f 1c3f 31d2 2abd 0745 cabe e828 223f
00000110: 68c2 60bf c48e 583f da56 7c3f b502 78be
00000120: 944b c73e 091a 7f3f 8f99 9c3e b0d8 be3e
00000130: 19da bd3e b673 cabe 299c 7e3e a1a3 01bf
00000140: 068e 593f 34fb e1be 5025 803e ab23 8fbe
00000150: d312 f73e 2454 b2bb 16d0 073f 71a0 87be
00000160: d33c 10bf 2330 b83e 6e12 10bf 3299 4fbf
00000170: 8995 c33e c0de 13bf 6645 cabe 1cd7 8fbe
00000180: 1ab1 493d 8173 babe 167f c6be 9259 8bbe
00000190: 14d0 2d3f e44b a23e 6e23 f2be 11c7 2fbf
000001a0: 8017 303d f6e9 b23e 2970 3dbd 6afc 0f3f
000001b0: f3e3 573f 13ea 9f3e ef95 a23e 5459 133f
000001c0: b443 9dbe a4bb 2a3e ee1c 4c3f 5472 f7be
000001d0: e699 473d 829f b9be 5d57 41bf 8435 0b3f
000001e0: b105 4f3f e122 0cbf 0e83 cc3e 0538 a53e
000001f0: 6d3f c43e f075 0b3f 98d2 6b3f e0c2 453f
0.8254467 0.33513796 -0.434609 0.06772805 -0.21383454 -0.10658769 0.5767287 -0.80305064
0.9006055 0.6818207 0.024314161 -0.43784636 0.17999835 -0.6619084 0.64726126 -0.51219094
0.16964489 -0.9838309 0.47425672 0.69283706 0.7550675 0.0643202 0.59173256 0.3162263
0.6954925 0.5597057 -0.90056235 0.13307767 -0.3699337 -0.48317575 0.69534314 -0.11551438
0.1829514 0.6218827 0.6528703 0.5291127 -0.17458904 -0.8714045 -0.9479455 0.2958893
0.0068046045 -0.64952266 0.44061726 0.90767497 0.55992633 -0.162743 0.15561187 -0.6208247
0.45435938 -0.74911267 0.6856042 -0.43147454 -0.42415008 -0.82366306 -0.27354622 -0.090616286
-0.47919837 0.6917792 0.56960166 -0.889675 -0.08449806 0.30907586 0.9735946 -0.25884956
0.61180633 -0.04170436 -0.3950579 0.6334367 -0.8779664 0.84592843 0.98570025 -0.24219783
0.3892485 0.996491 0.30585906 0.37274694 0.37080458 -0.39541405 0.24864258 -0.506403
0.84982336 -0.44136965 0.25028467 -0.279569 0.4825655 -0.0054421593 0.5305189 -0.26489595
-0.5634281 0.35974225 -0.5627812 -0.8109313 0.38200024 -0.57761765 -0.39506072 -0.28093803
0.049241163 -0.36416247 -0.38768834 -0.27216774 0.6789563 0.31698525 -0.47292656 -0.68663126
0.04299116 0.34944123 -0.046249542 0.5624453 0.843322 0.31233272 0.31755015 0.5755818
-0.30715716 0.16673142 0.79731643 -0.48329413 0.048730753 -0.36254507 -0.7552393 0.54378533
0.8086806 -0.5474072 0.39943737 0.32269302 0.3832964 0.54476833 0.92118216 0.7725048

fcs.2.1.weight f4 [1, 128]
00000000: df15 a9bd 779c 2ebd bebb 733d a9af 63bd
00000010: 5f5a 643d 7d76 40bd 6572 843c b58e 933d
00000020: 9534 9f3c a54b 793d 518c 30bc 2dbf 783d
00000030: 59ae be3c c231 e4bc e12b 7abd e117 8c3d
00000040: 2dd7 fbbc 2b59 883d bdef 5a3d d75f 9abb
00000050: 664e 9dbd 7464 653b 35a3 28bd 6735 a73c
00000060: 48cd 25bd 3bde 813d 957a 19bd 6b90 ccbc
00000070: 9613 a23c 9e97 c1bb a238 8d3d 6b77 c3bc
00000080: 5af0 95bd cd4d 723d 2ae5 993c 95a1 553d
00000090: 4b46 56bd 6356 c3bd a7ac 9cbd 57d8 533b
000000a0: 6f74 bf3c 8cf2 88bd 8267 6fbc da36 61bc
000000b0: feb2 943d e646 3ebd f536 aa3d 6d98 02bd
000000c0: 6b4e 19bd 47f8 5dbd ba92 683d 33e2 49bd
000000d0: 811d 403d e4c1 24bc df67 bd3d 9a05 3639
000000e0: d7fe 17bd 9c14 1f3c c8a9 c93b 5415 a5bd
000000f0: 5335 133c 4848 a73d 240c b63c 0654 afbc
00000100: 080f 8bbc dfb7 1b3c 9d1e 83bd 5ec7 ae3d
00000110: fc9c f63d 3cd5 2c3d cfed 03bd df54 a0bd
00000120: e238 4abd 0926 b33d 895c b7bd f584 afbd
00000130: 290b 48bc fb76 833c 3c0b c0bd b8a4 8ebd
00000140: f728 8f3a 4d80 60bd 8a69 6b3d c9e3 923b
00000150: 706c 9dbd b235 b0bd 018e 6f3d 2f38 2d3b
00000160: acbb acbd ef3f c73c 804e 8ebc b6e2 af3d
00000170: fd4d 833c 16e0 dcbc 3fdd abbd d7c4 563d
00000180: 02d2 6ebd 17cb b2bc 94c3 953c f1f9 78bd
00000190: 7bba 2c3d 272e 90bd 0cec 903b 7513 3d3d
000001a0: cb1a d73c d10e bcbd 34e9 133c f7fd 183d
000001b0: f830 85bd e86f 933c 249e 2cbb 9a04 8d3d
000001c0: d335 98bd be63 6cb9 4da8 1bbd a80e 803c
000001d0: 4e62 cc3c b4e9 9fbd e586 4b3d 9e88 833d
000001e0: d00a 1e3d 9e93 6e3d 7e19 00bd 739b 9d3c
000001f0: 6fc9 813a 841a 74bd b8b9 17bd 28a7 22bd
-0.08256125 -0.042629685 0.059505217 -0.055587444 0.055750247 -0.046988 0.016167829 0.072049536
0.019434253 0.060863156 -0.010775642 0.060729194 0.023276495 -0.027855758 -0.061077002 0.06840492
-0.030742252 0.066576324 0.05345129 -0.004711132 -0.07680969 0.0035002502 -0.04117127 0.020411206
-0.040478975 0.06341215 -0.03747042 -0.024971208 0.01978473 -0.0059079668 0.068955675 -0.023860654
-0.07321234 0.059156228 0.018786032 0.05215605 -0.05231313 -0.09537961 -0.07650118 0.0032324994
0.02337095 -0.06686887 -0.0146120805 -0.013745988 0.072607026 -0.046454333 0.083112635 -0.031883646
-0.0374283 -0.054191854 0.056780554 -0.049287986 0.046903137 -0.010055993 0.092483275 0.0001735896
-0.03710827 0.0097095035 0.0061542727 -0.08060709 0.008984881 0.081680834 0.022222586 -0.02140237
-0.01697494 0.0095042875 -0.064023234 0.0853412 0.12041661 0.042195544 -0.032209214 -0.07828688
-0.049370654 0.08747489 -0.089531966 -0.085702814 -0.012209692 0.016047945 -0.09377143 -0.06965011
0.0010922243 -0.054809857 0.057473697 0.0044827205 -0.076866984 -0.086039916 0.058485035 0.0026431193
-0.08434233 0.024322478 -0.017371416 0.085881636 0.016028399 -0.026962321 -0.08391809 0.052433815
-0.058305748 -0.021825356 0.018281735 -0.060785238 0.04217003 -0.07040053 0.00442267 0.046161134
0.026257893 -0.091825135 0.009027768 0.037351575 -0.06503481 0.017997697 -0.0026339376 0.06885643
-0.07432141 -0.0002254387 -0.0380023 0.015631989 0.02494922 -0.07808247 0.049689192 0.06422542
0.03858453 0.058246247 -0.03127431 0.019239163 0.0009901951 -0.0595956 -0.03704235 -0.039710194

fcs.3.0.linear.weight f4 [128, 1]
00000000: 03fd 5dbf e401 2ebf d07b c2bd 28c6 1bbe
00000010: 1548 62bf 1a49 3a3e 364c 0a3f 8ee0 523f
00000020: 7f02 553f 884d 31bf 5884 b3be 3bda e6be
00000030: 0381 7a3e 0da0 a23e e764 5a3e b25f 133f
00000040: a571 043f fde9 14bf c159 2d3f 6739 2f3f
00000050: 1476 e83d 0bd7 65bf 07b5 17bf 16d3 973e
00000060: b598 a83e 7324 713f f6d2 ff3e 58f6 b43e
00000070: 3c36 5abc 5787 2c3f d8cf d1be df53 d83e
00000080: 2ee8 02bf 00ec 18bc 47d6 183f 03ab e63e
00000090: 01ff 47be 122c 9fb8 156c 15bf 9d01 e73e
000000a0: 5025 2b3f 209d b43e c7a1 74bf 41a9 33bf
000000b0: 8e00 293f a7e1 f4bd ed22 213f 6ea9 3a3f
000000c0: f876 a4be 64cd 1ebf b902 7abf 08dc b63e
000000d0: 9bff 053f 68d0 39be f6db 72bf 8188 21bf
000000e0: b5d3 b6bd d504 e33e a612 b0be ab97 2cbf
000000f0: 651d 3abf 4f34 673f b7c5 be3e 5415 4abf
00000100: de16 19bf 4ef5 55bf 8a2c 2f3e 6b07 e1be
00000110: 6679 ddbc eef1 41be d9fd 59bf bf18 60bf
00000120: ba1a 40bf 046e cebe 71eb 3d3e a0f0 01bf
00000130: db77 71bc 0eda b0bd 279f 6c3f 9020 e4be
00000140: 321d 6e3f 20cf 3ebf d445 5cbf ddd6 a93e
00000150: b3c8 0fbf e8b1 ff3e 9e65 15bf 2ad9 473f
00000160: 5c6c 7a3f 8ef9 743d ee44 5d3e b127 713f
00000170: 3219 1a3f dca4 67bf 3e28 84bd f520 61bf
00000180: f4ef 403f 2d18 54be 7f30 5c3c 4a7c 17bf
00000190: 8078 07bf 80b5 193e a190 503f bc4e f6be
000001a0: c4d0 913d 356e 6a3f 12b9 673f 8609 86be
000001b0: 1bf6 6d3f ff6c ae3e 4491 663f c00d f33c
000001c0: 0879 60bf 201a 83be 4b7d a33e 2214 063f
000001d0: 62ff 78bf 0983 493f 94cc 5fbf ee38 183f
000001e0: dcb5 7e3f cccb 7c3e 4a82 5cbe b7a2 0a3f
000001f0: 8456 8fbe a09b 37bf 83b1 2fbf 1e09 f53e
-0.8671419 -0.67971635 -0.094962716 -0.1521231 -0.8839124 0.18191949 0.5402254 0.82373893
0.83206934 -0.6925893 -0.35061908 -0.45088372 0.24463277 0.31762734 0.21327554 0.57567894
0.5173591 -0.5816954 0.6771508 0.68446964 0.113506466 -0.89781255 -0.592606 0.29653233
0.32929006 0.9419624 0.49965638 0.35344195 -0.013318595 0.6739401 -0.40978885 0.4225149
-0.5113553 -0.009333611 0.5970196 0.45052347 -0.1953087 -7.5899196e-05 -0.58368045 0.45118418
0.6685381 0.35276127 -0.9555935 -0.70180136 0.6601647 -0.11957102 0.6294392 0.7291478
-0.32122016 -0.6203215 -0.97660404 0.35714746 0.5234315 -0.18145907 -0.94866884 -0.63098913
-0.08927099 0.44339624 -0.34389228 -0.67418927 -0.727011 0.9031419 0.3726022 -0.78938794
-0.5980052 -0.8357743 0.17106834 -0.43950972 -0.027035426 -0.18939945 -0.85152966 -0.8753776
-0.7504078 -0.4031831 0.18546845 -0.5075779 -0.014738048 -0.08635341 0.9243035 -0.44556093
0.930133 -0.745348 -0.8604405 0.3317174 -0.5616562 0.4994042 -0.5835818 0.7806574
0.97821593 0.059808306 0.21608326 0.9420119 0.60194695 -0.9048593 -0.06452988 -0.87940913
0.7536614 -0.20712347 0.013439297 -0.59174025 -0.52918243 0.15010643 0.81470686 -0.48106945
0.07119897 0.9157441 0.9051677 -0.2617914 0.9295365 0.34067532 0.9006541 0.029669642
-0.8768468 -0.2560587 0.31931528 0.5237447 -0.97264683 0.7871557 -0.87421536 0.5946187
0.99496245 0.24687117 -0.21534076 0.54154533 -0.27995694 -0.7172184 -0.68630236 0.47858518

fcs.3.0.linear.bias f4 [128]
00000000: 94b7 423f 0de7 2e3d 0c37 78bf 328c 7bbf
00000010: 8a79 64be 9d14 0a3f 7805 33bf b892 693e
00000020: 3167 17bf e64a 4b3f 57e2 86be 791f 55be
00000030: 3b37 54bf 991e 5bbf 9063 d03c 188e 033e
00000040: f371 013f abb2 5bbf b6e1 063e 73b1 cabd
00000050: ede9 1b3f 43a0 eabe e945 973e 6c82 dc3e
00000060: c95f f43e 40c3 98be a510 8e3e e54f 74be
00000070: 95fb 7d3e 97a0 27bf cd8f 45bf fbd0 52bf
00000080: 98c9 1ebf 4cb1 d8be 69c2 413e 7be3 83be
00000090: 8c3d 18bf 02f3 5dbb fa05 a4be aadf 153f
000000a0: 47c4 5bbf abab a9be 0401 2bbf 8a74 da3d
000000b0: 22e0 2b3c 2852 65bd 1906 833f f824 d6be
000000c0: 68b5 16be e4a1 843e 1bf3 563f 6e6b 3f3f
000000d0: 50f0 233e edce c4be bb71 a83e 058d 1d3f
000000e0: 2fc4 cbbc 987a 043f cf05 5b3f 478c 09bf
000000f0: 35ac 67be 497a 5cbf 5d19 8c3e abcd 353f
00000100: db46 4cbe cd37 103e 1473 aa3e 42e9 edbc
00000110: 1946 4d3f ae16 193e 5ed9 7dbf 75ed 56bf
00000120: 17af 7fbf c5ee e33c c157 0a3f 0af6 0abe
00000130: 52b2 603f b26d 50be fabe 803e 0577 603f
00000140: e523 ed3e 5c4a fcbc ee45 773f 48ca 1dbf
00000150: 9787 bd3e 4314 1a3f c5bd 1dbf 12c8 7abf
00000160: 49ef bb3e 6d07 c3be ff01 ffbe 47bb 7b3e
00000170: a9b6 35bf 3ce4 663f 7c3a bdbd 0443 a3be
00000180: 8f9c 503f 77fc 923e a0bc 2d3e 6250 f6be
00000190: ac02 6f3f eccb 99be c5c7 4a3f 8789 98bd
000001a0: bb96 063f c44b 3f3f 0f46 34bf e94b 1dbf
000001b0: f6aa 83bf a217 363f 6701 523f d41e bbbe
000001c0: e26f fdbe 7a60 213e 74cb 0f3f 8fa3 513e
000001d0: 9160 53be 20e3 17bf 6d67 5a3f 889d 1bbf
000001e0: 3a70 6ebf 91be d9be fbcc 4d3e cf92 ad3e
000001f0: 7445 c03e 1ebb 14bf d994 c3be 59d5 d1be
0.7606137 0.042700816 -0.96958995 -0.98260796 -0.22311988 0.53937703 -0.6993022 0.22809875
-0.5914183 0.7941116 -0.2634456 -0.20812787 -0.82896775 -0.85593563 0.0254381 0.12847173
0.505645 -0.858195 0.1317204 -0.09897127 0.6090382 -0.45825395 0.29545525 0.43068254
0.47729328 -0.29836464 0.27747074 -0.23858602 0.24803002 -0.65479416 -0.7717255 -0.8235013
-0.6202636 -0.42322767 0.18921818 -0.2575949 -0.59468913 -0.0033866768 -0.3203581 0.5854441
-0.8584637 -0.33138785 -0.66798425 0.10666759 0.010490449 -0.055986553 1.0236236 -0.4182508
-0.14717638 0.25904763 0.839647 0.747733 0.1600964 -0.38439122 0.3289927 0.61543304
-0.024873821 0.51749563 0.8555574 -0.5372967 -0.22624286 -0.8612409 0.273631 0.7101695
-0.19948904 0.14083786 0.33290923 -0.02904189 0.80185086 0.14950058 -0.991598 -0.8395608
-0.9987654 0.027823815 0.5404015 -0.13570419 0.87772095 -0.20354345 0.25145704 0.8768161
0.46316448 -0.030797176 0.9659108 -0.6163678 0.3701751 0.60187167 -0.6161769 -0.97961533
0.36705998 -0.38091603 -0.4980621 0.2458316 -0.7098184 0.9019201 -0.09239671 -0.31887066
0.8148889 0.2870824 0.16966486 -0.48108202 0.9336345 -0.30038393 0.79211074 -0.07448106
0.52573746 0.74724984 -0.704194 -0.61443955 -1.0286548 0.7112981 0.8203339 -0.36546957
-0.49499422 0.15759459 0.5616982 0.20472549 -0.20642306 -0.5933094 0.85314065 -0.6078725
-0.93139994 -0.42528203 0.20097725 0.3390107 0.3755299 -0.5809802 -0.381995 -0.40983084

fcs.3.1.weight f4 [1, 128]
00000000: c258 babc 084c 49bd e837 943c 0493 d2bc
00000010: 4eb7 68bd b0fc 06bd e2db 88bd b0be cdbc
00000020: aae9 62bd a630 693b f60f 883d 9ab4 28bd
00000030: 4f7c 8cbd 4639 aebd 7e8a 08bd 3f7e ebbb
00000040: 723f 99bc 9006 4a3d 867d 53bd 75f6 c43c
00000050: b160 c73d 451d d63d 54d2 8fbc 0c8b 443d
00000060: bf32 81bd 4354 a23d 4212 94bd 51e8 a0bd
00000070: a4c2 63bd e134 b4bd 3620 8b3d 268f 68bd
00000080: 6dd7 803d f034 b3bb 6302 353c a6b8 f6bc
00000090: 5a26 8d3b b3db 86bd 488c 9c3d 8ec2 d0bc
000000a0: b6e8 00bd 86cd 133d fcab 393c f634 0d3b
000000b0: 34f4 47bd 16b7 3bbd dafc 813d eab2 96bc
000000c0: 0b3c b13d 41b8 ea3c db70 a53c c0f5 70bd
000000d0: 7f9f 713c b205 1a3d ca07 e0bc 136e 62ba
000000e0: 8dc7 103d 8273 40bd ca13 0a3d 94c1 c53d
000000f0: 0fc7 3e3d 5462 9f3d 5699 6d3d 23ce 4bbd
00000100: d2ad bdbb 6848 483b 9f32 443d 4e02 c73c
00000110: d8c6 c23d c209 003d 2328 86bc 623f 8d3b
00000120: 4982 01bd 310e 2a3a 2bf6 7a3d 911c f33c
00000130: 4f21 79bd f997 ffbc 83bd 363d 4fd8 74bd
00000140: d6c3 62bd d4f4 d8bc 8ac7 d33d 623b 61bd
00000150: d4bd 79bc 879d 23bd acbe c33d be35 dcbc
00000160: 1fc6 fb3c 76e5 8d3c 046e 72bc 1c5e 8d3d
00000170: 24e2 ddbb 7c3c ec3c a583 623d acce 20bd
00000180: 0f85 83ba a7a5 d23d 8bf2 29bd df0d adbc
00000190: 9c92 8fbd 3957 04bd 47f9 82bd 0618 94bc
000001a0: 10f5 cb3d 6ea5 5d3d 395b 343d de38 c13d
000001b0: ed7b acbd 411a a5bc 6612 5abd acde 5fbd
000001c0: 8840 7e3d 1022 57bb cd94 dc3d 817e 4dbd
000001d0: 73dc 42bd 323e ad3d c745 68bd 0ede 883d
000001e0: 593d 913c c9df d8bd 09fe c63d ba9d febb
000001f0: 45e6 95bc cc5b 0cbd 01ee 30bd 981e 743c
-0.022747401 -0.049144775 0.018093064 -0.025704868 -0.056815438 -0.032955825 -0.06682564 -0.025115341
-0.05539862 0.0035581975 0.06643669 -0.04118786 -0.068596475 -0.08507018 -0.0333352 -0.0071866806
-0.01870701 0.049322665 -0.05163338 0.024043301 0.09735239 0.104548015 -0.017556347 0.047984168
-0.06308507 0.07926228 -0.07230045 -0.07856811 -0.055605546 -0.08799148 0.06793253 -0.056777142
0.06291089 -0.005468957 0.011047932 -0.030117344 0.0043075504 -0.06584873 0.07643944 -0.025483396
-0.03147193 0.036084674 0.011332508 0.002154646 -0.048816875 -0.0458289 0.06347056 -0.01839586
0.086540304 0.028652312 0.020195415 -0.058828115 0.0147474995 0.037603088 -0.027347464 -0.0008637618
0.035346556 -0.046985157 0.03371028 0.09656063 0.046576556 0.077824265 0.05800756 -0.049757134
-0.0057885433 0.0030560736 0.04789984 0.024293091 0.09510583 0.031259306 -0.01637656 0.0043105343
-0.03161839 0.00064871 0.06126992 0.029676707 -0.06082278 -0.031200396 0.044614326 -0.0597766
-0.055362545 -0.02648393 0.103407934 -0.054988272 -0.015243012 -0.03994515 0.09557852 -0.026881095
0.03073412 0.01732133 -0.014796738 0.069027156 -0.006771343 0.028837435 0.055301327 -0.039259598
-0.0010034161 0.10285502 -0.041491073 -0.021124778 -0.070103854 -0.032309745 -0.06395202 -0.018077862
0.09958851 0.054112844 0.04403231 0.09434675 -0.084220745 -0.02015412 -0.053240202 -0.054655716
0.06207326 -0.00328267 0.10770569 -0.05016947 -0.047573518 0.084591284 -0.05670717 0.066829786
0.017729448 -0.10589559 0.09716422 -0.0077702673 -0.018298278 -0.03426723 -0.04319573 0.014899872

fcs.4.0.linear.weight f4 [128, 1]
00000000: 6504 ce3e 71a1 5cbe 921c c53e f296 80be
00000010: 41b3 ae3e ca11 0bbd ec39 9a3e c0c6 d6be
00000020: bbd0 31bf 7861 fd3d 9e07 24bf f3ae 1ebf
00000030: ffa5 76bf 84f8 a1be c291 29bf fe5e 463f
00000040: 04a1 363f e74d 843e b8cf 513f 5b86 f33e
00000050: 80b2 71bf c1fe aabd 6251 19be d1f6 1bbf
00000060: f6ec 933e 3cfb 9ebe 3dd2 f5be dc21 97bc
00000070: 18d9 2abf aae4 513f cbb8 233f 4391 703f
00000080: 4ea1 11be 8d19 b43e ef71 04bd a075 53bf
00000090: b0c9 eb3e c90d 33bf 3876 babe cb80 e4be
000000a0: 3834 79bf cbe9 533d da41 253e 8c1b 93bd
000000b0: 536c 3a3f 483a 283d de3e 50be e9b6 0bbf
000000c0: 900f 18bf 9397 33be 4599 15bf 6345 28bf
000000d0: e4a1 00be cc67 7dbe 917e 1bbf 7787 173f
000000e0: f506 573f 2e4e 30bf dba9 df3e e5b3 eebe
000000f0: f0a6 d4bd 263a 6d3f 71e4 f73d d87d 73bf
00000100: bcab 6d3f 694a 46bd f47a febe 00be 03bf
00000110: 0d57 593f 4042 8a3c ec98 0b3f e221 263f
00000120: c8af cebe 9691 bc3d 917b 26bf 0a08 543f
00000130: afd7 08bf 2a69 2b3f e93a 763e 68bb 1f3f
00000140: a4e0 34bf 4d69 c3bc 99e8 063f 8c9e 3bbd
00000150: 8015 6bbc 6f6b f63e 3816 40bf 125a 2fbe
00000160: 471b e43e 6c29 fa3e ff00 703f de8a 6dbe
00000170: 5a83 703e c5d3 fcbe 820a 26be 1ddd ffbe
00000180: 2096 3f3f 009b c73b 8eb2 cb3e 67a2 0e3f
00000190: 2423 153e 20f2 d93d 5230 93bd fbbb 5abf
000001a0: dd42 2c3e eb7c 82be e1fb 57bf 9fea 6c3f
000001b0: 5b38 99bd cbfb 01bf 6778 7abf 6b73 6bbf
000001c0: b19b bb3e 5a1f eabe 3c28 dcbe 35fb 13bf
000001d0: c5eb 503f 87b5 5abe d9c5 243f d812 493f
000001e0: 5c13 46bf 093c 3d3f 8a47 71be 3403 773f
000001f0: 5b86 073f 21bf 78bf 030d 353e 7d94 af3e
0.40237728 -0.2154596 0.3849836 -0.25115162 0.34121135 -0.03395251 0.30122316 -0.4194851
-0.6945912 0.12372106 -0.6407412 -0.619857 -0.9634704 -0.31634915 -0.66238034 0.77488697
0.7133944 0.25840685 0.8195758 0.47563443 -0.94412994 -0.08349372 -0.14972451 -0.60923487
0.28891724 -0.31051052 -0.48011962 -0.018448763 -0.6673751 0.8198954 0.63953847 0.9397165
-0.14221689 0.35175744 -0.032335218 -0.82601357 0.46052313 -0.6994291 -0.3641832 -0.4462951
-0.97345304 0.051736634 0.16138402 -0.071829885 0.7282154 0.041071206 -0.20336482 -0.54575974
-0.59398746 -0.1753829 -0.58436996 -0.65730876 -0.12561756 -0.24746627 -0.6074 0.5919108
0.8399499 -0.6886929 0.43684277 -0.46621624 -0.10383403 0.9266685 0.121041186 -0.951139
0.9284017 -0.048410807 -0.4970318 -0.5146179 0.84898454 0.016877294 0.54530215 0.6489545
-0.40368485 0.09207456 -0.650323 0.82824767 -0.5345411 0.6695734 0.2404591 0.62395334
-0.70655274 -0.023853922 0.52698666 -0.0458055 -0.014348388 0.4812884 -0.75033903 -0.17124203
0.4455206 0.48859727 0.9375152 -0.23197505 0.23487607 -0.49380317 -0.16214946 -0.49973384
0.7483845 0.0060914755 0.39784664 0.55716556 0.14564186 0.10641885 -0.07186951 -0.85443085
0.16822381 -0.2548593 -0.8436871 0.92545503 -0.07481452 -0.5077483 -0.9783997 -0.9197299
0.3664222 -0.45727044 -0.42999446 -0.57805187 0.81609756 -0.2135831 0.6436439 0.7854438
-0.7737329 0.7391973 -0.23562446 0.9648926 0.52939385 -0.9716664 0.17680745 0.34292975

fcs.4.0.linear.bias f4 [128]
00000000: bc1e b2be dd62 483f 199d 51bf f7f2 b0be
00000010: 2002 763f 295e 7a3f 7af8 003f a3b6 1dbf
00000020: a2a7 63bf e594 50bf 8841 93be 0375 0b3f
00000030: 30fc 8f3e de1d b3bd 20cb 623f d1b5 503f
00000040: a81f dfbe bcc6 e4be 8f87 4dbd 93a4 763e
00000050: 1800 3abd 7008 ce3e 4c16 343f cc53 61be
00000060: 80ca 003f e53e 2b3e 7f1a b33e 5776 d33e
00000070: 2404 9cbe 5d74 d5be bdb3 c83e 89ea 1bbf
00000080: d7d2 0d3f 7a84 24bf 1176 2f3f dc81 dd3e
00000090: 3d91 8ebe 499a 0b3f 6b4e bbbe b15b 793e
000000a0: 1453 a93e bdd4 c73d 199e 673e 09d9 4a3c
000000b0: 51c8 82be 6627 0f3f 2832 c53e 2f3e b73e
000000c0: 94f7 263f 5dcc ffbe 6c91 4dbe c842 043c
000000d0: 923b 4e3f d026 3bbf 8a90 0cbf 36e1 8bbe
000000e0: 7b6e 53bf a7d4 51bf a1ed 343f 7f71 043c
000000f0: 2ef2 4dbf d09c 16be f1c2 893b 8d0a a3be
00000100: 2f6d 5ebf 2eb5 0b3f 2e83 e4bd 1222 7a3f
00000110: 6dfa 3dbf 728a 0cbf 1d54 9fbd 5a21 2bbf
00000120: fb31 3a3f 14a9 453f e1e8 6c3f 8b63 19bf
00000130: 21ea 393f 2665 2a3f b1bd c5be 28bf 923d
00000140: 4798 e23e dee6 363f fe8e 72bf b73c 7f3f
00000150: 64ba 80be 5c7e e23e 2565 28bf b483 4bbf
00000160: 8550 29bf 8c4d 1d3f 0f4c 07bf fa10 0e3f
00000170: 4ff1 a73e 1fa4 ba3e 9e30 4bbe 7a0a 8fbe
00000180: adf4 00bf 8c18 0fbf 5d4b 6c3f 99bd bfbd
00000190: 8a3e ecbe 042f 6ebf ac2c 9a3d 47d9 82bf
000001a0: 521a 4fbd e643 1b3f 91a1 1cbf 5dff 153f
000001b0: 6f54 b1be a8d9 4abf 5fd4 82bf a90a 073f
000001c0: 7522 46bf 1ea6 eb3e 9d67 363e c89f 123f
000001d0: 1276 48bf 5bbc 653f d91e 83bf bfe7 3cbf
000001e0: 36cd 213f 5a92 933d c5b5 09bf d749 7ebe
000001f0: f211 68bf 034a 68bf 8ed0 66be d202 443f
-0.34789073 0.78275853 -0.81880337 -0.34560367 0.9609699 0.97799927 0.50379145 -0.61606807
-0.8892766 -0.81477195 -0.28760934 0.5447542 0.2812209 -0.08745931 0.88591194 0.8152743
-0.4357884 -0.44682872 -0.050178107 0.24086218 -0.045410246 0.40240812 0.7034652 -0.22004622
0.5030899 0.16723211 0.34981152 0.41301224 -0.3047191 -0.4169034 0.3919963 -0.6090475
0.5539984 -0.64264643 0.6853953 0.43263137 -0.27845183 0.54532295 -0.36583266 0.24351384
0.33071196 0.097573735 0.22618903 0.012380847 -0.25543454 0.5591949 0.3851483 0.3578963
0.65221524 -0.49960604 -0.20075005 0.0080725625 0.8055965 -0.731061 -0.5490805 -0.2732026
-0.82590455 -0.81965107 0.7067509 0.0080837 -0.8044766 -0.14708257 0.004204147 -0.31843987
-0.8688535 0.54573333 -0.11157833 0.9770824 -0.74210244 -0.5489875 -0.07779715 -0.66847765
0.72732514 0.7721112 0.92542845 -0.59917516 0.7262288 0.6656059 -0.38621286 0.071653664
0.44256803 0.71446025 -0.9474944 0.9970202 -0.25142205 0.4423703 -0.65779334 -0.7949784
-0.6613849 0.6144645 -0.5285043 0.55494654 0.3280129 0.3645334 -0.19842765 -0.2793768
-0.50373346 -0.5589683 0.92302495 -0.09362335 -0.46141464 -0.9304049 0.07528052 -1.0222558
-0.05056221 0.6065048 -0.6118403 0.5859278 -0.3463473 -0.7923837 -1.022106 0.5275064
-0.7739633 0.46025175 0.17812963 0.57275057 -0.7830516 0.8974053 -1.0243789 -0.73791116
0.6320375 0.07205649 -0.53792983 -0.24832855 -0.9065238 -0.9073793 -0.22540495 0.76566803

fcs.4.1.weight f4 [1, 128]
00000000: 6930 713b c4a3 813c 621d a3bd aefd de3d
00000010: 1e72 9f3b 34f1 013d 8ad2 053c 7d04 3c3d
00000020: f596 663d e3ab 8a3d 4873 743d 99cb 9c3b
00000030: 8c23 0a3d 7d34 9dbc f2e2 523d fe8c ec3c
00000040: 1c36 493d d3aa 6fbd ef2e a3bd 105b 863c
00000050: 7a09 1e3d 4fa2 993d 6e7d 1c3d 1968 233d
00000060: c552 9e3d 48e7 09bd 6b3f 943d b093 413d
00000070: 863e 8b3d bb15 423d 8a40 92bd 3e19 e43c
00000080: 379a a73d 0983 e1bd 7f84 aabb c71a 6bbd
00000090: 839e 19bd bd2f ee3b bddd 883d 7de1 eebc
000000a0: 88e5 aebd 00e2 5f3d 339a 623d 061e 51bc
000000b0: 9d2d 803d fafa 8a3d b338 e9bc 25bf b0ba
000000c0: fa43 f83b ba38 4c3d b8e4 60bc 781a 19bd
000000d0: 4f8a 3cbd 9bb6 f13d 51db eebb 8c89 66bd
000000e0: 960f 573d 8e16 1f3d ad15 903d 75ec a73d
000000f0: 7800 4cbc c08d 693b 1b07 953d 6540 59bd
00000100: f35c 4cbd bbb5 7c3c f297 a2b9 3db8 663c
00000110: 5228 c13c 0ef3 14bd 7f34 f2ba 789e 5a3d
00000120: 9f13 74bd a643 79bd f773 9dbd 7aee 063d
00000130: 1b6a b8bd e0fd 1fbd 15d6 9b3c ea32 6dbd
00000140: 07b1 893d f3be 20bd ee55 04bd 932c 603c
00000150: 6015 0ebb e152 6d3d a023 bd3d d41f debc
00000160: df91 443c 6be3 eb3c 0d54 8fbc 2cba 8abd
00000170: ad15 033d 9560 6f3d edf4 46bd 1734 8ebd
00000180: 6830 d6bd 644e a73c f81f 9bbc 4b11 15bd
00000190: 4a5e f53c e8af b8bc 9070 7ebd 1dc6 063d
000001a0: 18e2 6dbd 7f84 03bd 357c 793d a71e ab3c
000001b0: 2fe6 06bd 8926 f23d d364 a63d ba56 83bd
000001c0: 1462 4abc 0222 ed3c 9378 86bd 456f 8dbd
000001d0: 6fb5 c6bd 6111 2a3d 403d c4bc e1b4 563c
000001e0: 6d1d 37bd 7f81 773d 84fa 9f3d 864b a6bd
000001f0: e5f0 86bd 09b6 823d e59d 2cbc 5037 e2bb
0.0036802536 0.01582516 -0.07964589 0.10888229 0.0048658988 0.03172417 0.008167872 0.045902718
0.056296308 0.06771066 0.059680253 0.004785013 0.033725306 -0.019190067 0.051485963 0.028875824
0.04912387 -0.05851252 -0.07967936 0.016400844 0.038583256 0.07501661 0.038205557 0.039894197
0.07730631 -0.033667833 0.072386585 0.047259986 0.06799035 0.047384005 -0.07141216 0.027844068
0.08183711 -0.11011321 -0.005203783 -0.057398584 -0.037504684 0.0072688744 0.06682918 -0.029160256
-0.08539873 0.05465889 0.055322837 -0.012763506 0.062587 0.06786151 -0.02846942 -0.00134847
0.007576463 0.049858786 -0.013726406 -0.03737876 -0.04603034 0.11802407 -0.007289328 -0.05628352
0.0525051 0.03883987 0.07035384 0.081993975 -0.012451284 0.0035637468 0.07276746 -0.053039927
-0.04989333 0.015424187 -0.00031012256 0.014082012 0.023578797 -0.036364608 -0.001847878 0.053373784
-0.059589025 -0.06085553 -0.07688134 0.032942273 -0.09004613 -0.039060473 0.01902298 -0.057909884
0.067232184 -0.039244603 -0.03230851 0.013682502 -0.002168022 0.057940368 0.092353106 -0.027114786
0.011997669 0.028794965 -0.017496133 -0.06773791 0.032003094 0.058441717 -0.048573423 -0.06943529
-0.104584515 0.020423122 -0.018936142 -0.036393445 0.029952187 -0.022544816 -0.062119067 0.03290378
-0.058076948 -0.03210878 0.06090947 0.02088864 -0.032934364 0.11823756 0.081246994 -0.06413026
-0.012352485 0.02894688 -0.065659665 -0.069059886 -0.097025745 0.04152048 -0.023954988 0.013104648
-0.044705797 0.06042623 0.07811454 -0.08119874 -0.06588916 0.06382377 -0.010535692 -0.0069035664

fcs.5.0.linear.weight f4 [128, 1]
00000000: 4b48 21bf ffb7 5e3f a24d 16bf 8a0a 353f
00000010: e2e7 97be 267b 9c3c 9edc 77bf 0f82 8dbe
00000020: 81e4 553f 19b4 65bf dc30 033f e990 55bf
00000030: 8c6f 113e 076a 69bf 635b 4cbf 75c7 4fbf
00000040: 9e6f aabe d7a9 153e 1066 3dbf c9d3 8b3e
00000050: c773 193f 4177 4e3f 9fb2 633f a774 2a3f
00000060: 384b 94be e0bd bcbd d1c2 603f 6e25 fa3e
00000070: 7b4d 9cbe dd38 3f3f 9062 61bf ca1b 5d3f
00000080: 969d 113f a0ea 3cbf 715f 52bf 73b1 4a3f
00000090: c1c8 7a3f 0cf8 733d 0f09 cbbe f408 103f
000000a0: 091a ea3e 4a2f 25be 63bd 4a3f 04e0 273f
000000b0: 41aa 933e e375 073f 6461 6ebf cc1b f8be
000000c0: a07f e03d c1b3 833e 84db 02be 142b c53e
000000d0: 8ae7 983e 56ea 6abf 3036 a23e b2ba 24be
000000e0: 307e 2ebf 528d cb3c 765e 81be a65b 03bf
000000f0: 11cd 6abf 2b42 543f 05d0 19bf 5740 1b3e
00000100: af57 4b3f 67eb 65be 8fce 29bf 4dfe 75bf
00000110: 342f 1e3e 4035 02bf 305a 953d bdc8 af3e
00000120: 4446 97be b880 2f3f d3ac 10be ca8c cfbe
00000130: b7ff 27bf 9f8d 983e a1a1 1cbf 6464 313e
00000140: ecfa 18be 6afd 303f 7ceb fdbe 2316 f3be
00000150: c87e 45be 98a8 1dbf ef4c be3e 3111 b7be
00000160: 8b5a cc3e 6e1e 143f 2fa1 133f 940b 69be
00000170: 080f 0b3f 1ee4 0cbf c1d3 7dbf 70e8 c2bd
00000180: 1e4a 3bbf 9200 48bf be95 a33e 159a 5a3f
00000190: a422 c6be a0b3 67bd e022 3bbf 77c0 563e
000001a0: 9054 953e e1fe fcbd f2d3 403f d45a 4cbf
000001b0: 805a 00be edb3 0dbf 96bb 623f 2f0c 573f
000001c0: 2ff1 793f 19ab 693f d599 ce3e 809e 41bf
000001d0: 7c0b 2cbf 2847 863e b105 63bf a3ee 243f
000001e0: 9c17 d53e 5534 713e 5d2e 61bf 0d1d 3c3f
000001f0: 2b0a ebbd 9469 cdbe 3e14 073f 02f5 1e3e
-0.63000935 0.86999506 -0.5871221 0.70719206 -0.296691 0.01910169 -0.9682101 -0.2763829
0.83551794 -0.8972793 0.5124643 -0.8342424 0.14202708 -0.9117741 -0.79826945 -0.8116372
-0.33288282 0.1461557 -0.7398386 0.27310017 0.5994229 0.8065072 0.8894443 0.6658425
-0.28963637 -0.09215903 0.87797266 0.48856682 -0.30527863 0.7469614 -0.8804102 0.8637053
0.5688108 -0.7379551 -0.8217688 0.79177016 0.97962576 0.059562728 -0.3965535 0.5626366
0.45722988 -0.1613132 0.7919523 0.65576196 0.2884083 0.52914256 -0.93117356 -0.48458707
0.109618425 0.2572308 -0.12779051 0.38509429 0.2986415 -0.9176382 0.31681967 -0.16086844
-0.68161297 0.02484766 -0.2526738 -0.5131172 -0.91719157 0.82913464 -0.6008304 0.15161262
0.7943067 -0.2245308 -0.6633081 -0.9609116 0.15447694 -0.50862503 0.072925925 0.3433284
-0.29545796 0.68555784 -0.14128427 -0.405371 -0.65624565 0.29795548 -0.61184126 0.17323452
-0.14939469 0.6913668 -0.49593723 -0.47477826 -0.19286644 -0.6158538 0.3716807 -0.35755304
0.3991283 0.5785893 0.5766782 -0.22758323 0.5431981 -0.5503558 -0.99151236 -0.0951699
-0.7315997 -0.7812587 0.31950182 0.8539136 -0.38698304 -0.056567788 -0.7310009 0.20971857
0.2916608 -0.12353302 0.753234 -0.7982609 -0.12534523 -0.5535267 0.88567483 0.84002966
0.9763364 0.912767 0.4035174 -0.75632477 -0.67205024 0.26226163 -0.8868056 0.6442663
0.41619575 0.2355512 -0.8796137 0.7348183 -0.11476549 -0.40119612 0.5276526 0.1552315
