cache/2d_gm/smcusum/model_1/iter_2.pth (torch, 42952 bytes, 4 tensors)

fc.0.linear.weight f4 [2048, 2]
-0.43744963 0.021123048 0.16461545 0.32070568 -0.18561213 -0.2368604 -0.33596867 -0.6813638
0.24843329 -0.536588 -0.34149447 -0.016368225 0.55156004 0.6244426 -0.51310366 0.61581403
0.63502914 0.5745477 0.065353 0.5618282 0.34050694 -0.50198543 -0.37356123 0.011884982
-0.49894664 -0.22081274 0.56951195 0.32966673 0.61705637 0.005356695 -0.34890628 0.45206928
0.04512969 0.12347694 -0.29406 0.29676232 -0.5216101 0.55744743 0.60612243 0.2608599
0.55408984 0.42747813 -0.2717501 -0.61047685 0.07662911 0.4211536 -0.06641048 0.066988274
0.5230927 0.2871266 0.53121 0.09424117 0.09050689 -0.1746748 -0.1321561 -0.38018042
0.4642158 0.63267905 0.26394978 0.010054773 -0.21694869 -0.6911812 -0.14160441 -0.5077127
-0.52349997 -0.1344161 -0.13063222 0.15213369 -0.51321656 0.5025142 -0.6417466 -0.33287716
-0.25290754 0.020561837 0.29224518 -0.18371134 0.067394264 -0.11966316 -0.26004815 -0.10521973
0.12964363 -0.67471874 -0.48091066 0.5472373 0.32133147 -0.03606624 0.01667788 0.114269555
0.16453135 -0.48221138 -0.19207454 -0.64792037 -0.5583382 -0.13695715 -0.10459558 0.55592173
0.131918 -0.110260606 -0.018159417 0.3886816 -0.23151787 -0.13664761 -0.1426363 -0.567225
-0.101114154 -0.6541217 -0.36200184 -0.44770667 0.52093667 -0.6481156 0.6801953 0.25784004
-0.4801453 0.5856966 -0.15747248 -0.60294867 -0.083677575 0.33538947 -0.6806703 -0.05792492
0.28127638 -0.27963728 0.058404133 -0.276212 -0.4772934 0.5504995 -0.49973541 -0.0017703379
0.23323937 -0.3955244 0.34122044 -0.58977234 0.66622597 0.3189426 -0.098096885 -0.583955
0.0211469 0.21794471 -0.37319252 -0.082266845 -0.70429343 -0.7079903 -0.07056891 0.5912568
-0.04215688 0.2324831 -0.28970394 -0.21752836 -0.067402266 -0.34576857 0.43023592 0.43370417
-0.54687315 0.21453361 -0.27174485 -0.4021381 -0.09903763 -0.22582544 -0.39696044 0.084128246
0.39744094 -0.11009962 -0.045676477 0.05125084 -0.2888247 0.36261025 0.6556813 -0.05889206
0.058418155 0.5712751 0.58117694 -0.52343994 -0.33865353 -0.6972814 0.42392358 0.55631447
-0.22363326 0.21568117 0.16828775 -0.6015373 0.28939906 0.33921695 4.830027e-05 0.048864666
0.14678253 0.5096481 0.62602925 0.09617276 0.29542288 -0.16106649 0.42128286 -0.278314
-0.5850009 0.31399387 0.24824151 0.14504611 0.30513537 0.09428018 0.20651637 0.2854492
-0.35492688 -0.023113513 0.0831094 -0.08917608 -0.59988236 0.06354723 0.43451098 -0.36802426
0.69104093 0.16900098 0.29970476 -0.25449994 -0.57684565 -0.26498997 0.0297045 -0.2959048
0.6292909 -0.45462298 -0.460455 -0.2486002 0.63529384 -0.31608 0.65666544 0.33814898
-0.11363571 0.37247095 0.32374105 -0.34665644 -0.13551979 0.6862445 0.3993734 -0.34828398
-0.17156509 0.3841104 0.3535371 0.05362228 -0.45356297 -0.5245136 -0.13591532 0.2543435
-0.06763025 -0.59121716 -0.1731406 0.70320344 -0.58475393 -0.5477035 0.44043848 0.70614684
-0.6835434 -0.63790584 -0.21501298 0.70093584 -0.39524278 0.0410017 0.5767686 -0.24889103
00000000: 66f9 dfbe 3e0a ad3c f490 283e 8933 a43e
00000010: 1b11 3ebe 888b 72be 1604 acbe dc6d 2ebf
00000020: 4c65 7e3e d55d 09bf 5dd8 aebe a816 86bc
00000030: 0a33 0d3f 78db 1f3f c35a 03bf fda5 1d3f
00000040: 4591 223f 8f15 133f cbd7 853d f9d3 0f3f
00000050: ed56 ae3e 1e82 00bf 6b43 bfbe 3ab9 423c
00000060: ef75 ffbe bc1c 62be 89cb 113f 14ca a83e
00000070: 68f7 1d3f 3787 af3b d8a3 b2be a075 e73e
00000080: e9d9 383d 7ae1 fc3d 088f 96be 3bf1 973e
00000090: 3d88 05bf e0b4 0e3f d72a 1b3f 6e8f 853e
000000a0: d5d8 0d3f 6ade da3e d422 8bbe 3648 1cbf
000000b0: b9ef 9c3d 72a1 d73e 3802 88bd 2631 893d
000000c0: 67e9 053f 4202 933e 61fd 073f 8401 c13d
000000d0: ad5b b93d f3dd 32be ee53 07be 02a7 c2be
000000e0: b1ad ed3e 41f7 213f 6d24 873e c6bc 243c
000000f0: cc27 5ebe 40f1 30bf bf00 11be 76f9 01bf
00000100: 1804 06bf 60a4 09be 74c4 05be efc8 1b3e
00000110: 2962 03bf c5a4 003f 8149 24bf e06e aabe
00000120: 197d 81be 4c71 a83c 29a1 953e d31e 3cbe
00000130: 0106 8a3d f511 f5bd 0825 85be 717d d7bd
00000140: 4dc1 043e 5eba 2cbf ec39 f6be be17 0c3f
00000150: 8f85 a43e 32ba 13bd 0da0 883c 2806 ea3d
00000160: e87a 283e 69e4 f6be 30af 44be 1cde 25bf
00000170: 41ef 0ebf 7f3e 0cbe 3536 d6bd e350 0e3f
00000180: 8315 073e 50d0 e1bd 0fc3 94bc 4601 c73e
00000190: 0513 6dbe 5aed 0bbe 400f 12be a835 11bf
000001a0: f014 cfbd 8574 27bf 4e58 b9be cf39 e5be
000001b0: 1b5c 053f e7ea 25bf 4721 2e3f 9c03 843e
000001c0: 9bd5 f5be 36f0 153f 7740 21be d85a 1abf
000001d0: 265f abbd 2bb8 ab3e 6940 2ebf ae42 6dbd
000001e0: 7503 903e 9e2c 8fbe 2c39 6f3d a96b 8dbe
000001f0: cd5f f4be 89ed 0c3f 52dd ffbe af0a e8ba
00000200: 4dd6 6e3e 2d82 cabe 72b4 ae3e 52fb 16bf
00000210: c98d 2a3f 724c a33e 05e7 c8bd 137e 15bf
00000220: 433c ad3c e62c 5f3e 1713 bfbe 857b a8bd
00000230: 934c 34bf da3e 35bf 6f86 90bd 9b5c 173f
00000240: b1ac 2cbd 0d10 6e3e 1354 94be c1bf 5ebe
00000250: 330a 8abd 9408 b1be e247 dc3e 790e de3e
00000260: e1ff 0bbf b3ae 5b3e 2422 8bbe 0ce5 cdbe
00000270: 3ed4 cabd c93e 67be 663e cbbe 6e4b ac3d
00000280: 617d cb3e e97b e1bd 4217 3bbd 67ec 513d
00000290: d5e0 93be 0da8 b93e bbda 273f cd38 71bd
000002a0: e047 6f3d 163f 123f 03c8 143f 2900 06bf
000002b0: ff63 adbe 0981 32bf 830c d93e a06a 0e3f
000002c0: 1e00 65be 86db 5c3e a053 2c3e 59fe 19bf
000002d0: 1d2c 943e d8ad ad3e 0596 4a38 5126 483d
000002e0: 294e 163e 4c78 023f 7443 203f 39f6 c43d
000002f0: ab41 973e 9dee 24be 63b2 d73e 2c7f 8ebe
00000300: 9ec2 15bf cec3 a03e 0633 7e3e f886 143e
00000310: b43a 9c3e f815 c13d 0779 533e 6626 923e
00000320: fab8 b5be 8d58 bdbc 4335 aa3d f3a1 b6bd
00000330: e491 19bf 0d25 823d 3978 de3e ad6d bcbe
00000340: 0fe8 303f 980e 2d3e e772 993e d14d 82be
00000350: 28ac 13bf c4ac 87be da56 f33c d580 97be
00000360: 3519 213f 58c4 e8be c2c0 ebbe 0d91 7ebe
00000370: 9ea2 223f 3dd5 a1be 3a1b 283f dd21 ad3e
00000380: d7b9 e8bd 83b4 be3e 63c1 a53e f47c b1be
00000390: b3c5 0abe b8ad 2f3f ac7a cc3e 4752 b2be
000003a0: c2ae 2fbe 1eaa c43e d102 b53e 09a3 5b3d
000003b0: 6839 e8be 8646 06bf 632d 0bbe 5039 823e
000003c0: ba81 8abd 025a 17bf c54b 31be 2405 343f
000003d0: 6fb2 15bf 4c36 0cbf 2781 e13e 0ac6 343f
000003e0: b3fc 2ebf cc4d 23bf 5d2c 5cbe 8870 333f
000003f0: 435d cabe 66f1 273d 1ba7 133f 4add 7ebe

fc.0.linear.bias f4 [2048]
0.109433986 -0.44493705 0.64202195 0.14315839 0.5035082 0.49769932 0.31134257 0.2217954
0.37585375 -0.487806 0.55737716 -0.12937991 0.58540076 -0.077563055 0.31533077 0.5699604
0.1345802 -0.15668422 0.32218087 -0.72621495 -0.0916581 -0.16600303 -0.5845641 -0.047673017
0.19140925 -0.6696148 0.5623524 0.37215325 0.732041 -0.28945935 -0.5413472 0.39922798
0.668432 -0.40513545 -0.43841287 -0.07957119 0.6328302 -0.13166319 -0.72375983 -0.33621383
-0.44314128 0.5667206 -0.5055148 0.52146304 0.26045027 -0.08791931 -0.14679372 0.3706661
-0.38868228 -0.3090579 0.6009795 -0.29779354 0.08437411 0.60884273 -0.5847354 0.14485003
0.04233848 -0.3329898 0.6041172 0.5206305 -0.009064314 -0.094593495 0.46259883 -0.2714079
0.4125253 -0.45014596 -0.62002915 0.50262105 0.5245452 -0.5750096 -0.12609592 0.3130252
0.35000175 0.44153854 0.5302306 -0.35412025 0.17919366 0.6409562 -0.56053877 0.48717412
0.21678369 0.051759228 0.7357599 -0.2767072 -0.17446278 -0.53844523 0.56481355 -0.51248175
0.67214257 -0.55267066 0.42189386 -0.37558618 0.6391163 -0.45657882 -0.4936895 -0.19821665
-0.6010557 0.70155895 0.23681818 -0.4236316 -0.5816332 -0.27380463 0.07566543 -0.3540767
0.37925717 -0.38586697 0.22557363 0.5508973 -0.48612788 -0.58877426 -0.6856804 0.10671223
0.5331212 -0.48973033 -0.08077887 0.46478665 0.58355445 0.41440964 0.20651187 0.1572702
0.087811664 0.634745 0.050222598 0.2701974 -0.0831915 0.5872123 -0.730131 -0.23635265
-0.7144742 0.18708774 -0.19431594 -0.6216502 -0.5778166 0.23829791 0.5371175 0.56830317
0.4704363 -0.5830565 0.57018065 0.714042 0.009244968 -0.69429106 -0.51934546 -0.6676665
0.104881234 0.5536645 0.4816512 -0.3854333 -0.33768582 0.1402737 -0.3524304 -0.044691283
0.22363733 -0.25568733 0.29059163 -0.072687745 0.62460464 -0.5905007 0.57057434 0.5120607
-0.66523963 0.13669929 -0.0983875 0.32670623 0.54541624 -0.41197798 -0.44122213 -0.5503699
0.53829765 -0.604771 -0.4445912 0.6669858 0.3437217 0.48824805 0.637853 -0.65379184
-0.14927678 -0.045860298 0.69558936 -0.18082069 -0.075163744 0.42781752 0.39990094 -0.4950431
-0.59022844 -0.2457375 0.26168445 0.64930356 0.35636422 0.38345173 0.23799196 -0.21384159
-0.12766938 0.5703699 0.16116466 0.1074306 0.45249268 0.50619686 0.2021126 -0.036047783
-0.29003033 -0.45257097 -0.38618177 0.61308676 0.5529238 -0.41432902 0.6291426 -0.20281595
-0.19949743 0.25270462 -0.5497816 -0.3828206 -0.076848105 -0.25026393 0.3396548 -0.16848867
-0.5789171 -0.63638324 0.72572315 0.30371255 -0.71531755 -0.56022745 -0.444875 0.66448116
0.41495505 0.26056677 0.36888713 0.16099158 0.4777605 -0.6036926 0.5901437 0.3228025
0.26424775 0.4750012 -0.16604169 -0.36777076 -0.17212643 -0.57760406 -0.021887254 0.37996286
0.10763199 -0.054332055 0.2895679 -0.6742422 -0.4280681 -0.6568735 0.6871035 -0.66392475
0.3590246 0.5091368 -0.21327539 -0.0790273 0.5758149 -0.62380695 -0.68795407 -0.11990878
00000000: ed1e e03d cace e3be 8d5b 243f 1d98 123e
00000010: eae5 003f 72d2 fe3e 4b68 9f3e 551e 633e
00000020: e76f c03e b5c1 f9be 45b0 0e3f 2b7c 04be
00000030: d3dc 153f 61d9 9ebd 0973 a13e ede8 113f
00000040: 64cf 093e d471 20be e4f4 a43e 39e9 39bf
00000050: 3eb7 bbbd b3fc 29be fea5 15bf c844 43bd
00000060: c900 443e e06b 2bbf 54f6 0f3f df8a be3e
00000070: 0a67 3b3f 0434 94be bb95 0abf 9c67 cc3e
00000080: 5c1e 2b3f ea6d cfbe a777 e0be 38f6 a2bd
00000090: 2901 223f b7d2 06be 5348 39bf 3824 acbe
000000a0: 6ae3 e2be 9a14 113f 6b69 01bf 9a7e 053f
000000b0: bd59 853e 0a0f b4bd 1851 16be f2c7 bd3e
000000c0: 5d01 c7be d63c 9ebe cbd9 193f 6578 98be
000000d0: 55cc ac3d 1edd 1b3f 38b1 15bf 9153 143e
000000e0: 1d6b 2d3d a47d aabe 6da7 1a3f 0a48 053f
000000f0: 7d82 14bc 3cba c1bd c1d9 ec3e faf5 8abe
00000100: 8436 d33e 8879 e6be 3bba 1ebf c6ab 003f
00000110: 9848 063f d433 13bf 4a1f 01be d744 a03e
00000120: 6e33 b33e 5711 e23e 31bd 073f 404f b5be
00000130: 8b7e 373e b515 243f 787f 0fbf e36e f93e
00000140: 8bfc 5d3e 7c01 543d c35a 3c3f 91ac 8dbe
00000150: 5fa6 32be 8cd7 09bf 9f97 103f 0132 03bf
00000160: 8911 2c3f d37b 0dbf 7902 d83e d54c c0be
00000170: 209d 233f b3c4 e9be dfc4 fcbe 4ef9 4abe
00000180: c9de 19bf 5e99 333f 7780 723e 3ee6 d8be
00000190: eae5 14bf 1f30 8cbe 7af6 9a3d 8b49 b5be
000001a0: ff2d c23e 5b90 c5be c6fc 663e 9b07 0d3f
000001b0: c1e5 f8be e9b9 16bf c088 2fbf f18b da3d
000001c0: a27a 083f efbd fabe 646f a5bd 84f8 ed3e
000001d0: d363 153f 802d d43e d977 533e 700b 213e
000001e0: 9ad6 b33d a67e 223f 36b6 4d3d 5057 8a3e
000001f0: 4e60 aabd 8c53 163f dde9 3abf 6e06 72be
00000200: c8e7 36bf ee93 3f3e c2fa 46be 7824 1fbf
00000210: caeb 13bf 5e04 743e 8880 093f 517c 113f
00000220: 07dd f03e 3143 15bf 5cf7 113f 75cb 363f
00000230: 3578 173c 0fbd 31bf d3f3 04bf 31ec 2abf
00000240: f9cb d63d f5bc 0d3f fc9a f63e 8357 c5be
00000250: 28e5 acbe e9a3 0f3e c271 b4be 350e 37bd
00000260: 2f01 653e 73e9 82be 6dc8 943e 50dd 94bd
00000270: 17e6 1f3f 0e2b 17bf 2911 123f 6916 033f
00000280: 254d 2abf e6fa 0b3e 637f c9bd 0a46 a73e
00000290: 66a0 0b3f c7ee d2be dee7 e1be 0be5 0cbf
000002a0: e0cd 093f 46d2 1abf 75a1 e3be 95bf 2a3f
000002b0: 4afc af3e a6fb f93e 564a 233f e75e 27bf
000002c0: 03dc 18be 02d8 3bbd 2512 323f 0f29 39be
000002d0: 73ef 99bd e60a db3e d1bf cc3e 4a76 fdbe
000002e0: 3619 17bf 9ca2 7bbe 81fb 853e c238 263f
000002f0: 5f75 b63e c953 c43e 2ab4 733e 4af9 5abe
00000300: c3bb 02be c303 123f 5908 253e 9304 dc3d
00000310: 1fad e73e 1e96 013f 9bf6 4e3e d7a6 13bd
00000320: db7e 94be 62b7 e7be 9eb9 c5be 41f3 1c3f
00000330: 6a8c 0d3f ef22 d4be 7d0f 213f fcae 4fbe
00000340: 0e49 4cbe 8062 813e 7dbe 0cbf 1001 c4be
00000350: 8a62 9dbd 9822 80be 3ce7 ad3e 4b88 2cbe
00000360: e933 14bf 03ea 22bf fec8 393f 3680 9b3e
00000370: 0d1f 37bf 116b 0fbf a8c6 e3be 701b 2a3f
00000380: fd74 d43e 0269 853e c6de bc3e fada 243e
00000390: 069d f43e 998b 1abf a813 173f 5f46 a53e
000003a0: 7b4b 873e 5b33 f33e d506 2abe 734c bcbe
000003b0: e941 30be dcdd 13bf e64c b3bc 7e8a c23e
000003c0: 296e dc3d 4a8b 5ebd 3e42 943e 239b 2cbf
000003d0: be2b dbbe dd28 28bf 04e6 2f3f f9f6 29bf
000003e0: 13d2 b73e ca56 023f dd64 5abe 11d9 a1bd
000003f0: 9b68 133f d0b1 1fbf c21d 30bf bc92 f5bd

fc.1.weight f4 [2, 2048]
-0.01534789 0.012584564 0.00010993177 0.006498121 -0.0151886325 -0.003954572 0.019733764 0.01030943
5.8519025e-05 -0.011225224 0.022303794 -0.0035639987 -0.012014708 -0.00047657444 -0.002050742 -0.0039236066
-0.00580976 -0.013420949 -0.0023810593 0.00047987414 -0.022394644 0.006452089 0.002018671 -0.01364082
0.016229013 0.0024553058 0.009716653 -0.0094608115 0.0058866953 0.00030691148 -0.0046189083 -0.010111476
-0.00697515 -0.0076552304 0.01729091 0.0013125727 -0.019288871 -0.00018089522 -0.025286684 0.0057697776
-0.015054044 0.0026168232 -0.0016513461 -0.0065826564 0.012255211 0.014665143 -0.01800502 -0.015110035
-0.00978435 -0.012248057 0.007233262 0.018115804 -0.01327085 0.00040659553 -0.0017626764 0.018715763
-0.018924942 0.0064125955 -0.017282015 -0.024246443 0.017839123 0.012419916 -0.024655713 0.02025886
-0.0151822725 0.016303716 -0.0030742208 -0.007571395 0.001386717 0.010405385 0.0003777308 -0.015916837
0.009634883 -0.019430941 0.0013517846 -0.018461118 -0.012287763 0.0006631415 0.0025042517 -0.024829155
0.008877573 0.0038263851 -0.013940338 0.00018235424 -0.012697487 -0.023507304 -0.0044509326 0.0121887475
-0.0035534988 -0.017110579 0.01833941 -0.008080626 -0.020190572 0.0012634804 -0.025738873 0.011576981
0.009813212 0.012197025 -0.0162569 0.0018884453 0.01463351 -0.012848295 0.0074332943 -0.024006147
-0.013116971 -0.025348773 -0.011611419 0.010556098 0.0078035085 0.013736991 -0.013239832 0.00024719216
0.007218632 -0.0143754985 -0.021393761 -0.0024054167 -0.01075202 0.020307219 0.0066865617 0.0015571957
0.008567736 -0.020587496 -0.011560611 -0.018016998 -0.0045591644 -0.016809687 0.01751199 -0.011665257
0.0068417615 -0.019641398 -0.01274993 0.030722974 0.01718768 0.0017220413 -0.014274052 -0.015072653
0.013283208 0.0058233743 0.0005628227 -0.0022720408 -0.0058346945 0.0006256056 -0.017784093 0.008544537
0.014268089 -0.0066921995 0.012986594 0.014762339 -0.018666746 0.0017497656 -0.00032680266 -0.015227182
-0.010032323 0.019398255 0.014540074 0.018263629 0.017331325 0.009506499 0.00093924085 0.009297306
-0.012042373 0.016822435 0.020310538 0.019520571 0.015402864 -0.015805872 -0.014363173 -0.009602061
-0.02043871 0.018755136 0.006069355 0.003740232 -0.0048728506 -0.0028669543 -0.020715836 -0.0026458406
0.01782636 -0.009523798 0.0027272473 0.0021959657 0.017362798 -0.022835173 -0.012551557 -0.018559968
-0.0118064 -0.011537153 0.008767572 0.0078679705 -0.0019766658 0.0023993356 -0.0027344043 -0.025541347
0.021334369 0.0041223466 -0.018705655 0.0061247074 0.015593335 0.014530989 0.019893946 0.019404648
0.012691277 -0.0025933406 0.008843697 0.008044226 -0.017167782 0.020154752 -0.020275349 0.021479823
0.01430487 0.018747272 0.015769567 0.016261013 -0.019072039 -0.021060903 -0.016951332 0.017512616
-0.012824154 0.0034749757 0.014517437 0.0202567 -0.0039792773 0.009623925 -0.019731134 -0.019725353
-0.025039975 0.0148607325 -0.005953067 0.004406244 0.013948948 0.014295756 0.0063540735 -0.011427892
0.011696607 0.02155293 -0.021529723 -0.017636126 -0.017859139 -0.019975463 0.0043527684 -0.02223055
-0.016510759 0.007268569 0.018248577 -0.01612551 0.009757995 -0.020463236 -0.008222463 0.020702614
0.00397985 0.012739179 -0.014157693 0.0059906393 -0.004642162 -0.0020011715 0.006861487 0.002288198
00000000: b775 7bbc 7d2f 4e3c 2b8b e638 31ee d43b
00000010: bed9 78bc 5b95 81bb b4a8 a13c e2e8 283c
00000020: 5372 7538 00ea 37bc 72b6 b63c fa91 69bb
00000030: 56d9 44bc bddc f9b9 be65 06bb 9991 80bb
00000040: cd5f bebb 8ae3 5bbc 8c0b 1cbb 9e97 fb39
00000050: f974 b7bc 0c6c d33b ae4b 043b bf7d 5fbc
00000060: b5f2 843c 32e9 203b 9932 1f3c 8501 1bbc
00000070: 2ee5 c03b f6e8 a039 365a 97bb 9baa 25bc
00000080: cd8f e4bb bad8 fabb aba5 8d3c a20a ac3a
00000090: b203 9ebc b1ae 3db9 0526 cfbc 6710 bd3b
000000a0: 3da5 76bc 027f 2b3b fb71 d8ba 53b3 d7bb
000000b0: 15ca 483c 1146 703c 447f 93bc 1590 77bc
000000c0: 8a4e 20bc 13ac 48bc 0005 ed3b 9867 943c
000000d0: fb6d 59bc 542c d539 9b09 e7ba cd51 993c
000000e0: 7b08 9bbc c020 d23b 0393 8dbc 7aa0 c6bc
000000f0: 5a23 923c e77c 4b3c c7fa c9bc e9f5 a53c
00000100: 11bf 78bc 5f8f 853c de78 49bb 7719 f8bb
00000110: 80c2 b53a 597b 2a3c 2b0a c639 0764 82bc
00000120: a1db 1d3c a32d 9fbc 5d2e b13a c53b 97bc
00000130: 9d52 49bc acd6 2d3a 5f1e 243b 8366 cbbc
00000140: 3d73 113c 17c4 7a3b 0466 64bc 5836 3f39
00000150: 1f09 50bc 6492 c0bc 21d9 91bb 50b3 473c
00000160: d1e1 68bb 7c2b 8cbc 883c 963c 9a64 04bc
00000170: b366 a5bc 5e9b a53a 54da d2bc 61ad 3d3c
00000180: 98c7 203c 08d6 473c 312d 85bc b685 f73a
00000190: 64c1 6f3c a881 52bc fe92 f33b 8aa8 c4bc
000001a0: 90e8 56bc 3ba8 cfbc d23d 3ebc 7cf3 2c3c
000001b0: 93b4 ff3b 1e11 613c e1eb 58bc 9299 8139
000001c0: 468a ec3b 3687 6bbc f841 afbc 32a4 1dbb
000001d0: 3e29 30bc 535b a63c f21a db3b d11a cc3a
000001e0: b05f 0c3c 1ca7 a8bc b868 3dbc 6298 93bc
000001f0: 0b65 95bb 78b4 89bc 4e75 8f3c a21f 3fbc
00000200: db30 e03b ffe6 a0bc 15e5 50bc bfae fb3c
00000210: 2dcd 8c3c 1eb6 e13a b7dd 69bc 4af3 76bc
00000220: d0a1 593c 01d2 be3b 648a 133a 85e6 14bb
00000230: f730 bfbb aeff 233a f2af 91bc 63fe 0b3c
00000240: b4c4 693c 3d4a dbbb b9c5 543c bddd 713c
00000250: 01eb 98bc 6458 e53a b656 abb9 6e7b 79bc
00000260: 9d5e 24bc 17e9 9e3c 7e39 6e3c 9b9d 953c
00000270: 6cfa 8d3c 26c1 1b3c 6337 763a ba53 183c
00000280: 604d 45bc 34cf 893c 4962 a63c 9be9 9f3c
00000290: 4b5c 7c3c 517b 81bc 8453 6bbc f651 1dbc
000002a0: 156f a7bc 5fa4 993c 71e1 c63b ae1e 753b
000002b0: 6fac 9fbb 83e3 3bbb 42b4 a9bc d765 2dbb
000002c0: 9608 923c b409 1cbc 9ebb 323b 31ea 0f3b
000002d0: 6d3c 8e3c d410 bbbc 0ca5 4dbc 130b 98bc
000002e0: a16f 41bc 5406 3dbc dda5 0f3c a9e8 003c
000002f0: f38a 01bb 2c3e 1d3b b133 33bb 163c d1bc
00000300: 6ac5 ae3c c014 873b 9a3c 99bc c5b1 c83b
00000310: 307b 7f3c 6313 6e3c a1f8 a23c 7ff6 9e3c
00000320: 13ef 4f3c 09f5 29bb 27e5 103c eecb 033c
00000330: 73a3 8cbc 941b a53c 7d18 a6bc 74f6 af3c
00000340: f95e 6a3c e193 993c 2e2f 813c d135 853c
00000350: f73c 9cbc ea87 acbc 85dd 8abc 9e76 8f3c
00000360: 671c 52bc 6bbc 633b 8bda 6d3c 61f1 a53c
00000370: 9964 82bb abad 1d3c 30a3 a1bc 1097 a1bc
00000380: a220 cdbc 6e7a 733c f211 c3bb 4162 903b
00000390: 218a 643c bf38 6a3c d535 d03b 0e3c 3bbc
000003a0: 20a3 3f3c c58f b03c 1a5f b0bc a379 90bc
000003b0: 544d 92bc 95a3 a3bc aba1 8e3b d81c b6bc
000003c0: 9241 87bc 2d2d ee3b 0a7e 953c a519 84bc
000003d0: ffdf 1f3c 84a2 a7bc 82b7 06bc 8798 a93c
000003e0: 6769 823b fdb7 503c abf5 67bc 204d c43b
000003f0: 471d 98bb 1626 03bb 53d6 e03b 98f5 153b

fc.1.bias f4 [2]
-0.002702941 -0.0009352798
00000000: d323 31bb 912d 75ba
