cache/2d_gm/smcusum/model_1/iter_4.pth (torch, 42952 bytes, 4 tensors)

fc.0.linear.weight f4 [2048, 2]
00000000: 9c34 d8be 214d a03c cd00 ff3d aad8 953e
00000010: d787 81bd 151a d1bd c6bc adbe 9ae9 2abf
00000020: 4a07 783e a7cf 07bf ce88 73be 337f 03bd
00000030: 6346 113f 2dd3 1c3f f43f 06bf e3ca 1e3f
00000040: c22c 223f 21e3 103f 9200 893d f625 023f
00000050: f2f7 9f3e df8d f4be cabd bdbe 30e3 613c
00000060: ae38 dcbe 9b1a 32be 7882 0c3f dd54 b43e
00000070: cafa 1c3f 8bd8 1f39 279c 80be 779d ce3e
00000080: 1f1e ed3b f589 433d 1a79 90be c35a 973e
00000090: 78bd fabe 0d20 0d3f a264 073f 1d93 833e
000000a0: a461 0f3f 602b d53e 0502 8abe db8a 1abf
000000b0: 0a9b 0d3d 8e8e a73e 52ca f0bc f48e 4c3d
000000c0: 4f36 023f da41 923e c27e 053f fbcb 993d
000000d0: 4560 c23d 6f3c 17be 7816 0fbe 94c5 b9be
000000e0: de3d d83e d90c 163f a00a 783e a1da 623c
000000f0: dcb9 44be 7ebf 22bf 2a4c 2bbe be7f 04bf
00000100: a169 ecbe f222 d5bd dfc1 00bd 3b15 843d
00000110: 1db3 ffbe fc83 f73e 9b6b 24bf a2eb a4be
00000120: 4f19 02be a7ba 8cbc d5d8 913e dd09 28be
00000130: 9946 fd3c 130b 9bbd 20f6 1bbe c998 a1bd
00000140: 06b3 023e a710 20bf 483f d6be f83c 0b3f
00000150: f820 873e a211 39bc 144b 5d3b 6705 823d
00000160: 2f8e 2f3e 0c2c f4be 8ba8 3ebe 4cda 24bf
00000170: ad8a 10bf 33fe 11be 35f4 0ebe 1acd 0d3f
00000180: 9b10 473d 516c d4bc bb57 8bbc d92b ad3e
00000190: cc0b 71be a064 0dbe 7931 14be 41be 0cbf
000001a0: ab30 f7bd a355 26bf a9eb 98be af4b d2be
000001b0: d317 ec3e 86c4 23bf a464 2c3f b654 7c3e
000001c0: ba45 f3be 92ab 153f d583 1fbe 8e27 1cbf
000001d0: bc0d 15bd 874e 863e 34dc 24bf ce65 5abd
000001e0: c48c 893e c69f 8cbe 5911 173d a456 8abe
000001f0: 05da f0be d7aa 073f ed40 f0be e787 7f3c
00000200: 957c 5c3e 7c4f c5be 64c8 b53e fbca 15bf
00000210: d7cb 193f fc85 a43e aafa cabd 05c5 0cbf
00000220: c896 aab8 db06 bb3d dc09 81be ec1a 41bc
00000230: 2dd1 34bf fcde 35bf 3e5d 7abd dc11 143f
00000240: 9680 18bd 5c77 7b3e 71eb 7dbe e483 3fbe
00000250: 7a42 1bbd bc9b 88be f8eb cd3e 35e8 d03e
00000260: 4019 09bf b617 473e 9506 4fbe 8200 b7be
00000270: 43e9 dfbc 29ab 02be ad70 b2be 02d8 163d
00000280: 9665 b43e ae8c e2bd 6d48 67ba 5ee0 423c
00000290: 1aef 52be 56ab 9a3e 6f22 273f 5612 49bd
000002a0: 4267 803d a4bf 113f 32d7 163f 58ba fabe
000002b0: fa30 b6be 34db 35bf 4412 c63e e59c 0e3f
000002c0: 134f e7bd 5cc9 e63d 9706 243e 4e28 0ebf
000002d0: f56b 8e3e 69d4 9c3e ef68 0738 501d 483d
000002e0: 59df f93d ddba f33e 2041 1f3f 6ee9 b73d
000002f0: c1f4 663e 1ed0 9fbd b5b1 d63e 9849 8ebe
00000300: 854f 07bf 6312 7c3e 1094 223e 76a3 8d3d
00000310: e57a a23e d76e cb3d 0e6a e83d a40e 643e
00000320: b999 66be 63c0 2c3c ae0c b23c 063f e8bc
00000330: be8a 1bbf 6638 8f3d 03d7 df3e f1e2 9ebe
00000340: 4555 323f a222 3a3e 0d87 883e 2ebf 31be
00000350: cf26 13bf 049e 80be c1c0 3d3c 5a41 39be
00000360: 9c12 213f 1821 e2be fe54 c3be bf40 5abe
00000370: e141 1f3f e336 8cbe 195d 253f fc55 ba3e
00000380: 31f7 a3bd ee02 b83e f7f0 783e fa51 9cbe
00000390: 6de3 dbbd 7117 303f 8ac0 c13e 5a7a aabe
000003a0: a3de dcbd 379e a43e 6ecf a13e d517 0b3d
000003b0: 9a06 edbe 35b1 06bf 1e89 a2bd 7262 693e
000003c0: f4cc 4abd 3516 15bf 1f53 35be f136 2d3f
000003d0: 49ea 12bf 697a 0dbf d636 e13e 0eb7 343f
000003e0: 09be 2dbf efe6 22bf 9a07 48be 9766 2b3f
000003f0: 9a83 8ebe 01d7 853c 83c4 123f 6d20 71be
-0.42227638 0.019568028 0.124513246 0.29266864 -0.063247375 -0.10210053 -0.33933085 -0.667627
0.2422153 -0.5305123 -0.23782656 -0.03210373 0.56748027 0.6125973 -0.52441335 0.6202833
0.63349545 0.5659657 0.06689562 0.50839174 0.31243855 -0.4776449 -0.3705886 0.013787076
-0.43011993 -0.17392962 0.5488658 0.35220996 0.61320174 0.0001524409 -0.25119135 0.4035451
0.0072362567 0.047738988 -0.28217393 0.29561433 -0.48972678 0.5512703 0.5288793 0.25698176
0.5600836 0.41634655 -0.26954666 -0.60368127 0.034571685 0.32725948 -0.029393349 0.04994102
0.5086412 0.28565866 0.5214654 0.07509609 0.09491018 -0.14769147 -0.13973415 -0.36283553
0.422347 0.58613354 0.24222803 0.0138460705 -0.19211525 -0.63573444 -0.16728273 -0.5175742
-0.46174338 -0.10407056 -0.03143489 0.06449362 -0.4994134 0.48342884 -0.6422669 -0.32211024
-0.12704967 -0.017178847 0.28485742 -0.16410013 0.030917453 -0.075704716 -0.15230608 -0.078904696
0.12763605 -0.6252541 -0.41845155 0.54389906 0.2639234 -0.011295708 0.0033766674 0.06348687
0.17144082 -0.47689855 -0.18618982 -0.64395595 -0.564616 -0.14257126 -0.13960345 0.55391085
0.04859982 -0.025930556 -0.017009607 0.33822516 -0.23539656 -0.13807917 -0.14471997 -0.54977804
-0.120698296 -0.6497442 -0.29867294 -0.41073367 0.46111926 -0.63971746 0.67341065 0.2464169
-0.47514135 0.5846492 -0.15577634 -0.60997856 -0.03639005 0.26231787 -0.64398503 -0.053319745
0.26865208 -0.27465647 0.03688178 -0.27019227 -0.47041336 0.52995056 -0.46924534 0.0155963665
0.215319 -0.38537204 0.35504448 -0.5851285 0.6007666 0.32133472 -0.099110916 -0.5498813
-8.134317e-05 0.09132167 -0.25202835 -0.011786204 -0.70631677 -0.7104337 -0.06112408 0.5783975
-0.037232004 0.2455725 -0.24796845 -0.18702656 -0.037905194 -0.26681316 0.40219092 0.4080216
-0.53554153 0.19442639 -0.20217355 -0.35742575 -0.027332908 -0.12760605 -0.3485159 0.036827095
0.35233754 -0.11061989 -0.0008822743 0.011894314 -0.20599023 0.30208844 0.65286916 -0.049089752
0.06269695 0.56933045 0.5892211 -0.48970294 -0.3558424 -0.710376 0.3868581 0.5570815
-0.11294379 0.11268875 0.16018139 -0.5553025 0.2781674 0.30630806 3.2284235e-05 0.04885608
0.12200803 0.47603503 0.6220875 0.0898007 0.22554304 -0.07803367 0.41932455 -0.27790523
-0.5285571 0.24616389 0.15876794 0.06915943 0.31734386 0.099332504 0.11348353 0.2227121
-0.22519578 0.010543915 0.021734562 -0.028350364 -0.6075858 0.06993179 0.43718728 -0.31032518
0.6966136 0.18177274 0.26665536 -0.17358086 -0.5748109 -0.25120556 0.011581601 -0.18091336
0.6291902 -0.44165874 -0.3815078 -0.21313761 0.622099 -0.27385625 0.6459518 0.36393726
-0.080061324 0.35939735 0.24310671 -0.30531293 -0.107367374 0.6878577 0.37842208 -0.33296472
-0.10784652 0.32151958 0.3160357 0.033958275 -0.462941 -0.52614146 -0.07936309 0.2279146
-0.049511865 -0.5823701 -0.1770749 0.6766196 -0.5738874 -0.5526491 0.4398715 0.7059182
-0.67868096 -0.63633627 -0.1953415 0.66953415 -0.2783478 0.016337873 0.57331103 -0.23547526

fc.0.linear.bias f4 [2048]
00000000: bec5 383e f320 03bf 4cdd 423f 38cc 573e
00000010: ac1c 083f b236 1f3f d9d6 ba3e 831a 273e
00000020: 0ab3 d23e 357d 17bf daa4 213f 090a 1fbe
00000030: 5664 313f a774 24be 8e81 b53e 14b9 2f3f
00000040: 6947 753e 188e 61be 70ce c93e 855f 58bf
00000050: 2d02 18be b03c 55be 9ebd 2ebf b0a8 0cbe
00000060: 8ee4 803e 5557 37bf 4b98 153f 77ab cc3e
00000070: e488 4e3f 2aec b9be 8003 24bf 1606 b93e
00000080: 36df 493f 7355 02bf 92cf 07bf 6305 f3bd
00000090: d0ee 3c3f 6280 55be 1901 40bf fa6e e9be
000000a0: f9ff 05bf 078f 253f 6907 1bbf cef4 0a3f
000000b0: c72e 983e 6d12 22be aac4 b5bd 50d4 b43e
000000c0: 8962 f3be bbd8 cebe 976c 183f ea9e c0be
000000d0: e859 223e 3546 323f f8c7 2ebf 5a66 563e
000000e0: af6c c93d 1eac 9bbe 5d37 2f3f 9a6d 1a3f
000000f0: 7ad3 513d 2c75 22be 589d 0a3f 8394 babe
00000100: 4c8d ee3e 8574 e0be 84fd 3abf 3a25 163f
00000110: 6c6b 1f3f edb2 33bf da74 98bd 8ff1 c13e
00000120: 37d3 a83e 8439 0b3f d6ea 1d3f dffb dbbe
00000130: 9db9 7a3e 4f00 393f 4d6c 29bf a00f 113f
00000140: 5b8d 9b3e 6af3 f23d 817c 523f 6f5f 9fbe
00000150: a6cc 50be a1d9 1ebf c5bb 043f df96 13bf
00000160: 525a 453f e30a 24bf 9b95 003f 944d c0be
00000170: 3a79 383f 0721 00bf 8607 16bf aabd 64be
00000180: 9704 37bf dc06 4a3f eb54 413e 6d7c 06bf
00000190: 1b40 33bf 4c3d a2be 2d4f a53a ae4c e0be
000001a0: 2198 a93e 907c f1be 0db3 a83e ea3e 263f
000001b0: a53b 08bf fa72 2fbf b212 45bf 37c5 b43c
000001c0: b5a3 103f 84b8 13bf 273e 75bd d3a7 093f
000001d0: aed5 293f 36d3 fc3e 1baf 173e fc86 6f3e
000001e0: dce6 213e aeb6 343f 9652 d43d 4a90 8b3e
000001f0: 35aa 34be 3df6 293f 84f3 59bf c595 9abe
00000200: 7c20 53bf 4a23 813e 9aba 8bbe 17b8 20bf
00000210: d315 2bbf 5345 a53e 57d8 233f 4f89 043f
00000220: 4351 e83e 35f9 34bf 30a6 1d3f 322b 4d3f
00000230: 8e59 4cbd 8b55 51bf 5b2c 1bbf da20 46bf
00000240: e51c b63d 327c 053f 4c51 0e3f f91d febe
00000250: f627 d8be 66ba 913d 9f1a b5be ce7c 193c
00000260: 6f4e 913e 1738 b6be 1f37 bb3e daca a1bc
00000270: c04e 143f d16c 35bf 96df 233f 5ce0 173f
00000280: ac82 45bf b520 8f3d 45d7 39be 68b9 c13e
00000290: b532 213f 91e3 00bf 6f0b 07bf f318 21bf
000002a0: f8a0 1a3f dcae 2bbf 6f8a 0dbf 57f5 423f
000002b0: b67e db3e 0f10 073f 9884 373f 018c 3cbf
000002c0: 4866 d8bd 3241 0cbd f10c 4d3f c4ef 73be
000002d0: b29c 1abe ba6b 013f 4e22 f33e ef4d 13bf
000002e0: a83d 1ebf 0cc4 88be 57bb b03e 1638 293f
000002f0: e9ee c93e 0668 ab3e 5b61 973e 9109 99be
00000300: a300 3abe 3e24 153f 6ba9 643e 5458 063d
00000310: 642e 063f 4f54 0e3f 07b3 6d3e 202f fa3c
00000320: 31bc 87be 1ea5 0abf b9c5 efbe 8eaf 323f
00000330: 7656 0a3f 51e9 04bf 797d 373f 0a22 91be
00000340: fd73 8fbe bdf3 a63e 000a 25bf 2ab1 adbe
00000350: 15f2 e6bc 6c5d a8be 053a a43e 9cc8 8abe
00000360: d267 15bf 6428 3ebf 13b8 533f a22e 8b3e
00000370: 1307 56bf c785 24bf 4f58 01bf a5e4 3c3f
00000380: 7aed 003f 8713 ab3e 213a a03e 0c9a 873e
00000390: 19b2 de3e b7d4 2ebf b030 323f d158 b23e
000003a0: 0e3c a43e 11e7 0b3f c1b8 70be e484 f1be
000003b0: 4b18 0ebe de05 30bf e6c4 aebd 4081 e23e
000003c0: 56ad 513d 77ea e4bd aa00 9d3e 1bd6 46bf
000003d0: 9b45 bebe 409d 3dbf 5288 413f 5a9c 43bf
000003e0: de1b ee3e af51 063f edf8 8cbe df99 b7bc
000003f0: 1430 333f 00d4 39bf c4d4 4dbf 19d6 4cbe
0.18044183 -0.5122215 0.7611892 0.21073997 0.5316875 0.62192833 0.3649204 0.16318707
0.4115222 -0.59175426 0.6314217 -0.15531172 0.69293725 -0.16060124 0.35450405 0.6864178
0.23953022 -0.2202686 0.39415312 -0.8452075 -0.1484458 -0.20823932 -0.6825808 -0.13736224
0.25174373 -0.71617633 0.58435506 0.39974567 0.8067763 -0.3631299 -0.6406784 0.36137456
0.7885622 -0.50911635 -0.530511 -0.11866262 0.738019 -0.20849755 -0.75001675 -0.4559248
-0.5234371 0.6467137 -0.6055818 0.5427979 0.29723188 -0.15827341 -0.08875401 0.35318232
-0.47536114 -0.40399727 0.59540695 -0.37621242 0.15854609 0.6963838 -0.6827388 0.20937482
0.09835183 -0.30404752 0.6844385 0.6032349 0.05122707 -0.1586501 0.5414634 -0.3644143
0.46592176 -0.43838897 -0.73043084 0.58650553 0.6227329 -0.70194894 -0.07444163 0.37879607
0.32973644 0.54384637 0.61686456 -0.429656 0.24484868 0.72266096 -0.6618088 0.56664467
0.30381283 0.11862834 0.8222123 -0.31127498 -0.20390567 -0.62050825 0.51849014 -0.57652086
0.7709094 -0.6407911 0.5022828 -0.37559187 0.7205998 -0.50050396 -0.5860523 -0.22337976
-0.7149138 0.78916717 0.1888005 -0.5253361 -0.7001969 -0.3168739 0.0012612097 -0.43808502
0.33123878 -0.47165346 0.32949105 0.6493975 -0.5321601 -0.68534815 -0.7698165 0.022066696
0.564998 -0.57703424 -0.059873726 0.53771704 0.66341674 0.4937989 0.14812891 0.23391336
0.15810722 0.7059125 0.103673145 0.2725852 -0.17643054 0.66391355 -0.851372 -0.3019239
-0.8247144 0.25222236 -0.27290803 -0.627809 -0.66830176 0.32279453 0.64001983 0.51772016
0.45374498 -0.7069276 0.61581707 0.80144036 -0.049890094 -0.81771153 -0.60614556 -0.7739388
0.0889223 0.5214263 0.555928 -0.49632242 -0.42217988 0.07115631 -0.35371873 0.009368135
0.28380153 -0.35589668 0.36565492 -0.019750047 0.5793266 -0.70869166 0.6401304 0.5932672
-0.77152514 0.0698866 -0.18148525 0.37836766 0.62968 -0.5034724 -0.5275182 -0.62928694
0.6040187 -0.6706369 -0.5528936 0.7615561 0.4287011 0.5275888 0.71686697 -0.7365113
-0.105663836 -0.034241863 0.8009787 -0.23821932 -0.15098837 0.50555 0.4748711 -0.5754079
-0.6181283 -0.26712072 0.3451793 0.66101205 0.39440086 0.334778 0.29566464 -0.2989011
-0.18164305 0.58258426 0.22330253 0.03279908 0.52414536 0.55597395 0.23212825 0.03054005
-0.26510766 -0.541582 -0.46830538 0.69799125 0.5403818 -0.5191851 0.7167583 -0.28346282
-0.2801818 0.32607833 -0.64468384 -0.33924228 -0.028191606 -0.32883775 0.32075515 -0.27106178
-0.5836154 -0.7428038 0.8270275 0.27184016 -0.83604544 -0.6426663 -0.50525373 0.73786384
0.5036236 0.33413336 0.3129435 0.26484716 0.43495253 -0.6829333 0.6960554 0.34833387
0.32077068 0.54649454 -0.23507978 -0.471717 -0.13876455 -0.6875895 -0.08533649 0.44239235
0.051190697 -0.11177533 0.3066457 -0.7767045 -0.3716248 -0.7406807 0.75598633 -0.7641045
0.46505636 0.5246839 -0.27533665 -0.022412239 0.69995236 -0.7258911 -0.8040278 -0.20003547

fc.1.weight f4 [2, 2048]
00000000: 29e4 9fbc 83ff 253b 6de4 dfbb cd51 a73b
00000010: 97f2 29bc e0a8 b9bc e421 b73c 6286 293c
00000020: 16a6 a43b 2ec1 5fbc 7291 d53c 800b 183c
00000030: fb54 bbbc 90b6 5bbb f7ac 123c 1736 27bc
00000040: c68b 6ebb 85f4 1cbc faa1 bfbb 99ae 88bc
00000050: 66a0 b3bc 8819 263b aded 2aba 52ff bebb
00000060: 02d5 8e3c 293f cebc 098e 933c 1741 49bc
00000070: eae8 083c 2688 c5bc 4278 62bb 4445 55bc
00000080: 400e d0bc a662 603c 810d de3c e11a 96b7
00000090: 404f 1abd d896 a0bb 3695 ebbc f7e4 ee3c
000000a0: 3337 81bc 0570 34bb 8787 fcbc 3332 95bb
000000b0: 4a07 7f3c 077e 6b3c 3452 84bc 385f 7bbc
000000c0: a724 0abd 7706 31bc 3e1c 01bc f86d 993c
000000d0: a8fa 5fbc 9b92 aabb a1ff 08bc b769 aa3c
000000e0: a573 91bc a8c1 d33b 364b 9bbc d47a 21bd
000000f0: 74ef 773c 4966 5f3c 7d39 f6bc a161 1f3d
00000100: 4cf0 3fbc 0d16 393c c454 88bc 5465 1bbc
00000110: 1f35 343b efc8 313d 623b 5c3b ba28 6ebc
00000120: 532e 113c 250b f7bc fb82 5c3a b6f3 c1bc
00000130: ae33 42bc a799 84bb 1647 5f3c b98e 15bd
00000140: 5940 873c 8cfe d13a 447b b0bc 5e69 f8bb
00000150: 5777 59bc b18f 11bd c475 d3bb 0485 bf3b
00000160: dd48 44bc 3450 a9bc 8b60 c23c 8c64 04bc
00000170: 0522 92bc 9b7f 6bbc aa36 47bd 0d5e 413b
00000180: d157 ba3c 0a62 cf3c 1efc 2abc a362 e5bb
00000190: 55e5 353d 41ec 9dbc fef9 553c 01f6 12bd
000001a0: 64b9 17bc 2bcb 1cbd e158 aabc 09e9 623c
000001b0: 8783 88bb 183b 063d e95d cbbc 4e08 e1ba
000001c0: 8f57 aa3b b442 d0bc 87de a2bc dc9e ac3b
000001d0: 14dc 5dbc 040c 183d e765 e33b 46be 4dba
000001e0: eab6 103c fe69 afbc bc0c 17bc 77bb 85bc
000001f0: 986f e339 caf2 96bc 0227 5c3d 87ac 90bc
00000200: 10da 7d3c 45e0 98bc 0937 87bc 400c 023d
00000210: d57e c83c 515a e53a 7a06 bcbc 2e1a fdbb
00000220: bb65 3f3c 18d3 9a3c 6829 343c 048d ae3a
00000230: e379 8fbb 69e0 c3bc be49 dbbc 03db fb3c
00000240: 9f12 853c e96a 26bc 227d 923c f983 1c3d
00000250: c87c 73bc 1c5a 843b 1e32 763b 755e 70bc
00000260: 74f1 f2bb 9021 e13c 8b57 a63c 4c0a 5f3c
00000270: 7a42 473c 6b3f cd3c fc8e 5e3c f587 d93b
00000280: ddc7 f3bb 4c2b 9b3c 9274 c83c 2223 cc3c
00000290: d010 a63c 989a 0cbd 84eb ecbc e9eb 60bc
000002a0: c0a4 a0bc e581 653c 7856 f83c b9a0 673c
000002b0: ffac 00b6 dbd6 54bb e569 dbbc 8962 1dbc
000002c0: a920 9b3c 3cf3 5fbc 87fc 0cbb 44b2 78bc
000002d0: 4cf0 a53c 62f0 d9bc 37f0 89bc 9c68 d6bc
000002e0: eabc 2b3b 3069 7abb 7613 5d3c 0b7a 5abc
000002f0: 4d62 3abb d001 a93b a5da dcba ed25 13bd
00000300: 179d b43c fc10 9dbb a941 7fbc af2c 0a3c
00000310: ba44 9a3c 1cb4 a33c a3d9 b83c b1c2 943c
00000320: 958d 1b3b d697 173b e084 923c 61e5 303c
00000330: d10d 57bc b980 533d 292f 15bd cbd1 c63c
00000340: 4806 793c 4301 9a3c a7ee ab3c eb71 9c3b
00000350: 990f 81bc 2307 d8bc ee94 3fbc 05db bd3c
00000360: 08e7 23bc ebd6 83bc fa38 fd3c 8fcc 9e3c
00000370: 1ee0 833c 5066 c03c 96ab c1bc e269 b5bc
00000380: 8cf3 0cbd 9752 a43c b7da 82bb 7eb3 493c
00000390: c588 0c3c ebd3 c33c 97a5 b23b 50da 0abc
000003a0: 1a44 133c 1cf5 d53c df0b bdbc f481 3abd
000003b0: d28d 88bc 9a81 4fbd dabb 943b a23c c1bc
000003c0: 6229 8cbc fcc4 943b 44da a63c 2828 14bd
000003d0: 76e1 083c 4cd2 e5bc 2ef5 b5bb 5e51 f93c
000003e0: cc00 a53c e768 883c 683e 7bbc 51d8 6d3b
000003f0: ce15 90bb 68d8 cdbb 977b 273c e495 ffbb
-0.019517975 0.0025329299 -0.0068326504 0.005106187 -0.010372779 -0.022663534 0.022355027 0.010346981
0.005024682 -0.0136568975 0.02607033 0.009280086 -0.02286767 -0.0033525564 0.008952371 -0.010205767
-0.003639923 -0.009579782 -0.0058481665 -0.016684817 -0.02192707 0.0025344808 -0.0006520402 -0.0058287764
0.017435554 -0.025176601 0.018012064 -0.012283585 0.008356312 -0.024112772 -0.0034556543 -0.0130170025
-0.02539742 0.013695395 0.027106049 -1.789391e-05 -0.037673235 -0.0049007945 -0.028757673 0.029161913
-0.015773391 -0.002753259 -0.030826343 -0.0045531034 0.015565703 0.014373309 -0.016152479 -0.015342526
-0.03372636 -0.010804764 -0.007880269 0.018729195 -0.013670601 -0.005205465 -0.008361728 0.020802362
-0.017755339 0.0064622946 -0.018956762 -0.03942378 0.015132774 0.0136352265 -0.03005671 0.038911466
-0.011715006 0.011296761 -0.016641982 -0.009484608 0.0027497483 0.043404516 0.003360473 -0.014536077
0.008861142 -0.030156681 0.00084118516 -0.02367578 -0.011853142 -0.004046637 0.013627788 -0.036513064
0.016510176 0.0016021295 -0.021543153 -0.00758092 -0.013273082 -0.035537425 -0.0064532477 0.005844714
-0.011980263 -0.020668127 0.023727676 -0.008080613 -0.017838487 -0.014373685 -0.048636116 0.0029505522
0.022746952 0.025315303 -0.010436086 -0.007000284 0.04440816 -0.019277694 0.013060091 -0.03587914
-0.009260509 -0.038279694 -0.020794334 0.013849505 -0.00416607 0.0327712 -0.024825053 -0.0017168613
0.005198426 -0.025422432 -0.0198815 0.005267961 -0.01354124 0.037120834 0.006939638 -0.00078484823
0.008832673 -0.021412846 -0.009219345 -0.016324742 0.00043379958 -0.018426318 0.05374814 -0.017660392
0.015493885 -0.018661628 -0.016505735 0.031749964 0.02447454 0.001749823 -0.022952307 -0.007724068
0.011681969 0.018899485 0.0109962 0.0013317172 -0.0043785437 -0.023910718 -0.026768561 0.030744081
0.01624423 -0.010157325 0.017881934 0.038211796 -0.014861293 0.004039062 0.0037566493 -0.014670958
-0.0074140374 0.027481824 0.020305416 0.013613295 0.012161845 0.025054654 0.013583895 0.006638522
-0.007439597 0.018941544 0.024469648 0.024919096 0.020271689 -0.03432712 -0.028920896 -0.01372812
-0.019609809 0.01400802 0.030314669 0.01413744 -1.9174183e-06 -0.0032476697 -0.026783893 -0.009606012
0.018936472 -0.013668831 -0.0021512823 -0.015179221 0.020256184 -0.026603881 -0.016838176 -0.026172929
0.002620513 -0.003820967 0.013493409 -0.013334761 -0.002843994 0.005157687 -0.0016849829 -0.03592484
0.022047563 -0.0047932845 -0.015579619 0.008433505 0.0188316 0.019983344 0.022564715 0.018159242
0.0023735513 0.0023131273 0.017885625 0.010796876 -0.013125853 0.05163643 -0.03642193 0.024269959
0.0151992515 0.01879943 0.020987822 0.0047743223 -0.015754508 -0.02637059 -0.011693222 0.023175726
-0.010003813 -0.016093692 0.030910958 0.01938465 0.016098078 0.023486286 -0.023641389 -0.022145215
-0.034411952 0.020058913 -0.003993358 0.012310861 0.00857753 0.023904761 0.0054518688 -0.008474901
0.008988405 0.026117854 -0.02307695 -0.04553409 -0.016669188 -0.050660707 0.004538995 -0.023588482
-0.017109577 0.004540084 0.020367749 -0.03617111 0.008354535 -0.028054379 -0.0055529093 0.030434307
0.020141982 0.016651584 -0.015334703 0.0036292265 -0.0043971306 -0.006281901 0.010222337 -0.007799851

fc.1.bias f4 [2]
00000000: 8445 0bba 3ee4 61bc
-0.0005312788 -0.013787327
