cache/2d_gm/dsmcusum/model_1/iter_5.pth (torch, 43016 bytes, 4 tensors)

fcs.0.0.linear.weight f4 [2048, 2]
0	0xbf28b0e7	-0.6589493
1	0x3ef2868f	0.47368285
2	0x3f063216	0.52420175
3	0xbe67c1d5	-0.22632535
4	0xbee4f6cd	-0.44719544
5	0xbcfee9b1	-0.031117292
6	0x3f1649de	0.5870646
7	0x3e1851b9	0.14874925
8	0xbdab53ed	-0.08365617
9	0xbd1ad614	-0.037801817
10	0x3d8c23d5	0.06842772
11	0xbefbfe58	-0.49217486
12	0x3e972416	0.2951972
13	0x3ed2b578	0.41154075
14	0xbe8423bf	-0.25808522
15	0xbf1172b9	-0.5681568
16	0x3eee6c20	0.46566868
17	0xbdbb1433	-0.09134712
18	0x3c973b00	0.01846075
19	0x3e296e24	0.16545922
20	0xbe2e7d4b	-0.17039983
21	0x3e87a9a5	0.26496616
22	0xbeabd8a1	-0.33563712
23	0xbf035e9a	-0.51316226
24	0xbe6b1195	-0.22955926
25	0x3ee2092b	0.4414762
26	0xbd89f866	-0.06736831
27	0xbe76e25a	-0.24109784
28	0x3ed8cfdb	0.4234608
29	0x3ebc0a17	0.36726448
30	0x3e419ffe	0.18908688
31	0x3f0a7932	0.5409118
32	0xbead784f	-0.3388085
33	0x3e8517e2	0.25994784
34	0x3e09bb4d	0.13450356
35	0x3e8cb9c0	0.27485466
36	0x3e7acd1e	0.24492308
37	0x3e7d646b	0.24745338
38	0xbe693182	-0.22772792
39	0xbf22199a	-0.63320315
40	0x3f352dee	0.7077321
41	0x3f29ea8f	0.66373533
42	0xbf0b7386	-0.5447315
43	0x3cc8398f	0.024441509
44	0xbf17fa2b	-0.593661
45	0x3d45fa1b	0.048334222
46	0x3e4be50e	0.19911596
47	0xbd56ae80	-0.05241251
48	0x3f0798a1	0.5296727
49	0x3f04ac52	0.5182544
50	0xbea60be2	-0.3243094
51	0x3e88b3f2	0.26699787
52	0x3ea2c5fd	0.31791678
53	0xbedc4eb9	-0.4302881
54	0x3f128a9b	0.57242745
55	0xbee0edea	-0.43931514
56	0xbf1321e5	-0.57473594
57	0x3f08f2d1	0.5349551
58	0xbf1f09d1	-0.62124354
59	0x3f214acc	0.63004756
60	0xbf030692	-0.511819
61	0xbd2c3285	-0.042040367
62	0x3f099a5f	0.53751177
63	0x3e8e2320	0.27761173
64	0x3f298db0	0.6623182
65	0x3db3fe06	0.087886855
66	0x3df2eb97	0.118613414
67	0x3cf4e51b	0.029894402
68	0xbf0e6253	-0.5561878
69	0x3e3946fd	0.18093486
70	0x3c3bc08c	0.011459481
71	0xbf12c6d5	-0.57334644
72	0xbef9efdb	-0.48815808
73	0x3eca2876	0.39483994
74	0xbf0cb269	-0.5495973
75	0x3da2b813	0.079452656
76	0x3e9e4b5e	0.30916876
77	0x3e9a8b62	0.30184466
78	0x3f290290	0.66019535
79	0x3f24f633	0.6443817
80	0xbde2e7c3	-0.11079361
81	0x3efd000b	0.49414095
82	0x3e91997c	0.28437412
83	0x3e76ec8f	0.24113677
84	0x3f2b4ad7	0.6691107
85	0xbf104176	-0.56349885
86	0xbee4a172	-0.44654423
87	0xbec729d8	-0.38899112
88	0xbe8bbf88	-0.27294564
89	0x3e7f476d	0.2492959
90	0xbe93c3b7	-0.28860256
91	0xbdeae23f	-0.11468934
92	0x3e0af2b4	0.13569146
93	0x3ed50595	0.4160582
94	0x3f276f3e	0.6540412
95	0x3e9b10f5	0.30286375
96	0x3ed976e1	0.4247351
97	0x3eafd4f3	0.34342155
98	0x3ea97164	0.33094323
99	0xbf0d8d9d	-0.5529421
100	0xbd920695	-0.07130162
101	0xbeb7d3bb	-0.35903725
102	0x3f2e18b4	0.68006444
103	0xbe83b7ce	-0.2572617
104	0xbea8bc09	-0.3295596
105	0x3e4e4a5f	0.20145558
106	0xbe3a0df0	-0.18169379
107	0xbe42f3fb	-0.19038384
108	0x3ef7baa3	0.4838458
109	0x3ea9ee86	0.3318979
110	0x3f20d9ea	0.6283251
111	0x3de09ee6	0.109678075
112	0xbe718c1d	-0.23588605
113	0xbe0b6085	-0.13611038
114	0xbe842d9a	-0.2581604
115	0x3cc07e82	0.023497824
116	0x3f1c4342	0.6104013
117	0x3edb78c0	0.42865562
118	0x3f25a16a	0.64699423
119	0x3e8b39e6	0.2719261
120	0xbe716c7d	-0.23576541
121	0x3c517ce8	0.012786128
122	0xbf26d309	-0.65165764
123	0xbe84835e	-0.25881475
124	0x3e839cf8	0.25705695
125	0xbeec0021	-0.46093848
126	0x3f1cf8c1	0.6131707
127	0xbe9c657a	-0.3054617
128	0x3ef00eb4	0.46886218
129	0xbda9b6d7	-0.08286827
130	0x3e32f123	0.17474799
131	0x3e333822	0.17501882
132	0x3ea5b6bd	0.3236598
133	0x3ea69983	0.32538995
134	0x3d0fe20e	0.035127692
135	0x3e194e4f	0.14971279
136	0x3f346abe	0.70475376
137	0x3e23dd67	0.16002427
138	0xbe447687	-0.1918584
139	0x3e3b16cb	0.18270414
140	0x3d989d9a	0.07451935
141	0xbf2e2242	-0.68021023
142	0xbeabc75d	-0.3355054
143	0x3f26f84b	0.65222615
144	0xbdfd75be	-0.12375973
145	0x3efb5ced	0.49094334
146	0xbf1962b3	-0.5991623
147	0x3f2f0b82	0.68376935
148	0x3de0ae3f	0.10970735
149	0xbf23a0f3	-0.63917464
150	0xbeb54f0f	-0.3541188
151	0x3ea9ceba	0.33165532
152	0x3ef7abc4	0.48373234
153	0x3e4dc97b	0.2009639
154	0xbf066690	-0.5250025
155	0x3ef74e6a	0.48302013
156	0x3e4aa579	0.19789685
157	0xbe920406	-0.28518695
158	0x3e845d7a	0.25852567
159	0xbf033705	-0.5125583
160	0xbdbe2501	-0.09284402
161	0xbf33d268	-0.7024293
162	0x3e771de8	0.24132502
163	0x3e9a82c4	0.3017789
164	0x3f2ffddd	0.6874674
165	0x3ed21470	0.41031218
166	0x3f333134	0.69996953
167	0x3e4deaa7	0.20109044
168	0x3e98aef7	0.29820988
169	0xbe5beb23	-0.21476416
170	0x3eebcca9	0.4605458
171	0x3e84e523	0.25956067
172	0xbefd60f7	-0.4948804
173	0x3e2e151c	0.1700024
174	0xbd4ef665	-0.05052795
175	0x3f2c1093	0.6721279
176	0xbf066270	-0.52493954
177	0xbeb1620b	-0.34645113
178	0x3ea99067	0.33117983
179	0xbf059658	-0.5218253
180	0xbe0152db	-0.12629263
181	0x3e32c940	0.17459583
182	0xbef9eacc	-0.48811948
183	0xbf0a162a	-0.5394007
184	0x3f1784a9	0.591868
185	0x3f2397c9	0.6390348
186	0xbe9756bc	-0.2955836
187	0x3cbfb557	0.0234019
188	0xbf22be4e	-0.6357163
189	0x3f29c5b8	0.6631732
190	0x3deec43c	0.116585225
191	0xbea52057	-0.32251236
192	0x3d6bca16	0.05756577
193	0xbe314cdc	-0.17314476
194	0xbd9d8e50	-0.076931596
195	0x3e2fa554	0.17152911
196	0xbc844319	-0.016145276
197	0xbe2c3dea	-0.16820493
198	0xbf1be656	-0.6089834
199	0x3e8ebffc	0.27880847
200	0xbf06fcb8	-0.5272937
201	0x3ebbfc68	0.36716008
202	0x3e34f4a0	0.17671442
203	0xbf25f17b	-0.64821595
204	0x3ecb58c9	0.39716175
205	0xbea5c5ae	-0.3237738
206	0x3ea7d9fe	0.32783502
207	0x3e6f4844	0.23367411
208	0x3e94c06f	0.29053065
209	0xbd8cec44	-0.068810016
210	0xbd67ea37	-0.05661985
211	0x3e37b46e	0.17939922
212	0xbea9bffd	-0.33154288
213	0x3f2d6035	0.67724925
214	0xbf082d50	-0.5319414
215	0x3eda020e	0.42579693
216	0xbec5a478	-0.38602042
217	0xbc93a514	-0.018023051
218	0x3eb0d3ab	0.3453649
219	0xbe634ff6	-0.22198471
220	0x3dabfc06	0.08397679
221	0x3f34144d	0.70343477
222	0xbf1a0c93	-0.60175437
223	0x3f2dec46	0.6793865
224	0x3f338a4a	0.7013289
225	0xbf14bd59	-0.5810142
226	0xbedcaa6a	-0.43098766
227	0x3ecccff5	0.4000241
228	0xbec93763	-0.3930007
229	0x3f07c006	0.5302738
230	0x3d921b7c	0.071341485
231	0x3e8155a0	0.2526064
232	0x3e95213d	0.2912692
233	0xbe98e65c	-0.2986325
234	0x3ea73c6b	0.32663283
235	0x3d785c8e	0.060635142
236	0xbed8f5ad	-0.42374936
237	0x3eeeb129	0.46619537
238	0x3eb32496	0.3498885
239	0xbe7931a8	-0.24335349
240	0xbf071b91	-0.5277644
241	0xbf023884	-0.50867486
242	0xbefa3cf0	-0.48874617
243	0xbe67347c	-0.22578615
244	0x3e3aad9f	0.18230294
245	0x3f2fea06	0.68716466
246	0xbdc11b84	-0.09429076
247	0x3f1c22f1	0.60990816
248	0xbe7268da	-0.2367281
249	0x3eeb0b40	0.4590702
250	0x3eeb7160	0.45984936
251	0xbdd3f7c2	-0.103499904
252	0xbe1333d8	-0.14375246
253	0xbe6ff7d6	-0.23434386
254	0x3ef2adb5	0.47398153
255	0xbd96264b	-0.073315226

fcs.0.0.linear.bias f4 [2048]
0	0x3ddce45a	0.10785742
1	0xbf238d26	-0.6388725
2	0xbf3e7162	-0.7439176
3	0xbeef0530	-0.46683645
4	0xbb6751c0	-0.003529653
5	0xbf32348a	-0.6961142
6	0xbed5645e	-0.41678137
7	0xbe086a3e	-0.13321778
8	0xbebeed18	-0.37290263
9	0xbe8f2f70	-0.2796588
10	0x3ce32ad4	0.027730383
11	0xbe039209	-0.12848677
12	0x3f002904	0.50062585
13	0x3ec657d5	0.38738886
14	0x3ee94827	0.4556286
15	0x3ed1472d	0.40874615
16	0x3e7cca2a	0.24686494
17	0x3e8fb135	0.28064886
18	0xbe316ead	-0.17327376
19	0x3d6be96c	0.057595655
20	0x3f088d1c	0.53340316
21	0xbda085ac	-0.07837996
22	0x3d1fb9da	0.0389956
23	0x3dc9fa3a	0.0986218
24	0x3e2685d0	0.16261983
25	0xbf2b413e	-0.66896427
26	0xbebb0d7c	-0.36533725
27	0xbeb45d0d	-0.35227242
28	0xbe84d6a5	-0.2594501
29	0x3f1fb587	0.62386364
30	0xbf303f51	-0.68846613
31	0x3e824129	0.25440338
32	0xbebf1d0e	-0.37326854
33	0x3ec94780	0.39312363
34	0xbedb2ee5	-0.42809215
35	0xbf1ddc9c	-0.6166475
36	0xbb8fa1cc	-0.0043833014
37	0x3df93d3a	0.12169881
38	0x3d7eab5e	0.062175147
39	0x3edd4597	0.43217155
40	0xbf2867a4	-0.65783143
41	0x3f242f80	0.6413498
42	0xbe2fe170	-0.17175841
43	0xbe11f757	-0.14254509
44	0xbd06a1e8	-0.03286925
45	0x3ba45c89	0.005015914
46	0xbeaab639	-0.3334215
47	0xbe212359	-0.1573614
48	0x3e2ca11f	0.16858338
49	0xbf35ae01	-0.70968634
50	0xbeace30c	-0.33766973
51	0x3ef79863	0.4835845
52	0xbed58e99	-0.41710356
53	0x3dae5d8b	0.08513936
54	0x3ef30e02	0.47471625
55	0x3f3b1513	0.7307903
56	0xbf028a92	-0.5099269
57	0x3efa57a0	0.48894978
58	0xbeed97c9	-0.46404865
59	0x3f03f077	0.51538795
60	0xbf1c15ac	-0.6097057
61	0x3f0ba949	0.54555184
62	0x3f330eed	0.6994465
63	0x3ecaf63b	0.39640984
64	0x3ee53ebc	0.44774425
65	0x3f0566b9	0.5210987
66	0xbc2bec3c	-0.010493334
67	0x3e870856	0.26373547
68	0x3d8aef61	0.06783939
69	0xbf119a3c	-0.5687597
70	0xbd993e98	-0.07482642
71	0x3f18cb85	0.59685546
72	0x3ecf0a5d	0.40437594
73	0x3e774d20	0.24150515
74	0x3f33a84c	0.70178676
75	0x3e134253	0.1438077
76	0x3edfbb0e	0.436974
77	0x3bb0ad90	0.005391784
78	0xbebaa831	-0.36456445
79	0xbecf8c5a	-0.40536767
80	0xbefe59e1	-0.49677947
81	0xbebfdf89	-0.3747523
82	0xbe6ae983	-0.2294064
83	0x3e8dde63	0.2770873
84	0xbc5779df	-0.013151615
85	0x3f13abce	0.5768403
86	0xbf1b85d5	-0.60751086
87	0x3d90d933	0.070726775
88	0xbed535ef	-0.4164271
89	0xbf18068a	-0.5938498
90	0xbededa48	-0.4352591
91	0x3dff65a7	0.124705605
92	0xbf0a21b1	-0.5395766
93	0x3d075879	0.03304336
94	0xbd2afa39	-0.041742537
95	0x3f225ca9	0.6342264
96	0x3ea0c479	0.31399897
97	0xbda4d1ba	-0.08047815
98	0x3ea9032b	0.3301023
99	0x3e2f94b5	0.17146571
100	0x3f146898	0.579721
101	0x3ed220bc	0.410406
102	0x3d2390cd	0.039933015
103	0x3f1e1d0c	0.6176307
104	0x3dcd23c8	0.1001659
105	0xbe378e84	-0.17925459
106	0x3dc96993	0.0983459
107	0xbe113db1	-0.1418369
108	0xbe85dc56	-0.26144665
109	0xbf055bb8	-0.52093077
110	0xbe5516b9	-0.2080945
111	0x3f012613	0.5044872
112	0xbf28ae4f	-0.65890974
113	0xbed16d9f	-0.40903947
114	0x3f20b9eb	0.6278369
115	0xbd7164b6	-0.058933936
116	0x3e135438	0.14387596
117	0xbe78353a	-0.24239054
118	0x3ef135a6	0.47111243
119	0xbe7bbe81	-0.2458439
120	0xbeb338ef	-0.35004374
121	0xbde86445	-0.1134725
122	0x3e308261	0.17237236
123	0x3e51b1de	0.20478007
124	0xbf0cedc1	-0.55050284
125	0x3f202c13	0.6256725
126	0x3ec8276e	0.39092582
127	0x3b8c6be5	0.004285323
128	0xbf3e4cca	-0.7433592
129	0x3ea2b870	0.3178134
130	0xbdb6a013	-0.089172505
131	0xbc831cab	-0.01600488
132	0x3d2d244d	0.042270947
133	0xbf0887a2	-0.5333196
134	0xbeb2d7a9	-0.3493016
135	0x3f161b54	0.5863545
136	0xbf1201cb	-0.57033986
137	0xbf133706	-0.57505834
138	0x3ee32a40	0.44368172
139	0x3f124274	0.5713265
140	0xbf0c1460	-0.5471859
141	0x3eea3cdb	0.45749554
142	0xbecce68e	-0.4001965
143	0xbedeb5eb	-0.43498167
144	0xbe9a6fac	-0.30163324
145	0x3ef401e4	0.47657692
146	0xbe21ba63	-0.15793757
147	0xbe9f5eb8	-0.31126952
148	0x3d5fa137	0.054597106
149	0xbf388167	-0.7207245
150	0x3edf734e	0.43642658
151	0xbdda3b65	-0.1065586
152	0xbb5e269d	-0.0033897527
153	0xbf174dc3	-0.5910303
154	0x3f34234f	0.70366377
155	0x3eef2f5e	0.46715826
156	0x3e99b100	0.30017853
157	0x3ee7da9b	0.4528397
158	0x3ee41aac	0.445516
159	0xbee3af24	-0.4446956
160	0xbf0f9076	-0.56079805
161	0xbf241941	-0.64101034
162	0x3ed3195e	0.4123029
163	0x3e757698	0.23971021
164	0x3f21dc15	0.63226444
165	0x3f235c1d	0.6381243
166	0xbdb6aaab	-0.08919271
167	0x3e9f810e	0.31153148
168	0xbf374fc9	-0.7160612
169	0xbf3ad84f	-0.7298631
170	0x3ed8028b	0.4218944
171	0x3f0847f0	0.5323477
172	0xbef3c9d5	-0.47614923
173	0x3f21440e	0.6299447
174	0x3e2dbfc9	0.16967691
175	0x3e25d7c3	0.16195588
176	0x3f269909	0.65077263
177	0xbd2e8f5a	-0.04261718
178	0xbe12f21d	-0.14350171
179	0xbde39e26	-0.11114149
180	0xbe8e4beb	-0.27792296
181	0xbe490ea6	-0.19634494
182	0x3e8bcbc8	0.2730391
183	0xbde79bf5	-0.11309043
184	0xbeba8dd8	-0.36436343
185	0x3ef86fb7	0.48522732
186	0xbe95857a	-0.29203397
187	0xbe46b12c	-0.19403523
188	0x3ebeec8d	0.3728985
189	0x3f0c9c36	0.5492586
190	0x3e955775	0.29168287
191	0xbe1908c1	-0.14944746
192	0xbec1c15b	-0.3784283
193	0x3e84bc82	0.2592507
194	0x3e605fef	0.21911596
195	0x3e3859d6	0.1800302
196	0x3f22d36b	0.6360385
197	0x3ecc51a0	0.39906025
198	0x3ed85271	0.42250398
199	0x3f1cd9c6	0.61269796
200	0x3f0b2088	0.54346514
201	0x3e928e5b	0.28624234
202	0x3e8e47ee	0.27789253
203	0x3e9e939a	0.30971986
204	0x3de853e0	0.11344123
205	0xbe0a727a	-0.13520232
206	0x3f0c678e	0.5484551
207	0xbf1e11f3	-0.6174614
208	0x3f27394e	0.65321815
209	0x3f24b13e	0.6433295
210	0x3f022935	0.50844127
211	0xbf2e8206	-0.6816715
212	0xbec0ddf0	-0.37669325
213	0x3f2da710	0.6783304
214	0x3dbe1e4f	0.09283125
215	0xbf1b77f7	-0.60729927
216	0x3ec4509b	0.38342747
217	0xbeba0039	-0.36328295
218	0x3f232128	0.6372247
219	0xbf3427c6	-0.7037319
220	0x3f0e18bc	0.5550649
221	0x3d88d58f	0.06681358
222	0x3eabbee8	0.33544087
223	0xbeb867f0	-0.36016798
224	0x3eb3bc1e	0.3510446
225	0x3efc870c	0.49321783
226	0x3d28642c	0.041111156
227	0x3ebae880	0.36505508
228	0xbe343d32	-0.17601469
229	0x3f2741b1	0.6533461
230	0xbe907c89	-0.28220013
231	0x3d952e71	0.072842486
232	0xbf1ded29	-0.6169
233	0xbf2309a0	-0.6368656
234	0x3ee3899f	0.44440934
235	0xbf39a7c6	-0.72521627
236	0x3de25175	0.11050693
237	0x3f2cae6c	0.67453647
238	0x3f035086	0.51294744
239	0x3efe5c65	0.49679866
240	0x3ef1650c	0.47147405
241	0x3f199afd	0.6000212
242	0x3ed9f7a7	0.42571756
243	0x3acd90cc	0.0015683412
244	0xbf1f8798	-0.62316275
245	0xbf0fd900	-0.5619049
246	0xbda94376	-0.0826482
247	0x3db987b8	0.090590894
248	0x3f10fa2a	0.5663172
249	0x3f3228d7	0.69593567
250	0x3ee2a577	0.44266865
251	0x3e587cb9	0.21141328
252	0xbf233a6f	-0.6376104
253	0xbf2ab27e	-0.6667861
254	0xbec38809	-0.38189724
255	0x3e0462ab	0.12928264

fcs.0.1.weight f4 [2, 2048]
0	0xbcad2958	-0.021137878
1	0xbb6baa13	-0.0035959526
2	0x3d16cb57	0.036815014
3	0x3c2f5279	0.010700815
4	0xbbc43685	-0.0059879445
5	0x3b659e35	0.0035036926
6	0x391f58d2	0.0001519651
7	0x3c135e21	0.00899461
8	0xbcaf3913	-0.02138952
9	0x3c68a34a	0.014199087
10	0xbca37b04	-0.01995612
11	0x3c821aa5	0.015881846
12	0xbc7767a3	-0.0151003925
13	0x3c3b4a33	0.011431265
14	0x3c31d466	0.010853862
15	0xbcad020b	-0.021119138
16	0x3b5d8881	0.0033803286
17	0x3b131e39	0.0022448434
18	0x3b451602	0.0030072932
19	0x3c2931ef	0.0103268465
20	0x3b44e89a	0.0030045868
21	0xbc35998e	-0.011083974
22	0x3c9ca27d	0.01912045
23	0x3ccda49b	0.025102904
24	0xbc2d1451	-0.010563926
25	0x3cf94218	0.030427024
26	0xbc9ed326	-0.019387793
27	0xbccc6312	-0.024949584
28	0xbc6353d3	-0.013874966
29	0xbcb796b5	-0.02241073
30	0x3c71cc28	0.014758147
31	0x3c33794d	0.010954213
32	0x3c576905	0.013147597
33	0x3d143377	0.036181893
34	0x3cf6f021	0.0301438
35	0xbb68c682	-0.003551871
36	0x3c7ece34	0.015552092
37	0x3b3742ea	0.0027963468
38	0xbc11891d	-0.008882788
39	0xbb25c353	-0.0025293424
40	0xbbdbb5a0	-0.006705001
41	0x3ce67c83	0.028135544
42	0x3b8610aa	0.004091342
43	0x3c92bcfb	0.017912379
44	0xbb546322	-0.003240772
45	0xbc152b4d	-0.009104562
46	0xbc133830	-0.008985564
47	0xbbf22a27	-0.007390279
48	0xbc85ae8d	-0.016318584
49	0x3bf729b8	0.007542815
50	0x3bb34e05	0.005471947
51	0x3bcbf103	0.006223799
52	0x3caacd0d	0.020849729
53	0xbc1c044f	-0.009522512
54	0xbc01beb2	-0.007919
55	0x3cdf4c7d	0.027258152
56	0x3d12d488	0.035847217
57	0xbc0d1ee4	-0.008613322
58	0xbb2d2d3a	-0.0026424662
59	0xbc39c55e	-0.01133856
60	0x3d7f0d14	0.06226833
61	0xbccfe4b8	-0.025377616
62	0xb9ecc666	-0.00045161246
63	0x3c7c070d	0.01538254
64	0x3cbb0df3	0.0228338
65	0x3c9bef18	0.019034907
66	0xbbdd864c	-0.006760394
67	0xbc892705	-0.016742239
68	0x3c5d4c5a	0.013506973
69	0x3cc2fb68	0.02380152
70	0xbc378de3	-0.011203262
71	0x3beb8409	0.0071873707
72	0xbc157720	-0.00912264
73	0x3ad8ee1d	0.0016550455
74	0xbb82b6ad	-0.003989062
75	0xbc68dfdc	-0.0142135285
76	0x3c693f16	0.014236232
77	0xbc8606c7	-0.016360654
78	0x3b57168b	0.0032819833
79	0x3c22715a	0.00991472
80	0xbc3a2835	-0.011362125
81	0xbcec7563	-0.028864568
82	0xbbbd4cb5	-0.0057769665
83	0xbc4241a3	-0.011856469
84	0x3c0afede	0.008483617
85	0x3c7e44b2	0.015519308
86	0xbbb54322	-0.0055316845
87	0x3c2a7779	0.010404461
88	0x39271526	0.0001593424
89	0xbc862491	-0.016374858
90	0x395cef68	0.00021070021
91	0xbc5b396b	-0.013380389
92	0x3c836eb5	0.016044
93	0x3c5dbee4	0.013534281
94	0xbcb2cb0f	-0.021825342
95	0x3c893568	0.016749099
96	0x3c2c83b6	0.010529449
97	0x3b8f6df7	0.0043771225
98	0xbcb09b3c	-0.021558397
99	0xbaa2ed65	-0.0012430368
100	0x3c6a62cf	0.014305784
101	0x3cbecb5c	0.023290329
102	0xbbac527a	-0.0052588554
103	0x3a8cd0cb	0.0010743377
104	0xb9b78ca4	-0.00035009265
105	0xbc89687f	-0.01677346
106	0x3c91bf4b	0.01779141
107	0xbc997e14	-0.018736877
108	0x3cab7bd8	0.020933077
109	0xbcfa0f9d	-0.030525023
110	0xbc71aec3	-0.014751139
111	0x3ba2689f	0.0049563195
112	0xb9f1f41a	-0.00046148972
113	0x3c6118d9	0.013738834
114	0x3c89fa70	0.01684305
115	0x3c4aabc3	0.012370053
116	0x3aab393b	0.0013063321
117	0xbc1ccab2	-0.009569811
118	0xbcbfa2cc	-0.023393057
119	0x3b7e06ae	0.0038761306
120	0x3c66d677	0.014089218
121	0x3ca03308	0.019555584
122	0xbcab7ac9	-0.020932572
123	0xbb96ee3c	-0.0046060365
124	0xbbea11b3	-0.007143223
125	0x3d0764e1	0.03305519
126	0xbc95efe2	-0.018302862
127	0x3c9582dc	0.018250875
128	0xbd2c2a8f	-0.042032775
129	0xbbb1b3de	-0.005423053
130	0xbbb71187	-0.005586806
131	0x3b71d054	0.0036897855
132	0x3b636365	0.0034696695
133	0x3cb0a1ce	0.02156153
134	0xbc519173	-0.012791025
135	0xbc6977cc	-0.014249753
136	0x3c2ee2ea	0.010674218
137	0xbc41cfca	-0.011829326
138	0x3bbd3aff	0.005774855
139	0x3c416e91	0.011806146
140	0xbceb0d61	-0.028692903
141	0xbc84dcf8	-0.016218647
142	0x3c1df98c	0.009642016
143	0xbc576100	-0.013145685
144	0x3c29406e	0.010330303
145	0x3c565cf1	0.013083682
146	0xbbd1ddd4	-0.006404618
147	0xbbc8dd98	-0.0061299317
148	0x3c821510	0.015879184
149	0x3c851317	0.016244454
150	0xbb2c906b	-0.0026331197
151	0x3c1a773f	0.009427845
152	0x3b4e209b	0.003145254
153	0xbc956dd3	-0.018240845
154	0x3b84eb67	0.0040563825
155	0x3cac7ab9	0.021054612
156	0xbc8907a7	-0.016727282
157	0x3c5e3f5f	0.0135649135
158	0x3ca90d30	0.020636171
159	0xbc36aca2	-0.011149557
160	0xbc32f28f	-0.010922088
161	0xbc0738f4	-0.008253325
162	0x3c95721d	0.01824289
163	0xba1efe3b	-0.0006065105
164	0xbbbcafd6	-0.005758266
165	0xbcaa9812	-0.020824466
166	0xbca68d49	-0.020331042
167	0x3cbd05aa	0.02307399
168	0x3cdafbac	0.026731335
169	0xbbccb8dc	-0.006247623
170	0x3aad35c7	0.001321488
171	0xbc7fdc78	-0.015616529
172	0x3bead45a	0.0071664276
173	0xbc89b78c	-0.016811155
174	0xbbbc17c6	-0.0057401387
175	0x3c19d1c2	0.009388389
176	0x3cab01da	0.020874906
177	0xbc5ea872	-0.013589965
178	0x3beddac5	0.0072587454
179	0xbc2553b6	-0.010090759
180	0xbc77c2a3	-0.015122089
181	0x3a79c0fe	0.0009527354
182	0x3bc02544	0.0058638174
183	0x3c1ee8c6	0.009699052
184	0xbce0ad68	-0.027426437
185	0xbcf96434	-0.030443288
186	0xbc0bd4ef	-0.008534654
187	0x3bfd23f5	0.0077252337
188	0x3c94f3f5	0.018182734
189	0xbc17072b	-0.009218018
190	0xbcce4f8c	-0.025184415
191	0x3bd9f6f6	0.0066517545
192	0xbd04f3cf	-0.032459076
193	0x3c8e2274	0.017350413
194	0xbc90c7bd	-0.017673368
195	0xbc57d521	-0.0131733725
196	0x3c608cf1	0.013705478
197	0xbc3684bb	-0.011140044
198	0x3c69b1eb	0.01426361
199	0xbc53f52f	-0.012936874
200	0x3cc67488	0.024225488
201	0xbc88277f	-0.016620396
202	0xba8899e5	-0.0010421841
203	0xbc28863e	-0.010285912
204	0xbb3aeed3	-0.0028523698
205	0xbbe1335f	-0.006872579
206	0x3c6d1ed7	0.014472685
207	0xbc66820c	-0.0140690915
208	0x3b28fce3	0.0025785498
209	0xbbcb27db	-0.0061998195
210	0xbca0f587	-0.019648327
211	0x3bbee573	0.0058256923
212	0xbbe22f72	-0.0069026286
213	0xbc096c46	-0.008387631
214	0xbaaa6f6b	-0.0013003176
215	0x3d2d0563	0.042241465
216	0x3c50beee	0.012740834
217	0xbcc875cf	-0.024470238
218	0x3ca1db9e	0.019758042
219	0xbd04bbfc	-0.03240584
220	0xbb78302a	-0.0037870505
221	0xbc901a19	-0.01759057
222	0xbb61ed42	-0.0034473692
223	0x3b809389	0.0039238376
224	0x3c9d1957	0.019177122
225	0xbc3a49c5	-0.011370127
226	0x3cb7f5d8	0.022456095
227	0x3c7112c3	0.014713946
228	0x3bb312e7	0.0054649
229	0x3c817fd1	0.015808018
230	0x3c1f5852	0.009725647
231	0x3c97c2b5	0.01852546
232	0xbb18eecf	-0.00233357
233	0x3ca7a171	0.020462723
234	0xbaa12752	-0.0012295044
235	0xbccb032a	-0.024781782
236	0xbca6cf30	-0.020362467
237	0xbb96c7ab	-0.004601439
238	0xbb7aabc1	-0.0038249346
239	0xbc72c7b5	-0.014818122
240	0xbc478b91	-0.012179271
241	0xbc6ccf8b	-0.014453779
242	0x3c92fe3b	0.017943492
243	0x3b943707	0.0045231613
244	0xbc10e326	-0.008843219
245	0x3c8d148d	0.017221713
246	0x3ca520a4	0.020157166
247	0xbb71e2de	-0.0036908905
248	0xbb9f79e4	-0.0048668254
249	0x3b468c21	0.0030295926
250	0x3c174818	0.009233497
251	0x3c835954	0.016033806
252	0xbdacb839	-0.08433575
253	0xbd4dfafc	-0.050288185
254	0xbc08d8b8	-0.008352451
255	0xbba12db5	-0.004918779

fcs.0.1.bias f4 [2]
0	0xbc429342	-0.011875929
1	0xbaa89914	-0.0012863004
