cache/10d_nn/dsmcusum/model_2/iter_1.pth (torch, 45064 bytes, 4 tensors)

fcs.0.0.linear.weight f4 [512, 10]
000000 1f bd 9d be 67 d8 59 3e 79 0d 13 bc 0d 5d 87 3e
       -0.3080835 0.21273957 -0.00897538 0.2643818
000010 38 bd 99 3e 67 07 e4 3d fc 76 ca bd 50 0c 90 3e
       0.30027175 0.111342244 -0.09885976 0.28134394
000020 a2 a2 3f 3e ec 9a 3b 3e 1d 21 66 bd 89 37 85 3d
       0.18714383 0.18320817 -0.056183923 0.06504733
000030 39 e8 81 be b0 af 85 3e 04 f9 8a 3e 9e ad 2b bd
       -0.25372484 0.261106 0.2714311 -0.04191362
000040 40 b9 6a bc c7 60 51 bc d3 8d d6 3d c1 b4 5a 3c
       -0.014326394 -0.012779421 0.104762696 0.013348759
000050 b8 96 88 be 9c 7e 12 bd 9f 3d e3 bd 1c 9e 44 3e
       -0.2667749 -0.035765275 -0.11095738 0.19200939
000060 51 ab 57 be 3e ab 7a be 8b 42 81 3e 3a bd 83 be
       -0.21061446 -0.24479386 0.2524608 -0.25730306
000070 20 29 19 3e 19 bf 59 bd d1 b5 97 be 65 0d 95 be
       0.14957094 -0.05316076 -0.29630902 -0.29111782
000080 33 00 51 3c ed 14 cc bc 6d 80 fe 3d e7 6c 5a 3d
       0.012756395 -0.024912322 0.12426839 0.053326514
000090 a3 37 20 be 2c 77 8b 3e 61 d8 9c bc 2e 82 83 3d
       -0.15646224 0.27239358 -0.019146146 0.06421314
0000a0 7a 2f ff bd f4 d4 9a bd 1a ce 31 be cc 7b 44 be
       -0.12460227 -0.07560149 -0.17363778 -0.1918785
0000b0 15 9d 6d be 4a 27 1a 3e 9c 5c 39 3e d5 58 06 3e
       -0.23204453 0.1505405 0.18101734 0.13119824
0000c0 56 03 9f be a4 ca c1 3c 4a 4e 99 be d7 63 03 be
       -0.31057233 0.023656197 -0.29942542 -0.12831055
0000d0 8c 4c f5 3b 06 59 35 3e cb 76 01 be 75 88 3e 3e
       0.0074859317 0.17709741 -0.12642972 0.18606742
0000e0 90 4b e5 3d b4 54 74 3b bd 63 9f 3e ba d7 a3 bd
       0.11196053 0.0037281932 0.31130782 -0.08000131
0000f0 68 0b 91 3d c0 02 07 be 4f a3 21 3c c6 ec d0 3d
       0.07082254 -0.13184643 0.009865596 0.10201411
000100 bb eb 9f be 0b 98 62 3e ac 6f 19 3e a4 ac ff bd
       -0.31234536 0.22128312 0.14984006 -0.124841005
000110 c6 f8 4c be 74 cb 16 be fa 5e 02 3e e5 6a a0 be
       -0.20016775 -0.14726049 0.12731543 -0.31331554
000120 59 4e 14 be 06 3a 5f be d3 50 90 3e 1c c3 2f 3e
       -0.14483012 -0.21799478 0.28186664 0.17164272
000130 bd 5c 9f be da 24 87 be e8 65 1c be f6 02 80 3e
       -0.3112544 -0.26395303 -0.15273249 0.2500226
000140 13 1f 6e 3e 80 44 2e 3e a3 35 b6 3d 74 58 79 be
       0.23254041 0.17018318 0.08896949 -0.24350148
000150 fb ed 53 bd e7 aa 8c 3e bb b8 40 be 6d ca b4 bd
       -0.051740628 0.27474138 -0.18820469 -0.08827672
000160 77 7e 59 3e cb 16 a3 bd 32 6a 3a be a3 5d 54 be
       0.21239649 -0.07963332 -0.18204573 -0.20738845
000170 f4 13 3d be 27 1f 95 be 4d 80 19 bd 21 01 d0 bb
       -0.18464643 -0.2912533 -0.037475873 -0.006347791
000180 96 27 4b 3e 73 d9 24 be fa a1 b7 bd a8 b9 63 be
       0.1983932 -0.16098575 -0.089664415 -0.22238791
000190 3e ca 9e 3e 1b 97 ce 3a 01 46 9a be ed ac 12 3e
       0.31013674 0.0015761586 -0.30131534 0.14323778
0001a0 f4 6c 32 3e fe 90 59 3e d0 7e a2 3e 1c 18 83 bd
       0.17424375 0.21246716 0.31737375 -0.06401083
0001b0 16 f7 90 3d 93 62 77 3e 12 10 75 3d 99 8f 1e bd
       0.07078378 0.24158697 0.05982978 -0.038711164
0001c0 3d 3f 40 3d 01 46 d3 bd 06 2a 75 3e 69 8b fd 3d
       0.04693531 -0.103160866 0.23941812 0.12380106
0001d0 f0 7b 47 3e 85 e9 d9 3d e2 ed da 3d 0b 3f 1a 3d
       0.19480872 0.106402434 0.10689904 0.03765778
0001e0 0b 40 19 be 47 3d 09 bc e7 27 fa 3d be 27 47 be
       -0.14965837 -0.008376426 0.12214642 -0.19448754
0001f0 d4 90 9f 3e 76 7c 79 3e 96 ab 47 be 48 47 69 be
       0.31165183 0.24363884 -0.19499049 -0.22781098
000200 d8 17 9a 3d aa 4f 71 be ff ac 08 3e a5 91 52 3e
       0.07524079 -0.23565546 0.13347243 0.20563371
000210 3f e7 09 3e 23 62 a4 3c ec 5a 29 be d6 d7 91 be
       0.1346712 0.020066326 -0.1653859 -0.28484982
000220 f8 e8 c0 3d d4 09 6b 3e d7 f2 1e bc b0 45 8e bc
       0.09419435 0.22952968 -0.009701452 -0.017367214
000230 5d 0a 00 be de 0a c2 3c 5a 3e f5 bd 75 54 83 be
       -0.12503953 0.023686823 -0.11974783 -0.25650373
000240 c8 3c c6 3c 5f 61 ec bd 28 01 29 be 95 91 88 be
       0.024198905 -0.115420096 -0.16504347 -0.2667357
000250 8a 7d c3 bd bf 4a 05 3d da 1b 80 be bd f9 5b 3d
       -0.09545429 0.032541987 -0.2502125 0.053704966
000260 51 d8 c4 bd 4e 9a 08 3e be 64 0b 3e 3e 13 83 bd
       -0.096115716 0.13340113 0.13612649 -0.064001545
000270 a1 a5 99 be e1 f5 90 bd ec cd 84 be d1 20 ec 3c
       -0.30009177 -0.07078148 -0.25938356 0.028824242
000280 d4 df 99 be c9 68 82 be 7d 68 3d 3e 8b b0 24 be
       -0.3005358 -0.2547057 0.1849689 -0.16082971
000290 0a c2 a5 3d 78 56 86 3e c6 1b 7d be ae f9 91 be
       0.08093651 0.26237845 -0.24717626 -0.28510803
0002a0 01 93 78 be aa 22 19 3e 35 55 92 3e af ac 88 3d
       -0.24274828 0.1495463 0.28580633 0.06673562
0002b0 f3 f6 71 be fe bc 2f be 6b 09 05 be 54 a6 9a be
       -0.2362936 -0.17161939 -0.12991874 -0.30205023
0002c0 e5 32 fd 3d d2 d2 6f 3e d4 36 87 3e de fe 92 be
       0.12363223 0.23420265 0.26409018 -0.28710073
0002d0 f1 b5 ed 3d 78 f0 7e bd fc c2 99 be d3 6b 47 3e
       0.11606968 -0.062241048 -0.30031574 0.19474725
0002e0 ac f1 2c 3e 43 86 a7 bc a5 24 a8 3c cf 83 50 be
       0.16889066 -0.020449763 0.020525286 -0.20362781
0002f0 77 bb 40 3e 4d ae cb bd 40 29 45 bb aa 8e 85 3e
       0.18821512 -0.099453546 -0.0030084401 0.26085407
000300 db 42 3e be 07 1a 99 3e 45 cd 23 3e 23 00 49 be
       -0.18580191 0.2990267 0.15996273 -0.19628958
000310 24 ea 56 be 03 9a 88 be 65 6b 48 3e 86 54 53 3c
       -0.20987755 -0.26680002 0.19572218 0.01289857
000320 56 3c 44 bd ec 4d 74 3e 49 78 77 bd 4a 76 f4 3d
       -0.047909103 0.2385785 -0.060417447 0.11936624
000330 0f d1 5f 3d 8e c5 c7 bc 50 a9 31 be e3 19 56 be
       0.054642733 -0.024386194 -0.17349744 -0.20908312
000340 c5 b0 92 be e1 f8 7e 3e 8a fb 91 3e 69 86 a0 3e
       -0.2865049 0.24899627 0.28512222 0.31352547
000350 b5 b9 1a 3e 7c 0b 8f bd 44 4e 41 be c9 3e a1 be
       0.15109904 -0.06984612 -0.18877512 -0.31493214
000360 da 23 f7 bd 50 23 5e be bc 83 b6 bd e0 2e 66 be
       -0.12067385 -0.21693158 -0.08911845 -0.22478819
000370 57 2f 6a be f7 27 20 bc 50 8b 60 be 6f 3c 06 3d
       -0.22869621 -0.009775153 -0.21928144 0.032772478
000380 df 56 45 bc f2 55 87 3e 8d 87 30 3e ad 01 0a 3e
       -0.012044637 0.2643276 0.17239209 0.13477202
000390 ea 61 56 be 2c fb 89 3d 8b 1b 35 be 27 6d 42 3e
       -0.20935789 0.0673736 -0.17686288 0.18986951
0003a0 52 23 94 3e 2c ba 7c be e0 94 8c 3e c2 ae 45 be
       0.28933197 -0.24680394 0.27457333 -0.19304946
0003b0 ee b4 08 be 26 8a 39 be d8 75 cd 3d 68 d9 8e be
       -0.13350269 -0.18119106 0.100322425 -0.27900243
0003c0 ce 0b 45 be 64 b4 55 3d 21 3f 1d be f4 64 81 3e
       -0.19242784 0.052173987 -0.15356113 0.25272334
0003d0 7a b6 d7 bc 26 eb f7 3d 06 fd 0a 3e 91 bc 4e be
       -0.026332129 0.12105398 0.13573083 -0.2018912
0003e0 de cc 87 3e da 04 54 3e c8 92 ec 3d 5d 05 95 be
       0.2652349 0.20704976 0.11551434 -0.29105654
0003f0 62 dc 9b 3e 56 b6 58 be 93 90 85 3e a2 8f 96 3e
       0.30441576 -0.21163306 0.26086864 0.29406458

fcs.0.0.linear.bias f4 [512]
000000 ad 2a 46 be 1e 97 a9 bc 6b df 9c be 46 5c b1 3d
       -0.19352217 -0.020701941 -0.30639204 0.08660178
000010 03 2a 05 3e 30 86 90 3e 73 2c f8 3d fb 8e 8b be
       0.13004307 0.28227377 0.12117853 -0.27257523
000020 fb 19 85 bd 0c 2d 95 3e 95 b1 07 be c4 7d 66 3e
       -0.06499096 0.2913593 -0.13251336 0.22508913
000030 43 c6 c7 3d eb f2 4b 3e 0d 42 49 3e 6b c7 32 be
       0.09754612 0.19916885 0.19654103 -0.17458884
000040 96 44 04 3e 70 79 7c 3d 76 d7 6e be 39 43 a0 3e
       0.12916788 0.06163925 -0.2332438 0.31301287
000050 30 d7 dd 3d 73 93 8d be 01 c5 23 be f3 53 29 3d
       0.108320594 -0.27651557 -0.1599312 0.041339826
000060 73 b6 8b be 65 62 5f be b0 79 f8 3c 1d ed 79 be
       -0.27287635 -0.21814878 0.030331463 -0.24406858
000070 aa 96 df bc 6b a2 9c 3e b6 d8 3d be 43 b8 0a 3e
       -0.027293522 0.30592665 -0.185397 0.13546853
000080 41 a8 86 be 2b 5d 56 bb 53 b0 8e 3e 15 f2 70 be
       -0.26300243 -0.003270934 0.278689 -0.23529847
000090 c1 b8 92 be de 2f 38 bd e7 38 12 bc 86 8a 1a 3e
       -0.2865658 -0.044967525 -0.008924699 0.15091905
0000a0 28 62 12 3c ed 79 95 3e 46 03 4d 3e 9e c4 05 be
       0.008934535 0.29194584 0.2002078 -0.13063285
0000b0 77 3f 4a be 81 1f 5b 3e e9 ee a4 3d ba 6e 0a 3c
       -0.19750772 0.21398737 0.08053381 0.008449251
0000c0 3e 57 22 bd 50 10 14 3e 9f 2d 0f be cc 49 57 3e
       -0.039633982 0.14459348 -0.13982247 0.21024245
0000d0 fd 4b 70 3e 99 43 a0 3e f1 43 21 3e ad 64 9c 3d
       0.23466487 0.31301573 0.15748574 0.0763639
0000e0 2d 4f 27 be 86 b5 81 bd 7c 77 33 be cb 3d f4 bd
       -0.16338797 -0.06333451 -0.17526048 -0.119258486
0000f0 7f 68 29 3e a3 0d 70 3e e8 1c 26 be de a3 9d be
       0.16543768 0.23442702 -0.16221964 -0.30789083
000100 ce 71 6b 3e 05 df 1a be 96 f9 cf bd 3b 58 fb 3d
       0.22992632 -0.15124138 -0.101550266 0.12272688
000110 b0 12 a1 3d df 58 e6 3c cd f1 a0 3e 84 99 83 be
       0.078648925 0.028118549 0.3143448 -0.2570306
000120 b4 7c f9 bd 10 19 bc bc 5c 9e 82 bd ba 05 9f 3e
       -0.12181988 -0.02296117 -0.06377861 0.31059057
000130 21 43 9f 3c 80 62 9a 3d b6 22 8b bd c3 8a 6a 3d
       0.01944119 0.07538319 -0.0679373 0.05726124
000140 fc 22 48 be e7 8f c4 3d f3 0e ab bd da be 4d be
       -0.19544595 0.0959776 -0.08352461 -0.20092335
000150 fe 1e 99 3e 0d cc f8 3c 4e 21 dd 3d 14 18 c0 bd
       0.29906458 0.030370736 0.10797368 -0.093795925
000160 23 2d dd 3c 14 2e 81 be be d2 1f 3d e5 ae 29 bd
       0.026999062 -0.25230467 0.03901934 -0.041426558
000170 0b 6f 63 bd 8e 95 cc 3d 06 8d 68 be 79 14 42 3e
       -0.05552582 0.09989463 -0.22710046 0.18953122
000180 8a b6 13 3e 5f 64 24 3d d9 f4 30 3e 01 43 66 be
       0.14425102 0.040134784 0.17280902 -0.22486497
000190 6d ff 8e 3e b2 29 a3 bd 86 5e 3c be 5a d2 9d 3b
       0.2792925 -0.07966937 -0.18395433 0.0048163356
0001a0 aa ce 53 3c a2 c2 93 3d ef 54 1e bd e8 1f ae 3d
       0.0129276905 0.07214858 -0.038655218 0.085021794
0001b0 3b ee 92 3d de 07 32 bd 60 11 57 be 5a 01 98 be
       0.07174345 -0.043464534 -0.21002722 -0.2968853
0001c0 af 9e 8c 3e 6d 2f 2f be b1 d4 91 bd 01 e1 21 3e
       0.27464816 -0.17107935 -0.07120646 0.15808488
0001d0 eb cf 3e be da 24 35 be f4 1d 19 3d 4a 89 37 3c
       -0.18634002 -0.17689839 0.03738208 0.011202166
0001e0 6a d5 9a 3e 8b 37 a0 be 27 fb 1c bc ed 18 64 be
       0.30240947 -0.31292376 -0.009581364 -0.22275133
0001f0 cc d3 86 3e 64 62 1a be e6 1a 49 3e ed 9e 80 be
       0.26333463 -0.15076596 0.19639167 -0.2512125
000200 5f b4 9b 3e ff fd 63 be 24 fc 69 bd 23 94 a4 bd
       0.3041105 -0.2226486 -0.057125226 -0.08036067
000210 00 cd 07 bc db 60 23 3e 88 5f 7e be 64 ab b7 3d
       -0.008288622 0.15954916 -0.2484113 0.08968237
000220 6b 1c 33 3e 47 73 25 3e b9 02 06 be 7a d7 7b 3c
       0.1749131 0.16157256 -0.13086976 0.015371198
000230 d5 dc 98 be 91 d1 88 be 72 ff 68 be d3 8b 0b 3e
       -0.2985598 -0.26722386 -0.22753695 0.13627557
000240 8a 5c 86 3e cb 11 0e be dc 89 65 3e e1 d8 a9 bd
       0.26242477 -0.13873975 0.2241587 -0.082933195
000250 8b e2 8c bc d8 58 92 be 41 1f eb bd 7e e1 94 bd
       -0.017197868 -0.28583407 -0.114805706 -0.07269572
000260 9f e9 51 bd a6 1f 97 3e db 3f 58 3e ea 7c ee 3d
       -0.05124819 0.29516333 0.21118109 0.11644919
000270 eb 91 3f 3d bf 77 5f ba bd b6 73 bd 49 36 3c 3e
       0.046770018 -0.00085246185 -0.059500445 0.18380083
000280 c7 e9 7d be 09 4a 68 be 68 bb 83 be e3 f3 ea bd
       -0.2479621 -0.22684492 -0.25728917 -0.11472299
000290 0e 71 1b be fc 94 98 be fe 04 75 3e 78 b2 73 3e
       -0.15179846 -0.29801166 0.23927686 0.23798549
0002a0 51 9a 26 be cf 80 89 be f4 1f 68 bd f1 28 90 3e
       -0.16269805 -0.26856086 -0.056671098 0.28156236
0002b0 e6 fa 79 3d e3 ec 53 be e5 52 35 bd 9a 4d 85 3e
       0.06103029 -0.20695834 -0.044268508 0.26035768
0002c0 33 0a 99 3e 21 6f 8f bd 72 45 0a be 02 de 94 bd
       0.29890594 -0.07003618 -0.13503054 -0.07268907
0002d0 89 24 d4 bc 9a 98 8d 3e f3 cc 6c be 51 2c 82 be
       -0.025896328 0.27655488 -0.23125057 -0.25424436
0002e0 fc 16 70 bc 01 6c 94 be 5f b0 a0 3e 2a ef b6 bd
       -0.014653917 -0.2898865 0.3138456 -0.08932336
0002f0 4d 33 c1 3c 4d 36 8d be 27 b2 54 be a9 ae 4d 3e
       0.023584032 -0.2758049 -0.20771085 0.20086159
000300 95 a1 fa bd 16 a8 86 be 04 6e 63 be b2 8a 4b be
       -0.122378506 -0.26300114 -0.22209936 -0.19877127
000310 09 ca 2c 3e af c0 43 3e 17 85 08 3d ea 0c 38 3e
       0.16873945 0.19116472 0.03333005 0.17973676
000320 98 07 66 3e 51 ec cd 3d eb 25 16 3c 04 87 bc 3d
       0.22463834 0.100548394 0.009164314 0.0920544
000330 0c db 96 3e 1a 11 21 3e 37 7d 95 bd f6 13 9b 3e
       0.29463995 0.1572918 -0.072992735 0.30288666
000340 0d 3c 0e bd db b0 bb 3d e7 96 04 be 48 93 6b 3e
       -0.034725238 0.09164592 -0.1294819 0.23005402
000350 0a 4c 89 3e 72 fd 89 3e fe de 34 be fa 87 7a be
       0.26815826 0.26951176 -0.1766319 -0.24465933
000360 c5 61 8a be e9 c9 c2 3d ec 95 99 3e 1f c3 1a be
       -0.27027717 0.095111676 0.29997194 -0.15113495
000370 a3 8c b3 bd dc d3 99 bd 79 ef 99 be 89 da 4c 3e
       -0.08767059 -0.07511112 -0.30065516 0.2000524
000380 b1 2d 22 3b c7 4a 47 3e c2 24 0b be 7e aa 41 be
       0.0024746472 0.19462119 -0.1358824 -0.18912694
000390 0f 4e 50 be a0 fe 9c be 1f 61 9b be 0e bc 69 3e
       -0.20342277 -0.30663013 -0.30347535 0.22825643
0003a0 18 a4 f5 bd c0 0a 37 3e c6 55 58 3e 64 84 d0 bd
       -0.11994189 0.17875195 0.2112647 -0.101815015
0003b0 db e8 26 be 0d b3 4b be c2 66 28 3e ca 52 8f 3e
       -0.16299765 -0.19892521 0.16445449 0.2799285
0003c0 b1 17 bb 3d 81 02 03 be 8e d2 63 3e b5 3e 96 3e
       0.09135378 -0.12793924 0.22248289 0.29344717
0003d0 e9 1f 90 ba cd 8d a2 3d 82 0b c2 bb 7b 64 76 bd
       -0.0010995838 0.079372026 -0.005921782 -0.06015442
0003e0 c9 96 ed 3c 68 2d 8e 3e 02 63 40 3e 63 a7 f2 3c
       0.029002564 0.27769017 0.18787768 0.029620832
0003f0 b5 2a b4 bd 1a 91 1e be 9a d2 56 3d a6 c7 88 be
       -0.08797208 -0.1548504 0.05244694 -0.2671482

fcs.0.1.weight f4 [10, 512]
000000 9f d8 98 bc 09 65 3e 3c ec b4 c1 3c 86 db cf bb
       -0.01865798 0.011620768 0.02364584 -0.006343308
000010 85 4a 80 3c 2e 85 18 bd a5 0b de bc 70 6e 00 3d
       0.015660534 -0.037236385 -0.027105162 0.03135532
000020 5c cc 0f 3c 1c 78 29 bc fe 39 19 3d 66 7e 02 3d
       0.00877675 -0.010343578 0.03740882 0.031858824
000030 b4 75 b2 3c 66 a0 fe bc ef 07 a1 bc ff 86 2c bb
       0.02178464 -0.031082343 -0.019657103 -0.002632558
000040 f1 a5 b3 3c 22 d9 06 bb 41 db 2f 3c 0b 3a 15 3d
       0.021929713 -0.0020576199 0.010733427 0.036432307
000050 27 98 4f 3c e9 d1 8e 3a 4c bc f7 3c d1 5a 1f bd
       0.012670553 0.0010896298 0.030241154 -0.03890497
000060 32 17 37 bc 8f 7b f4 3c 49 12 12 bd a3 b8 9c bb
       -0.011174964 0.029844074 -0.03566197 -0.0047827526
000070 87 23 bc bc c9 a1 5f bc 3f ce 0a 3d a4 f9 9a ba
       -0.02296616 -0.013649412 0.033888098 -0.0011823666
000080 c7 3c 86 bb f8 8b 82 bc 3d 26 a2 3c 1c 38 1d bc
       -0.0040966007 -0.015935883 0.019793624 -0.009595897
000090 ce a8 fe bc a1 0a bf 3b 2c b1 04 3c 41 b2 b6 3c
       -0.031086352 0.0058301245 0.008098882 0.022301795
0000a0 08 96 a4 bb 96 a8 0c 3c 89 e4 03 3d 30 c6 91 bc
       -0.005022768 0.008585116 0.03220037 -0.017794698
0000b0 4d 34 07 3d b7 25 03 bd 48 fa b8 bc d3 3f ba 3c
       0.033008862 -0.03201839 -0.02258028 0.022735512
0000c0 07 bc ff 3b 26 8d 1f 3d f1 78 d7 bc 36 2a 54 bc
       0.007804397 0.03895297 -0.026302787 -0.012949517
0000d0 8f ef 33 bc 0c 1f cb 3c 70 7e 80 bc e6 d4 22 3d
       -0.010982408 0.024795078 -0.01568529 0.039753817
0000e0 dc 40 79 bc b3 a0 a2 3c f4 7e 31 bc c5 f5 06 3d
       -0.015213218 0.019852018 -0.010833491 0.032949228
0000f0 a7 69 ca 3c 9c 0e 57 3c f6 b4 02 3b 4a cb 19 bc
       0.024708582 0.013126042 0.0019944287 -0.009386847
000100 d5 d8 08 bc fa 04 9a 3c 4c d4 8a bc ea 9e 2c 3d
       -0.008352478 0.018801201 -0.016946934 0.04214374
000110 38 b3 c7 3c d3 fd f4 3c 67 86 b4 3c 19 e2 05 bd
       0.02437745 0.02990619 0.022036744 -0.032686327
000120 67 84 bf 3c e4 6b 25 3d 6b 20 4d bc 16 bc e2 b9
       0.023378564 0.040386096 -0.012519936 -0.00043246214
000130 25 0f 4f 3b 5c 5a a5 bc a4 3f 91 3a d0 69 07 bd
       0.003159472 -0.020184688 0.0011081588 -0.033059895
000140 0b 55 44 3c 21 c3 be 3c 66 4d 96 bc 51 09 f7 3c
       0.011983166 0.023286404 -0.018347453 0.03015581
000150 e4 7e 16 bd 63 ab c0 bb 60 e1 1e 3d 84 4c ed 3c
       -0.036742106 -0.005879806 0.038789153 0.02896715
000160 82 10 5f bc 4a 34 58 3c 7c 2a 4d bc 09 ca b2 3c
       -0.013614776 0.01319606 -0.012522336 0.021824853
000170 62 13 ed 3c 12 b1 95 3c e1 b0 f3 3b 14 fa 06 bd
       0.028939907 0.01827291 0.007436857 -0.032953337
000180 83 a8 94 3c 02 31 cd bc 66 52 2a 3d 43 f5 ab bc
       0.018146759 -0.025047783 0.041582488 -0.020990973
000190 17 c2 a2 bc e1 96 18 3d 37 bb ac bc 2d 82 98 3b
       -0.01986794 0.037253264 -0.021085365 0.00465419
0001a0 be 5b 00 bd 72 a8 1c bd 6e 25 2b 3b 7c a2 71 bc
       -0.031337492 -0.03824658 0.002611484 -0.014748212
0001b0 34 1a d0 3c 36 4c be bc cd d5 59 3c 8f 11 3d 3c
       0.02540312 -0.0232297 0.013295603 0.011539831
0001c0 d3 1a ec 3c 9d 14 d9 3c 54 b6 fa bc 63 d3 e0 3b
       0.028821385 0.026499087 -0.030604519 0.0068611368
0001d0 0e 99 3a bd 95 cb 82 3c 3b b8 a4 3c 4d 69 67 3b
       -0.04555612 0.015966216 0.02010738 0.0035310567
0001e0 79 3d d8 3c cd 09 2c 3d dd 0b ef bc 0d 1c 11 bc
       0.0263965 0.042001534 -0.029180462 -0.0088567855
0001f0 62 d9 19 bd 51 f6 cd bb cf 7d 66 3c 20 8d 9c bc
       -0.037560828 -0.0062854667 0.014068081 -0.019110262
000200 db 21 14 bd a3 ba 0b bd 39 c1 48 b9 2a ed 0a 3d
       -0.0361651 -0.034113538 -0.00019145467 0.033917584
000210 96 e5 50 3c ad 32 34 bd 09 3f 3b 3c e8 10 7c 3c
       0.01275005 -0.04399364 0.011428603 0.01538489
000220 1f 6e 38 bd d4 29 21 3c f5 86 db 3c f5 1f 05 bd
       -0.045026895 0.009836633 0.026797751 -0.03250118
000230 d1 12 2b bd 77 95 c7 bc 07 7c a3 3b a4 bd 26 3c
       -0.04176599 -0.024363263 0.0049891504 0.01017705
000240 02 9a 84 bb 65 01 62 3c 8f 38 f1 bc d8 f2 91 bc
       -0.0040466795 0.013794278 -0.029445915 -0.017815992
000250 7b b0 2a bd 38 e4 2c 3d e8 82 a1 bc 4d e7 1b bb
       -0.04167221 0.042209834 -0.019715741 -0.002378899
000260 b0 81 21 3d e7 bf 81 bc a7 d4 3c 3c b3 53 cd bc
       0.03943032 -0.015838576 0.01152531 -0.025064325
000270 a3 09 83 3a af 97 a8 ba bf 2f d1 bc 48 96 2e bd
       0.0009997379 -0.0012862588 -0.025535462 -0.042623788
000280 78 97 23 bd 7e 4e 23 bd ba f1 cc 3c 72 17 de 3b
       -0.039939374 -0.039869778 0.025017608 0.0067776972
000290 a2 5d be 3c 5a e1 1c bc c7 73 87 bc a7 fc c6 3c
       0.023238007 -0.009575212 -0.0165347 0.024290396
0002a0 44 bf 12 bd 33 4f d3 bc dd 89 19 3d 1b 03 e5 bc
       -0.035826936 -0.025794601 0.037484992 -0.027955582
0002b0 60 0e cd bb d1 fd af 3a 5d 43 99 3c 94 a4 5a bb
       -0.006257817 0.0013427084 0.01870888 -0.0033362256
0002c0 7f db bb ba 8e 65 d3 bc 16 a2 14 3c 2a 15 5a 3c
       -0.0014332383 -0.025805261 0.009071847 0.01331071
0002d0 60 94 42 3c 7f a9 05 bd 00 fa 20 bd ce 3a 91 bc
       0.011876196 -0.032632347 -0.03930092 -0.017728236
0002e0 21 ec 3d b9 a0 46 14 bc 4a 0d 20 bd 28 cb bd bb
       -0.0001811241 -0.009050041 -0.039075173 -0.0057920404
0002f0 26 93 db 3c e8 70 03 bc 01 61 22 3d 56 81 10 3d
       0.026803564 -0.008022524 0.03964329 0.035279594
000300 7f 8b ab bc 0f bd 9e bb 61 2b e2 ba 22 f1 57 3c
       -0.02094054 -0.004844315 -0.001725536 0.013180049
000310 43 af b7 3c 70 7f 24 3d f5 33 16 3d 07 bf 6e bc
       0.022422438 0.040160596 0.036670644 -0.014571912
000320 74 7f 96 3c df 03 b7 bc 86 f2 79 3c df 4c c3 3c
       0.018371321 -0.022340713 0.015255576 0.023840366
000330 22 9f 16 3d 60 72 21 3c b6 a3 e8 3b 69 43 e5 3b
       0.036772855 0.009853929 0.007099594 0.0069965613
000340 3c 80 d3 bc 14 bf c4 3c 51 71 bd bc 45 3e 2b 3d
       -0.025817983 0.024016894 -0.023125323 0.04180743
000350 f3 45 ab 3c a3 ae 70 bb 8d a5 a5 3a 05 4d 35 bd
       0.020907378 -0.0036725185 0.0012637839 -0.044262905
000360 60 b2 22 bd 8c a2 3c bd 1e 6d 5e 3c 32 a6 dd bc
       -0.039720893 -0.046053454 0.01357582 -0.027056787
000370 99 35 ac bc 96 b3 70 bc 87 6b c0 3c 09 46 93 bc
       -0.021021651 -0.014691254 0.023488773 -0.017977731
000380 4f 5c e9 3b 68 bf 47 3b a0 bc b3 3c 22 81 f0 3b
       0.0071215997 0.0030479077 0.02194053 0.0073396126
000390 d0 dc c3 3c 52 52 de 3c ec d1 f2 ba 74 5b 01 3d
       0.023909003 0.027138863 -0.0018525696 0.031581357
0003a0 04 4d b0 3c cd a8 e0 3b e3 9b 33 bd 8e 36 ac 3c
       0.021521099 0.00685606 -0.043849837 0.021022107
0003b0 55 6e d2 bc f4 15 0f 3c 00 4b 4e 3b ba 7c 18 bd
       -0.025687376 0.008733261 0.003147781 -0.037228324
0003c0 69 df d9 3b 8e b3 f9 bc 7c 5f 01 bd 53 37 9e 3a
       0.006648947 -0.030481126 -0.0315852 0.0012070931
0003d0 51 a6 ab bc a3 5c 39 bc 88 e3 c4 bc 9d 83 16 3d
       -0.02095333 -0.01131359 -0.024034277 0.03674661
0003e0 d3 5d 96 3c f5 af 1f 3d c1 e2 e4 bc 51 f3 9c bc
       0.018355286 0.038986165 -0.027940156 -0.019158991
0003f0 1a 2a 3e bc 7b e4 e4 bc 8f d8 2c bd cf 15 fd bc
       -0.0116067175 -0.02794098 -0.042198714 -0.030894188

fcs.0.1.bias f4 [10]
000000 13 c4 1a 3d c7 13 ba bc ff 44 36 bc a2 cc d0 bc
       0.037784647 -0.022714509 -0.011124848 -0.025488202
000010 ba ef f9 bc 9b 1c 2e 3d e4 8f dc 3c a3 81 c2 bc
       -0.030509818 0.04250775 0.026924081 -0.023743456
000020 2b a6 14 bd 7b 96 21 3d
       -0.036291283 0.03945015
