cache/10d_nn/dsmcusum/model_2/iter_3.pth (torch, 45064 bytes, 4 tensors)

fcs.0.0.linear.weight f4 [512, 10]
00000000: 0d17 9dbe 5b61 573e 243f 723c d215 883e
00000010: 300d 9b3e 1ec1 b63d 6e76 bfbd ebed 8f3e
00000020: 9b76 343e 878b 513e 1923 45bd 313d 8c3d
00000030: b511 81be 5d2d 843e fdee 8c3e 74c3 43bd
00000040: ef4a 14bc 2d82 13bc 97e0 d83d cb2d 493c
00000050: d490 8abe d2af 3ebd e9ba d0bd ac17 2e3e
00000060: b094 56be 710c 5cbe a327 8a3e a800 82be
00000070: fde3 0e3e e3f3 5bbd 3a58 88be 7dd2 8abe
00000080: 9fda 933c a5ca 3bbd 734c 213e 8cd5 7e3d
00000090: 43a3 0bbe f737 973e 1673 d5bb 883f 983d
000000a0: cac6 08be 5d63 9dbd 10b4 2dbe e8e3 54be
000000b0: c629 6bbe b906 193e 3b6f 283e 03ac f23d
000000c0: 69ab 9bbe 533e f93c af5c a2be 1575 14be
000000d0: 7c1d 93ba 10fa 433e 7e3c c6bd cbef 393e
000000e0: 66c0 d93d 1d62 d13a 6913 9a3e 1abd 9cbd
000000f0: 3ee2 9f3d f747 09be 83b1 e73b 4afa da3d
00000100: 5f21 9abe dfb9 5a3e 1874 193e 6f52 f6bd
00000110: e866 49be 8b60 15be 1712 0f3e 3d09 9ebe
00000120: 756d 14be 1660 66be 375d 7f3e 8463 323e
00000130: 5593 9abe 036c 87be 1f25 2cbe 2c5b 753e
00000140: 315b 703e 97e4 2b3e 1896 b33d e1a7 76be
00000150: 9735 25bd bc18 8c3e 2813 3abe f3d8 acbd
00000160: a419 633e 1b31 97bd 6ac4 34be 83b2 59be
00000170: 5a14 39be e3f6 89be 1a57 c1bc 80cb 04bc
00000180: 1425 413e b0d6 26be 0490 adbd 439c 63be
00000190: 0e73 9f3e f8e4 3abb c166 96be 94d0 1c3e
000001a0: fbd7 143e e375 493e 4b5e ab3e 7d44 73bd
000001b0: afd1 973d 7e5c 793e e06b 933d ee4f c1bc
000001c0: 341f 3f3d 123d a3bd 7d1c 733e 92aa ba3d
000001d0: 294d 513e 6d70 d73d 3c1c 143e 5b31 093d
000001e0: 1742 28be 7329 dfbc 04e6 083e 06ec 4abe
000001f0: 6bfa a83e 52cc 723e 9d9a 52be c7b3 5abe
00000200: c6de b43d 1903 5ebe cd9f 093e d100 513e
00000210: 18b3 0a3e eb72 543c 791c 2fbe 37fd 87be
00000220: 271b d93d 1357 613e 576d 44bc 7316 acbc
00000230: d381 dcbd 63f1 fa3c 6902 f0bd 058a 80be
00000240: 6371 eb3c 37a0 f2bd 972c 23be 0019 87be
00000250: 7ff7 c0bd 62e2 0e3d edd7 6fbe 7f55 8a3d
00000260: 3202 bbbd 7563 133e fb70 073e ce89 4abd
00000270: f670 91be 6ee8 92bd 2e9e 81be 5e94 013d
00000280: 0c7f a1be b596 82be 5cf5 3c3e f024 3fbe
00000290: 09c5 b93d cd67 843e fab4 7fbe aadb 91be
000002a0: 3675 77be 4cf3 1a3e 4f19 8f3e 28b9 8b3d
000002b0: e00f 6ebe c9c3 2cbe 3c87 d8bd f664 9abe
000002c0: 97ab e93d ed3e 693e 46bb 8a3e ab7d 8ebe
000002d0: 1866 d53d 1242 83bd 418b 95be 62ab 3b3e
000002e0: a142 263e fdcf e6bc 6bc0 0d3d 99e4 4cbe
000002f0: dd6b 3c3e 565e bcbd 063d 68bc 01c0 843e
00000300: 17dc 34be 710b 9a3e 802e 343e bfd2 49be
00000310: 9e39 4bbe 79eb 85be 47de 3a3e 23ff 983c
00000320: e874 39bd be10 683e b419 71bd 06d9 a33d
00000330: 21de 2f3d 085f c6bc bbe3 3bbe 91ac 4fbe
00000340: 9731 8dbe cedb 823e 1afd 8a3e 05e3 a53e
00000350: 7435 223e 2183 43bd 5026 39be 2c2e a5be
00000360: 4a71 e9bd 3ece 52be 30b9 b1bd 18a9 5ebe
00000370: f4ec 7dbe 412e 91bc a91d 5dbe 8e6d d33b
00000380: c483 42bc 9ed8 823e 597a 213e 9fcc 0f3e
00000390: 7c91 4dbe 14d3 a23d 1a8d 20be 6696 493e
000003a0: f7ef 8f3e bc91 7cbe 002d 883e 01a1 4dbe
000003b0: 0fdc 03be 08dd 36be ba32 c83d 5105 8ebe
000003c0: 7806 43be 0c84 363d d2ae 16be 12fa 7d3e
000003d0: a179 7ebc dc55 f73d d652 053e 3206 4bbe
000003e0: 109c 8f3e 899b 523e 3beb 9a3d 0226 97be
000003f0: 8be8 9f3e a1ee 44be 0454 7e3e 2334 953e
-0.3068165 0.21033232 0.014785562 0.26579148 0.302835 0.08923553 -0.093487605 0.28111205
0.1762337 0.20463382 -0.048129175 0.06847609 -0.25208822 0.2581586 0.27526084 -0.04779382
-0.009051069 -0.009003204 0.10589712 0.012278984 -0.2706362 -0.046554394 -0.101919 0.17001218
-0.20955157 -0.21489121 0.26983365 -0.25391126 0.13954158 -0.053699385 -0.26629812 -0.27113715
0.018048583 -0.045847554 0.1575182 0.062215373 -0.13636498 0.29534885 -0.0065139635 0.074339926
-0.13357082 -0.07684968 -0.1696322 -0.20790064 -0.22965154 0.1494397 0.16448681 0.11849215
-0.30404213 0.030425226 -0.31711337 -0.14497788 -0.0011223997 0.1913836 -0.09679507 0.1815788
0.106324 0.0015974675 0.30092934 -0.07653256 0.07806824 -0.13406359 0.0070707216 0.1069227
-0.30103585 0.21359967 0.14985693 -0.12027442 -0.19668162 -0.1458761 0.13971744 -0.30866423
-0.1449488 -0.22497591 0.24937902 0.17420775 -0.3019053 -0.26449594 -0.16811036 0.2396056
0.23472287 0.16786419 0.087688625 -0.24087478 -0.04033431 0.2736262 -0.1817137 -0.08439817
0.2217775 -0.07382413 -0.17653051 -0.21259503 -0.1807417 -0.26946172 -0.023601104 -0.008105159
0.188618 -0.16292834 -0.084747344 -0.22227578 0.31142467 -0.0028517824 -0.2937527 0.15313941
0.14535515 0.19673876 0.33470377 -0.059391487 0.07413041 0.24351689 0.0719831 -0.023597684
0.046660617 -0.079706326 0.23741336 0.09114565 0.2043959 0.105194904 0.14463896 0.033494335
-0.16431461 -0.027241444 0.13368994 -0.19816598 0.33003554 0.23710755 -0.20566793 -0.21357642
0.08831553 -0.21680869 0.13439865 0.20410468 0.13544881 0.012966852 -0.17100705 -0.26560375
0.10600882 0.22005872 -0.011988959 -0.021006798 -0.107669495 0.03063268 -0.1171921 -0.251053
0.02874059 -0.11846965 -0.15934978 -0.2638626 -0.09422206 0.034883864 -0.23422213 0.06754588
-0.09131278 0.14393409 0.13226692 -0.049447827 -0.28406495 -0.07173239 -0.25315994 0.031635635
-0.31542242 -0.25505605 0.18452972 -0.18666434 0.090707846 0.25860444 -0.24971381 -0.28487903
-0.24165806 0.15131873 0.27948996 0.06822425 -0.23248243 -0.16871561 -0.10572669 -0.30155152
0.11409681 0.2277791 0.27096003 -0.27830252 0.104198635 -0.06409086 -0.29207805 0.18327096
0.16236354 -0.028175348 0.034607332 -0.20009078 0.18400522 -0.09197681 -0.014174705 0.25927737
-0.17662083 0.30086854 0.17595863 -0.197093 -0.19846198 -0.26156214 0.18248855 0.018676346
-0.045277506 0.22662637 -0.058862403 0.08000378 0.042936448 -0.024215236 -0.18348591 -0.20280673
-0.27576897 0.25558323 0.27146226 0.32399765 0.15840703 -0.047732476 -0.18081021 -0.3226179
-0.11398561 -0.20586488 -0.086779 -0.21744192 -0.24797422 -0.01772225 -0.21593346 0.006452269
-0.011872236 0.2555589 0.15769328 0.140429 -0.20075029 0.07950416 -0.15678826 0.19686279
0.28112766 -0.24664968 0.26596832 -0.2008095 -0.12876914 -0.17857754 0.097753 -0.2773843
-0.19045436 0.044559523 -0.14715126 0.24802426 -0.015531928 0.12076923 0.1301988 -0.19826582
0.28048754 0.20567144 0.07564398 -0.29521185 0.31232104 -0.19231655 0.24836737 0.2914134

fcs.0.0.linear.bias f4 [512]
00000000: 95a2 4bbe e9fe d0bc 9b83 9ebe 649d a03d
00000010: 75bf e53d 3c61 8d3e ee4e ef3d e04c 89be
00000020: 86d6 9dbd f6ea 903e b79b 11be 86b2 5b3e
00000030: ed4f d93d bf4d 523e f206 4a3e aef5 41be
00000040: 71e8 0b3e 589d 453d ff55 68be 77e7 9e3e
00000050: c0df d53d f709 86be ae16 24be bc69 173d
00000060: e2e1 8cbe df9a 60be 88fb 083d 0d3f 78be
00000070: 182e c0bc 28fb 9c3e 38c8 3dbe 8581 093e
00000080: fe3e 89be 7f0b 573c 2079 863e 1972 78be
00000090: 8261 91be 0c04 4bbd 001e 6abc bcd9 2e3e
000000a0: 9fdd b2bb 9b34 973e d515 513e 1d5d 00be
000000b0: 2fd9 50be cbec 463e bd9b af3d ec9e 753b
000000c0: 06b4 11bd 4373 1c3e 06d9 12be 80be 543e
000000d0: aa5e 513e fb7f 9d3e fff2 203e faf8 a63d
000000e0: 86b8 29be 7b62 9dbd afd7 40be e50f e9bd
000000f0: a3b0 303e 4144 5d3e 5abb 29be 3676 9dbe
00000100: 0e4f 6b3e ee39 29be 8c9f c1bd 9302 fb3d
00000110: fb81 973d c53d ed3c a32d 9f3e 79c2 7fbe
00000120: a4e5 14be 7275 febc 7838 6fbd 1bb7 a23e
00000130: 4e65 ea3c 0fb8 9c3d 7f6c 77bd 6149 a33d
00000140: 2eed 53be 83dd b33d ca75 c5bd 8393 51be
00000150: 1cae 993e ff20 8b3d 62fa d73d 3e60 81bd
00000160: e175 953c 0af7 83be b281 de3c 6256 63bd
00000170: 76af 55bd de19 cf3d 46b4 67be 91f7 5a3e
00000180: 5c18 0a3e c38e 023d 2390 313e de36 68be
00000190: 6468 893e b229 a3bd d80b 39be fc96 923c
000001a0: 407a 763c 0a55 9f3d 9fa2 14bd c9c3 c53d
000001b0: df3f ca3d aafa 54bd 388f 58be fb9e 9dbe
000001c0: c3f9 8c3e fda0 2dbe a2d4 a8bd b057 353e
000001d0: da3c 3ebe f06a 2abe f3ab 4c3d a345 2b3c
000001e0: f3b4 993e b834 a3be a088 c6ba 5780 67be
000001f0: a4ea 833e a0c8 19be 9c7a 463e 8830 88be
00000200: a81e 903e c22c 69be b3bd 6ebd 9e43 51bd
00000210: 66c2 fc3b 28b7 1f3e 7d97 77be fb00 c73d
00000220: 7ea9 333e 9424 193e 04be e9bd 68fc c33c
00000230: 6969 91be 22dd 84be cf4e 5ebe a189 043e
00000240: 8189 923e 2b19 0fbe 8cfd 623e d027 98bd
00000250: df2c f8bc 3ad0 95be 5975 eabd a0fb 89bd
00000260: 3d2e 59bd aedb 943e 753f 563e 17ff e33d
00000270: 0dee 073d 6f6f 11bc 9b09 97bd aab5 383e
00000280: eafd 85be a271 7fbe 1d59 89be a45b edbd
00000290: 2995 11be cd58 a1be fd17 713e 6fc5 653e
000002a0: 5e90 19be cd0b 84be d61c 8abd 5f59 903e
000002b0: a900 6e3d b79e 5bbe c26c 09bd 9f3d 743e
000002c0: 7a9a 8a3e adf3 8bbd 45be 09be cd79 89bd
000002d0: 28f0 0bbc a8d5 893e 5ab5 6bbe 4606 88be
000002e0: f145 a23c 3f37 97be 807a 953e 77d0 afbd
000002f0: d48b 1c3c 37f9 90be 00d8 6dbe a2ea 5b3e
00000300: 218f f4bd 3202 8bbe 63ea 64be a604 60be
00000310: 17d4 273e 07ce 393e 9f07 153d 892f 2a3e
00000320: 5883 673e f76b e03d 5c1d d93b 3e57 b83d
00000330: 7a5e aa3e b090 333e c6ec 96bd 8a02 a93e
00000340: 1a60 b5bc f636 b93d 6a19 08be 2797 703e
00000350: 318f 8d3e 98a1 863e f6f6 3dbe 5bbf 84be
00000360: c1fe 8dbe 639c bf3d 276d 983e 0686 0abe
00000370: 7ffb c5bd 75da 97bd 93b1 7abe 4aac 4d3e
00000380: 0dd7 44bc 9b9d 323e b82a 17be 5b2a 41be
00000390: bb51 41be 2e40 7cbe 0ecb 9dbe 7fc1 5f3e
000003a0: 638f fbbd 5d9c 2e3e b13b 563e 6484 d0bd
000003b0: dbe8 26be b902 57be 27c7 673e 65b6 883e
000003c0: 0055 b23d abe4 f0bd 6e8e 713e eeab 8f3e
000003d0: 8e46 0e3b 3d34 963d 6769 5cbc 2740 08bd
000003e0: d7e9 203c 2624 973e 571d 483e 6c69 d13c
000003f0: 0974 bbbd 05fb 28be 97d1 633d 0733 8bbe
-0.19886239 -0.025512176 -0.30959782 0.0784252 0.11218158 0.27613246 0.116849765 -0.26816463
-0.07706933 0.2830426 -0.14219557 0.2145482 0.10610948 0.2053747 0.19729212 -0.18941376
0.13662888 0.048245758 -0.22689055 0.3103597 0.104430676 -0.26179478 -0.16024277 0.03696607
-0.27516085 -0.21934079 0.033443004 -0.24242802 -0.02345948 0.30660367 -0.18533409 0.13428314
-0.26805872 0.0131252995 0.26264286 -0.24262275 -0.28394705 -0.049564406 -0.014289379 0.17075247
-0.005458548 0.29532322 0.20418485 -0.1253552 -0.20395349 0.19426267 0.085746266 0.0037478758
-0.035572074 0.15278344 -0.143406 0.20775795 0.20446268 0.30761704 0.15717696 0.08152957
-0.16574296 -0.07684799 -0.18832277 -0.11379985 0.17254882 0.21608068 -0.16575375 -0.3075425
0.22979376 -0.16526005 -0.09454259 0.1225635 0.07397839 0.028960118 0.31089506 -0.24976529
-0.14540726 -0.031061862 -0.058403462 0.31780323 0.028612759 0.07652294 -0.060406204 0.0797298
-0.20695946 0.087824844 -0.09641607 -0.20466428 0.30015647 0.06793403 0.105458036 -0.06317185
0.018244686 -0.25774413 0.027161453 -0.055502303 -0.052169286 0.10112356 -0.22627363 0.21383502
0.13485855 0.03187443 0.1734014 -0.2267718 0.26837456 -0.07966937 -0.18070924 0.01789426
0.015043795 0.07779892 -0.0362879 0.09656484 0.09875464 -0.051996864 -0.21148384 -0.30785355
0.27534303 -0.16955943 -0.082436815 0.17709231 -0.185779 -0.16642356 0.04996867 0.010453614
0.30020866 -0.3187616 -0.0015146919 -0.22607552 0.25764954 -0.15017939 0.1938271 -0.26599526
0.2814839 -0.2277098 -0.05828638 -0.051089875 0.007713604 0.15597212 -0.24178882 0.09716984
0.17545125 0.1495536 -0.11413196 0.023924068 -0.28400734 -0.2594996 -0.2170975 0.12943126
0.28620532 -0.13974445 0.22167033 -0.07429469 -0.030294834 -0.29260427 -0.114481635 -0.06737447
-0.053022612 0.29073852 0.20922644 0.11132639 0.033186007 -0.0088766655 -0.07374879 0.1803805
-0.26170284 -0.24945691 -0.268258 -0.11589745 -0.14217056 -0.31513062 0.23544307 0.22438596
-0.14996478 -0.25790253 -0.06743781 0.28193185 0.0581061 -0.21447264 -0.033550985 0.23851632
0.2707098 -0.06833587 -0.13451488 -0.06712685 -0.008541144 0.2692082 -0.23018399 -0.26567286
0.019808741 -0.29534337 0.29195023 -0.085846834 0.009554822 -0.28315136 -0.23226929 0.21476224
-0.11941362 -0.27150112 -0.22355036 -0.21876773 0.163895 0.18145 0.03638422 0.16619696
0.22608697 0.10958093 0.0066258144 0.09001015 0.33275205 0.17535663 -0.0736938 0.3300975
-0.022140551 0.09043686 -0.13290945 0.2349516 0.2764831 0.2629516 -0.1855124 -0.25927243
-0.27733424 0.09356 0.29770777 -0.13527688 -0.0966711 -0.07414714 -0.24481802 0.20085254
-0.012014163 0.17442934 -0.1476239 -0.18863814 -0.18878834 -0.24633858 -0.3081898 0.21851157
-0.12283208 0.17051835 0.20921208 -0.101815015 -0.16299765 -0.20997132 0.22634564 0.26701656
0.08707619 -0.11762365 0.23589489 0.2806086 0.0021709534 0.073341824 -0.013452864 -0.033264305
0.009821377 0.29519767 0.19542442 0.025562964 -0.09152991 -0.16502006 0.055619802 -0.27187368

fcs.0.1.weight f4 [10, 512]
00000000: ebfe adbb fd56 283b 03e6 713c 0501 143c
00000010: ce0d a83c bcb3 fdbc f96a c7bc 2511 eb3c
00000020: a051 b13b a913 17bc 6aa4 0e3d b457 403d
00000030: d3a7 be3c d84e 0bbd 98fe 9ebc 9375 9db9
00000040: 75e6 e23c 74ed 3ebb cd53 d23b 7323 f03c
00000050: fce3 4c3c c023 a33a 0be8 0f3d 11df c9bc
00000060: 6a53 4bbc 2166 fd3b 3c76 00bd c234 a3bb
00000070: 14ce 92bc 4c17 efbb bc5b 143d b205 26bb
00000080: dd4c ff3b 71d1 96bc 4901 ac3c f612 cabb
00000090: 1e0a f4bc 254e af3c 40e4 4d3c 38a4 d33c
000000a0: 4dfb 00bc 5099 5f3b 21f0 343d a4ba 32bc
000000b0: f251 bb3c c9ea 10bd dd5e 093b 348f c73c
000000c0: 92c7 623c 46b2 153d b0ae bcbc 3b74 92bc
000000d0: 1835 babb 705e d23c 5a63 7dbc 6528 403d
000000e0: 63a7 5ebc 1602 eb3b d54f 113b 9095 403c
000000f0: 8359 c53c 1d5c 5d3c 16bd c4bb 58bf 15bc
00000100: 84fa 78bc 4134 2d3d 145d 54bb 51d6 243d
00000110: 9756 e93c e0fe ef3c 249d d63c f3d4 fcbc
00000120: 34b7 433c 3e48 293d 5d44 3bbc f104 0a3a
00000130: 90be 963d 1d2f 9abc c999 c13a 38cb 673d
00000140: df3b 043c bc27 b53c a5b1 f7bb 16f1 033d
00000150: 143e bdbc 93bd f4bb 270c 1b3d 63a9 473d
00000160: d348 62bc 1792 823b c1bc 66b8 9d6a 863c
00000170: aeb4 023d b196 a73c 2d37 043c b394 f6bc
00000180: 3e78 b83c 531a 06bd 3ba5 593d 1b66 22bc
00000190: cefc a3bc e196 183d cff3 46bc 957d 01bb
000001a0: 7dc1 e3bc 76f9 10bd 86f8 d53b a72a 88bc
000001b0: ca98 f13c 244c b3bc aea4 6a3c d9ba 8c3c
000001c0: fb4d e43c 1368 e13c f7de efbc 607f c83b
000001d0: f6cc 21bd 7d4d 20bc f284 a93c da62 643b
000001e0: 92ee dc3c d519 143d 12d0 f2bc 3579 1ebc
000001f0: d9a4 febc 8244 24bc 3ca6 753c 4ca0 30bb
00000200: 8171 debc 53fd 08bd bd8a da39 2c68 c83d
00000210: 868b 493a 1998 2ebd b4f6 0e3c 0613 323c
00000220: c26d 46bd 4d78 3abb 43d5 093d 4247 f3bc
00000230: 7bb1 24bd 3392 b8bc 2f87 d0bb 77fc f83b
00000240: 32e9 29bc 0024 3b3c 5226 02bd 65f8 96bc
00000250: 1878 d2bc 862e 3f3d 8ba5 9dbc edeb 98bb
00000260: 411d 263d 0ace c1bc 5a5c 683c a2a3 41bc
00000270: e2e5 14bb 8831 84bb f3ad bfbc fa76 10bd
00000280: 767c 24bd 2bdf 13bd 9c02 663c 6214 633b
00000290: 4102 9d3c 6958 2ab9 3fce 8cbc 1734 d03c
000002a0: 76be 52bd c81d ddbc 72dc 193d b1a6 78bc
000002b0: bbe9 92bb 43a4 37bb 56fc 5d3c 372d 563b
000002c0: eb67 aa39 fcf0 91bc 5f2f 343c 18d1 a13c
000002d0: de7b 723c e1b3 fbbc c18e 2cbd b3c4 74bc
000002e0: ca3e e13d e440 3bbc cea0 38bc 2e1d 17bc
000002f0: d419 b13c f2cc 4abc 377a 153d c72b 8e3b
00000300: a91f c3bb f9bc d5bb 104c 613c 0f2d b13c
00000310: d6e1 933c 54db ee3c 3f04 153d 561f 97bc
00000320: c687 5e3c 0935 81bc 6429 963c 2edf be3c
00000330: eb22 d73c fdb3 3e3c 6170 053c d85e 843c
00000340: 72e9 0bbc b5b0 dd3c 5654 08bc 50a1 4b3d
00000350: 2cdd eb3c 807a 97bb 5def 903b 4cf1 d6bc
00000360: 813e 22bd 60a3 3dbd e224 4c3c 337f 6bbc
00000370: 395c cd3a 192a 28bc 88a8 913d 62b9 38bc
00000380: eaf5 0abb bfc0 143c 9175 6d3c 028b 023c
00000390: 6fb1 12bd 45e3 f73c 6ddf 273b 61cc f83c
000003a0: d0e1 ce3c c80d 5d3c a52d 2bbd 8e36 ac3c
000003b0: 556e d2bc 970f 013c 71a1 723d 3cde 14bd
000003c0: 6cd6 d73b 877d 16bd 9626 0cbd 09ad fe3a
000003d0: 8f55 22bc 54ca 1dbc 1cbb 90bc f0cd 7e3d
000003e0: eeec ba3c 3557 013d 3fba d5bc b329 babc
000003f0: f997 83bb f586 ecbc c612 2cbd 70da 01bd
-0.0053099296 0.0025686615 0.014764312 0.009033446 0.020514395 -0.030969493 -0.024343 0.028694699
0.005411342 -0.009220996 0.034824766 0.04695864 0.023273384 -0.034010738 -0.01940851 -0.00030032973
0.027697781 -0.0029133232 0.0064186812 0.029313779 0.012505528 0.0012446567 0.035133403 -0.0246425
-0.012410024 0.007733122 -0.031362757 -0.0049806545 -0.017920531 -0.0072964784 0.036220297 -0.0025332985
0.0077911452 -0.018410416 0.020996707 -0.006166811 -0.02978998 0.021399567 0.012566626 0.025835142
-0.007872415 0.003411848 0.044174317 -0.010908756 0.022866223 -0.03538016 0.0020961084 0.024360277
0.013841527 0.036546968 -0.023032516 -0.017877689 -0.005682599 0.025679797 -0.015465582 0.046913523
-0.013589713 0.0071718795 0.0022172828 0.0117544085 0.024090534 0.013510731 -0.006003986 -0.009139858
-0.015196446 0.04228616 -0.0032404112 0.04024345 0.028483672 0.029296339 0.026197977 -0.03086326
0.0119455345 0.04132866 -0.011429873 0.00052650186 0.07360566 -0.018821293 0.0014770563 0.05659029
0.008070915 0.022113673 -0.0075590187 0.03221234 -0.02310089 -0.007468888 0.037853386 0.048745524
-0.013811308 0.0039847004 -5.5012064e-05 0.016408259 0.03191059 0.020457597 0.008069796 -0.030100202
0.022518273 -0.03273995 0.05313609 -0.009912039 -0.020018008 0.037253264 -0.012143089 -0.001975869
-0.027802223 -0.035394154 0.0065298704 -0.0166219 0.0294918 -0.021886893 0.014321489 0.01717894
0.027869215 0.027515447 -0.029281123 0.0061187 -0.039502107 -0.0097841 0.020693276 0.003484896
0.026969228 0.036157448 -0.029640231 -0.009672453 -0.031084465 -0.010026099 0.014993247 -0.0026951013
-0.027153732 -0.033444714 0.00041683568 0.09785494 0.0007688332 -0.04262552 0.008725811 0.010868793
-0.048444517 -0.0028453053 0.033650648 -0.029697064 -0.04020832 -0.02253065 -0.0063637714 0.0075984555
-0.0103705395 0.011422157 -0.031774826 -0.01842899 -0.02569203 0.046675228 -0.019243976 -0.0046667964
0.040555242 -0.023657817 0.014182175 -0.011818798 -0.0022720029 -0.004034225 -0.023398375 -0.035269715
-0.040157758 -0.0361015 0.014038708 0.00346496 0.019166114 -0.00016245399 -0.01718819 0.025415463
-0.05145117 -0.02699174 0.03756375 -0.015176461 -0.0044834292 -0.0028021492 0.013548931 0.0032680759
0.00032502352 -0.017815106 0.010997622 0.019753024 0.01480004 -0.030725421 -0.04212833 -0.014939475
0.10998304 -0.011429045 -0.011268808 -0.009223266 0.021618761 -0.012377964 0.036493506 0.0043387148
-0.005954702 -0.0065227714 0.013751045 0.02162793 0.018052023 0.029157318 0.036381003 -0.01844756
0.013582176 -0.01577236 0.018330283 0.02329978 0.026261767 0.011639592 0.008144469 0.016158506
-0.008539544 0.0270618 -0.0083208885 0.049714386 0.028791986 -0.0046227574 0.0044230656 -0.026238106
-0.03961039 -0.046298385 0.012459965 -0.014373588 0.0015667743 -0.010263943 0.07112223 -0.011274667
-0.0021203705 0.009079157 0.014493362 0.007967712 -0.035813745 0.030259738 0.002561535 0.030370893
0.02525416 0.013492055 -0.041791577 0.021022107 -0.025687376 0.007877252 0.059235994 -0.03634475
0.0065868404 -0.036740806 -0.034216486 0.0019430231 -0.009908094 -0.009630758 -0.017667346 0.062208116
0.022818055 0.031577308 -0.026089786 -0.022724962 -0.0040159193 -0.028872946 -0.04201009 -0.03170246

fcs.0.1.bias f4 [10]
00000000: b51c 223d 7761 bbbc eb8d 13bc d089 08bd
00000010: b4c5 29bd 1319 453d 5e07 b53c 3590 0bbd
00000020: 7a80 41bd ebb9 e63c
0.03957816 -0.022873623 -0.009006004 -0.033334553 -0.04144831 0.048119616 0.02209824 -0.034073073
-0.047241665 0.028164824
