cache/10d_nn/dsmcusum/model_2/iter_10.pth (torch, 45072 bytes, 4 tensors)

fcs.0.0.linear.weight f4 [512, 10]
000000 9b ba a9 be fe cd 40 3e b9 f1 c4 3c 4f 2b 81 3e
       -0.3315018 0.1882858 0.024041044 0.25228354
000010 0f cf 9f 3e cb 5c 37 3e 77 04 00 be 31 59 90 3e
       0.3121266 0.17906491 -0.12501703 0.28193048
000020 87 56 b2 3d d2 2c 62 3e bd 4f 3d bd ed 4e 9b 3d
       0.0870791 0.2208741 -0.046218622 0.07583413
000030 86 19 82 be c1 22 72 3e 6a 93 84 3e 4f 1b 7d bd
       -0.25410098 0.2364607 0.25893718 -0.06179362
000040 15 d7 78 3b 3a 5c 72 b9 43 74 db 3d 13 48 17 3c
       0.0037969996 -0.00023113276 0.107155345 0.009233492
000050 87 25 83 be 54 ed 88 bd 62 67 ad bd da ab 48 3e
       -0.2561457 -0.06685892 -0.08466984 0.19596806
000060 b8 2e 49 be 7c 87 4e be ed 1f 99 3e a1 c3 7b be
       -0.19646728 -0.2016887 0.2990717 -0.24586345
000070 c5 25 08 3e 7d 5f 63 bd 0e b8 72 be ee 3a 7f be
       0.13295658 -0.055510987 -0.23703024 -0.24924824
000080 d3 46 8f 3d f4 a2 91 bd 73 a1 97 3e 47 72 f2 3d
       0.069959305 -0.07111159 0.29615363 0.11838203
000090 d4 88 21 be b8 da a1 3e 84 02 0a 3c 7f 36 47 3d
       -0.15774852 0.31612182 0.008423451 0.048635956
0000a0 76 78 16 be e6 99 a8 bd 6d f2 2b be 72 da 49 be
       -0.1469439 -0.08232479 -0.16791697 -0.19712237
0000b0 90 4f 74 be ed 87 16 3e 12 27 2e 3e db d5 de 3d
       -0.23858476 0.14700289 0.17007092 0.108806334
0000c0 e4 02 98 be 3e cc 13 3d 3e c6 6b be 83 6c 35 be
       -0.29689705 0.036083452 -0.23024842 -0.17717175
0000d0 14 d7 88 bc b1 df 53 3e b8 f6 9c bc f7 2b 48 3e
       -0.01670412 0.206908 -0.019160613 0.19548021
0000e0 b0 a7 cf 3d 0c 30 62 3c 43 5c ac 3e 4b dd c9 bd
       0.10139406 0.013805401 0.3366414 -0.098566614
0000f0 95 97 97 3d 62 9c 0b be 86 ab 50 3c b1 ba dc 3d
       0.07401959 -0.13633874 0.012736207 0.10777796
000100 50 77 97 be 07 6c 52 3e 3d b7 1e 3e d4 ad e8 bd
       -0.29583216 0.20549022 0.15499587 -0.1136128
000110 66 9b 44 be a3 58 0f be 6a 73 0e 3e e6 74 9a be
       -0.19199905 -0.13998656 0.13911214 -0.3016731
000120 d9 fe 10 be e3 cf 8d be 67 6d 70 3e c8 71 2e 3e
       -0.14159717 -0.27697667 0.23479234 0.17035592
000130 ea a8 96 be b2 29 85 be 81 3f 2a be 86 2b 7c 3e
       -0.29425746 -0.26008373 -0.16625787 0.24625978
000140 7b 01 57 3e 62 30 5d 3e 7f 46 b6 3d c5 b7 7c be
       0.20996659 0.21600488 0.08900165 -0.24679478
000150 31 56 c9 bc 76 eb 8f 3e 2d 68 22 be ab a3 88 bd
       -0.024577232 0.2810933 -0.15860052 -0.06671842
000160 a1 46 71 3e 12 d1 8e bd 9c fa 35 be 97 40 60 be
       0.23562099 -0.06973471 -0.17771381 -0.21899639
000170 dd a5 32 be a8 03 7f be d4 39 dc bc c0 7f 81 bc
       -0.17446084 -0.24903738 -0.026883043 -0.015807986
000180 fc 93 41 3e 97 d4 20 be 49 2a a2 bd 9a f5 5e be
       0.18904108 -0.15706097 -0.079182215 -0.21773377
000190 ec 98 97 3e 47 7d e8 3a d5 44 94 be 28 64 2c 3e
       0.29608858 0.0017737531 -0.28958765 0.16835082
0001a0 f0 db e4 3d 6e 90 5a 3e 2c 03 af 3e 63 82 5e bd
       0.11174762 0.21344158 0.34182107 -0.054323565
0001b0 10 2b 5d 3d d3 57 80 3e 12 de d9 3d bf 71 4e bd
       0.053996146 0.25067005 0.1063806 -0.050401445
0001c0 ae 5c 51 3c c9 25 f8 bd 65 c7 48 3e bd e7 8e 3d
       0.012778444 -0.12116582 0.19607313 0.06977794
0001d0 8c 3e 82 3e 55 6c c8 3d 61 a5 77 3e 90 53 0b 3d
       0.25438344 0.09786288 0.24184181 0.03401524
0001e0 9d 12 14 be 76 1f 47 bc f7 8d 08 3e 3a 9c 45 be
       -0.14460225 -0.012153497 0.13335405 -0.19297877
0001f0 2d bc ac 3e f1 f2 6e 3e e2 0d 53 be 08 55 56 be
       0.33737317 0.23334862 -0.20610765 -0.20930874
000200 a8 c5 c1 3d 82 26 59 be 53 24 f6 3d 6d 34 31 3e
       0.09461528 -0.21206096 0.12018647 0.17305155
000210 43 dd 21 3e c2 3c bf bc 33 a2 35 be f8 b7 84 be
       0.15807061 -0.023344401 -0.17737655 -0.25921607
000220 6c d6 d7 3d a2 4a 6f 3e cb d1 9e ba 03 06 63 bb
       0.105389446 0.23368314 -0.0012116967 -0.0034641034
000230 cf 40 d7 bd 9a 03 32 3d f8 d8 e3 bd 3b 6b 79 be
       -0.10510408 0.043460466 -0.11125368 -0.24357311
000240 a7 ed 13 3d 8e 29 02 be 38 f3 1b be 90 08 83 be
       0.036115315 -0.12711164 -0.152295 -0.2559247
000250 e1 a8 bd bd 17 11 25 3d 4a 54 63 be 50 70 81 3d
       -0.09260727 0.0402995 -0.22200122 0.0632025
000260 7a b5 94 bd 13 02 22 3e 00 d3 07 3e 5a d2 32 bd
       -0.072611764 0.15821104 0.13264084 -0.043657638
000270 00 75 91 be df 48 97 bd 1a 74 7a be 04 66 08 3d
       -0.28409576 -0.07386946 -0.24458352 0.033300415
000280 e2 95 8e be c5 4c 87 be 11 43 48 3e 7b d5 58 be
       -0.27848727 -0.26425758 0.19556834 -0.21175186
000290 09 2f 05 3e 12 3a 84 3e b4 75 73 be 67 2b 89 be
       0.13006224 0.25825554 -0.23775369 -0.26790926
0002a0 0a a0 69 be 0a 04 35 3e 74 d0 88 3e 85 8d 19 3d
       -0.22814956 0.17677322 0.26721537 0.03748848
0002b0 42 9c 61 be 64 1a 49 be d4 2a ca bd d4 51 92 be
       -0.22032264 -0.19638973 -0.0987145 -0.28578055
0002c0 d8 a1 00 3e f8 f7 77 3e 2e 54 8f 3e 70 80 89 be
       0.12561738 0.24215686 0.27993912 -0.26855803
0002d0 e1 28 c1 3d 03 eb 74 bd d2 07 92 be 34 64 3b 3e
       0.09431625 -0.059794437 -0.2852159 0.18299943
0002e0 68 df 1e 3e db 07 9e bc bd f8 31 3d c2 e8 3f be
       0.1551491 -0.019290855 0.043450106 -0.18741134
0002f0 67 b3 46 3e 94 42 af bd 17 21 77 bc 05 1a 84 3e
       0.19404374 -0.08557621 -0.015083573 0.258011
000300 4b d9 33 be f8 cd 9e 3e 9d 4b 5b 3e 51 e0 4d be
       -0.1756336 0.31016517 0.21415563 -0.20105101
000310 b7 93 49 be 1d c5 7b be df fc 3a 3e a3 a0 1b 3d
       -0.19685255 -0.24586911 0.18260525 0.037994992
000320 08 3b 28 bc 63 7f 70 3e b1 95 89 bd 7a 53 4d 3d
       -0.01026798 0.23486094 -0.067180045 0.050128438
000330 30 7d 81 3d 52 67 41 bb aa fd 32 be 26 3d 57 be
       0.06322706 -0.0029511047 -0.17479578 -0.2101942
000340 78 47 8a be 90 9e 79 3e 9d 8a 8c 3e f6 94 a9 3e
       -0.2700765 0.24376893 0.27449504 0.3312146
000350 a5 85 21 3e c4 25 ee bc 00 06 32 be a8 01 a7 be
       0.15773638 -0.029070742 -0.17385101 -0.3261845
000360 31 3a c3 bd a3 0b 43 be 45 4b 98 bd 58 fb 57 be
       -0.095325835 -0.19047408 -0.074362315 -0.21091974
000370 86 d4 87 be 55 49 bc bc b9 77 59 be c9 a4 55 3d
       -0.2652933 -0.022984186 -0.21237077 0.052159104
000380 81 de b1 bc d6 ba 63 3e 43 0f 18 3e f0 99 15 3e
       -0.021712543 0.22239241 0.14849572 0.14609504
000390 a1 eb 48 be 53 db c9 3d 10 72 07 be 1e c2 3c 3e
       -0.19621135 0.09856286 -0.13227105 0.18433425
0003a0 6e 6e 95 3e 49 7b 8d be df 78 8b 3e 86 7a 51 be
       0.29185814 -0.27633122 0.27240655 -0.20456895
0003b0 61 61 bd bd 5f 4a 26 be c3 fb c9 3d 89 64 8d be
       -0.09247089 -0.16239308 0.09862473 -0.27615765
0003c0 6c 6f 21 be 33 51 99 3d 5b 1c 01 be 84 80 82 3e
       -0.1576516 0.07486191 -0.12608473 0.25488675
0003d0 cc 0e 66 39 f8 ed 04 3e 90 b3 fd 3d bd ec 4b be
       0.00021940022 0.12981403 0.123877645 -0.19914527
0003e0 2b 09 b0 3e 72 6b 34 3e de 18 30 3d 77 a4 9c be
       0.34381995 0.17619112 0.042992465 -0.30594227
0003f0 e7 96 9a 3e b5 c4 44 be 58 a9 85 3e 29 4e 9f 3e
       0.30193254 -0.19215663 0.26105762 0.3111432

fcs.0.0.linear.bias f4 [512]
000000 41 8a 04 be ca 7f 9e bd 7f 79 b7 be 13 22 d4 3d
       -0.12943365 -0.077392176 -0.35834882 0.10358062
000010 96 1b 41 39 56 f1 7e 3e 5c 94 f8 3d b8 23 97 be
       0.00018416191 0.2489675 0.12137672 -0.2951944
000020 7c 99 0c be 2c d0 79 3e e9 80 2e be 0f 08 67 3e
       -0.13730425 0.24395818 -0.17041363 0.22561668
000030 af 28 62 3e ab a6 58 3e 20 a3 55 3e 71 f1 84 be
       0.22085832 0.21157329 0.20863008 -0.25965455
000040 6c 29 0d 3e 32 cb aa bb 78 5a 7a be 85 8a 97 3e
       0.13785332 -0.005212211 -0.24448574 0.2959787
000050 1c 46 ff 3d 8f fa 23 be 2c 04 1b be 12 f3 0f 3b
       0.12464544 -0.1601355 -0.1513831 0.002196495
000060 ba ee 8c be fc 5b 8a be ad 25 19 3d d3 78 70 be
       -0.27525884 -0.27023304 0.037389446 -0.23483591
000070 57 31 47 3c 2a b8 be 3e a4 d9 4b be 29 b2 35 3e
       0.01215776 0.3724988 -0.19907242 0.17743744
000080 f4 6c 87 be 79 77 ae 3d e1 d1 62 3e 0c 73 8b be
       -0.26450312 0.08518881 0.22150375 -0.2723621
000090 8b 29 8a be 5f 97 f6 bd 84 00 62 bd b6 f8 54 3e
       -0.2698482 -0.120405905 -0.055176273 0.20798
0000a0 23 41 00 bd a3 98 8c 3e 8f c4 5d 3e 70 77 1d be
       -0.03131212 0.27460203 0.21657012 -0.15377593
0000b0 75 eb 41 be 90 36 30 3e 98 14 db 3d 5d 7e 2c bd
       -0.18937476 0.17208314 0.10697287 -0.042112697
0000c0 f8 ec 33 bd ce 5e 44 3e 7e a6 18 be 25 f4 5f 3e
       -0.043927163 0.1917679 -0.14907262 0.21870477
0000d0 63 06 54 3e ab 3f 97 3e 49 23 31 3e ff 2b 9d 3d
       0.20705561 0.29540762 0.17298616 0.07674407
0000e0 fc 9c 33 be 27 37 af bd a5 8e 74 be 95 6c f3 bd
       -0.17540354 -0.08555441 -0.2388254 -0.11885945
0000f0 43 c9 36 3e 16 c0 dc 3d a3 ee 55 be 72 c4 9d be
       0.17850213 0.10778825 -0.20891814 -0.30813938
000100 11 4b 70 3e 1e c3 73 be 2d e9 b2 bd 3b 94 e5 3d
       0.23466136 -0.238049 -0.08735881 0.11209913
000110 c5 2e 28 3d e1 ee ff 3c f4 94 8d 3e e9 d6 47 be
       0.041060228 0.031241836 0.27652705 -0.19515575
000120 e8 04 07 be 56 71 fb bc 26 bd 54 bc 7d b6 b7 3e
       -0.13185465 -0.030693691 -0.01298455 0.35881415
000130 2b d6 04 3c 56 31 8a 3d 02 ef ec bd f4 16 10 3e
       0.008107702 0.06747691 -0.115690246 0.14071256
000140 54 4b 9e be 1b 87 a4 3d 86 52 14 be 49 c8 6a be
       -0.30916846 0.08033582 -0.14484605 -0.22927965
000150 1a 3e ac 3e 1f c2 07 3e 9e 71 8e 3d ff fe 8f bd
       0.3364113 0.13257645 0.069552645 -0.070310585
000160 2c 22 82 bc 57 5e 7e be b3 de e2 3b 71 bf ee bd
       -0.015885435 -0.24840675 0.0069235205 -0.11657608
000170 63 db a0 bd 50 d5 b5 3d 8f 4d 88 be 4a 10 72 3e
       -0.07854345 0.08878577 -0.26621673 0.23639026
000180 5e 14 ba 3d da 13 14 3d e9 89 25 3e aa 94 81 be
       0.09085916 0.036151744 0.1616589 -0.25308734
000190 c5 fd 6f 3e b2 29 a3 bd fd 3e 6e be 8b 8c b2 3d
       0.23436649 -0.07966937 -0.23266216 0.08718213
0001a0 02 68 26 3d 88 b6 15 3e d7 05 d2 bd 5b 31 1e 3e
       0.040626533 0.14620411 -0.1025502 0.15448515
0001b0 bb 22 32 3e 32 77 b9 bd a7 59 67 be da a7 bd be
       0.17396061 -0.09055938 -0.22592793 -0.37042123
0001c0 fa e9 92 3e 4d e1 13 be a1 35 23 be 97 ba 9a 3e
       0.28694135 -0.14441414 -0.15938427 0.30220482
0001d0 a5 23 42 be 9f b2 56 be 37 50 8b 3d a9 09 30 3d
       -0.1895891 -0.20966576 0.06802409 0.042977963
0001e0 8a fe 86 3e b8 34 a3 be b2 42 1c 3d 5d c8 6d be
       0.26366073 -0.3187616 0.038149543 -0.23220964
0001f0 b6 d5 96 3e 81 60 12 be 86 b7 35 3e 10 84 fc bd
       0.29459924 -0.14294626 0.1774579 -0.123298764
000200 12 c5 56 3e e5 fc 81 be c5 9f c0 bc df 86 9a bd
       0.20973614 -0.25388256 -0.023513684 -0.07545256
000210 b7 fd a6 3d 6b 19 f7 3d 40 b4 82 be 8c fb 2b 3e
       0.08153861 0.12065395 -0.25528145 0.16795176
000220 45 82 3c 3e a6 96 09 3e 1c b2 c3 bd 1f dd e2 3d
       0.18409069 0.13436374 -0.09555456 0.11077332
000230 18 13 61 be 50 b3 62 be 04 5e 09 be 3a dc b8 3d
       -0.2197994 -0.22138715 -0.1341477 0.0902638
000240 cf a0 bf 3e 4b 7f 32 be 0f 5c 7f 3e 4f c7 ba bc
       0.37427375 -0.17431371 0.24937461 -0.022800116
000250 3e 21 42 bd 46 0c be be ac bd b7 bd 35 64 48 bd
       -0.047394983 -0.3711874 -0.08971724 -0.04892369
000260 19 15 41 bd 3b 49 90 3e 9b 3b 54 3e 27 55 f2 3d
       -0.04713926 0.2818087 0.20725863 0.11832648
000270 8a 87 37 bb 91 4b 7d 3c dd cc 0a be 64 2d 62 3e
       -0.0028004372 0.015459911 -0.13554712 0.22087628
000280 0e f0 a2 be db ba 54 be 6d 59 89 be 33 65 d0 bd
       -0.31823772 -0.20774405 -0.2682604 -0.10175552
000290 28 64 98 bd 1f 7b 89 be 00 31 65 3e f9 c3 1a 3e
       -0.07440978 -0.26851746 0.22381973 0.1511382
0002a0 c0 3b 3c be 3a 4a 8f be 34 f3 93 bd 81 52 af 3e
       -0.18382168 -0.27986318 -0.07224122 0.34242633
0002b0 da 67 57 3d 4c 5b 7d be e6 c4 b9 3c 64 9f 4d 3e
       0.052589275 -0.24741858 0.022676896 0.20080334
0002c0 70 61 27 3e e7 3f d3 bc 3b 54 0a be d1 39 9a bd
       0.16345763 -0.025787307 -0.13508694 -0.07530559
0002d0 35 c3 b5 3c 9e e2 6f 3e f9 fa 7c be 62 0a ac be
       0.022187809 0.23426291 -0.24705113 -0.3360167
0002e0 af cd bd 3c 2d b8 9d be 56 a3 ad 3e 98 31 ff bc
       0.023169367 -0.30804577 0.33913678 -0.031151578
0002f0 a0 1a 8b 3c 48 29 b9 be b8 c7 6b be fe 5e 57 3e
       0.01698047 -0.36164308 -0.23025405 0.2103233
000300 70 94 fe bd 96 f8 8c be da cc 67 be 5c 60 55 be
       -0.12430656 -0.27533406 -0.22636738 -0.2083754
000310 ec cb 9f 3e 07 f9 46 3e ad c7 59 3d 82 1d 1a 3e
       0.31210268 0.19430934 0.05316894 0.15050319
000320 68 66 74 3e 38 f4 57 3e a2 12 b0 3c 9d da 65 3d
       0.2386719 0.21089256 0.02149326 0.05611669
000330 dd 37 d1 3e 89 23 76 3e 6e da 23 bd 32 94 96 3e
       0.40862933 0.24036993 -0.040003233 0.2940994
000340 9b f3 36 bc fb 7f ae 3d 4d 2b 87 be d6 d2 62 3e
       -0.0111664785 0.08520504 -0.26400223 0.2215074
000350 6f ee 9f 3e 9c ae 83 3e cf 65 56 be 33 74 76 be
       0.31236598 0.25719154 -0.20937274 -0.24067764
000360 5e c1 9d be 41 d3 14 3e 51 09 9d 3e b8 0c b0 bd
       -0.3081159 0.14533712 0.3067117 -0.08596176
000370 5b 1f 95 bd 2d 0f 51 bd 35 de 6e be 0f bc 50 3e
       -0.07281371 -0.051039863 -0.23326953 0.20384239
000380 ad 07 2e bd e0 ca 57 3e b3 73 25 be 86 83 46 be
       -0.04248779 0.21073484 -0.16157417 -0.1938611
000390 08 f7 93 be 64 5d 28 be 95 47 af be 25 f0 6f 3e
       -0.28899407 -0.16441876 -0.342343 0.23431452
0003a0 32 c7 d4 bd ab ab 31 3e 64 5a 4e 3e 81 ae ae bc
       -0.10389556 0.17350642 0.20151669 -0.021323444
0003b0 db e8 26 be 0e eb 84 be 7c 97 96 3e 1b fe 72 3e
       -0.16299765 -0.25960582 0.29412448 0.23729746
0003c0 16 3f 2d 3d 39 57 e8 bd 7d 74 9f 3e fb d1 91 3e
       0.04229649 -0.113447614 0.3114356 0.28480515
0003d0 bf 9e ef 3c 03 8f 26 3d 2e 0d d1 bd bf ba ad bd
       0.0292505 0.04066373 -0.10207592 -0.084828846
0003e0 55 a0 48 bc 0f 44 a7 3e a6 9a 83 3e 8c 74 82 bb
       -0.012245257 0.32669112 0.25703925 -0.0039811786
0003f0 87 26 e4 bd 0b 9b 3d be d3 37 ae 3d cd 6e 94 be
       -0.11140161 -0.18516175 0.085067414 -0.28990784

fcs.0.1.weight f4 [10, 512]
000000 68 43 42 3d 63 ae e7 39 2d ac 6d 3a 9d 06 0d 3d
       0.047427565 0.00044189682 0.0009066489 0.034430135
000010 28 29 cf 3c f8 c9 d6 bc 4d 7f c2 bc 47 2b d8 3c
       0.02528818 -0.026219353 -0.023742342 0.026387824
000020 2e f1 cc 3b 09 dd 00 bc a8 63 eb 3c 00 2f cc 3d
       0.006254337 -0.007865199 0.028734043 0.09969902
000030 57 07 b6 3c 56 d8 ea bc a7 24 a8 bc c9 b8 ea 3a
       0.022220297 -0.02866761 -0.02052529 0.0017907853
000040 6a 7a b0 3c 52 1d b6 bb 0d 6b 99 3b 4d e0 04 3d
       0.021542747 -0.0055576945 0.004681951 0.032440472
000050 24 9b 48 3c 29 70 8f b9 c3 aa 2a 3d 18 bf b2 bc
       0.01224402 -0.0002735865 0.041666757 -0.021819636
000060 ae 26 06 3c 7c 1a bb 3b ee 6d f8 bc 01 49 79 bb
       0.008187933 0.0057099443 -0.030325856 -0.0038037898
000070 e9 1e 94 bc 03 62 08 3c 11 09 e9 3c 14 61 ac bb
       -0.018081145 0.008324149 0.028446706 -0.005260596
000080 91 04 10 3c fb 5b 4b bc a1 1b 54 3c 56 0a fb bb
       0.008790151 -0.012412067 0.01294604 -0.0076611442
000090 f5 f8 ee bc 4e fe 02 3d 58 6b 73 3c 38 4a cc 3c
       -0.029171446 0.031980805 0.014857136 0.024937734
0000a0 cd 59 3a 3c 2c 95 67 bb f0 fb 1e 3d 73 57 7b bc
       0.011373949 -0.0035336716 0.038814485 -0.015340674
0000b0 0e 60 f6 3c 89 d4 38 bd c9 92 73 3c 0b 74 d1 3c
       0.0300751 -0.045124564 0.014866539 0.025568029
0000c0 30 31 01 3c 08 98 00 3d 15 e2 c5 bc e5 a7 0a bd
       0.007885262 0.03139499 -0.024155656 -0.033851523
0000d0 7d 2e b0 bb 75 6b cc 3c 21 d8 4e bc f0 af 8a 3d
       -0.0053766356 0.024953583 -0.012624771 0.06771839
0000e0 f9 ba 68 bc 5a bd 3c bc 22 c3 91 bc e0 71 2a 3c
       -0.014204734 -0.011519754 -0.017793242 0.0104031265
0000f0 13 31 c9 3c bc 29 33 3c 9b f3 26 bd 90 35 11 bc
       0.024559533 0.010935243 -0.040759664 -0.008862868
000100 8f dc 98 bc d7 c8 b9 3d a9 74 81 3d 7e 6a 16 3d
       -0.018659858 0.0907151 0.06321079 0.036722653
000110 33 c9 05 3d 50 7c f6 3c 39 88 0d 3d e0 45 04 bd
       0.03266258 0.030088574 0.03455374 -0.0322932
000120 49 8a 5b 3b bb bb 18 3d d5 e6 83 bc 93 11 81 3b
       0.0033499172 0.03728841 -0.01610128 0.0039388626
000130 2b b9 3c 3e 39 95 68 bc 04 99 f1 3a 79 4c c5 3d
       0.18430011 -0.014195734 0.0018432443 0.096337266
000140 ea 26 ff 3b 5b 94 25 3c 48 69 fd 3b f4 17 00 3d
       0.0077866213 0.0101061715 0.007733498 0.031272843
000150 3b d6 b8 bc 75 41 27 bc 8d 0f 15 3d cc 05 33 3d
       -0.02256309 -0.010208477 0.036391784 0.0437067
000160 ba e2 69 bc 9b fa 4d 3c 77 4e 38 bc a3 5d 06 3c
       -0.014275247 0.012571956 -0.011249176 0.008201036
000170 b0 8c 0b 3d fb 85 a3 3c e8 f1 e1 3c bc 2e 57 bc
       0.034069717 0.019961348 0.02758117 -0.013133701
000180 a7 39 d3 3c af 64 19 bc f9 cf 74 3d 45 e1 dc bc
       0.025784327 -0.009362384 0.05976865 -0.026962886
000190 27 59 7a bc e1 96 18 3d 4f d6 ef bb a6 54 b5 bb
       -0.015280045 0.037253264 -0.0073192487 -0.0055337725
0001a0 eb 39 de bc 28 79 13 bd 1e 97 04 3c 82 5d a2 bc
       -0.027127227 -0.036004215 0.00809267 -0.019819979
0001b0 04 36 ec 3c 0d 8b b9 bc dd 15 76 3c ed 15 5f 3c
       0.02883435 -0.022649312 0.015019861 0.013616067
0001c0 83 65 de 3c 65 b4 e3 3c b7 19 f2 bc 1f 05 ad 3b
       0.027148014 0.02779598 -0.029553277 0.0052801515
0001d0 73 56 f5 bc df 8f ad bd c0 9d 37 3c 6e 3c 27 3b
       -0.029948449 -0.08474707 0.011207044 0.0025518197
0001e0 df 15 25 3d d5 19 14 3d c2 69 d6 bc 97 c7 24 bc
       0.04030406 0.036157448 -0.026173476 -0.010057352
0001f0 5d a5 01 bd ca e5 8e bc 9e 07 65 3c a3 8a e9 3c
       -0.031651843 -0.017443556 0.013978867 0.02850849
000200 cc 34 57 bc e0 d9 08 bd d3 33 5d bc 22 ba 0f 3e
       -0.013135146 -0.033410907 -0.013501125 0.14035848
000210 a8 b4 0f be ac ae 2e bd 8d 71 f6 3b 83 d4 e1 3c
       -0.14033759 -0.04264705 0.0075208605 0.027567154
000220 90 e2 4a bd 15 67 76 bc 6f 17 bc 3c ef ab e9 bc
       -0.049532473 -0.015039225 0.022960393 -0.028524367
000230 45 9a e1 bc d0 51 62 bc 7d 21 a0 bb 9c c4 31 3c
       -0.027539382 -0.013813451 -0.0048868046 0.010850098
000240 f5 47 fa bc 86 03 0e 3c 5d 2d 34 bd ae cf 1e bc
       -0.03055189 0.008667832 -0.043988574 -0.009693069
000250 90 c5 fb bb 13 c7 54 3d ff 30 19 bd bd 79 3d ba
       -0.0076834634 0.051947664 -0.037400242 -0.0007227918
000260 25 23 1e 3d 22 94 0f bd 5a 46 6c 3c 9f 7b 08 3c
       0.038607735 -0.03505338 0.01442107 0.008330255
000270 99 a4 e5 3a a2 93 41 bb c8 99 cb bc 44 1e c4 bc
       0.0017520367 -0.002953746 -0.024853602 -0.023940213
000280 63 b0 14 bd 29 20 e1 bd 03 f8 65 3c e8 f5 50 3b
       -0.036301028 -0.10992462 0.014036181 0.0031884853
000290 e7 92 09 3d df f0 d3 bc 7e 04 e0 bc b7 b6 da 3c
       0.033587363 -0.025871692 -0.027345892 0.026698453
0002a0 d1 77 a7 bd fa 63 67 3d 74 eb ef 3c eb 2d b1 3a
       -0.0817715 0.05649183 0.029287077 0.0013517713
0002b0 0f 11 a5 bb ab 44 99 bc 0a f5 b8 3b bb 21 9d 3c
       -0.005037434 -0.018709501 0.0056444453 0.019181123
0002c0 a3 8a 8a b9 78 95 75 bc bb b6 85 3d 57 80 e3 3c
       -0.00026424704 -0.014989249 0.06528994 0.027771158
0002d0 3a 00 32 3a 5e 22 fa bc 8d 22 8b bd 1a c7 5b bc
       0.0006790195 -0.030533966 -0.067936994 -0.013414169
0002e0 46 84 80 3e 69 8d 76 bc 96 c3 86 3d 4e 18 91 bc
       0.25100917 -0.015048363 0.06580274 -0.017711785
0002f0 87 e2 b5 3c 56 54 25 bc 6f 81 b4 3d 9b c9 1f be
       0.022202743 -0.010090908 0.0881375 -0.1560425
000300 33 1d 83 3b 21 31 9c bb 57 ec 60 3d 9c 14 13 3d
       0.0040012836 -0.004766599 0.05491289 0.035908327
000310 e2 cb 63 3c e7 4e ce 3c 0e a8 15 3d 35 a8 d5 bc
       0.01390359 0.025184108 0.036537223 -0.026081184
000320 8f d0 36 3c b2 96 3d bc d9 dd a8 3c e7 88 b3 3c
       0.011158123 -0.011571573 0.020613598 0.021915866
000330 1b 3c 0b 3d b2 f9 35 3c 8f 34 21 3c a8 64 cb 3b
       0.033992868 0.011106895 0.009839191 0.0062070675
000340 e8 32 04 bc c7 5b 17 3d 6c 0a 50 bd ee 69 35 3d
       -0.008068778 0.03695276 -0.05079119 0.044290476
000350 5a 6b 99 3c c4 3f aa bb 7f b0 2f 3c f1 e2 1e bd
       0.018727947 -0.0051955897 0.010723232 -0.038790647
000360 e0 cc 18 bd a9 6e 63 bd 6a 37 08 3c 12 78 1c 3c
       -0.03730476 -0.055525456 0.008313993 0.009550111
000370 05 84 bd bb e2 fe 66 bc ff 1e 21 3e e5 eb 12 bc
       -0.00578356 -0.014098855 0.1573448 -0.008967374
000380 7c 7b 7c bd af 32 5f 3b 23 5c 48 3b d6 1e af 3b
       -0.0616412 0.003405731 0.0030572496 0.005344252
000390 9f 4d 22 be 75 b5 19 3d 24 97 0f 3c c0 6d 81 3c
       -0.15849923 0.037526567 0.008764062 0.015799403
0003a0 9c ad 64 bc ad da 8f 3d f0 13 21 bd 48 9b 3f 3c
       -0.013957407 0.07024131 -0.039325655 0.011694737
0003b0 55 6e d2 bc 38 ea dd 3b 2a b6 37 3e c7 e1 5e bd
       -0.025687376 0.006772306 0.17940584 -0.054414537
0003c0 57 b1 dd 3b a4 9c a4 bd c8 91 eb bc 60 a2 1f ba
       0.0067655253 -0.08037689 -0.028756037 -0.00060895644
0003d0 bf 23 ba bc f6 9d 43 bc 35 f1 83 bc fa 07 24 3d
       -0.022722123 -0.011939516 -0.016106227 0.04004667
0003e0 a3 a5 01 3d 19 e2 ef 3c 03 ac e9 bc 9b 42 c5 bc
       0.031652104 0.029282616 -0.028524404 -0.024079612
0003f0 d2 90 0c 3d 45 00 f0 bc a6 75 30 bd d6 e2 04 bd
       0.0343178 -0.029297004 -0.04308095 -0.03244289

fcs.0.1.bias f4 [10]
000000 40 ee 05 3d 43 bb 1e bd 75 83 10 3c df 94 bd bd
       0.032697916 -0.038752805 0.008820404 -0.092569105
000010 b2 15 9d bd ca 9e 84 3d 40 5b 14 3c 95 e9 f7 bd
       -0.07670154 0.06475599 0.009054959 -0.12105099
000020 5c 76 ab bd 14 2c 17 bd
       -0.08372185 -0.03690727
