cache/10d_nn/dsmcusum/model_2/iter_5.pth (torch, 45064 bytes, 4 tensors)

fcs.0.0.linear.weight f4 [512, 10]
0	0xbe9dfac5	-0.30855384
1	0x3e53d693	0.20687322
2	0x3c4e4943	0.012590709
3	0x3e8622ed	0.2619852
4	0x3e9d0741	0.30669597
5	0x3dcfe21c	0.10150549
6	0xbdc1a98f	-0.09456169
7	0x3e906b22	0.28206736
8	0x3e1ab8e1	0.15109588
9	0x3e53d5ef	0.20687078
10	0xbd441eac	-0.047880813
11	0x3d94b71b	0.07261487
12	0xbe819feb	-0.2531732
13	0x3e815aba	0.2526453
14	0x3e8936a7	0.2679951
15	0xbd6436cc	-0.05571632
16	0xbbee2f01	-0.007268787
17	0xbbdbd8a4	-0.006709175
18	0x3dd64dec	0.10464081
19	0x3c2d2684	0.010568265
20	0xbe8aaf82	-0.27087027
21	0xbd59f62c	-0.053213283
22	0xbdc2169c	-0.09476969
23	0x3e3927cc	0.18081588
24	0xbe5265c7	-0.20546637
25	0xbe53ab07	-0.2067071
26	0x3e8fa68e	0.2805676
27	0xbe7ed432	-0.24885634
28	0x3e0ab285	0.13544662
29	0xbd5de54a	-0.054173745
30	0xbe848d90	-0.25889254
31	0xbe82e13b	-0.25562462
32	0x3c52ae6b	0.012858967
33	0xbd99edfe	-0.075160965
34	0x3e5cbb39	0.21555795
35	0x3dbd4b09	0.092428274
36	0xbe07d6ef	-0.13265584
37	0x3e9dcaa5	0.30818668
38	0x3aabf189	0.0013118248
39	0x3d869218	0.06570834
40	0xbe0c674e	-0.13711283
41	0xbd9d1da1	-0.07671667
42	0xbe2e7bf2	-0.17039469
43	0xbe4c944e	-0.19978449
44	0xbe6bceb2	-0.23028067
45	0x3e1798c3	0.14804368
46	0x3e27f997	0.16403805
47	0x3de9a548	0.11408478
48	0xbe9aa755	-0.3020579
49	0x3cff27df	0.031146942
50	0xbe9a8c65	-0.30185238
51	0xbe0d7fa4	-0.13818222
52	0x3a81c836	0.0009901586
53	0x3e468622	0.19387105
54	0xbd84b62e	-0.064800605
55	0x3e3c5737	0.18392645
56	0x3de1f77b	0.11033531
57	0x3bf27d74	0.007400209
58	0x3e9ee7e8	0.31036305
59	0xbd9d0c84	-0.07668403
60	0x3d9f451f	0.07776856
61	0xbe0a03f7	-0.13478075
62	0x3c018ff5	0.007907857
63	0x3ddb3be2	0.10704781
64	0xbe997970	-0.29975462
65	0x3e5a7185	0.21332367
66	0x3e199fa8	0.1500231
67	0xbdf436b9	-0.119245
68	0xbe483be8	-0.19554102
69	0xbe1429c0	-0.14469051
70	0x3e115987	0.14194308
71	0xbe993985	-0.29926696
72	0xbe15986a	-0.14608923
73	0xbe73deaf	-0.23815416
74	0x3e775525	0.24153574
75	0x3e31c576	0.17360482
76	0xbe9a11ad	-0.3009161
77	0xbe8694dc	-0.26285446
78	0xbe2e5d4b	-0.17027776
79	0x3e754614	0.23952514
80	0x3e6c0cc2	0.23051742
81	0x3e3b352e	0.18282005
82	0x3dbf9e6a	0.09356387
83	0xbe7a5850	-0.24447751
84	0xbd0b98f6	-0.03408142
85	0x3e8aaeec	0.2708658
86	0xbe2cac15	-0.16862519
87	0xbd9506e1	-0.07276703
88	0x3e6bfab9	0.23044862
89	0xbd8e7a25	-0.06956891
90	0xbe35828d	-0.17725582
91	0xbe5be5bd	-0.21474357
92	0xbe37b169	-0.1793877
93	0xbe886402	-0.266388
94	0xbcc47ac8	-0.023984328
95	0xbc186bad	-0.009303016
96	0x3e405daa	0.1878573
97	0xbe24ef75	-0.1610697
98	0xbdaa40b2	-0.08313121
99	0xbe625bdd	-0.22105356
100	0x3e9dc1e6	0.30811995
101	0xbb734ea2	-0.0037125726
102	0xbe952a69	-0.2913392
103	0x3e212194	0.15735465
104	0x3e08d332	0.13361815
105	0x3e4b1855	0.198335
106	0x3eacbb18	0.3373649
107	0xbd6db22e	-0.058031254
108	0x3d903f4a	0.070433214
109	0x3e7ccc1d	0.24687238
110	0x3db75521	0.08951784
111	0xbd20a792	-0.039222308
112	0x3d0fcf47	0.035109784
113	0xbda28c0c	-0.07936868
114	0x3e63ac9b	0.22233813
115	0x3d9efb61	0.077627905
116	0x3e5670b0	0.20941424
117	0x3dd48ea1	0.10378767
118	0x3e3b2f37	0.1827973
119	0x3cd64ac8	0.026158705
120	0xbe22f6ca	-0.15914455
121	0xbc9f499f	-0.019444285
122	0x3e0a8ca7	0.13530217
123	0xbe4b601f	-0.19860886
124	0x3eac8e75	0.33702436
125	0x3e752648	0.23940384
126	0xbe51c875	-0.20486625
127	0xbe59ae5b	-0.21257918
128	0x3dbfb1ca	0.093600824
129	0xbe5a41ef	-0.21314214
130	0x3e01b030	0.12664866
131	0x3e4a777f	0.19772147
132	0x3e10daa4	0.14145905
133	0x3b713506	0.0036805286
134	0xbe2d4ff3	-0.1692503
135	0xbe865fd3	-0.26244983
136	0x3de35fe0	0.11102271
137	0x3e668386	0.2251111
138	0xbc4a7089	-0.012355932
139	0xbc92e983	-0.017933613
140	0xbdd4ee54	-0.1039702
141	0x3d0fbb94	0.035090998
142	0xbdee27d7	-0.116286926
143	0xbe7b7a24	-0.24558312
144	0x3cf98184	0.030457266
145	0xbdf42766	-0.11921577
146	0xbe22aa6e	-0.15885326
147	0xbe865073	-0.26233253
148	0xbdc01ad3	-0.09380116
149	0x3d1152c6	0.03547933
150	0xbe69b0ea	-0.22821394
151	0x3d8679f0	0.065662265
152	0xbdafbf97	-0.08581465
153	0x3e1b4294	0.15162116
154	0x3e062e86	0.13103685
155	0xbd436573	-0.04770417
156	0xbe91afab	-0.28454337
157	0xbd95a3d7	-0.073066406
158	0xbe8033b9	-0.2503946
159	0x3d02a40f	0.03189474
160	0xbe99493f	-0.29938695
161	0xbe85685f	-0.2605619
162	0x3e403e6c	0.18773812
163	0xbe4fcaf4	-0.20292264
164	0x3dda6521	0.1066382
165	0x3e8571b5	0.26063314
166	0xbe7ba33a	-0.24573985
167	0xbe9095d8	-0.28239322
168	0xbe73e5b3	-0.23818092
169	0x3e20565e	0.15657946
170	0x3e8bba9e	0.27290815
171	0x3d8023e7	0.06256848
172	0xbe687e62	-0.22704461
173	0xbe3ddb38	-0.18540657
174	0xbdce85e5	-0.10084132
175	0xbe9a147a	-0.30093747
176	0x3e00f822	0.12594655
177	0x3e732083	0.23742871
178	0x3e8c24a7	0.27371714
179	0xbe8bdfee	-0.27319282
180	0x3dceb29b	0.1009266
181	0xbd77d0b5	-0.060501773
182	0xbe94b4b1	-0.29044107
183	0x3e3dac6b	0.18522803
184	0x3e256eee	0.16155598
185	0xbcd1dc79	-0.025617825
186	0x3d19c9e0	0.03754604
187	0xbe49fcb5	-0.19725306
188	0x3e3e38bb	0.18576328
189	0xbdb94908	-0.09047133
190	0xbc82115b	-0.015877416
191	0x3e854add	0.2603368
192	0xbe32f27f	-0.17475317
193	0x3e9c18e1	0.3048773
194	0x3e458b2a	0.19291368
195	0xbe4aa862	-0.19790795
196	0xbe49531d	-0.19660611
197	0xbe8295f2	-0.25505024
198	0x3e3a3013	0.18182401
199	0x3ccd3ebb	0.025054326
200	0xbcff83d1	-0.031190785
201	0x3e66a82b	0.22525088
202	0xbd7f2e8e	-0.062300257
203	0x3d8c52eb	0.06851753
204	0x3d2f9836	0.04286977
205	0xbc67a48d	-0.014138353
206	0xbe3ce419	-0.18446387
207	0xbe532ef2	-0.20623377
208	0xbe8d2341	-0.2756596
209	0x3e80a24e	0.2512383
210	0x3e8abecb	0.27098688
211	0x3ea77246	0.3270437
212	0x3e2277f6	0.15866074
213	0xbd2fa97c	-0.042886242
214	0xbe384091	-0.1799338
215	0xbea71b14	-0.32637846
216	0xbddc71bc	-0.107638806
217	0xbe4e9440	-0.2017374
218	0xbda931bc	-0.08261439
219	0xbe5c7bd6	-0.21531615
220	0xbe832812	-0.2561651
221	0xbcaab7c3	-0.020839578
222	0xbe5ca177	-0.21545969
223	0x3c8bfbda	0.017087866
224	0xbc408d18	-0.011752389
225	0x3e79ff41	0.24413778
226	0x3e1b68d1	0.15176703
227	0x3e0edf5c	0.13952392
228	0xbe4c9c47	-0.1998149
229	0x3daf9e2d	0.085750915
230	0xbe171d10	-0.1475718
231	0x3e494fbb	0.19659321
232	0x3e90397d	0.2816886
233	0xbe8273d4	-0.25478995
234	0x3e883756	0.26604718
235	0xbe4acad5	-0.19803937
236	0xbdefe3c9	-0.117133684
237	0xbe339c42	-0.17540076
238	0x3dc73762	0.0972736
239	0xbe8e49c8	-0.27790666
240	0xbe3772a9	-0.17914833
241	0x3d4d1514	0.05006893
242	0xbe105e62	-0.14098504
243	0x3e808dc9	0.25108173
244	0xbc16a964	-0.009195659
245	0x3e001837	0.12509237
246	0x3e09349b	0.13398974
247	0xbe47769c	-0.1947884
248	0x3e9aabe3	0.30209264
249	0x3e4a1491	0.19734408
250	0x3d7d17fc	0.06179045
251	0xbe990132	-0.29883724
252	0x3e9f5d4c	0.31125867
253	0xbe38fb45	-0.18064602
254	0x3e81a61a	0.25322038
255	0x3e96e303	0.2947007

fcs.0.0.linear.bias f4 [512]
0	0xbe454ac6	-0.19266805
1	0xbd127c23	-0.035762917
2	0xbea4ccae	-0.32187408
3	0x3db14928	0.086565316
4	0x3da8784d	0.082260706
5	0x3e8a8a4d	0.2705864
6	0x3df2e2a5	0.11859635
7	0xbe8c5e3e	-0.2741565
8	0xbdc74bdd	-0.09731267
9	0x3e8b4b73	0.27206
10	0xbe1aac78	-0.15104854
11	0x3e5ad90f	0.21371864
12	0x3e0a947f	0.1353321
13	0x3e56ad86	0.20964631
14	0x3e4ea9f4	0.2018202
15	0xbe5463ca	-0.20741192
16	0x3e0eeefa	0.1395835
17	0x3d00f0bd	0.031479586
18	0xbe6a6edb	-0.2289385
19	0x3e9b7829	0.30365112
20	0x3de2d455	0.11075655
21	0xbe6ced39	-0.23137368
22	0xbe213f53	-0.15746813
23	0x3d00c99e	0.031442277
24	0xbe8dc83c	-0.2769183
25	0xbe699ab8	-0.22812927
26	0x3d1949e4	0.037423983
27	0xbe74b0ed	-0.23895617
28	0xbc60b4e7	-0.0137150055
29	0x3ea466b5	0.3210961
30	0xbe4232c8	-0.18964684
31	0x3e14dac4	0.14536577
32	0xbe86a264	-0.2629577
33	0x3cf914b1	0.030405374
34	0x3e7f666b	0.24941413
35	0xbe8099b8	-0.25117278
36	0xbe8ec32b	-0.27883276
37	0xbd811227	-0.063022904
38	0xbce08698	-0.02740793
39	0x3e3d163a	0.1846551
40	0xbc907b87	-0.017637027
41	0x3e96b35a	0.2943371
42	0x3e56ab69	0.20963825
43	0xbdfdddd1	-0.12395824
44	0xbe46503e	-0.19366547
45	0x3e3c245a	0.18373242
46	0x3dbeb3ef	0.09311663
47	0xbc20f4ab	-0.009823958
48	0xbd152c59	-0.036419246
49	0x3e2b7c19	0.16746558
50	0xbe136074	-0.14392263
51	0x3e586089	0.21130575
52	0x3e4c9139	0.19977273
53	0x3e9af07a	0.30261594
54	0x3e26189d	0.16220327
55	0x3da57a70	0.08079994
56	0xbe2a49d4	-0.16629726
57	0xbda0b13b	-0.07846304
58	0xbe4b800e	-0.19873068
59	0xbde66ae7	-0.11250859
60	0x3e3233af	0.17402528
61	0x3e3f09bd	0.18656059
62	0xbe325a94	-0.17417365
63	0xbe9d9bdd	-0.30782977
64	0x3e6c5a95	0.2308143
65	0xbe2fa8d2	-0.17154244
66	0xbdc3a2cb	-0.09552535
67	0x3df8b85e	0.1214454
68	0x3d85cd26	0.065332696
69	0x3ceaf3d7	0.028680725
70	0x3e9e104c	0.3087181
71	0xbe6f1b15	-0.23350175
72	0xbe008196	-0.12549433
73	0xbcf40aec	-0.029790364
74	0xbd3660e2	-0.04452599
75	0x3ea847d2	0.32867295
76	0x3d178ddf	0.037000533
77	0x3d9c55c1	0.07633544
78	0xbd927478	-0.07151121
79	0x3dc9bccb	0.098504625
80	0xbe6cc8c5	-0.23123462
81	0x3da43788	0.08018404
82	0xbddbb233	-0.10727348
83	0xbe565663	-0.20931391
84	0x3e9e7857	0.30951187
85	0x3df403b7	0.11914771
86	0x3dc46b72	0.09590806
87	0xbd51b681	-0.05119944
88	0x3c13c222	0.009018453
89	0xbe841831	-0.25799707
90	0x3cadfe71	0.021239491
91	0xbd8f21cb	-0.06988867
92	0xbd773ae2	-0.06035889
93	0x3dcbe19b	0.0995514
94	0xbe70ec05	-0.23527534
95	0x3e6ee062	0.23327783
96	0x3df6bb07	0.120473914
97	0x3cec76f7	0.02886532
98	0x3e25d9f6	0.16196427
99	0xbe6ec248	-0.233163
100	0x3e85193e	0.2599582
101	0xbda329b2	-0.07966937
102	0xbe3f16ba	-0.18661013
103	0x3d145975	0.036218125
104	0x3cb435c0	0.021998286
105	0x3dc3c72f	0.09559476
106	0xbd56f483	-0.05247928
107	0x3de54a8d	0.1119586
108	0x3df92c9e	0.12166713
109	0xbd750ba2	-0.059825547
110	0xbe5b3bf7	-0.21409594
111	0xbea6e7be	-0.3259868
112	0x3e8d949b	0.2765244
113	0xbe26b2bc	-0.16279119
114	0xbdd34cda	-0.10317393
115	0x3e564a79	0.20926847
116	0xbe3d1b70	-0.18467498
117	0xbe3ecd54	-0.18633014
118	0x3d560356	0.052249275
119	0x3c9438f9	0.018093573
120	0x3e9065b0	0.2820258
121	0xbea334b8	-0.3187616
122	0x3c186675	0.009301771
123	0xbe67f460	-0.22651815
124	0x3e882da5	0.26597324
125	0xbe15c672	-0.14626482
126	0x3e412cc2	0.1886473
127	0xbe6a07a5	-0.22854479
128	0x3e863128	0.26209378
129	0xbe6e2d34	-0.23259431
130	0xbd233ede	-0.039854877
131	0xbd3b7254	-0.04576333
132	0x3d65ed11	0.056134287
133	0x3e1924aa	0.14955392
134	0xbe78427d	-0.24244113
135	0x3dea1796	0.1143028
136	0x3e365509	0.17805876
137	0x3e0fddf6	0.14049515
138	0xbddc159b	-0.107463084
139	0x3d39f93a	0.045403697
140	0xbe8846f3	-0.2661663
141	0xbe7b4086	-0.24536332
142	0xbe4518ab	-0.19247691
143	0x3df0e924	0.11763218
144	0x3e9b612a	0.30347568
145	0xbe173a15	-0.1476825
146	0x3e69ecd6	0.22844252
147	0xbd7bdcf1	-0.061490003
148	0xbd11498d	-0.035470534
149	0xbea1a390	-0.315701
150	0xbddeb714	-0.10874763
151	0xbd7ca81b	-0.061683755
152	0xbd544ac1	-0.051829103
153	0x3e955147	0.29163572
154	0x3e52c1c9	0.20581736
155	0x3de0f654	0.10984483
156	0x3cbfa489	0.023393886
157	0xbb8f8d20	-0.004380837
158	0xbdb8035f	-0.08985018
159	0x3e3f58a1	0.18686153
160	0xbe8fe8e8	-0.2810738
161	0xbe77fe24	-0.2421804
162	0xbe89596d	-0.2682604
163	0xbde62089	-0.11236674
164	0xbdf93e93	-0.12170138
165	0xbe9fe835	-0.31231847
166	0x3e6e29d2	0.2325814
167	0x3e4f910b	0.20270173
168	0xbe192f4e	-0.14959452
169	0xbe834df7	-0.2564542
170	0xbd949f21	-0.07256914
171	0x3e97a784	0.29619992
172	0x3d63fb63	0.055659663
173	0xbe6471d4	-0.22309047
174	0xbc7a767d	-0.015287039
175	0x3e635aae	0.2220256
176	0x3e753a10	0.2394793
177	0xbd6dd77d	-0.058066834
178	0xbe0a8947	-0.1352893
179	0xbd8ac232	-0.06775321
180	0x39d9279f	0.00041418985
181	0x3e84ec68	0.25961614
182	0xbe68507b	-0.22686951
183	0xbe8ff882	-0.28119284
184	0x3c8f748b	0.017511627
185	0xbe98746b	-0.2977632
186	0x3ea08f6f	0.3135943
187	0xbd93947c	-0.072060555
188	0x3c2140ed	0.00984214
189	0xbe9b1eaf	-0.30296847
190	0xbe717063	-0.23578028
191	0x3e6a9bea	0.22911039
192	0xbdf12c4b	-0.11776026
193	0xbe8d3840	-0.27581978
194	0xbe6b68ee	-0.22989246
195	0xbe5d1079	-0.21588315
196	0x3e4c68f4	0.19961911
197	0x3e389ecd	0.18029328
198	0x3d27d65d	0.040975917
199	0x3e203115	0.15643723
200	0x3e697b23	0.22800879
201	0x3e0a0f69	0.13482441
202	0x3c0c06e2	0.008546563
203	0x3da80604	0.082042724
204	0x3eb61538	0.35563064
205	0x3e46e876	0.19424614
206	0xbd831849	-0.064011164
207	0x3ea51d46	0.32248896
208	0xbc866141	-0.016403796
209	0x3db2a569	0.08722956
210	0xbe2bcf31	-0.16778256
211	0x3e6e81cf	0.23291706
212	0x3e927ed4	0.28612387
213	0x3e84e703	0.25957498
214	0xbe4a6351	-0.19764449
215	0xbe81957d	-0.25309363
216	0xbe91fd4e	-0.2851357
217	0x3dd215fa	0.10258098
218	0x3e97caea	0.29647
219	0xbdf5bca3	-0.1199887
220	0xbd5c7d7f	-0.05383062
221	0xbd8acc20	-0.06777215
222	0xbe641636	-0.22274098
223	0x3e50052f	0.20314477
224	0xbc193870	-0.009351835
225	0x3e33b046	0.17547712
226	0xbe1bfe48	-0.1523372
227	0xbe42319f	-0.18964241
228	0xbe67f456	-0.226518
229	0xbe631f4c	-0.22179908
230	0xbea0b892	-0.31390816
231	0x3e5e5d5d	0.21715303
232	0xbde30b89	-0.110861845
233	0x3e3b3ce1	0.18284942
234	0x3e53c0f7	0.20679079
235	0xbdd08464	-0.101815015
236	0xbe26e8db	-0.16299765
237	0xbe6291ca	-0.22125927
238	0x3e89935c	0.2687024
239	0x3e820447	0.25393888
240	0x3d95da9d	0.07317088
241	0xbdde3496	-0.10849874
242	0x3e833e82	0.25633627
243	0x3e8e4e5b	0.27794155
244	0x3bf1d9db	0.0073807067
245	0x3d82c809	0.0638581
246	0xbd0f67a1	-0.035010938
247	0xbd3a7cf8	-0.045529336
248	0xba033e9c	-0.0005006583
249	0x3e9ba7a2	0.3040133
250	0x3e588289	0.21143545
251	0x3c87d42d	0.016580665
252	0xbdbc5157	-0.09195202
253	0xbe2c9029	-0.16851868
254	0x3d86d27e	0.06583117
255	0xbe8c8a2b	-0.27449164

fcs.0.1.weight f4 [10, 512]
0	0x3c266c0c	0.010157596
1	0x3a5c5a17	0.00084057584
2	0x3bf2ec38	0.0074134134
3	0x3c99fa43	0.018796092
4	0x3cb1d271	0.021706792
5	0xbce19728	-0.027537897
6	0xbcc8de86	-0.02452017
7	0x3cda2e45	0.026633391
8	0x3ba18f46	0.0049304096
9	0xbc124ba3	-0.008929166
10	0x3d0aa9b2	0.03385324
11	0x3d8f3e41	0.06994296
12	0x3cbbc409	0.022920625
13	0xbd149b2a	-0.03628079
14	0xbca2f5cb	-0.019892594
15	0x3953081b	0.00020125548
16	0x3cd20e8b	0.0256417
17	0xbb85158e	-0.0040614074
18	0x3bbc50dd	0.0057469443
19	0x3cf258eb	0.029583415
20	0x3c4ab3d2	0.012371974
21	0x3a83f8ac	0.0010068617
22	0x3d1570e5	0.036484618
23	0xbc9bdbf5	-0.019025782
24	0xbada1b56	-0.0016640227
25	0x3b837b16	0.0040124757
26	0xbd043ea9	-0.03228632
27	0xbb95bf93	-0.0045699566
28	0xbc912145	-0.01771606
29	0xbbaeed43	-0.0053383424
30	0x3d0a9506	0.033833526
31	0xbb465054	-0.0030260282
32	0x3c036a94	0.008021016
33	0xbc88aa17	-0.016682668
34	0x3c89ef35	0.016837696
35	0xbc1cf0bb	-0.009578879
36	0xbcf02a41	-0.029317023
37	0x3cc4fd0c	0.024046443
38	0x3c59cb2f	0.013293072
39	0x3cba76fa	0.02276181
40	0xbb07fda2	-0.0020750542
41	0xbaede522	-0.0018149952
42	0x3d2d0364	0.04223956
43	0xbc6d0452	-0.014466362
44	0x3ca9ba95	0.020718852
45	0xbd1e80a9	-0.03869692
46	0x3c072faa	0.00825111
47	0x3cc821a9	0.024430113
48	0x3c161344	0.009159867
49	0x3d0e7f09	0.03478912
50	0xbcb8a62b	-0.022540173
51	0xbcc01c0f	-0.02345088
52	0x37d67a02	2.5567602e-05
53	0x3cd05ba7	0.025434328
54	0xbc68c57a	-0.014207238
55	0x3d5711e7	0.052507307
56	0xbc5e0ac8	-0.013552375
57	0x3a2cf54c	0.00065978314
58	0xbaab646f	-0.0013076196
59	0x3b54efd3	0.003249158
60	0x3cc325ae	0.023821678
61	0x3c50cc03	0.012743953
62	0xbc88a823	-0.016681736
63	0xbc0e5615	-0.008687516
64	0xbc8cd8c7	-0.017193211
65	0x3d6fd36e	0.058551244
66	0x3c9169fc	0.017750733
67	0x3d1d7def	0.038450178
68	0x3cf6c897	0.030124946
69	0x3cef2602	0.029192928
70	0x3cebefb1	0.028800817
71	0xbd01723a	-0.031603076
72	0xbbe80626	-0.007080811
73	0x3d2bd0c3	0.041947138
74	0xbc544c93	-0.01295771
75	0x3ab804a1	0.0014039465
76	0x3de93b66	0.113882825
77	0xbc8ca31e	-0.017167624
78	0x3afd3551	0.0019318258
79	0x3db97952	0.09056343
80	0x3c0d4722	0.008622916
81	0x3c960f6e	0.018317904
82	0xbb25c953	-0.0025297
83	0x3d02edb3	0.03196497
84	0xbcbda2a1	-0.023148837
85	0xbc5dcbb0	-0.013537332
86	0x3d19210c	0.03738503
87	0x3d548df4	0.05189319
88	0xbc682595	-0.0141691165
89	0x3b9939ac	0.0046760645
90	0xb91c7525	-0.00014920959
91	0x3c5f7394	0.013638396
92	0x3d099916	0.03359326
93	0x3ca308c2	0.019901637
94	0x3c7adc79	0.015311354
95	0xbce2d81f	-0.027690945
96	0x3cc74ba2	0.024328057
97	0xbcc19a72	-0.023633216
98	0x3d5ac265	0.053408045
99	0xbc4b30dd	-0.012401787
100	0xbc9f1147	-0.019417418
101	0x3d1896e1	0.037253264
102	0xbbf47048	-0.007459674
103	0xbb2143f8	-0.0024607163
104	0xbce5324f	-0.02797809
105	0xbd116b80	-0.03550291
106	0x3bc4bfc5	0.006004306
107	0xbc9427ef	-0.018085448
108	0x3cef1987	0.029186977
109	0xbcb58bb8	-0.02216135
110	0x3c740103	0.014892819
111	0x3c808836	0.01568995
112	0x3ce2a3d1	0.027666004
113	0x3ce38396	0.027772706
114	0xbceeab38	-0.029134378
115	0x3bd3b67b	0.0064609624
116	0xbd17947d	-0.037006844
117	0xbce34054	-0.027740635
118	0x3c96c09c	0.01840239
119	0x3b5d5c1a	0.003377682
120	0x3ce5d683	0.028056389
121	0x3d1419d5	0.036157448
122	0xbce93462	-0.02846736
123	0xbc1842d7	-0.00929328
124	0xbd006ece	-0.03135567
125	0xbc55722c	-0.013027709
126	0x3c7595f7	0.014989368
127	0x3c2c71e3	0.0105252
128	0xbcbb0831	-0.022831054
129	0xbd0a1cbe	-0.033718817
130	0xbbe19234	-0.006883884
131	0x3df3824b	0.11890086
132	0xbd698b24	-0.05701746
133	0xbd2f34e6	-0.042775057
134	0x3c090fba	0.008365566
135	0x3c722dff	0.014781474
136	0xbd497e02	-0.049192436
137	0xbc198282	-0.009369494
138	0x3d0056f2	0.031332918
139	0xbcf37de5	-0.029723117
140	0xbd1c67cb	-0.038184922
141	0xbca88c8f	-0.020574836
142	0xbbeb5b23	-0.007182495
143	0x3c08fbf1	0.008360849
144	0xbc94d0f4	-0.018166043
145	0x3c2cfaca	0.01055784
146	0xbd10f7d9	-0.035392616
147	0xbc8ce3ab	-0.017198404
148	0xbca2b104	-0.019859798
149	0x3d423909	0.047417674
150	0xbc847c74	-0.016172625
151	0xbb9088d0	-0.0044108406
152	0x3d23dec0	0.040007353
153	0xbce8f45f	-0.028436838
154	0x3c5cab5c	0.01346859
155	0xbbaf4e92	-0.0053499425
156	0xbaf166ff	-0.0018417536
157	0xbb9c381e	-0.004767432
158	0xbcbf132b	-0.02332457
159	0xbd0739a4	-0.033013955
160	0xbd207f9c	-0.039184198
161	0xbd72a121	-0.059235696
162	0x3c65f803	0.014036181
163	0x3b6136ba	0.0034364895
164	0x3ce17ce7	0.027525378
165	0xbb8ef0eb	-0.0043622158
166	0xbc9b205a	-0.018936325
167	0x3cd15ec3	0.025557881
168	0xbd80af0a	-0.06283386
169	0xbc71ceec	-0.014758807
170	0x3d178da6	0.03700032
171	0xbc0d628b	-0.0086294515
172	0xbb995b63	-0.0046800836
173	0xbbfb9632	-0.007677817
174	0x3c3c3fe3	0.011489841
175	0x3b99f570	0.004698448
176	0xb8940c8e	-7.0595284e-05
177	0xbc8bb696	-0.017054837
178	0x3cfd8916	0.030949157
179	0x3cb980c5	0.02264441
180	0x3c2ebbc4	0.010664884
181	0xbd03d156	-0.03218206
182	0xbd44a1da	-0.048005916
183	0xbc6f6d21	-0.014613421
184	0x3e43d857	0.19125496
185	0xbc527dd0	-0.012847379
186	0x3c2c1a82	0.010504367
187	0xbc495050	-0.012287214
188	0x3cabb769	0.02096148
189	0xbc404493	-0.011735099
190	0x3d4868cd	0.04892807
191	0xbd90f8d3	-0.070787095
192	0xbb318d94	-0.0027092444
193	0xbbd9327b	-0.006628332
194	0x3cfe4b81	0.031041862
195	0x3cee3418	0.029077575
196	0x3bdd0677	0.0067451554
197	0x3cc9f3fc	0.024652474
198	0x3d141704	0.036154762
199	0xbcb645f7	-0.022250159
200	0x3c4bcb6a	0.012438634
201	0xbc756ac7	-0.014979071
202	0x3c9db04c	0.019249104
203	0x3cbb86b3	0.022891378
204	0x3d23033a	0.039798
205	0x3c396169	0.011314728
206	0x3c0a1f0b	0.008430253
207	0x3c81d454	0.015848316
208	0xbbeb33a7	-0.0071777883
209	0x3ced68ad	0.028980577
210	0xbccb541b	-0.024820378
211	0x3d3a3d6a	0.045468725
212	0x3cc57ff3	0.024108863
213	0xbb98bc07	-0.0046610865
214	0x3acfff8b	0.0015869004
215	0xbce5218d	-0.0279701
216	0xbd1eaea4	-0.03874077
217	0xbd406ae5	-0.046976943
218	0x3c3a322c	0.011364501
219	0xbb827828	-0.003981609
220	0xbc51533e	-0.012776194
221	0xbc3871f2	-0.011257635
222	0x3df6b2b3	0.12045803
223	0xbc1d3365	-0.009594773
224	0xbcc76bc2	-0.024343375
225	0x3c093664	0.008374784
226	0x3c2bb9e3	0.010481331
227	0x3bed168c	0.007235354
228	0xbdc5796a	-0.096422985
229	0x3d007e2d	0.03137033
230	0x3ba0ab3b	0.0049032248
231	0x3cd71112	0.026253257
232	0x3c8de4e1	0.017321052
233	0x3ca34809	0.01993181
234	0xbd26a408	-0.040683776
235	0x3cac368e	0.021022107
236	0xbcd26e55	-0.025687376
237	0x3be78caa	0.007066329
238	0x3e077fc6	0.13232335
239	0xbd244872	-0.04010815
240	0x3bd9c584	0.00664586
241	0xbd630832	-0.055427738
242	0xbd05d6b8	-0.032675475
243	0x3a33af7e	0.00068544585
244	0xbc5dfa58	-0.013548456
245	0xbc29e12b	-0.010368626
246	0xbc9573b8	-0.018243656
247	0x3d900ee7	0.070340924
248	0x3cd95640	0.026530385
249	0x3ce44064	0.027862735
250	0xbcd9004a	-0.026489396
251	0xbcb60a9c	-0.022221856
252	0x3b9ddac1	0.0048173373
253	0xbced807d	-0.028991932
254	0xbd2d185a	-0.04225955
255	0xbd02d029	-0.0319368

fcs.0.1.bias f4 [10]
0	0x3d18beb2	0.037291236
1	0xbcd924b1	-0.026506754
2	0xbb9f51d0	-0.0048620477
3	0xbd44ff04	-0.048094764
4	0xbd56fdf2	-0.052488275
5	0x3d583156	0.052781425
6	0x3c9dffca	0.019287009
7	0xbd6719e2	-0.05642117
8	0xbd6cf203	-0.057847988
9	0x3c2abb43	0.010420623
