cache/10d_nn/dsmcusum/model_2/iter_2.pth (torch, 45064 bytes, 4 tensors)

fcs.0.0.linear.weight f4 [512, 10]
0	0xbe98dc03	-0.29855356
1	0x3e5f09c5	0.2178107
2	0x3bc5ccba	0.006036368
3	0x3e8cb9dd	0.27485552
4	0x3e9dc113	0.30811366
5	0x3dc3877c	0.09547326
6	0xbdcda07c	-0.100403756
7	0x3e8ce224	0.27516282
8	0x3e415a44	0.1888209
9	0x3e45f73a	0.1933259
10	0xbd43cd95	-0.04780348
11	0x3d8763c7	0.06610828
12	0xbe80ea74	-0.25178874
13	0x3e846db2	0.2586494
14	0x3e8de060	0.27710247
15	0xbd35dac1	-0.044398073
16	0xbc148a25	-0.009066139
17	0xbc19e4f3	-0.009392965
18	0x3dda0636	0.10645716
19	0x3c566209	0.013084897
20	0xbe891494	-0.26773512
21	0xbd1fb17a	-0.038987614
22	0xbdda60aa	-0.106629685
23	0x3e30e228	0.17273772
24	0xbe55d512	-0.20882061
25	0xbe62bb34	-0.22141725
26	0x3e887fbd	0.26659957
27	0xbe835187	-0.25648138
28	0x3e123b7c	0.14280504
29	0xbd5b72ac	-0.053576156
30	0xbe907e4b	-0.28221354
31	0xbe8d19ea	-0.27558833
32	0x3ca4e1f1	0.020127269
33	0xbd14e665	-0.036352534
34	0x3e11c698	0.14235914
35	0x3d54a4a4	0.051914826
36	0xbe0ed979	-0.13950147
37	0x3e94728d	0.28993645
38	0xbc143c85	-0.009047632
39	0x3d98ee86	0.0746737
40	0xbe06f2c4	-0.13178545
41	0xbd9ecd1e	-0.07753967
42	0xbe2d0eda	-0.16900197
43	0xbe5830af	-0.21112321
44	0xbe6f23ae	-0.23353454
45	0x3e19df71	0.15026642
46	0x3e2b7f88	0.16747868
47	0x3dfa3152	0.12216438
48	0xbe9c0dec	-0.30479372
49	0x3cf76bc4	0.030202754
50	0xbea0a309	-0.31374386
51	0xbe0a6f56	-0.13519034
52	0x3a0ccfcb	0.000537154
53	0x3e3e18d4	0.18564159
54	0xbdee6146	-0.11639647
55	0x3e3bcf91	0.18340899
56	0x3dd9afab	0.10629209
57	0xb9f867ea	-0.00047379668
58	0x3e9abf39	0.30224016
59	0xbda2877d	-0.079359986
60	0x3d9e6fc9	0.07736165
61	0xbe082ef9	-0.13299169
62	0x3bf4abde	0.007466777
63	0x3dda88e2	0.106706396
64	0xbe9a9eec	-0.30199373
65	0x3e5bddd2	0.21471336
66	0x3e19c983	0.15018277
67	0xbdf62b57	-0.12019985
68	0xbe49918c	-0.19684428
69	0xbe15e21a	-0.14637032
70	0x3e07ae60	0.13250113
71	0xbea2ecc1	-0.31821254
72	0xbe11aa66	-0.14225158
73	0xbe62288c	-0.2208578
74	0x3e860ada	0.26180154
75	0x3e32656a	0.17421499
76	0xbe9b469f	-0.30327317
77	0xbe872712	-0.26396996
78	0xbe268632	-0.16262129
79	0x3e79cc23	0.24394278
80	0x3e728d9d	0.23686834
81	0x3e28c49b	0.16481249
82	0x3db00212	0.08594145
83	0xbe74ba16	-0.23899111
84	0xbd1fdf38	-0.039031237
85	0x3e8cace5	0.27475658
86	0xbe3f8ca9	-0.18706001
87	0xbdb48db4	-0.0881609
88	0x3e5f5bd3	0.21812372
89	0xbd9ce830	-0.07661474
90	0xbe3717df	-0.178802
91	0xbe5a07d3	-0.21292047
92	0xbe399c51	-0.18126036
93	0xbe8c8340	-0.27443886
94	0xbcdf76f3	-0.0272784
95	0xbbde4fc0	-0.0067844093
96	0x3e41b563	0.1891685
97	0xbe27a41b	-0.16371195
98	0xbdaef07e	-0.08541964
99	0xbe633e89	-0.22191824
100	0x3ea0054a	0.31254035
101	0xba9a5027	-0.0011773155
102	0xbe96e2f6	-0.29470032
103	0x3e1a39af	0.15061067
104	0x3e1ce6aa	0.15322366
105	0x3e4dd11f	0.20099305
106	0x3eaa56b9	0.3326929
107	0xbd735ec5	-0.05941655
108	0x3d93279c	0.07185289
109	0x3e782633	0.24233322
110	0x3d92320a	0.071384504
111	0xbcdaae1e	-0.026694354
112	0x3d34d8b6	0.044151984
113	0xbda1deff	-0.07903861
114	0x3e7e292d	0.24820395
115	0x3de2b1e5	0.11069087
116	0x3e52efbd	0.20599265
117	0x3dcd16c6	0.10014109
118	0x3dfda8f0	0.12385738
119	0x3cffb19c	0.03121262
120	0xbe28277c	-0.16421312
121	0xbd0097ba	-0.031394698
122	0x3e05ecab	0.13078563
123	0xbe4bcb75	-0.19901831
124	0x3ea3900c	0.31945837
125	0x3e71902b	0.23590152
126	0xbe517b39	-0.20457162
127	0xbe5ce027	-0.21569882
128	0x3dacf032	0.08444251
129	0xbe620bb9	-0.22074784
130	0x3e0d9857	0.13827644
131	0x3e517a6b	0.20456855
132	0x3e0bb34d	0.13642617
133	0x3cc65a13	0.024212873
134	0xbe2ece74	-0.17070943
135	0xbe899614	-0.26872313
136	0x3dcf308c	0.101166815
137	0x3e5fca68	0.21854556
138	0xbc1d587a	-0.009603614
139	0xbca9a59a	-0.020708848
140	0xbde2b1e7	-0.110690884
141	0x3cee601e	0.029098567
142	0xbdee9365	-0.11649207
143	0xbe803ea6	-0.25047797
144	0x3ce1dae2	0.027570192
145	0xbdef8a0b	-0.116962515
146	0xbe236401	-0.15956117
147	0xbe876c4f	-0.2644982
148	0xbdbf2586	-0.09333329
149	0x3d0ffe7a	0.035154797
150	0xbe71459b	-0.23561709
151	0x3d888bd7	0.06667297
152	0xbdc13afa	-0.09435077
153	0x3e0f6762	0.14004281
154	0x3e0a9670	0.1353395
155	0xbd57c7c4	-0.052680746
156	0xbe91e075	-0.2849156
157	0xbd8ffcf6	-0.0703067
158	0xbe824ee6	-0.2545082
159	0x3d0111c5	0.031511087
160	0xbea44b3d	-0.32088652
161	0xbe8295d1	-0.25504926
162	0x3e3cf73e	0.1845369
163	0xbe2d946d	-0.16951151
164	0x3daf3a04	0.085559875
165	0x3e84b2be	0.2591762
166	0xbe7fc61c	-0.24977916
167	0xbe925e22	-0.28587443
168	0xbe77e38f	-0.242079
169	0x3e1a4b1b	0.15067713
170	0x3e8ffc35	0.28122106
171	0x3d8b5250	0.06802809
172	0xbe6fb87a	-0.23410216
173	0xbe27a180	-0.16370201
174	0xbde1f630	-0.11033285
175	0xbe9980f9	-0.2998121
176	0x3de7654e	0.11298619
177	0x3e65f8ff	0.22458266
178	0x3e8a41b2	0.27003247
179	0xbe8f9916	-0.28046483
180	0x3dd472e5	0.10373477
181	0xbd8de82a	-0.069290474
182	0xbe955aed	-0.29170933
183	0x3e3abb2a	0.1823546
184	0x3e263358	0.16230524
185	0xbcd89652	-0.026438866
186	0x3cf15f1f	0.029464303
187	0xbe4e30ff	-0.20135878
188	0x3e3ddfb8	0.18542373
189	0xbdbc9d2d	-0.092096664
190	0xbc59a905	-0.013284926
191	0x3e8405e7	0.25785753
192	0xbe359bdb	-0.17735235
193	0x3e9a36e0	0.3011999
194	0x3e2c65d3	0.16835718
195	0xbe48f1ff	-0.19623564
196	0xbe4d09e7	-0.20023309
197	0xbe877d6a	-0.2646287
198	0x3e3d4183	0.18482022
199	0x3c83b8ce	0.016079333
200	0xbd4ff716	-0.05077275
201	0x3e6a0724	0.22854286
202	0xbd6dd6aa	-0.058066048
203	0x3db4b925	0.08824376
204	0x3d317781	0.04332686
205	0xbce566b4	-0.028003074
206	0xbe3b6543	-0.18300347
207	0xbe4ee63f	-0.2020502
208	0xbe8dc667	-0.2769043
209	0x3e8328e1	0.25617126
210	0x3e8b5af3	0.27217826
211	0x3ea45b4b	0.321009
212	0x3e21d4db	0.15803854
213	0xbd54e0b5	-0.05197211
214	0xbe3c5c0a	-0.18394485
215	0xbea4e368	-0.32204747
216	0xbded28d2	-0.115800515
217	0xbe54f4af	-0.20796464
218	0xbdb709c8	-0.089374125
219	0xbe5faf3a	-0.21844187
220	0xbe78d0e7	-0.2429844
221	0xbc80dfea	-0.01573177
222	0xbe5eaaaf	-0.21744798
223	0x3bd2e4c8	0.0064359643
224	0xbc9f3e46	-0.019438874
225	0x3e83e3e2	0.25759798
226	0x3e26a8c4	0.16275316
227	0x3e0e17a2	0.13876203
228	0xbe4f9bb7	-0.20274244
229	0x3d9a1329	0.07523186
230	0xbe26411e	-0.16235778
231	0x3e466011	0.19372584
232	0x3e91564b	0.2838615
233	0xbe7ec4be	-0.24879739
234	0x3e8ad325	0.27114215
235	0xbe4eada1	-0.20183422
236	0xbe059906	-0.13046655
237	0xbe363aeb	-0.17795913
238	0x3dcad58a	0.099040106
239	0xbe8e2418	-0.27761912
240	0xbe4682df	-0.19385861
241	0x3d410ecd	0.047133256
242	0xbe1ca9bd	-0.15299125
243	0x3e7ea4d7	0.24867569
244	0xbcb6bc1b	-0.022306493
245	0x3df1aba6	0.118003175
246	0x3e034d3d	0.12822433
247	0xbe4d9bce	-0.20078966
248	0x3e886e18	0.26646495
249	0x3e567773	0.20944004
250	0x3dba18c5	0.09086756
251	0xbe9666d1	-0.29375318
252	0x3e9e352f	0.3089995
253	0xbe51db50	-0.20493817
254	0x3e7db033	0.24774246
255	0x3e95c8f6	0.29254884

fcs.0.0.linear.bias f4 [512]
0	0xbe45abff	-0.19303893
1	0xbcb9257e	-0.022600885
2	0xbe9c40b6	-0.3051812
3	0x3d9dbdd4	0.077022225
4	0x3dfd812c	0.12378153
5	0x3e8fbe26	0.2807476
6	0x3decf55b	0.11570235
7	0xbe8999bd	-0.26875106
8	0xbd8f667d	-0.0700197
9	0x3e9302f9	0.28713205
10	0xbe0d562f	-0.13802408
11	0x3e653708	0.22384274
12	0x3dc13072	0.09433068
13	0x3e4d5b6b	0.20054404
14	0x3e479176	0.19489083
15	0xbe3a915c	-0.18219513
16	0x3e0813f0	0.13288856
17	0x3d63583d	0.055504072
18	0xbe6a1801	-0.2286072
19	0x3ea0504f	0.3131127
20	0x3dd2c9bd	0.10292385
21	0xbe8ce08a	-0.2751506
22	0xbe258f49	-0.1616794
23	0x3d1c0712	0.03809268
24	0xbe8caf23	-0.2747737
25	0xbe5e93a3	-0.21736006
26	0x3d02517b	0.031815987
27	0xbe7a2d03	-0.24431233
28	0xbcdb7fe0	-0.026794374
29	0x3e98a8fd	0.29816428
30	0xbe3eb2d0	-0.18622899
31	0x3e040991	0.12894274
32	0xbe8a67f2	-0.2703243
33	0x3ba39b27	0.004992861
34	0x3e896606	0.2683565
35	0xbe759577	-0.23982798
36	0xbe929311	-0.28627828
37	0xbd3a7c68	-0.0455288
38	0xbc248a23	-0.0100427
39	0x3e20bee8	0.15697825
40	0xbb55317f	-0.0032530723
41	0x3e958cda	0.29209024
42	0x3e5029b3	0.20328407
43	0xbe0377de	-0.12838694
44	0xbe4f1073	-0.20221119
45	0x3e4ed36a	0.20197836
46	0x3d9e8ad5	0.07741324
47	0x3c1314c3	0.008977118
48	0xbd12cbb5	-0.0358388
49	0x3e158338	0.14600837
50	0xbe169cef	-0.14708303
51	0x3e5730f3	0.21014766
52	0x3e548408	0.20753491
53	0x3e9edc41	0.31027415
54	0x3e1f9dae	0.15587494
55	0x3d9ca135	0.07647935
56	0xbe29fe71	-0.16600968
57	0xbd98f5fd	-0.074687935
58	0xbe3add51	-0.18248488
59	0xbdedb44a	-0.11606653
60	0x3e2e0f7d	0.16998096
61	0x3e68fd81	0.22752954
62	0xbe296706	-0.16543207
63	0xbe9d838c	-0.30764425
64	0x3e6b404e	0.22973749
65	0xbe2675e9	-0.16255917
66	0xbdcbfa57	-0.09959858
67	0x3dfb311f	0.122652285
68	0x3d9de3c7	0.07709461
69	0x3ce75ee3	0.028243488
70	0x3e9e362d	0.30900708
71	0xbe835e2e	-0.2565779
72	0xbe0d1e66	-0.13781127
73	0xbcf5b8dc	-0.029995374
74	0xbd81c5ae	-0.063365325
75	0x3ea059b0	0.31318426
76	0x3c9a9636	0.018870454
77	0x3d953136	0.07284777
78	0xbd6b1234	-0.057390407
79	0x3d5a73a6	0.053332947
80	0xbe4bc26e	-0.19898388
81	0x3dbdd210	0.09268582
82	0xbdb9c305	-0.090704
83	0xbe500eed	-0.20318194
84	0x3e97cc20	0.29647923
85	0x3cc5e8da	0.024158884
86	0x3dde6379	0.10858817
87	0xbd9eb7be	-0.0774989
88	0x3cb80b54	0.02246634
89	0xbe82e90e	-0.25568432
90	0x3cf1faa1	0.029538454
91	0xbd47833e	-0.048709147
92	0xbd4f532c	-0.05061643
93	0x3dcc0148	0.09961182
94	0xbe666923	-0.22501044
95	0x3e4bf9ea	0.19919553
96	0x3e100440	0.14064121
97	0x3d0d7f95	0.0345455
98	0x3e26f0d5	0.16302808
99	0xbe65a048	-0.22424424
100	0x3e8be9f0	0.27326918
101	0xbda329b2	-0.07966937
102	0xbe3af317	-0.18256794
103	0x3c47cd29	0.01219491
104	0x3c4e61b5	0.012596537
105	0x3d916eb0	0.0710119
106	0xbd0a2539	-0.033726905
107	0x3db8f4c1	0.09031058
108	0x3dae5c68	0.08513719
109	0xbd46e876	-0.048561536
110	0xbe581e63	-0.21105342
111	0xbe99f6f9	-0.30071238
112	0x3e8c7b91	0.27438024
113	0xbe2fccf8	-0.17168033
114	0xbd9a2730	-0.07527006
115	0x3e244a2c	0.1604392
116	0xbe401654	-0.18758518
117	0xbe1bb541	-0.15205862
118	0x3d38e0a1	0.045136098
119	0x3c02e69c	0.007989552
120	0x3e9aafba	0.30212194
121	0xbea3346c	-0.31875932
122	0xbbd8a213	-0.0066111176
123	0xbe66cd06	-0.22539148
124	0x3e82f4c3	0.25577363
125	0xbe1ac3d1	-0.1511376
126	0x3e47e32e	0.19520256
127	0xbe89c839	-0.2691057
128	0x3e953741	0.29143718
129	0xbe67d453	-0.22639589
130	0xbd75cefc	-0.06001185
131	0xbd853bce	-0.065055475
132	0xbae46911	-0.0017426332
133	0x3e22313f	0.15839098
134	0xbe7980c0	-0.2436552
135	0x3db969bd	0.09053371
136	0x3e3278d6	0.17428908
137	0x3e1a2556	0.15053305
138	0xbdf49b82	-0.11943723
139	0x3c89cab9	0.016820299
140	0xbe95eb57	-0.29281113
141	0xbe8879a7	-0.26655313
142	0xbe680967	-0.22659837
143	0x3e09c179	0.1345271
144	0x3e8c6df2	0.27427632
145	0xbe0d6d0a	-0.13811126
146	0x3e608b65	0.21928175
147	0xbda6e9b5	-0.08150045
148	0xbcddaa09	-0.027058618
149	0xbe91e438	-0.2849443
150	0xbde70b0e	-0.112814054
151	0xbd96cc18	-0.073631465
152	0xbd5bf64d	-0.053701688
153	0x3e942ed7	0.28941986
154	0x3e579ca0	0.21055841
155	0x3de89ec3	0.113584064
156	0x3d1b6bd1	0.03794462
157	0xbc2f08db	-0.010683264
158	0xbd87d0aa	-0.066315964
159	0x3e385655	0.18001683
160	0xbe82f785	-0.25579467
161	0xbe7f9a8e	-0.24961302
162	0xbe83bb68	-0.25728917
163	0xbdec37d7	-0.11534088
164	0xbe17e809	-0.14834608
165	0xbe9f18ea	-0.31073695
166	0x3e70698a	0.2347776
167	0x3e6f487b	0.23367493
168	0xbe22ebcf	-0.15910266
169	0xbe84609a	-0.2585495
170	0xbd80aad9	-0.062825866
171	0x3e8ee4a8	0.27908826
172	0x3d708227	0.058717873
173	0xbe59253c	-0.2120561
174	0xbd37593e	-0.044762842
175	0x3e7c4312	0.2463496
176	0x3e931376	0.28725785
177	0xbd914ce3	-0.07094743
178	0xbe12016e	-0.14258358
179	0xbd88b5f8	-0.06675333
180	0xbc5a7f94	-0.013336081
181	0x3e8b8744	0.27251637
182	0xbe6e8158	-0.23291528
183	0xbe84f9e3	-0.25971898
184	0x3b93fb53	0.004516044
185	0xbe964991	-0.29353002
186	0x3e95aada	0.29231912
187	0xbdb66eaa	-0.08907826
188	0x3c4f743e	0.012661992
189	0xbe8da00b	-0.27661166
190	0xbe686d95	-0.22698052
191	0x3e55659b	0.2083954
192	0xbdf49a96	-0.119435474
193	0xbe8a39ec	-0.26997316
194	0xbe644f5f	-0.22295903
195	0xbe5a223b	-0.2130212
196	0x3e262d88	0.16228306
197	0x3e3b9101	0.18317033
198	0x3d09d713	0.033652376
199	0x3e3085af	0.17238496
200	0x3e668ef0	0.22515464
201	0x3dcda901	0.100420006
202	0x3bd05661	0.0063579534
203	0x3dbe00e7	0.09277516
204	0x3ea2d7f7	0.31805393
205	0x3e27516d	0.16339655
206	0xbda10f0c	-0.07864198
207	0x3ea60dc4	0.32432377
208	0xbcfcef28	-0.030875757
209	0x3dba2fc8	0.09091145
210	0xbe0502c9	-0.12989344
211	0x3e6edc91	0.23326327
212	0x3e897019	0.26843336
213	0x3e88164c	0.2657951
214	0xbe383b9b	-0.17991488
215	0xbe8615fa	-0.26188642
216	0xbe8b497d	-0.27204505
217	0x3dba47b5	0.09095708
218	0x3e993d63	0.29929647
219	0xbe0d7032	-0.1381233
220	0xbdd4642b	-0.10370668
221	0xbd9afd58	-0.07567853
222	0xbe877299	-0.2645462
223	0x3e4ce258	0.20008218
224	0xbc7ec4b1	-0.015549825
225	0x3e3428b6	0.17593655
226	0xbe13a5de	-0.14418742
227	0xbe43e716	-0.19131121
228	0xbe3591f7	-0.17731462
229	0xbe8ee21c	-0.27906883
230	0xbe9e139d	-0.3087434
231	0x3e63e86e	0.22256634
232	0xbe057081	-0.13031198
233	0x3e2365e3	0.15956835
234	0x3e576dba	0.21037951
235	0xbdd08464	-0.101815015
236	0xbe26e8db	-0.16299765
237	0xbe50efdc	-0.20403999
238	0x3e2ce7b6	0.16885266
239	0x3e8bf6a3	0.27336606
240	0x3dbbd436	0.091713354
241	0xbdf6d7ba	-0.12052865
242	0x3e696e65	0.22796018
243	0x3e906856	0.28204602
244	0xb9a82f9f	-0.00032078938
245	0x3d9c49b4	0.07631245
246	0xbbd3a724	-0.0064591337
247	0xbd632266	-0.055452727
248	0x3c65966c	0.014012914
249	0x3e941026	0.2891857
250	0x3e42704b	0.18988149
251	0x3ce24508	0.027620807
252	0xbdc71698	-0.09721106
253	0xbe281fdf	-0.16418408
254	0x3d536605	0.051610965
255	0xbe8ae254	-0.271258

fcs.0.1.weight f4 [10, 512]
0	0xbc423c7c	-0.011855241
1	0x3b8f83c4	0.0043797214
2	0x3ca8b844	0.020595677
3	0x3aeed5be	0.0018221659
4	0x3ca39367	0.019967748
5	0xbd135ca4	-0.03597702
6	0xbcc907d7	-0.024539871
7	0x3cf648d5	0.030064026
8	0x3bc9ab25	0.006154435
9	0xbc17c057	-0.009262166
10	0x3d0bbddb	0.034116607
11	0x3d285b1a	0.041102506
12	0x3cbb2445	0.022844443
13	0xbd05369f	-0.032522794
14	0xbc9b30c3	-0.01894415
15	0xb96a7bb2	-0.00022362059
16	0x3ce6a791	0.028156074
17	0xbb428603	-0.0029681928
18	0x3bdef958	0.0068046264
19	0x3cfb9870	0.030712336
20	0x3c588012	0.013214128
21	0x3ab2f741	0.001365401
22	0x3d0d6823	0.03452314
23	0xbcf42e77	-0.029807312
24	0xbc90df33	-0.017684555
25	0x3c8c6d49	0.017141955
26	0xbcfd7748	-0.030940667
27	0xbbae4d62	-0.0053192833
28	0xbc9efdcf	-0.019408135
29	0xbbf7074f	-0.007538713
30	0x3d17ea31	0.037088577
31	0xbb15ffa9	-0.002288798
32	0x3bd2eb4a	0.00643674
33	0xbc8dbe46	-0.017302644
34	0x3cba23eb	0.022722205
35	0xbb51576f	-0.0031942984
36	0xbcf5ab83	-0.02998901
37	0x3c877a37	0.016537769
38	0x3c3c9006	0.011508947
39	0x3cdd54d4	0.027017988
40	0xbc2721a8	-0.010200895
41	0x3be4f5f5	0.006987328
42	0x3d38e442	0.04513956
43	0xbc3ddbf6	-0.011588087
44	0x3d066ba1	0.032817487
45	0xbd0ada91	-0.033899847
46	0xbbb7b327	-0.0056060734
47	0x3ccaaf79	0.024741875
48	0x3c75d4d0	0.015004352
49	0x3d1c8db0	0.03822106
50	0xbcc08667	-0.023501588
51	0xbc82509c	-0.015907578
52	0xbbc7e7d4	-0.006100634
53	0x3cd090ad	0.025459612
54	0xbc839222	-0.016060892
55	0x3d376d80	0.04478216
56	0xbc63abca	-0.013895938
57	0x3c4bfa87	0.012449867
58	0xbac7033b	-0.0015183458
59	0x3cacb83e	0.021083947
60	0x3cc64a52	0.02420536
61	0x3c6156ef	0.013753637
62	0xbaff1908	-0.0019462416
63	0xbc181bf9	-0.009284013
64	0xbc641bf2	-0.013922678
65	0x3d06b52b	0.03288762
66	0xbc89e0d9	-0.016830849
67	0x3d283e25	0.04107489
68	0x3ce259f3	0.027630782
69	0x3cf42518	0.029802844
70	0x3cd0231b	0.025407365
71	0xbcf7784f	-0.030208735
72	0x3ca6deeb	0.020369967
73	0x3d24966b	0.040182512
74	0xbc385f44	-0.011253182
75	0xb72a831b	-1.0163315e-05
76	0x3d049526	0.0323688
77	0xbc95cfad	-0.018287504
78	0x3ac174bd	0.0014759522
79	0x3c11e26e	0.008904083
80	0x3c052778	0.008127086
81	0x3cc49a32	0.023999307
82	0xbc3ca821	-0.011514694
83	0x3d03669d	0.03208028
84	0xbcd376e9	-0.025813537
85	0xbb8eea12	-0.0043613994
86	0x3d1c4dd3	0.038160156
87	0x3d3884a3	0.045048367
88	0xbc623ba2	-0.013808163
89	0x3bded856	0.0068006916
90	0xbafb9794	-0.0019194954
91	0x3c8d1244	0.017220624
92	0x3cfd0be5	0.03088946
93	0x3caa4d54	0.020788826
94	0x3bb6cb17	0.0055784094
95	0xbce5af79	-0.028037773
96	0x3cb71628	0.022349432
97	0xbd065e1b	-0.03280459
98	0x3d51e2d4	0.05124171
99	0xbc551b51	-0.013007001
100	0xbca31f6a	-0.01991244
101	0x3d1896e1	0.037253264
102	0xbc72dc64	-0.014823053
103	0x3c25b585	0.010114078
104	0xbce61113	-0.028084313
105	0xbd12030d	-0.03564744
106	0x3c36c565	0.011155461
107	0xbc7a53cc	-0.015278768
108	0x3ceb6e8a	0.028739233
109	0xbcb5d559	-0.022196459
110	0x3c66cf9e	0.014087586
111	0x3c90bf6d	0.017669404
112	0x3ce3cd4e	0.027807858
113	0x3cdff96d	0.027340615
114	0xbcf17a36	-0.02947722
115	0x3bcd06a1	0.0062568937
116	0xbd282cb2	-0.04105825
117	0x3bbfe03d	0.0058555887
118	0x3ca6e1e8	0.020371392
119	0x3b658d33	0.0035026788
120	0x3cc9c063	0.02462787
121	0x3d141c47	0.03615978
122	0xbcfa9262	-0.030587379
123	0xbc1df020	-0.00963977
124	0xbcfc254b	-0.030779501
125	0xbc059357	-0.008152804
126	0x3c76512b	0.015034
127	0xbb3bf35b	-0.0028678987
128	0xbcee3155	-0.029076258
129	0xbd09b714	-0.033621863
130	0xbb19dbde	-0.0023476998
131	0x3d878aa8	0.066182435
132	0x3b7d2678	0.0038627665
133	0xbd2fd1e0	-0.04292476
134	0x3c157027	0.0091209775
135	0x3c2b0341	0.0104377875
136	0xbd4671d7	-0.04844841
137	0x3b9fc8ec	0.0048762467
138	0x3d09dd5d	0.033658374
139	0xbcf4644a	-0.029832978
140	0xbd250718	-0.04028997
141	0xbcb843b1	-0.022493215
142	0xbb7ec8b7	-0.003887696
143	0x3bedddef	0.0072591226
144	0xbae0058d	-0.0017091498
145	0x3c449dea	0.01200054
146	0xbcf8ac80	-0.030355692
147	0xbc9c6f76	-0.019096117
148	0xbd05275c	-0.03250824
149	0x3d3c8c2f	0.046032127
150	0xbc9113b5	-0.017709592
151	0xbba928c7	-0.0051623317
152	0x3d25151b	0.04030333
153	0xbcacd638	-0.021098241
154	0x3c680880	0.014162183
155	0xbc79144b	-0.015202592
156	0xbb233db0	-0.0024908595
157	0xbb0a125f	-0.002106808
158	0xbcc44e09	-0.023962991
159	0xbd13bd21	-0.03606904
160	0xbd1f4176	-0.038880788
161	0xbcdb2624	-0.026751585
162	0x3cccf1ba	0.025017608
163	0x3b7609bd	0.0037542426
164	0x3ca6da42	0.020367745
165	0xbb941c9a	-0.004520011
166	0xbc76c888	-0.015062459
167	0x3cce4ca4	0.02518303
168	0xbd2db2d2	-0.042406864
169	0xbd03fb62	-0.03222216
170	0x3d1b7f4d	0.0379632
171	0xbca830b7	-0.020531042
172	0xbb90fdde	-0.0044247946
173	0xbb001e59	-0.0019549339
174	0x3c7e7255	0.015530189
175	0x3b35e7c6	0.0027756556
176	0x38fc77b1	0.00012038591
177	0xbca83044	-0.020530827
178	0x3c7b4455	0.015336116
179	0x3ca21e0c	0.019789718
180	0x3c977f46	0.018493306
181	0xbcf5dfc5	-0.030013928
182	0xbd1e53ec	-0.038654253
183	0xbc7f1fc4	-0.015571538
184	0x3d21a114	0.039460257
185	0xbc3e1315	-0.011601229
186	0xbce378ca	-0.027767558
187	0xbc013dfd	-0.007888314
188	0x3cadc3f6	0.021211606
189	0xbc45e815	-0.012079258
190	0x3d0cba3e	0.034357302
191	0x3d284eec	0.04109089
192	0xbc1bbe34	-0.009505797
193	0xbbcbc5d9	-0.0062186536
194	0x3bba5c35	0.0056872615
195	0x3c8aab12	0.016927276
196	0x3cd81678	0.026377901
197	0x3d0a7fd3	0.03381331
198	0x3d14bc8e	0.036312632
199	0xbc80f3b8	-0.015741214
200	0x3c6b10c0	0.014347255
201	0xbc8aa227	-0.016923023
202	0x3c8d0bb6	0.017217498
203	0x3cc0038f	0.023439197
204	0x3ced9281	0.029000523
205	0x3c3cb37e	0.011517404
206	0x3bf76f2f	0.007551096
207	0x3aab0288	0.0013047019
208	0xbc4d7c60	-0.01254186
209	0x3cd19b00	0.025586605
210	0xbc58fd08	-0.013243921
211	0x3d441438	0.047870845
212	0x3ce8dbe4	0.028425165
213	0xbb9d1992	-0.004794308
214	0x3c186bcc	0.0093030445
215	0xbce5d2ab	-0.028054556
216	0xbd22c7cf	-0.039741334
217	0xbd3d4cf4	-0.046215966
218	0x3c50b3ff	0.012738227
219	0xbcaff4c2	-0.021479014
220	0xbb5eb3a5	-0.0033981588
221	0xbc36dae3	-0.011160585
222	0x3d408c75	0.04700895
223	0xbc4b9b12	-0.012427108
224	0x3aecd984	0.0018070196
225	0x3bb00830	0.00537207
226	0x3c891d85	0.016737709
227	0x3c097ea0	0.008392006
228	0x3b42c1bf	0.0029717532
229	0x3d128c0c	0.03577809
230	0x3a61f055	0.0008618881
231	0x3d0b8c3d	0.03406929
232	0x3ce311c2	0.027718429
233	0x3c5cbf13	0.01347329
234	0xbd2dbf2a	-0.042418636
235	0x3cac368e	0.021022107
236	0xbcd26e55	-0.025687376
237	0x3c0849da	0.008318389
238	0x3c29478f	0.010332002
239	0xbd12cf98	-0.035842508
240	0x3bd3285c	0.00644402
241	0xbd09d78c	-0.033652827
242	0xbd0b5f3e	-0.034026377
243	0x3b9f1f38	0.0048560165
244	0xbc36e107	-0.011162049
245	0xbc1e1d9a	-0.009650612
246	0xbc94fba8	-0.018186405
247	0x3d2fd452	0.042927094
248	0x3ca8933b	0.020578017
249	0x3d14c3f0	0.036319673
250	0xbcd78330	-0.026307672
251	0xbcbe0908	-0.023197666
252	0xbba4ec45	-0.0050330483
253	0xbce8fcf9	-0.02844094
254	0xbd2d0129	-0.042237435
255	0xbd001083	-0.031265747

fcs.0.1.bias f4 [10]
0	0x3d22dc74	0.03976102
1	0xbcb3699a	-0.02190094
2	0xbc3a4356	-0.011368593
3	0xbce51926	-0.027966093
4	0xbd1526df	-0.036414023
5	0x3d3bb2b5	0.045824725
6	0x3cbb044f	0.022829203
7	0xbccd016b	-0.02502509
8	0xbd2a600a	-0.041595496
9	0x3d0f1c0b	0.034938853
