cache/tradeoff_exp/trial_1/iter_4.pth (torch, 581966 bytes, 600 tensors)

fcs.0.0.linear.weight f4 [128, 1]
0.5834964 -0.5957201 -0.7918312 -0.26332164 0.9372586 -0.8241494 -0.9007984 -0.17508763
-0.6486793 0.45761478 0.11885631 0.2210857 0.5106593 -0.4182669 -0.34548986 0.30277625
-0.5575065 -0.9994585 -0.6197512 -0.3951579 0.20896468 -0.39995825 0.12013904 0.7545685
-0.79772234 0.7799545 0.3440339 -0.56705403 -0.5300057 -0.99167573 -0.35879478 -0.41559556
-0.29864416 -0.7301076 -0.8162456 -0.9151861 -0.651506 -0.128652 -0.48703688 -0.44917616
-0.8436784 -0.25297287 0.69285923 0.13503462 -0.03225279 0.46310112 -0.24122965 -0.3007381
-0.06634569 0.8092529 -0.924607 -0.2867514 0.98987323 0.2755247 -0.21627922 -0.87996507
-0.59143704 0.493675 0.0308541 0.8277553 -0.12633316 -0.13092557 0.9814563 0.371276
-0.50805956 0.1930136 -0.7259914 -0.4432762 -0.30992883 0.854915 0.12380671 -0.48243016
-0.02521193 0.74124384 -0.25724462 -0.70107496 -0.57076323 -0.8503178 -0.69090086 -0.98836386
-0.013415373 -0.7502153 -0.77588135 -0.35091785 -0.703351 -0.5660959 0.46937767 -0.8527168
-0.20241804 0.65311897 0.5719176 -0.5301206 0.56651664 0.6695004 0.23892269 0.49373314
-0.25343382 -0.17494941 0.36405587 -0.15308389 0.35417974 0.65756154 0.31967002 0.18790378
-0.4655677 -0.30883753 0.10223051 -0.13388684 0.6189478 0.5318312 0.94602364 0.34673274
-0.65096855 0.8704043 0.07181321 -0.90155023 0.6957918 -0.64180076 0.6624252 0.15306136
-0.67054796 0.65586925 -0.1622095 -0.7550176 0.62320083 -0.598036 0.28198224 0.548677
00000000: 0560 153f 1d81 18bf 73b5 4abf 18d2 86be
00000010: 2ef0 6f3f 75fb 52bf b99a 66bf 2c4a 33be
00000020: d90f 26bf 7c4c ea3e f06a f33d 4a64 623e
00000030: 91ba 023f 1427 d6be 0ce4 b0be 7d05 9b3e
00000040: bfb8 0ebf 83dc 7fbf 04a8 1ebf 2352 cabe
00000050: d6fa 553e 54c7 ccbe 750b f63d 672b 413f
00000060: 8837 4cbf 19ab 473f 3625 b03e 742a 11bf
00000070: 74ae 07bf 76de 7dbf f3b3 b7be f1c8 d4be
00000080: e3e7 98be 55e8 3abf 79f5 50bf a349 6abf
00000090: 19c9 26bf 5abd 03be e65c f9be 6bfa e5be
000000a0: 4ffb 57bf a985 81be 395f 313f 8446 0a3e
000000b0: 801b 04bd 971b ed3e e804 77be 58fa 99be
000000c0: 40e0 87bd 332b 4f3f 0bb3 6cbf 14d1 92be
000000d0: 5568 7d3f 9311 8d3e 4d78 5dbe 6445 61bf
000000e0: 6b68 17bf f8c2 fc3e bdc1 fc3c c5e7 533f
000000f0: 7b5d 01be 5a11 06be b840 7b3f e317 be3e
00000100: 3110 02bf 5ba5 453e 93da 39bf 19f5 e2be
00000110: feae 9ebe b6db 5a3f 5f8e fd3d 1601 f7be
00000120: 4089 cebc 28c2 3d3f 91b5 83be a679 33bf
00000130: 8a1d 12bf 6dae 59bf e1de 30bf 6a05 7dbf
00000140: 27cc 5bbc 1c0e 40bf 29a0 46bf 81ab b3be
00000150: d00e 34bf a9eb 10bf 4552 f03e a64b 5abf
00000160: ad46 4fbe ce32 273f 3169 123f fcb5 07bf
00000170: 3c07 113f 6164 2b3f 26a8 743e 97ca fc3e
00000180: 14c2 81be f025 33be 8865 ba3e 06c2 1cbe
00000190: 0c57 b53e f455 283f caab a33e d969 403e
000001a0: e45e eebe f41f 9ebe 3b5e d13d a219 09be
000001b0: 5d73 1e3f 1726 083f 9b2e 723f f486 b13e
000001c0: e0a5 26bf d1d2 5e3f ce12 933d ffcb 66bf
000001d0: 691f 323f 0e4d 24bf b394 293f 1ebc 1c3e
000001e0: 08a9 2bbf 0ce7 273f 3f1a 26be d548 41bf
000001f0: 178a 1f3f e318 19bf fa5f 903e 1976 0c3f

fcs.0.0.linear.bias f4 [128]
0.40218922 0.2687673 0.47177014 -0.7873863 -0.4888164 0.49935237 0.7393121 0.17831904
0.112169884 -0.7915105 -0.19351752 -0.5043728 0.9723208 0.9851658 0.17398188 0.7902141
0.089012295 -0.27641976 -0.7239047 0.8555424 0.28381878 -0.1700119 -0.64348155 0.717932
0.4385501 -0.5698667 0.93052423 -0.7474359 -0.15024003 0.05864035 0.8427939 0.1813371
0.7236217 -0.6611927 0.5066024 0.8086432 -0.5738367 -0.25503445 0.31287378 0.1902742
0.18277279 -0.16308556 -0.2550455 0.64139426 -0.2315669 0.30019575 -0.59046 -0.72579086
-0.8176533 0.90069777 -0.44913566 -0.58013684 0.17011805 0.8470544 0.14200379 0.36099416
0.27121785 0.8118055 0.3795503 -0.7944834 0.018218616 0.8501757 -0.92596304 -0.3032035
-0.9343071 -0.8840656 0.39414537 0.86297035 0.91270274 -0.35870832 0.77896684 -0.7495435
-0.86963904 0.7669658 0.4482693 0.13701998 -0.81110257 -0.04973284 0.81352925 -0.42054385
0.6500111 -0.48253378 -0.8879179 0.90107596 -0.9225472 -0.45237526 -0.13753474 0.7717198
-0.008393781 -0.22116134 0.58776724 -0.21099705 0.70759994 0.90413433 0.41387278 0.105395064
0.75774807 -0.9535715 -0.98753995 0.26608625 -0.65995014 -0.8572427 -0.2722138 -0.6359564
0.16553214 -0.5675563 0.0005809595 0.5325427 -0.52252007 0.8286223 -0.38777488 0.78799635
-0.56670856 -0.67614543 0.44648537 0.9381319 -0.5295059 -0.90022594 -0.5135038 0.5706991
-0.7900416 -0.29144603 -0.8639515 -0.04989743 0.7069613 0.012323173 -0.0379067 -0.14256848
00000000: bfeb cd3e de9b 893e db8b f13e 2692 49bf
00000010: 2546 fabe 1dab ff3e 8f43 3d3f 4499 363e
00000020: 53b9 e53d 6fa0 4abf 7529 46be 931e 01bf
00000030: 04ea 783f d333 7c3f 4e28 323e 794b 4a3f
00000040: 144c b63d e486 8dbe d251 39bf d404 5b3f
00000050: b250 913e 9917 2ebe 35bb 24bf 64ca 373f
00000060: a489 e03e c9e2 11bf d636 6e3f f657 3fbf
00000070: 86d8 19be dd30 703d 57c1 573f 6fb0 393e
00000080: 463f 393f ed43 29bf b2b0 013f 3e03 4f3f
00000090: f6e6 12bf e093 82be fe30 a03e 3dd7 423e
000000a0: ca28 3b3e e7ff 26be 5395 82be 6a32 243f
000000b0: e01f 6dbe 42b3 993e 6328 17bf 6ecd 39bf
000000c0: ba51 51bf 2194 663f 1cf5 e5be d983 14bf
000000d0: 6d33 2e3e 8fd8 583f 7169 113e 3ad4 b83e
000000e0: 11dd 8a3e 7cd2 4f3f 6b54 c23e 4463 4bbf
000000f0: 353f 953c 1da5 593f ea0b 6dbf 7d3d 9bbe
00000100: c02e 6fbf 2052 62bf 6ccd c93e a0eb 5c3f
00000110: e3a6 693f 9ea8 b7be 5f6a 473f 15e2 3fbf
00000120: aaa0 5ebf df57 443f 8e83 e53e f74e 0c3e
00000130: 6ba4 4fbf aab4 4bbd 7443 503f 8651 d7be
00000140: 2167 263f ab0e f7be 964e 63bf eaac 663f
00000150: 0e2c 6cbf bb9d e7be e8d5 0cbe 6e8f 453f
00000160: 1286 09bc 1e78 62be ea77 163f 9c0f 58be
00000170: 4525 353f 5975 673f 22e7 d33e 5ed9 d73d
00000180: c7fb 413f 431d 74bf 6bcf 7cbf 753c 883e
00000190: 7ef2 28bf 4274 5bbf 9b5f 8bbe 0ace 22bf
000001a0: 4281 293e 5f4b 11bf 884b 183a b854 083f
000001b0: e0c3 05bf 9720 543f 6e8a c6be 21ba 493f
000001c0: d013 11bf de17 2dbf bb99 e43e 6a29 703f
000001d0: b38d 07bf 3575 66bf fc74 03bf 5619 123f
000001e0: 2b40 4abf 6a38 95be ed2b 5dbf 3f61 4cbd
000001f0: 6afb 343f 22e7 493c 0e44 1bbd 79fd 11be

fcs.0.1.weight f4 [1, 128]
0.078218035 0.0076677203 -0.0027334837 0.018985044 0.0036861487 0.05711358 0.058792368 0.014429524
0.037987873 -0.07879632 -0.07941617 -0.0071873493 0.02424726 0.0073270453 0.035778325 0.07634229
-0.09163129 -0.09588545 -0.00141389 -0.06638392 0.028211338 0.013384751 0.0026856726 0.0063400012
-0.0026694397 -0.0869706 0.038727637 0.025362812 0.076303266 0.008612752 -0.0028997674 -0.003829951
-0.023537107 0.023359496 0.0041811885 0.075987026 -0.050432976 -0.052875485 0.066652864 0.037554927
0.0026666615 0.06808174 -0.007075464 0.022928774 0.018438116 -0.0014794177 0.053851783 -0.049318917
-0.029270943 0.06282087 0.043568395 0.03029255 0.036201708 0.05239196 -0.011117589 0.07880024
0.0135857565 -0.022661196 0.033529714 0.025386676 -0.07481693 -0.005564879 0.015074188 0.058328383
-0.07593419 -0.06866975 -0.07623499 0.03961359 -0.013297323 -0.08729746 -0.064634465 0.07039777
0.043799125 0.062399235 -0.09734477 -0.043909714 0.018436633 0.03233909 0.06512377 -0.090250626
0.03888505 0.0075584175 0.08189466 -0.08566086 -0.00081279344 -0.091667585 -0.029117178 0.037261676
0.050620016 -0.08591506 0.004285168 0.0656888 -0.02097809 -0.018555952 0.007998161 -0.009727604
-0.013335538 0.081396826 -0.040386032 -0.09010582 0.06548056 -0.03916583 -0.044279672 -0.03963085
0.045523398 0.0012504982 0.04541757 -0.06656432 -0.04009414 -0.064527676 0.060444944 -0.084222935
-0.08949258 0.04677314 -0.057179496 0.0653178 -0.07582746 -0.007808634 0.034094784 0.04929468
-0.04033631 -0.026843773 0.03430291 -0.053212088 -0.054548673 0.039422557 0.01757883 -0.08299902
00000000: c730 a03d 8041 fb3b 3f24 33bb 8686 9b3c
00000010: 5093 713b eeef 693d 44d0 703d cf69 6c3c
00000020: 2c99 1b3d f75f a1bd f2a4 a2bd db83 ebbb
00000030: 31a2 c63c b617 f03b 4b8c 123d 5959 9c3d
00000040: 30a9 bbbd 975f c4bd 4752 b9ba 4bf4 87bd
00000050: 771b e73c b74b 5b3c 1c02 303b c9bf cf3b
00000060: c4f1 2ebb a41d b2bd dfa0 1e3d acc5 cf3c
00000070: e344 9c3d 801c 0d3c 060a 3ebb eaff 7abb
00000080: e4d0 c0bc 6a5c bf3c 5a02 893b 169f 9b3d
00000090: cf92 4ebd f793 58bd 4c81 883d 32d3 193d
000000a0: 28c3 2e3b 706e 8b3d 4bd9 e7bb 20d5 bb3c
000000b0: 880b 973c 05e9 c1ba b093 5c3d a202 4abd
000000c0: 9ec9 efbc 3aa8 803d c674 323d 1528 f83c
000000d0: 3e48 143d f498 563d 8c26 36bc 0562 a13d
000000e0: cb96 5e3c f9a3 b9bc 7456 093d b8f7 cf3c
000000f0: 9e39 99bd 9759 b6bb baf9 763c bee9 6e3d
00000100: 6283 9bbd baa2 8cbd 1721 9cbd dc41 223d
00000110: 04dd 59bc 03c9 b2bd 135f 84bd b52c 903d
00000120: b666 333d 5796 7f3d b25c c7bd acda 33bd
00000130: 6c08 973c fe75 043d 9c5f 853d 52d5 b8bd
00000140: ee45 1f3d 9aac f73b 63b8 a73d f66e afbd
00000150: a511 55ba 37bc bbbd 2687 eebc b39f 183d
00000160: ef56 4f3d 3cf4 afbd 986a 8c3b d987 863d
00000170: 3eda abbc a702 98bc b80a 033c 8760 1fbc
00000180: 4d7d 5abc 61b3 a63d d36b 25bd 6689 b8bd
00000190: ac1a 863d 596c 20bd 9a5e 35bd f553 22bd
000001a0: be76 3a3d c2e7 a33a c607 3a3d e052 88bd
000001b0: c139 24bd 1627 84bd 1e95 773d 137d acbd
000001c0: e347 b7bd 3195 3f3d 0c35 6abd 57c5 853d
000001d0: 6d4b 9bbd 92df ffbb f9a6 0b3d 38e9 493d
000001e0: b037 25bd 79e7 dbbc 3581 0c3d ebf4 59bd
000001f0: 6e6e 5fbd 8c79 213d 7a01 903c 64fb a9bd

fcs.1.0.linear.weight f4 [128, 1]
0.3738988 -0.9551637 -0.4745553 -0.9028717 -0.9981723 -0.43005127 0.88331765 -0.0018934011
-0.060705066 0.18431795 0.20207176 -0.018833518 0.41157347 -0.28602076 0.99994415 0.07625773
-0.37140575 -0.087614216 0.6045901 -0.6817384 0.9224213 -0.13199599 -0.08073575 -0.4263948
0.5775188 0.325913 0.356904 -0.36486694 -0.624667 -0.3641411 0.27123368 -0.74477345
0.26026613 -0.7244324 -0.21617663 0.040819805 -0.48185092 -0.9260284 0.5474101 -0.2009444
0.17235312 0.90275174 -0.13393487 -0.67902535 -0.38764787 0.88519174 0.6414634 -0.78708047
-0.52784044 -0.45280492 0.50742704 0.83531797 0.53149396 0.27780664 0.066912726 -0.50416625
0.579588 -0.9611454 -0.7644425 0.8151834 -0.2373034 -0.4738899 0.44560054 0.36673313
-0.052237965 -0.11521255 0.80879974 0.61111015 0.91912425 0.28927615 0.37647983 0.57019216
-0.69196886 0.2430538 0.10623888 0.537748 0.3489484 0.009085774 0.87279797 -0.10089803
0.947737 -0.9494577 0.9515401 -0.69067705 0.22396863 0.8320016 0.5941293 -0.9463359
0.37994638 -0.654033 0.8907391 0.94226444 0.68792564 0.7715362 -0.6151721 0.0024405718
-0.2190201 0.60086733 -0.20922798 0.73807365 -0.6609857 0.28486708 -0.43162835 0.569058
0.42341214 -0.3762934 -0.38269708 0.8128007 0.29152402 -0.31107473 -0.75233096 0.5370131
0.6925299 0.4481724 -0.8039423 0.82804537 0.4768902 0.452494 0.73657244 -0.5760952
-0.68892676 0.01682866 -0.581317 -0.32733268 -0.24153087 -0.6877781 -0.18335132 -0.14338642
00000000: aa6f bf3e 9c85 74bf eaf8 f2be 9a22 67bf
00000010: 3888 7fbf ae2f dcbe 1b21 623f 002c f8ba
00000020: e0a5 78bd d8bd 3c3e e6eb 4e3e c048 9abc
00000030: c2b9 d23e 5071 92be 57fc 7f3f 032d 9c3d
00000040: e528 bebe 156f b3bd 6bc6 1a3f 6886 2ebf
00000050: cd23 6c3f f529 07be c958 a5bd 6b50 dabe
00000060: 46d8 133f 12de a63e 1fbc b63e d7cf babe
00000070: 2dea 1fbf b470 babe 24df 8a3e 79a9 3ebf
00000080: 9a41 853e 6774 39bf 685d 5dbe ab32 273d
00000090: 2ab5 f6be 3210 6dbf 1123 0c3f 5ec4 4dbe
000000a0: 567d 303e bd1a 673f 3926 09be 9bd4 2dbf
000000b0: c879 c6be ed9b 623f f236 243f 1b7e 49bf
000000c0: 8d20 07bf 0cd6 e7be bde6 013f 66d7 553f
000000d0: fd0f 083f ac3c 8e3e 8a09 893d 0a11 01bf
000000e0: e15f 143f a00d 76bf 81b2 43bf dcaf 503f
000000f0: aaff 72be b2a1 f2be c125 e43e 72c4 bb3e
00000100: 7af7 55bd 8ff4 ebbd 800d 4f3f b771 1c3f
00000110: ba4b 6b3f 011c 943e f7c1 c03e 1df8 113f
00000120: df24 31bf 18e3 783e c593 d93d daa9 093f
00000130: 5da9 b23e 80dc 143c b06f 5f3f a0a3 cebd
00000140: e49e 723f a90f 73bf 2298 733f 36d0 30bf
00000150: 0858 653e 0ffe 543f dc18 183f 1243 72bf
00000160: 5588 c23e b56e 27bf 7a07 643f 3e38 713f
00000170: e51b 303f 6583 453f eb7b 1dbf 00f2 1f3b
00000180: ce46 60be 71d2 193f dc3f 56be 65f2 3c3f
00000190: 5c36 29bf 19da 913e 64fe dcbe c9ad 113f
000001a0: 7ac9 d83e 87a9 c0be dff0 c3be b513 503f
000001b0: a342 953e 3045 9fbe c398 40bf b179 093f
000001c0: a449 313f da76 e53e 2acf 4dbf c8fa 533f
000001d0: f42a f43e 4bad e73e 0390 3c3f fa7a 13bf
000001e0: 815d 30bf 42dc 893c 31d1 14bf 2698 a7be
000001f0: de53 77be 3a12 30bf 73c0 3bbe e4d3 12be

fcs.1.0.linear.bias f4 [128]
-0.3873261 0.3757908 0.13741559 0.94863737 -0.70934916 -0.13595837 -0.33462813 -0.46008873
-0.9346001 0.27536377 -0.26206586 -0.9638505 -0.6271359 -0.8735457 -0.61365616 -0.15120018
-0.3835817 -0.10051128 0.19154313 -0.7529731 -0.72269964 -0.4754753 0.92551106 -0.60025674
0.49809727 0.9407002 -0.26412863 0.059863433 -0.8439026 0.85900086 0.9772733 -0.5227923
-0.17093739 -0.2115857 0.19805785 0.8237601 0.6614739 0.44397256 0.79564947 0.8451305
0.871767 -0.43638468 0.1587814 0.52514076 0.899108 -0.53387666 0.6633561 -0.2786508
0.3808123 -0.7720835 -0.8651672 0.76495826 0.734461 0.9899294 0.551553 -0.66437966
-0.101609804 0.7886888 -0.73353475 -0.38580734 0.0015472056 0.78231114 0.6061122 -0.041170154
0.79956305 0.42148998 -0.28774258 -0.9540557 0.9899437 0.9142217 -0.602418 -0.76688623
0.3102741 0.70137477 0.009699709 -0.9353124 0.002774493 -0.3611226 0.25330278 -0.8818681
-0.038128946 0.9661456 -0.82965755 -0.78424215 -1.0021179 -0.40948132 -0.3133665 0.37844926
0.8222332 -0.8110702 -0.41391274 0.32198665 -0.5375335 0.28267926 -0.93798894 -0.87573504
-0.6558106 0.13899328 0.20178343 0.87969816 0.86084074 0.61637497 0.05399342 0.209782
0.66375905 -0.47836652 0.9710056 0.5705224 -0.8999683 -0.89203495 0.42218426 -0.07223519
-0.2478304 0.6334249 0.03350686 -0.4956937 0.19832894 0.5784702 0.7315965 0.68256307
-0.6388724 0.132533 -0.52107835 -0.74561274 -0.9125421 -0.59819514 0.42378584 0.49508968
00000000: 9b4f c6be a767 c03e acb6 0c3e e6d9 723f
00000010: e897 35bf ac38 0bbe 6154 abbe c090 ebbe
00000020: f441 6fbf 7bfc 8c3e 7f2d 86be e8be 76bf
00000030: fa8b 20bf b1a0 5fbf 9218 1dbf 38d4 1abe
00000040: d264 c4be dcd8 cdbd e223 443e d8c2 40bf
00000050: d802 39bf 8071 f3be 4bee 6c3f 6daa 19bf
00000060: 9b06 ff3e bad1 703f de3b 87be 5c33 753d
00000070: 000a 58bf 7be7 5b3f 952e 7a3f b7d5 05bf
00000080: 360a 2fbe eca9 58be adcf 4a3e f1e1 523f
00000090: 5a56 293f 5f50 e33e afaf 4b3f 795a 583f
000000a0: 1f2c 5f3f d06d dfbe 9797 223e a06f 063f
000000b0: f12b 663f 24ac 08bf b5d1 293f 51ab 8ebe
000000c0: d4f9 c23e 44a7 45bf 997b 5dbf 4ed4 433f
000000d0: a305 3c3f 036c 7d3f 9432 0d3f c914 2abf
000000e0: cd18 d0bd 82e7 493f efc8 3bbf 8a88 c5be
000000f0: 9bcb ca3a 8b45 483f 2b2a 1b3f 09a2 28bd
00000100: 2ab0 4c3f 89cd d73e ff52 93be ff3c 74bf
00000110: f36c 7d3f 6f0a 6a3f 1138 1abf a852 44bf
00000120: 3fdc 9e3e 4c8d 333f 87eb 1e3c a270 6fbf
00000130: 45d4 353b 10e5 b8be e7b0 813e 1cc2 61bf
00000140: 192d 1cbd 5155 773f 7064 54bf 18c4 48bf
00000150: 6645 80bf 89a7 d1be 9371 a0be 1ac4 c13e
00000160: e07d 523f 4ca2 4fbf 5fec d3be 6fdb a43e
00000170: cc9b 09bf 56bb 903e 0b20 70bf 2c30 60bf
00000180: 34e3 27bf 4154 0e3e 51a0 4e3e e633 613f
00000190: 0f60 5c3f c0ca 1d3f 3428 5d3d 18d1 563e
000001a0: 1dec 293f 75ec f4be d393 783f c20d 123f
000001b0: 5364 66bf 675c 64bf 8928 d83e 0bf0 93bd
000001c0: 41c7 7dbe 2228 223f 7d3e 093d 91cb fdbe
000001d0: be16 4b3e 9f16 143f e949 3b3f 74bc 2e3f
000001e0: 248d 23bf bbb6 073e 6465 05bf 7ae0 3ebf
000001f0: 5c9c 69bf 5123 19bf 75fa d83e 657c fd3e

fcs.1.1.weight f4 [1, 128]
-0.004014998 -0.056613464 0.08707808 0.022572448 0.030656736 -0.05433406 -0.008136697 -0.06283212
0.053147025 -0.017364992 0.0747626 -0.08239318 -0.010203774 -0.014493464 0.022486009 0.06003585
0.014730507 0.050609153 0.04491751 0.031730447 0.061653104 0.09019021 -0.055295084 0.05409685
-0.07112418 -0.032955818 -0.03065325 0.052103147 0.021267287 -0.020705229 -0.018951094 0.08093247
0.052237418 -0.04820178 -0.07490814 -0.022226213 -0.07764418 0.095960766 0.050747428 0.053507116
0.011855877 -0.07432067 -0.046433613 -0.035322938 0.08935703 0.08642629 -0.03639082 -0.013060379
0.076918624 0.050475806 0.076414555 0.036514483 -0.055760734 0.033978168 0.0111911865 0.008189452
-0.028935451 0.023183316 -0.06717257 -0.08348349 -0.021304332 -0.033056036 0.02394171 0.054720473
0.03201548 -0.07134829 0.021829741 0.082595386 0.03061214 -0.040829588 -0.0051593906 -0.042415857
-0.010960797 0.046286345 -0.060885113 0.0065844483 0.06636621 0.04166136 -0.061453912 0.051391907
-0.011057655 -0.013263018 -0.07183406 0.09913646 0.035690412 0.044519804 0.043911844 -0.06343673
-0.035250407 -0.0607394 0.051723313 -0.06323685 0.0065476126 0.042800907 -0.031736836 0.07643958
0.05945641 0.07798607 -0.06377697 -0.057050593 0.07259138 -0.059023514 0.0023141154 -0.010825097
0.012243227 -0.013286863 0.05921796 0.008722332 0.017512487 -0.059753872 -0.02205987 -0.039774317
0.012630625 -0.06740349 0.017546264 -0.08051377 -0.027425941 -0.006274106 0.007650225 0.026710879
-0.03819737 0.06660661 -0.07308989 -0.0029685947 -0.02885526 -0.02685145 -0.063239954 0.08575981
00000000: 3f90 83bb 85e3 67bd fe55 b23d dbe9 b83c
00000010: d623 fb3c 648d 5ebd c84f 05bc 20ae 80bd
00000020: b2b0 593d 0741 8ebc 221d 993d c1bd a8bd
00000030: bb2d 27bc fe75 6dbc 9434 b83c 27e8 753d
00000040: 3958 713c 8b4b 4f3d 6cfb 373d c9f7 013d
00000050: f787 7c3d a5b5 b83d 197d 62bd a994 5d3d
00000060: 8ea9 91bd aefc 06bd 861c fbbc 1c6a 553d
00000070: bc38 ae3c 039e a9bc 533f 9bbc ecbf a53d
00000080: e7f6 553d 3b6f 45bd 7069 99bd bf13 b6bc
00000090: e903 9fbd 1487 c43d 89dc 4f3d 472a 5b3d
000000a0: 273f 423c 6f35 98bd 2c31 3ebd c9ae 10bd
000000b0: d200 b73d 4400 b13d 8a0e 15bd 33fb 55bc
000000c0: 8387 9d3d b8bf 4e3d 3c7f 9c3d 3690 153d
000000d0: 5e65 64bd b12c 0b3d 3d5b 373c 0d2d 063c
000000e0: 0a0a edbc f0ea bd3c c691 89bd 64f9 aabd
000000f0: 6c86 aebc c465 07bd 6821 c43c 9322 603d
00000100: aa22 033d 0d1f 92bd 49d4 b23c c527 a93d
00000110: 50c6 fa3c ed3c 27bd 1b10 a9bb 40bc 2dbd
00000120: ea94 33bc c096 3d3d ab62 79bd 5bc2 d73b
00000130: 02eb 873d 1aa5 2a3d 19b7 7bbd 5280 523d
00000140: 2b2b 35bc 214d 59bc bc1d 93bd 0e08 cb3d
00000150: 1c30 123d 665a 363d e8dc 333d 1eeb 81bd
00000160: bb62 10bd e1c9 78bd d3db 533d 5282 81bd
00000170: 5b8d d63b 0150 2f3d 7cfe 01bd 5b8c 9c3d
00000180: 9188 733d 29b7 9f3d 809d 82bd e2ad 69bd
00000190: caaa 943d a4c2 71bd 6aa8 173b bf5b 31bc
000001a0: d197 483c 25b1 59bc 888e 723d 1de8 0e3c
000001b0: 5976 8f3c 7ac0 74bd e7b6 b4bc 65ea 22bd
000001c0: aef0 4e3c d70a 8abd 2fbd 8f3c 67e4 a4bd
000001d0: 5eac e0bc 0497 cdbb bdae fa3b c6d0 da3c
000001e0: d874 1cbd 0c69 883d 27b0 95bd c18c 42bb
000001f0: de61 ecbc 92f7 dbbc f383 81bd d7a2 af3d

fcs.2.0.linear.weight f4 [128, 1]
0.7913033 -0.51630485 0.8732253 0.23126188 -0.5091861 -0.95915 -0.19423431 0.81636214
0.39291543 -0.351251 -0.6040838 0.06167349 -0.29049125 -0.6223375 -0.76310325 -0.6664003
-0.66762996 0.9734598 0.10804883 0.14518425 0.66664314 -0.85398763 0.17829892 -0.26269528
0.4424845 0.3447358 -0.6722899 -0.9037936 -0.20345113 -0.7483898 -0.2906286 0.48283622
-0.08906567 -0.0998452 0.31412715 -0.6113301 0.8510814 -0.74008197 0.36108425 0.6036136
-0.019559145 -0.40731612 0.42895934 -0.26197156 -0.9103482 0.5032742 0.69427127 0.39387107
-0.7470483 -0.6579642 0.33589298 0.51594913 0.20473625 0.74940825 0.21680772 -0.80608404
0.46571234 0.8517032 -0.6681532 -0.92341083 0.048606016 0.7020754 0.47287396 -0.6585748
0.4651911 -0.30048296 -0.16755551 -0.07693675 -0.79771286 -0.40664837 0.03712213 0.6060795
-0.58689564 0.41846868 0.18576755 -0.07299612 -0.24705839 -0.82084864 0.32759398 -0.5371719
0.9511104 0.37975386 0.37195644 0.9646072 -0.0990594 -0.38539898 0.02107174 -0.31315762
0.3348305 -0.98717666 0.14922892 -0.16304591 -0.26312688 0.57606816 -0.7659815 -0.2305862
0.7590335 0.17662585 -0.6426902 0.5971751 -0.82606715 0.6453667 -0.42128694 0.34254977
0.7473603 0.892366 0.31972453 0.43812487 -0.22945987 -0.2425084 -0.90412354 0.47653657
0.21102467 0.2980553 -0.64699686 -0.99936527 0.53016174 -0.47211087 -0.31606197 0.30142137
0.39097956 -0.9509664 -0.25500485 0.85801595 0.1764817 -0.5751532 0.79889625 -0.92289245
00000000: da92 4a3f 8e2c 04bf b18b 5f3f eacf 6c3e
00000010: 055a 02bf db8a 75bf 5ce5 46be 1cfd 503f
00000020: 362c c93e 2cd7 b3be 3ca5 1abf 579d 7c3d
00000030: 45bb 94be 8351 1fbf bc5a 43bf 3699 2abf
00000040: cce9 2abf a934 793f b448 dd3d 2eab 143e
00000050: 20a9 2a3f ef9e 5abf fe93 363e ff7f 86be
00000060: 548d e23e 3681 b03e 311b 2cbf 045f 67bf
00000070: 7e55 50be 7996 3fbf 46cd 94be 4f36 f73e
00000080: 1068 b6bd a47b ccbd 46d5 a03e 2180 1cbf
00000090: 78e0 593f 0376 3dbf 09e0 b83e 6c86 1a3f
000000a0: 803a a0bc bd8b d0be 8fa0 db3e 2321 86be
000000b0: 940c 69bf 94d6 003f c3bb 313f 78a9 c93e
000000c0: 8f3e 3fbf 5870 28bf 2afa ab3e 3e15 043f
000000d0: 61a6 513e 38d9 3f3f d802 5e3e 865b 4ebf
000000e0: d971 ee3e 3909 5a3f 170c 2bbf a764 6cbf
000000f0: 1a17 473d 37bb 333f 891c f23e 5c98 28bf
00000100: 872d ee3e e7d8 99be ac93 2bbe 0491 9dbd
00000110: e936 4cbf 3734 d0be 600d 183d 0728 1b3f
00000120: cb3e 16bf 8741 d63e d939 3e3e fd7e 95bd
00000130: e0fc 7cbe 2323 52bf 66ba a73e 1984 09bf
00000140: f97b 733f 196f c23e 1371 be3e 7ff0 763f
00000150: a8df cabd 0453 c5be a49e ac3c 3256 a0be
00000160: e76e ab3e 9cb7 7cbf 77cf 183e 82f5 26be
00000170: 91b8 86be 3479 133f 5d17 44bf ca1e 6cbe
00000180: 0550 423f 68dd 343e 5887 24bf 78e0 183f
00000190: 2379 53bf c136 253f ecb2 d7be af62 af3e
000001a0: 0153 3f3f 1972 643f efb2 a33e e751 e03e
000001b0: 87f7 6abe 1f54 78be a474 67bf 9afc f33e
000001c0: da16 583e b49a 983e 96a1 25bf 67d6 7fbf
000001d0: aeb8 073f 84b8 f1be e0d2 a1be e753 9a3e
000001e0: 792e c83e 8972 73bf ff8f 82be efa6 5b3f
000001f0: 9eb7 343e 3d3d 13bf 7784 4c3f ae42 6cbf

fcs.2.0.linear.bias f4 [128]
0.08761646 0.21179739 0.11487844 0.9092228 0.20309141 -0.65830135 -0.13238598 -0.42595825
0.82522637 0.11734813 -0.8926334 7.066007e-05 -0.004933202 0.076776825 0.25413257 0.5529362
-0.80224156 0.32171088 -0.51128775 0.65101516 -0.5600735 -0.69738746 -0.5664498 0.5711098
-0.20329227 0.87251693 -0.82240295 0.3396931 -0.3680547 0.13009228 0.6350239 0.4989963
-0.93312454 -0.13125941 0.4053258 -0.9777795 -0.7219138 -0.97822547 0.15038101 0.20218718
-0.4162146 0.38977456 0.13965213 0.4163883 0.8913931 -0.6783021 -0.7641926 0.9486464
-0.53594327 0.7188539 -0.3250499 -0.20206515 -0.44826487 0.29133394 -0.04960697 0.81415534
-0.9828963 -0.00856532 0.13106446 0.30796298 0.7748788 0.3323487 -0.8604952 0.15418744
-0.4117279 0.61834407 -0.43310136 -0.10747886 0.27341694 0.6458348 -0.4797033 0.73410356
-0.71731955 -0.22619572 -0.6333633 0.21254312 -0.8155463 -0.026443463 -0.6888147 0.62960994
-0.9016538 -0.42645878 -0.8475846 -0.61670244 0.086637035 0.46007183 0.5013092 -0.7845647
-0.16489147 -0.22556677 0.4242598 -0.08484511 -0.11478745 -0.6122693 -0.7116165 -0.059970353
0.4558371 -0.48544824 0.19726492 0.50229424 -0.37595385 0.8927877 0.9136093 0.5902274
0.41146556 -0.7805749 0.5428741 -0.13096656 0.7722452 -0.8246768 -0.05140806 0.9155011
0.21164231 0.32071447 0.01164692 -0.4569655 0.50857836 0.7860688 0.53824633 -0.6752471
-0.6642536 0.95460445 -0.118786104 0.40257263 0.2728763 -0.6461617 0.87200165 0.16260268
00000000: 4270 b33d 6ae1 583e 6345 eb3d d3c2 683f
00000010: 32f7 4f3e 7086 28bf 3190 07be 3317 dabe
00000020: 0942 533f 3754 f03d 9f83 64bf 562f 9438
00000030: b3a6 a1bb 2b3d 9d3d aa1d 823e 3a8d 0d3f
00000040: b45f 4dbf 4ab7 a43e c1e3 02bf eea8 263f
00000050: fa60 0fbf fc87 32bf db02 11bf 4034 123f
00000060: d92b 50be 455d 5f3f 0089 52bf 41ec ad3e
00000070: aa71 bcbe e936 053e ed90 223f 717c ff3e
00000080: 40e1 6ebf de68 06be dd86 cf3e c24f 7abf
00000090: 58cf 38bf fc6c 7abf 7bfd 193e 280a 4f3e
000000a0: 141a d5be 8890 c73e f800 0f3e d930 d53e
000000b0: 5732 643f 35a5 2dbf 20a2 43bf 7eda 723f
000000c0: 9433 09bf cf06 383f f16c a6be 2bea 4ebe
000000d0: f982 e5be b929 953e ae30 4bbd 7c6c 503f
000000e0: 189f 7bbf 8e55 0cbc c335 063e 53ad 9d3e
000000f0: 755e 463f 9c29 aa3e 6a49 5cbf 50e3 1d3e
00000100: 00ce d2be cc4b 1e3f 76bf ddbe e01d dcbd
00000110: 4efd 8b3e 6e55 253f ac9b f5be 36ee 3b3f
00000120: 41a2 37bf da9f 67be 1924 22bf e7a4 593e
00000130: a4c7 50bf f69f d8bc 2956 30bf 1e2e 213f
00000140: c9d2 66bf ce58 dabe 4efb 58bf 36e0 1dbf
00000150: c26e b13d 898e eb3e cd55 003f 3bd9 48bf
00000160: 4fd9 28be fafa 66be 9538 d93e 46c3 adbd
00000170: af15 ebbd aebd 1cbf 802c 36bf 79a3 75bd
00000180: 7b63 e93e ac8c f8be d1ff 493e 5b96 003f
00000190: 067d c0be bc8d 643f 4de2 693f 2519 173f
000001a0: 9dab d23e c2d3 47bf ccf9 0a3f 191c 06be
000001b0: ddb1 453f 051e 53bf 4291 52bd 485e 6a3f
000001c0: c3b8 583e b034 a43e b9d2 3e3c 62f7 e9be
000001d0: 3132 023f ce3b 493f 83ca 093f fedc 2cbf
000001e0: 860c 2abf f560 743f 2146 f3bd 001e ce3e
000001f0: 71b6 8b3e da6a 25bf 803b 5f3f 5181 263e

fcs.2.1.weight f4 [1, 128]
-0.037869092 0.07334389 0.03373166 0.026320113 -0.07076191 0.07112241 -0.05093467 -0.02924799
-0.077846736 0.014564409 -0.051318973 -0.074018024 0.05313001 -0.09005422 -0.028285693 -0.044215288
0.0030349465 0.01821512 0.07035971 0.030844035 -0.028699316 -0.058114834 -0.042852037 0.037783906
-0.0831569 0.041319314 -0.008908651 -0.051486474 0.059413284 0.03519298 -0.0079646 -0.036549296
-0.05378983 -0.025561595 -0.047301013 -0.015516837 0.029453266 -0.012062434 0.016986823 -0.026940783
-0.02425605 0.040548403 -0.0055104787 0.010636111 -0.07206492 -0.055170286 0.065433666 0.005091913
0.07976638 -0.041075855 0.045888513 0.040549394 -0.08749253 -0.044521872 0.07744718 -0.040658556
-0.09216701 0.069508284 0.07441097 0.04743531 0.056443576 -0.021095641 0.06632538 -0.048833154
0.03486454 -0.09612184 0.08886606 -0.06628486 -0.092226855 0.025039323 0.07642994 -0.06441429
0.082417764 0.016643897 0.028145298 0.00791882 -0.07548883 0.06732881 0.06080264 0.035260275
0.00023598636 0.03349639 -0.0073475405 0.028866932 -0.02160316 0.071737014 -0.029300684 -0.004566704
0.02779113 0.070028044 -0.0420262 -0.04532337 -0.085243076 0.06503684 0.07755185 0.009450605
-0.06735577 -0.08621248 0.059780665 0.012639833 0.012057982 -0.044657074 -0.0842319 -0.03677913
-0.07887485 0.061180074 0.03971013 -0.07017604 0.07903194 -0.0071962303 0.03547789 0.026914587
0.038277596 -0.0009260798 -0.01909746 -0.048198372 0.03425096 -0.0023809774 0.051418133 -0.07843691
0.027722597 0.016981617 -0.0047006775 -0.044338264 -0.03689656 0.06257699 0.068046525 0.026029369
00000000: 9f1c 1bbd 5235 963d 362a 0a3d 479d d73c
00000010: 9feb 90bd a0a8 913d dfa0 50bd 7b99 efbc
00000020: 1c6e 9fbd 8f9f 6e3c d833 52bd c396 97bd
00000030: da9e 593d 596e b8bd 66b7 e7bc 171b 35bd
00000040: f4e5 463b e037 953c c018 903d a1ac fc3c
00000050: d41a ebbc d209 6ebd 9e85 2fbd 4cc3 1a3d
00000060: 2a4e aabd 713e 293d 97f5 11bc 7be3 52bd
00000070: 585b 733d 8426 103d f47d 02bc b7b4 15bd
00000080: ba52 5cbd 8d66 d1bc b5be 41bd 553a 7ebc
00000090: fa47 f13c 84a1 45bc f327 8b3c ebb2 dcbc
000000a0: a0b4 c6bc 1516 263d 3f91 b4bb 1543 2e3c
000000b0: c696 93bd 3dfa 61bd 1602 863d 10da a63b
000000c0: 8e5c a33d 283f 28bd 98f5 3b3d 1f17 263d
000000d0: 492f b3bd 915c 36bd a19c 9e3d 9689 26bd
000000e0: 0fc2 bcbd 5c5a 8e3d c764 983d 874b 423d
000000f0: 6131 673d c4d0 acbc 9ad5 873d 4605 48bd
00000100: 1fce 0e3d 87db c4bd 69ff b53d 5bc0 87bd
00000110: 6fe1 bcbd 441f cd3c 4d87 9c3d a4eb 83bd
00000120: a5ca a83d c858 883c f890 e63c f0bd 013c
00000130: e399 9abd b0e3 893d 300c 793d 146d 103d
00000140: 1b73 7739 8333 093d a3c3 f0bb 587a ec3c
00000150: 1cf9 b0bc dbea 923d fd07 f0bc 4aa4 95bb
00000160: 39aa e33c dd6a 8f3d aa23 2cbd ffa4 39bd
00000170: ec93 aebd 0932 853d 81d3 9e3d b6d6 1a3c
00000180: d2f1 89bd 2b90 b0bd 92dc 743d 4d17 4f3c
00000190: d88e 453c 56ea 36bd c681 acbd b7a5 16bd
000001a0: 2389 a1bd f597 7a3d 17a7 223d 75b8 8fbd
000001b0: 7fdb a13d 5bce ebbb 4451 113d fb7b dc3c
000001c0: f8c8 1c3d 2ac4 72ba 4772 9cbc a86b 45bd
000001d0: bc4a 0c3d 2c0a 1cbb d29b 523d 88a3 a0bd
000001e0: 801a e33c 081d 8b3c 2408 9abb 0a9c 35bd
000001f0: d920 17bd 5d28 803d fa5b 8b3d 8b3b d53c

fcs.3.0.linear.weight f4 [128, 1]
-0.65816844 0.33364335 0.9731068 -0.9448367 0.24458916 -0.95180494 -0.9674309 -0.7506778
-0.48543614 -0.6002668 -0.5761721 0.07844834 -0.2352699 0.5901238 0.24504301 -0.39016297
-0.6708788 0.7590531 -0.019130249 0.2101277 0.46839285 -0.20427403 -0.517603 0.039626345
-0.5814987 0.49544108 0.36785376 -0.48517707 -0.33297092 0.20930327 0.14207184 0.15752923
-0.49054986 0.19462687 -0.43355402 0.20631172 0.03707604 0.049990058 -0.41484606 -0.8124578
-0.7125442 0.22705838 0.43844125 -0.23907164 0.6907134 -0.39262843 0.5275054 0.207562
0.88975245 0.74809325 -0.3018266 0.027315617 -0.7637062 0.58046246 -0.23653702 -0.79843694
-0.41852462 -0.9047615 -0.27592927 -0.3422062 -0.96490794 0.29565233 -0.7246864 0.20986617
-0.48652947 0.09378564 -0.46360043 -0.18553397 0.07751159 0.42485055 0.32988888 0.7701415
0.9171667 -0.9552196 -0.23786184 0.44746768 -0.3803859 -0.2947172 -0.64317054 0.18262947
-0.28496855 -0.14188644 0.52450395 0.7101667 -0.6666698 -0.8389843 0.41181943 -0.69707286
-0.10603635 0.15325673 -0.99915314 0.78997934 0.28913915 0.11704529 0.077244155 -0.8324063
0.52934057 -0.3559097 -0.68123955 -0.046823658 0.7840603 -0.7181039 -0.18577762 0.3850252
-0.8021791 0.8314243 0.040003896 -0.004979727 0.3054622 -0.06932819 0.5041203 0.6846894
-0.9943749 0.8594984 0.9646672 -0.18559338 0.23284908 0.6186698 0.9581381 0.32490063
0.52942246 -0.7080782 -0.96462893 0.3171201 0.2614688 -0.28654158 -0.66394955 -0.23363727
00000000: ba7d 28bf 4dd3 aa3e 871d 793f d1e0 71bf
00000010: 9575 7a3e 7da9 73bf 8da9 77bf 6c2c 40bf
00000020: 168b f8be 16ab 19bf 0480 13bf 86a9 a03d
00000030: 98ea 70be 5a12 173f 8eec 7a3e 71c3 c7be
00000040: b7be 2bbf 4e51 423f 0ab7 9cbc b72b 573e
00000050: 30d1 ef3e 362d 51be a181 04bf 3c4f 223d
00000060: 19dd 14bf 74aa fd3e 5457 bc3e 2169 f8be
00000070: 2a7b aabe 9953 563e 487b 113e 584f 213e
00000080: 5a29 fbbe 444c 473e cbfa ddbe 6143 533e
00000090: 0cdd 173d 60c2 4c3d b466 d4be 3cfd 4fbf
000000a0: 4c69 36bf fe81 683e 5f7b e03e 32cf 74be
000000b0: 98d2 303f 9806 c9be 980a 073f 228b 543e
000000c0: d1c6 633f 0a83 3f3f 0489 9abe 00c5 df3c
000000d0: 4082 43bf 3099 143f c336 72be 5d66 4cbf
000000e0: dc48 d6be 739e 67bf 9a46 8dbe a735 afbe
000000f0: 3504 77bf be5f 973e 0c85 39bf 28e7 563e
00000100: 641a f9be b012 c03d 095d edbe 9efc 3dbe
00000110: 66be 9e3d 0386 d93e 32e7 a83e fe27 453f
00000120: 70cb 6a3f 4689 74bf 0e92 73be 7c1a e53e
00000130: f1c1 c2be 2ce5 96be d3a6 24bf 3803 3b3e
00000140: 66e7 91be ae4a 11be e445 063f 7ccd 353f
00000150: dfaa 2abf adc7 56bf ffd9 d23e 5e73 32bf
00000160: 9629 d9bd 55ef 1c3e 80c8 7fbf 163c 4a3f
00000170: 0c0a 943e 71b5 ef3d 2f32 9e3d 9418 55bf
00000180: dd82 073f cc39 b6be b765 2ebf 2aca 3fbd
00000190: 2db8 483f a8d5 37bf 7d3c 3ebe 0622 c53e
000001a0: 9c5b 4dbf 39d8 543f 20db 233d fa2c a3bb
000001b0: 8b65 9c3e f0fb 8dbd 070e 013f ce47 2f3f
000001c0: 5a8f 7ebf 1608 5c3f 6ef4 763f 310c 3ebe
000001d0: fd6f 6e3e 2561 1e3f 8a48 753f 6059 a63e
000001e0: 3b88 073f 9d44 35bf ecf1 76bf 915d a23e
000001f0: 3ddf 853e 94b5 92be 99f8 29bf 9c3e 6fbe

fcs.3.0.linear.bias f4 [128]
-0.5881205 -0.51036954 0.2646116 -0.061672676 -0.034879245 -0.20288627 -0.60772794 0.96012086
0.5980419 -0.30587736 0.26555634 0.8195903 -0.59997123 -0.49485803 -0.7503786 -0.5203879
-0.011315552 0.5229959 0.90857106 0.8345071 0.56569624 0.63633025 -0.25966838 0.7567103
-0.17802402 -0.16538258 0.17612046 0.22010307 -0.7373315 -0.018723281 -0.95165086 -0.74366546
0.28591654 0.8258667 0.16907384 -0.7048181 0.6076106 -0.7674906 0.23262936 0.17266637
0.9435823 0.07339275 -0.65015507 0.78315073 0.21066026 -0.37026674 -0.97851515 -0.43244916
0.7216308 0.6361972 -0.049786333 -0.4410138 -0.14588724 0.8113888 0.63660496 -0.098271675
0.36537942 -0.013066586 0.3865329 0.32774067 0.69037914 -0.7996124 0.052438617 -0.08080009
-0.20156142 -0.63862383 0.33264926 0.5638607 -0.06849624 -0.438 -0.29169905 -0.15494242
0.12264308 0.8709151 -0.012379594 -0.012514006 -0.61140156 0.6491858 0.19873142 0.9092295
-0.39409405 0.12820716 0.29637113 0.80373836 0.38675404 0.54332584 -0.032542743 -0.48303792
0.22500543 0.5219202 -0.6802282 -0.17013982 -0.72449964 -0.42046505 -0.43637866 0.06813945
0.5219558 0.43677515 0.7200807 0.6010311 -0.044149905 -0.760193 0.084684186 -0.63459826
0.739747 -0.96833223 -0.3241712 0.045940198 -0.6005583 -0.7121912 -0.278599 -0.8738222
0.22096725 -0.7074706 0.5213602 -0.6978309 -0.8123995 0.3119017 -0.91834587 0.9790302
0.61509365 -0.5637408 0.49558562 0.96973246 -0.65552354 0.6561332 0.27284324 -0.8484566
00000000: 118f 16bf 94a7 02bf 2c7b 873e 7d9c 7cbd
00000010: 8add 0ebd 6bc1 4fbe 0f94 1bbf 7bca 753f
00000020: 4619 193f f59b 9cbe 00f7 873e abd0 513f
00000030: b797 19bf 085e fdbe d018 40bf 2438 05bf
00000040: dd64 39bc 0fe3 053f 1d98 683f 42a2 553f
00000050: 78d1 103f 8ae6 223f 41f3 84be c4b7 413f
00000060: ee4b 36be 0d5a 29be ec58 343e b362 613e
00000070: c2c1 3cbf 9161 99bc 649f 73bf dc60 3ebf
00000080: a763 923e 006c 533f b121 2d3e f66e 34bf
00000090: 5e8c 1b3f 447a 44bf 6436 6e3e 74cf 303e
000000a0: 9c8e 713f f04e 963d 9070 26bf 917c 483f
000000b0: 53b7 573e 9a93 bdbe f87f 7abf fa69 ddbe
000000c0: ccbc 383f d2dd 223f c1ec 4bbd 90cc e1be
000000d0: 7763 15be 2db7 4f3f 8bf8 223f a942 c9bd
000000e0: 0313 bb3e 3c15 56bc a4e7 c53e a0cd a73e
000000f0: b0bc 303f 66b3 4cbf e0c9 563d 857a a5bd
00000100: 1e66 4ebe da7c 23bf 0151 aa3e 2d59 103f
00000110: c247 8cbd 8941 e0be 9459 95be 3aa9 1ebe
00000120: 4c2c fb3d 4bf4 5e3f c8d3 4abc 8c07 4dbc
00000130: d084 1cbf 0a31 263f 4080 4b3e 44c3 683f
00000140: b2c6 c9be bd48 033e f5bd 973e ccc1 4d3f
00000150: a004 c63e 6717 0b3f 8a4b 05bd bf50 f7be
00000160: d367 663e 909c 053f 6f23 2ebf 2239 2ebe
00000170: cf78 39bf 3247 d7be 066d dfbe b28c 8b3d
00000180: e59e 053f fea0 df3e 3557 383f 2ddd 193f
00000190: 88d6 34bd 029c 42bf e76e ad3d 0875 22bf
000001a0: 0f60 3d3f 9fe4 77bf c4f9 a5be ca2b 3c3d
000001b0: 30be 19bf 2a52 36bf 87a4 8ebe d0b2 5fbf
000001c0: 3d45 623e cb1c 35bf dd77 053f 0ca5 32bf
000001d0: 6af9 4fbf 94b1 9f3e b718 6bbf b9a1 7a3f
000001e0: c776 1d3f 5151 10bf 66bd fd3e 6340 783f
000001f0: 64d0 27bf 58f8 273f 1cb2 8b3e 7434 59bf

fcs.3.1.weight f4 [1, 128]
-0.008525173 -0.022665627 -0.059561994 -0.013665763 0.049883515 0.07436425 0.020458844 -0.026005182
-0.08007167 -0.050347865 0.0012981171 0.0064822477 0.053204972 -0.0134818265 -0.10215833 -0.040566973
-0.013950898 0.06320421 0.028991988 -0.0010552227 -0.07592217 -0.065182805 0.014578482 -0.05449498
0.08645246 -0.09016665 -0.0438726 -0.07808585 0.09111954 0.0754268 0.044452287 -0.06646854
-0.06979648 -0.08021349 0.05046115 -0.0070630424 0.05425963 0.03123901 0.080191486 0.09417044
0.056292184 0.020494865 -0.06968074 -0.078745425 0.079903275 0.03635418 0.067833096 -0.060634863
-0.009114503 -0.06675685 0.04132303 0.069491945 0.09120623 0.012701483 -0.023771262 0.06710824
0.046061262 0.05865833 -0.036432944 0.014699862 -0.01727624 -0.039701056 -0.024411764 0.017737623
0.039436392 0.014555804 -0.0040329704 -0.06412772 -0.034965094 0.065913446 -0.06629359 -0.08499659
-0.02115884 0.0343332 -0.058171567 0.027252205 -0.032394648 -0.03207392 -0.046864998 0.002975119
-0.056397375 -0.013767079 -0.03864572 0.07784877 -0.038507167 0.025167225 -0.05315995 0.05399243
-0.073687464 -0.03540956 0.052879356 0.068587355 0.013879789 -0.07662313 0.004230128 0.004575427
0.06954877 -0.02022609 -0.055203855 0.06346965 0.031475335 -0.028838327 0.077716306 0.036452405
-0.07663102 0.050430525 -0.04124127 -0.012489477 0.03975112 0.006958097 0.08028504 -0.086394995
0.04518169 0.006528006 -0.02123515 -0.011103742 0.013582517 0.06585958 -0.092328966 0.040071264
-0.05837835 0.011825022 -0.04439694 0.012466131 -0.10194877 0.044943515 -0.05619137 0.07516972
00000000: 2bad 0bbc 44ad b9bc 47f7 73bd 5de6 5fbc
00000010: a852 4c3d 494c 983d 4e99 a73c d208 d5bc
00000020: 9efc a3bd 9039 4ebd 9525 aa3a 0969 d43b
00000030: 75ed 593d e1e2 5cbc 6338 d1bd 8e29 26bd
00000040: 4f92 64bc 3571 813d 9b80 ed3c 664f 8aba
00000050: 157d 9bbd 907e 85bd 96da 6e3c 2136 5fbd
00000060: fd0d b13d 4ba9 b8bd c1b3 33bd 79eb 9fbd
00000070: e29c ba3d 5e79 9a3d 9a13 363d a820 88bd
00000080: 75f1 8ebd f846 a4bd 5ab0 4e3d 1871 e7bb
00000090: 593f 5e3d f4e8 ff3c 6f3b a43d 6fdc c03d
000000a0: a292 663d d9e4 a73c c7b4 8ebd 4845 a1bd
000000b0: 54a4 a33d 1fe8 143d 14ec 8a3d 435c 78bd
000000c0: ff54 15bc d1b7 88bd 5642 293d cb51 8e3d
000000d0: 55ca ba3d e219 503c f3bb c2bc 0c70 893d
000000e0: bcaa 3c3d b843 703d b63a 15bd b1d7 703c
000000f0: e786 8dbc 939d 22bd 2efb c7bc 7e4e 913c
00000100: 0e88 213d 787b 6e3c 0227 84bb 6555 83bd
00000110: 8f37 0fbd a1fd 863d efc4 87bd b112 aebd
00000120: 4e55 adbc f8a0 0c3d 4f45 6ebd 0440 df3c
00000130: 40b0 04bd f15f 03bd 83f5 3fbd 37fa 423b
00000140: ef00 67bd 518f 61bc f94a 1ebd 2d6f 9f3d
00000150: b1b9 1dbd 7f2b ce3c 3fbe 59bd 2b27 5d3d
00000160: 74e9 96bd 9d09 11bd 0698 583d 8777 8c3d
00000170: 0e68 633c 96ec 9cbd e39c 8a3b 77ed 953b
00000180: 966f 8e3d 2fb1 a5bc 701d 62bd 60fc 813d
00000190: 48ec 003d 5b3e ecbc ba29 9f3d 1e4f 153d
000001a0: b9f0 9cbd 3d90 4e3d 9bec 28bd aaa0 4cbc
000001b0: 12d2 223d c000 e43b 7c6c a43d dcef b0bd
000001c0: 7010 393d e2e8 d53b 56f5 adbc 78ec 35bc
000001d0: 3589 5e3c 63e1 863d f816 bdbd c421 243d
000001e0: 231e 6fbd bdbd 413c 91d9 35bd be3e 4c3c
000001f0: 84ca d0bd b116 383d ec28 66bd 95f2 993d

fcs.4.0.linear.weight f4 [128, 1]
0.7435054 0.60816085 -0.9975266 -0.85862833 -0.45410335 -0.6861145 -0.99439806 -0.008225679
-0.6408274 0.35839617 -0.88613564 -0.58492804 0.42455363 0.36304015 0.7696882 -0.83473486
-0.7698773 -0.41292077 0.1403341 -0.34242642 0.28052777 0.7498135 0.26024985 0.7441442
0.24860074 0.4206872 -0.81125057 -0.18391208 0.81285274 -0.38771835 -0.35781887 -0.4324993
0.34792173 0.89821064 0.4125352 0.8978292 0.71099377 -0.13691723 -0.3414747 -0.33550605
0.41939297 0.6713618 -0.95605737 -0.47682923 -0.96380776 -0.59904283 0.7982496 0.89850974
-0.6454505 -0.5049544 0.32277378 0.38168573 0.101147726 -0.17196184 -0.50683886 -0.90589553
-0.2789753 -0.8097776 0.8745413 0.86950403 -0.7178948 0.42780986 0.7363624 0.82742554
0.8089012 -0.7094053 0.7876719 0.94311553 0.06437528 0.47942808 -0.39095157 0.99311626
-0.90307784 -0.6110625 0.16812298 -0.4375521 -0.36942914 0.35119382 0.56873435 0.66318804
0.86146843 0.50114733 -0.4358963 0.3642327 -0.603528 0.5919172 0.42285848 0.8590804
0.5705863 0.9068788 -0.19684632 -0.8596824 0.7913032 -0.90154546 0.13367271 0.15819424
0.16670392 0.6935959 0.2176503 -0.35269734 -0.06271279 -0.98804283 -0.6739953 -0.0544305
0.9193647 -0.2567047 0.53491044 -0.64522517 -0.7900309 0.47020397 0.57266533 -0.054965973
0.7488175 0.39262626 0.5027722 0.21516028 0.9941177 -0.77515715 -0.19619223 -0.65205175
-0.60791886 0.1984249 -0.10954683 -0.093871504 0.40129805 0.91388655 -0.9115337 -0.31609467
00000000: 5f56 3e3f 6eb0 1b3f e75d 7fbf 11cf 5bbf
00000010: 3c80 e8be 33a5 2fbf df90 7ebf 00c5 06bc
00000020: 440d 24bf b47f b73e c9d9 62bf d8bd 15bf
00000030: 185f d93e 66e0 b93e 490a 453f 2fb1 55bf
00000040: ae16 45bf 5a6a d3be beb3 0f3e 8452 afbe
00000050: 56a1 8f3e c7f3 3f3f 783f 853e 3c80 3e3f
00000060: 3191 7e3e 5064 d73e 1eae 4fbf 7353 3cbe
00000070: 1e17 503f 0583 c6be 0934 b7be 8c70 ddbe
00000080: cc22 b23e 22f1 653f d037 d33e 22d8 653f
00000090: b003 363f 0834 0cbe c6d5 aebe 73c7 abbe
000000a0: adba d63e 5ede 2b3f 2dc0 74bf f622 f4be
000000b0: 1bbc 76bf df5a 19bf 165a 4c3f bc04 663f
000000c0: 3e3c 25bf b144 01bf 9b42 a53e 506c c33e
000000d0: 8a26 cf3d c416 30be 31c0 01bf c5e8 67bf
000000e0: dad5 8ebe 964d 4fbf f0e1 5f3f d197 5e3f
000000f0: f4c7 37bf e509 db3e 3f82 3c3f 29d2 533f
00000100: 2614 4f3f 969b 35bf dea4 493f 0570 713f
00000110: 30d7 833d 9977 f53e ce2a c8be de3c 7e3f
00000120: 1c30 67bf 986e 1cbf 6e28 2c3e d406 e0be
00000130: d125 bdbe adcf b33e 9398 113f b1c6 293f
00000140: 3289 5c3f 314b 003f cd2d dfbe b57c ba3e
00000150: d080 1abf e387 173f e880 d83e b1ec 5b3f
00000160: f211 123f 3629 683f 1592 49be 2514 5cbf
00000170: d992 4a3f afcb 66bf 80e1 083e acfd 213e
00000180: 6fb4 2a3e 808f 313f b8df 5e3e bf94 b4be
00000190: 906f 80bd 60f0 7cbf f58a 2cbf 84f2 5ebd
000001a0: 7c5b 6b3f cc6e 83be e4ef 083f 7a2d 25bf
000001b0: 773f 4abf 93be f03e 329a 123f 0024 61bd
000001c0: 81b2 3f3f 4f06 c93e aeb5 003f fa52 5c3e
000001d0: 7f7e 7e3f b370 46bf 9ee6 48be ddec 26bf
000001e0: 92a0 1bbf e62f 4b3e 175a e0bd b43f c0bd
000001f0: f076 cd3e 78f4 693f 465a 69bf 29d7 a1be

fcs.4.0.linear.bias f4 [128]
-0.11417962 0.5518791 -0.43900532 -0.9458367 -0.3766044 -0.5275134 -0.9657658 -0.70818794
-0.37695864 0.33216316 -0.53373206 -0.32913247 -0.8298967 -0.5720406 -0.15365377 -0.43394062
-0.0637823 0.30701017 0.15038058 -0.5628376 -0.020435601 0.062599055 0.059228957 0.38610122
-0.26218367 -0.8799838 -0.31019992 -0.27029043 -0.9645391 0.06400367 -0.35468957 0.7077766
0.69182235 0.7006453 -0.43923867 0.045684826 0.93470913 -0.89347196 0.3720353 -0.41860574
-0.39935923 0.57039857 -0.035276745 -0.23119642 0.5770857 -0.2957766 0.8262843 0.042873457
0.42430297 0.88471705 -0.39841413 0.53262097 0.18301438 -0.8668564 0.9967339 0.64305073
0.044298034 0.39237112 -0.32583025 -0.100680225 -0.04842636 0.26093733 0.21654633 0.9320933
0.8045026 0.54428977 -0.3946623 -0.51723826 -0.8158015 0.43655297 0.7841058 0.26308167
0.77651364 -0.72582936 -0.9753981 0.35428628 -0.5015519 0.800636 -0.051871486 0.15507738
0.34392267 -0.8076229 -0.18578368 0.6723954 -0.3489556 0.25411487 -0.54332566 0.18857573
-0.51564187 -0.24813989 0.553136 -0.0066750627 0.59075975 0.5940785 0.805415 -0.2814674
0.22105652 0.22052123 -0.57780755 0.504348 -0.61631227 -0.8403123 0.9246834 0.1405714
0.6849329 0.8519902 -0.8282295 -0.79976994 0.20976724 0.1660664 -0.08128827 -0.6015458
0.21604908 0.5348906 -0.67827505 0.6566494 -0.07786754 0.85824615 -0.029370356 0.2599053
-0.50535196 -0.30359635 0.15646783 0.1559435 0.70503044 -0.5787233 0.20878601 -0.5287881
00000000: 01d7 e9bd f347 0d3f 4ec5 e0be 5b22 72bf
00000010: 4bd2 c0be 1e0b 07bf 6d3c 77bf ce4b 35bf
00000020: b900 c1be 4a11 aa3e aaa2 08bf 0d84 a8be
00000030: 1c74 54bf 4171 12bf 6a57 1dbe 772d debe
00000040: 4ba0 82bd 7030 9d3e 5efd 193e 2016 10bf
00000050: 9068 a7bc ef33 803d 109a 723d 0faf c53e
00000060: f03c 86be 9e46 61bf 86d2 9ebe 8263 8abe
00000070: 09ec 76bf 5b14 833d df99 b5be d930 353f
00000080: 451b 313f 7e5d 333f e4e3 e0be 0320 3b3d
00000090: 1949 6f3f 94ba 64bf 697b be3e 7e53 d6be
000000a0: d078 ccbe a405 123f 597e 10bd c1be 6cbe
000000b0: e3bb 133f 0870 97be 5e87 533f 149c 2f3d
000000c0: 3d3e d93e d17c 623f f0fc cbbe d959 083f
000000d0: 1f68 3b3e 4dea 5dbf f429 7f3f f99e 243f
000000e0: db71 353d dee4 c83e 39d3 a6be 6f31 cebd
000000f0: b85a 46bd 9499 853e 52be 5d3e ab9d 6e3f
00000100: e2f3 4d3f 9356 0b3f 2d11 cabe ba69 04bf
00000110: 5ed8 50bf df83 df3e 28bb 483f a4b2 863e
00000120: 99c9 463f f4cf 39bf b1b3 79bf 0365 b53e
00000130: b565 00bf 7bf6 4c3f 3277 54bd 9bcc 1e3e
00000140: a216 b03e 60c0 4ebf 143e 3ebe 1b22 2c3f
00000150: 4faa b2be 581b 823e 6417 0bbf ff19 413e
00000160: 1b01 04bf 6218 7ebe 529a 0d3f 7cba dabb
00000170: 083c 173f 8715 183f ad2f 4e3f 7f1c 90be
00000180: a45c 623e 51d0 613e 32eb 13bf f31c 013f
00000190: a4c6 1dbf b51e 57bf 0db8 6c3f f3f1 0f3e
000001a0: c357 2f3f 081c 5a3f d906 54bf b9bd 4cbf
000001b0: 39cd 563e 4f0d 2a3e 777a a6bd e8fe 19bf
000001c0: f83b 5d3e 97ee 083f 6fa3 2dbf 2d1a 283f
000001d0: 0479 9fbd 05b6 5b3f 1a9a f0bc 4f12 853e
000001e0: bf5e 01bf fb70 9bbe 1a39 203e a7af 1f3e
000001f0: e07c 343f 3627 14bf 00cc 553e a85e 07bf

fcs.4.1.weight f4 [1, 128]
-0.013790347 -0.04921943 0.07186988 0.07000126 -0.06677917 -0.059085287 0.038935047 -0.06605127
-0.031488944 -0.07860931 -0.055892166 0.071093574 -0.066280454 0.04687088 0.027323702 -0.054498807
-0.01873153 -0.0083511565 0.06791808 -0.063979894 0.072886325 -0.078953296 -0.058859162 -0.05129332
0.02595074 -0.07768314 -0.0652396 0.049066167 -0.07056317 -0.061924905 0.08869782 0.044854864
-0.054521427 0.027563682 0.010819294 0.0520615 0.056261927 0.08714353 0.018532943 0.028553307
-0.0123368185 0.028324334 -0.0219517 0.07850612 0.080806196 -0.0055447263 0.028799955 -0.06218295
-0.07047752 -0.06699228 -0.02239 0.059577856 0.003702409 -0.057704177 0.018032553 0.048843786
-0.07413272 -0.084121205 -0.039578833 0.025360137 0.027995862 -0.041378353 0.021855354 -0.0056730695
0.0016017517 0.07723365 0.033796713 -0.003363708 0.013739623 -0.037277192 0.058098864 0.00060721865
0.036602437 -0.017489271 0.02169642 0.029813014 0.059256796 -0.0047308626 -0.03924134 0.031804014
0.074024156 -0.038019266 -0.0052356897 0.017626226 0.05313507 0.03153105 -0.029312313 0.031895515
-0.033845562 -0.026940422 0.06806349 -0.07007701 -0.07188211 -0.007055024 -0.077717446 -0.01971403
0.05995637 -0.00586455 -0.015734592 0.06856854 -0.05695176 0.07052503 0.0569495 0.021708354
0.06305051 -0.06624035 0.0043561445 -5.476607e-06 -0.04400668 0.027225966 -0.083103366 0.07285207
-0.07852398 0.094949774 0.017743135 0.06989627 -0.04541418 -0.052328777 0.016547246 -0.06105285
-0.04961338 -0.09531313 0.045610953 -0.009057453 0.07339578 0.073568076 0.02423515 0.05128225
00000000: e8f0 61bc 509a 49bd 8430 933d d25c 8f3d
00000010: 84c3 88bd 6a03 72bd 5b7a 1f3d e345 87bd
00000020: 8dfa 00bd ebfd a0bd 2fef 64bd 8299 913d
00000030: 0cbe 87bd aefb 3f3d f5d5 df3c 243a 5fbd
00000040: de72 99bc 4ad3 08bc a218 8b3d e407 83bd
00000050: 6d45 953d 44b2 a1bd 4e16 71bd f218 52bd
00000060: a596 d43c 5718 9fbd 579c 85bd 9bf9 483d
00000070: 6c83 90bd f8a4 7dbd 34a7 b53d bcb9 373d
00000080: dc51 5fbd 3bcd e13c 6843 313c 703e 553d
00000090: e872 663d 4f78 b23d 66d2 973c a0e8 e93c
000000a0: 5e20 4abc 6f08 e83c 0dd4 b3bc d1c7 a03d
000000b0: b87d a53d 89b0 b5bb e2ed eb3c 8db3 7ebd
000000c0: 8556 90bd 4033 89bd 3c6b b7bc e907 743d
000000d0: 1ea4 723b 375b 6cbd 01b9 933c 6c10 483d
000000e0: e5d2 97bd bd47 acbd 6a1d 22bd 10c0 cf3c
000000f0: 9457 e53c 597c 29bd 000a b33c 28e5 b9bb
00000100: def1 d13a ad2c 9e3d 6c6e 0a3d a871 5cbb
00000110: 281c 613c f8af 18bd 13f9 6d3d c12d 1f3a
00000120: 70ec 153d a945 8fbc b1bc b13c 6c3a f43c
00000130: 41b7 723d 5a05 9bbb 87bb 20bd ed44 023d
00000140: fa99 973d 17ba 1bbd 2690 abbb e064 903c
00000150: 29a4 593d b426 013d 6020 f0bc dfa4 023d
00000160: a5a1 0abd 29b2 dcbc df64 8b3d 8984 8fbd
00000170: ed36 93bd d52d e7bb 532a 9fbd 517f a1bc
00000180: d094 753d 692b c0bb d5e5 80bc aa6d 8c3d
00000190: 4046 69bd 6d6f 903d e143 693d b8d5 b13c
000001a0: a020 813d 05a9 87bd fdbd 8e3b b2c3 b7b6
000001b0: 5940 34bd fd08 df3c 1932 aabd 7733 953d
000001c0: 2ed1 a0bd 0775 c23d 0d5a 913c c725 8f3d
000001d0: 3804 3abd b356 56bd 178e 873c 8e12 7abd
000001e0: 6637 4bbd 8833 c3bd 8dd2 3a3d b665 14bc
000001f0: 8750 963d dcaa 963d cb88 c63c 560d 523d

fcs.5.0.linear.weight f4 [128, 1]
0.278522 -0.1172781 -0.96071917 0.17751166 -0.9803354 -0.96855074 -0.71302205 -0.41125622
-0.87588686 0.26012334 -0.86164355 0.16902465 -0.69284767 0.50859666 0.6047637 0.06264384
-0.9863092 0.54508305 0.46864796 -0.9353024 0.314296 -0.86773765 -0.7813006 -0.17223665
-0.5934817 -0.40746662 0.66277975 -0.30251634 0.21284889 -0.8449846 0.034649253 0.3567718
-0.89871484 -0.4141201 -0.22159106 -0.8908874 -0.39102006 0.83498234 0.9448692 0.97420627
0.98704016 0.88200414 -0.7651729 0.412197 -0.8740458 0.583478 -0.22716883 0.834667
-0.04407358 -0.2213236 0.6070853 0.87409484 0.34287763 0.14177915 0.52979815 -0.7037986
-0.039286494 -0.056317735 -0.69917506 0.3097642 0.12123579 -0.22193818 0.088219844 -0.8959312
0.76679116 -0.24333432 0.6707947 -0.80746514 0.17550969 -0.49700844 -0.9416487 0.87503135
0.28766564 -0.35512763 0.51531035 -0.8053174 0.89671654 -0.68360406 -0.1660607 0.33166644
-0.9704016 0.58632684 0.049230814 -0.32247558 0.4473384 -0.52739793 -0.22469437 -0.61058414
-0.2449466 -0.42802927 -0.4069369 0.36124218 0.3675851 -0.8311796 0.0046311617 0.69500846
-0.44910604 0.32727256 -0.72239745 0.86023104 0.24200647 -0.43929917 0.7150176 0.0018668515
0.3145456 -0.5682782 0.028755432 -0.58323264 0.6943639 0.6701848 -0.4951998 -0.044175744
0.21252932 0.3526703 -0.52424586 0.088356264 0.4858162 -0.94730735 -0.17449528 0.3173975
0.6645654 -0.22929537 -0.61190593 0.17623691 0.14875251 0.9608965 0.6898544 -0.10135665
00000000: 709a 8e3e 802f f0bd b1f1 75bf 9ec5 353e
00000010: 43f7 7abf f1f2 77bf 9d88 36bf 2d90 d2be
00000020: 1f3a 60bf e32e 853e ac94 5cbf cc14 2d3e
00000030: 775e 31bf 6433 023f cbd1 1a3f 6a4b 803d
00000040: c27e 7cbf 908a 0b3f a0f2 ef3e fa6f 6fbf
00000050: 68eb a03e 0e24 5ebf 5103 48bf ce5e 30be
00000060: 6bee 17bf 779f d0be efab 293f 6ce3 9abe
00000070: 0ff5 593e e950 58bf 60ec 0d3d cbaa b63e
00000080: 2d12 66bf 8d07 d4be c4e8 62be 3211 64bf
00000090: c833 c8be 67c1 553f f3e2 713f 9565 793f
000000a0: aaae 7c3f 06cb 613f 5fe2 43bf 7c0b d33e
000000b0: 77c1 5fbf d05e 153f f29e 68be bdac 553f
000000c0: 8086 34bd a7a2 62be f169 1b3f aec4 5f3f
000000d0: a88d af3e 8e2e 113e daa0 073f 252c 34bf
000000e0: e0ea 20bd 6dad 66bd 23fd 32bf 6a99 9e3e
000000f0: 784a f83d c343 63be 9bac b43d bf5b 65bf
00000100: 6d4c 443f a22c 79be 34b9 2b3f 09b6 4ebf
00000110: d0b8 333e e477 febe e40f 71bf 0e02 603f
00000120: e948 933e 4ad3 b5be 61eb 033f 4829 4ebf
00000130: 378f 653f ad00 2fbf d10b 2abe 2fd0 a93e
00000140: 3d6c 78bf 8419 163f 40a6 493d 851b a5be
00000150: 8a09 e53e 8d03 07bf 4816 66be 3e4f 1cbf
00000160: 48d3 7abe a726 dbbe 095a d0be bcf4 b83e
00000170: 1d34 bc3e 30c8 54bf 00c1 973b 13ec 313f
00000180: 3af1 e5be 4590 a73e 0aef 38bf 1a38 5c3f
00000190: 8bd0 773e d2eb e0be 650b 373f 24b1 f43a
000001a0: 1f0c a13e ae7a 11bf 8390 eb3c bc4e 15bf
000001b0: d5c1 313f 3b91 2b3f d48a fdbe a0f1 34bd
000001c0: 49a1 593e 3491 b43e fa34 06bf 21f4 b43d
000001d0: e7bc f83e bc82 72bf e4ae 32be ed81 a23e
000001e0: f520 2a3f 68cc 6abe dea5 1cbf 7377 343e
000001f0: 9452 183e 50fd 753f 4c9a 303f 1394 cfbd
